kaggle_playground_smoking_prob/_model.pth (torch, 94435 bytes, 72 tensors)

model.0.weight f8 [20, 22]
0	0xbfcfccfa8512d475	-0.24844295022709031
1	0x3fc2b632585da907	0.14618520083178785
2	0xbfa73930e4a8c157	-0.04535820761919023
3	0x3f9e17bffec34081	0.02938747398803843
4	0xbfb279009ff342dd	-0.0721588507178796
5	0x3fae85c51c987e7d	0.05961433385914192
6	0x3fc2514d29ce1126	0.14310612241036685
7	0xbfa34379f8e51942	-0.037624179489784484
8	0x3fb647412c0f1cf9	0.08702475858364157
9	0xbfc4a376b2ab27ce	-0.16123851512958115
10	0xbfae54d350e4fcc5	-0.059240916848005955
11	0x3fcae879eb22801e	0.21021961194219413
12	0x3f9d354b4236714d	0.028523612896252094
13	0x3f816504887dd1e3	0.008493457236661455
14	0x3fbd47b5b4f13c35	0.11437545459305982
15	0x3fb853ed3f0bd1d1	0.09503062047207968
16	0x3fae90686e111583	0.05969549506748264
17	0xbfb6a0f66896e714	-0.08839359334424685
18	0x3f958298899fef72	0.021005996131847345
19	0x3fbc48ce168036a7	0.11048591660820738
20	0xc003cfccf6a78185	-2.476465155588985
21	0xbfb14610b47ca3f1	-0.06747536093156704
22	0xbf9e569e89246393	-0.029627301331035815
23	0x3fd3e6e4cbd618b7	0.3109676352108965
24	0x3f7a98624441fa73	0.006492980817823668
25	0xbfc724259cb1927f	-0.18079061652237624
26	0x3fd691b8412ed3cf	0.35264402738112904
27	0xbfded5d336aa1d7a	-0.48180084551173474
28	0x3fc05f762ba7064a	0.12791325694529326
29	0xbfd5406667c31bfc	-0.3320556653310971
30	0x3fc962a2e3d730e7	0.19832264065769964
31	0x3fb0682568abc0e9	0.06408914380495258
32	0xbfd27bbd0c678d95	-0.2888023968827949
33	0x3fe5abfe95549546	0.6772454182252339
34	0xbfb8ece90ef570f5	-0.09736496558383918
35	0xbfc3b20a07dd32bd	-0.1538708246611317
36	0x3fe3003e0f913787	0.5937795929000779
37	0xbfe1b234de801920	-0.5530037255964864
38	0xbfe1d1d45fd56eef	-0.5568639632942601
39	0xbfe718a0fac59187	-0.7217564485440996
40	0x3fa3d3b533cbb895	0.03872457749626893
41	0xbfaaaee2dcd35ac3	-0.05211552568078084
42	0x3fc15897e3be1afa	0.13551615352863405
43	0xbfced1e6143e3cae	-0.24078060139115592
44	0x3fe6d92827e42afa	0.7140084056021287
45	0x3fccb25b118a350b	0.22419298511923844
46	0xbfb423c14cf35c1f	-0.07867057923009256
47	0x3fd78f25b520e508	0.3681120175202328
48	0x3fc4bc8ea30923e5	0.162004308326032
49	0x3fa3d4362a317815	0.03872842087797338
50	0xbfcb154208eafb24	-0.21158624110645363
51	0x3fc8c7cfb509d1ce	0.19359775867236667
52	0x3fced21488b4c625	0.24078613925080208
53	0x3fce3f03db6f7031	0.23629806723227056
54	0xbfccc638c7453d3a	-0.22479924898150633
55	0x3fb37963abeefcdc	0.0760710043677934
56	0xbfd9bf96ffc98ee3	-0.40231871585113604
57	0x3faddd63e9bdf513	0.058329698832475206
58	0x3fc1acfbef03018c	0.13809155626769287
59	0x3fd25df3af43399f	0.28698436847198566
60	0x3fc3df4126a4cc61	0.15525068652059118
61	0x3fd067fb48a0b3b6	0.2563465317969603
62	0xbfc0a05108b9bc3b	-0.1298924725155944
63	0xbf99dddfbdf7e071	-0.025260444612257908
64	0xbff5d33f942e6fbd	-1.3640743053756375
65	0xbfd1ff83bbaed68b	-0.2812203724709909
66	0x3fb2d9efed38adf5	0.07363795796907609
67	0xbfc4cf56952726cc	-0.16257746012552443
68	0x3fb96da0cf0088da	0.099329042947406
69	0x3f920f0c14af8676	0.017635525476981738
70	0xbfbb842f34f9d9da	-0.10748572390898606
71	0x3fb4ea554757219e	0.08170063964565208
72	0xbfb07b52056fff4c	-0.06438171990157321
73	0xbfb2513ac8b9325e	-0.07155196571802366
74	0xbfb85354f76117f7	-0.09502154387982374
75	0xbf825999e318c8cc	-0.008959963076538811
76	0xbf94238b66bcf8df	-0.019666841645851526
77	0xbfb9363e5e3f25a5	-0.09848394204086348
78	0xbffccde0b036ca1d	-1.8002631076202598
79	0x3fb33bdbf41db94d	0.07513212880960403
80	0x3fc7c03471e78938	0.18555312692394366
81	0x3f9879809a8166c3	0.023900994711175693
82	0x3fb72e9695420468	0.09055462974539952
83	0x3fbe644b38d18231	0.11871786248367112
84	0xbfa3ee4a2023ed4a	-0.038927380011922155
85	0x3fa5ccee6a833448	0.04257912683679216
86	0xbfa6f29ccb352235	-0.044819736295327685
87	0xbfc25b34498e45c5	-0.14340833274449785
88	0xbfac22f433dd1c8f	-0.054954177218456406
89	0xbfc31e0ac97499b0	-0.14935431324665904
90	0x3fd68d3d7d4590dd	0.3523706172329762
91	0xbf921b9bf674d115	-0.017683445851802555
92	0x3fbaaaccfcb3ee91	0.10416871232512849
93	0x3f837eb41af18b7a	0.009519011566401881
94	0xbfa5494a28a5c48f	-0.041574780904633284
95	0xbfb36d6f45cd3355	-0.07588859037532576
96	0x3fbf6665ee6bd2e8	0.12265622206525573
97	0xbfcaba5a6d2b2737	-0.20881204920288507
98	0xbfe9220d138e7b56	-0.7854066259350059
99	0x3fd25e23b26bce19	0.2869958155053794
100	0x3fc8ba94d75a866c	0.19319401278794446
101	0xbfd2ca64fee327c0	-0.2936031808027302
102	0x3fd2a9161de747e8	0.29157021446473985
103	0x3fe63399e5cdc3b0	0.6937989700655773
104	0x3fdb4560ee60724b	0.4261095359704867
105	0xbfcdc8686e8949c1	-0.2326784648635805
106	0xbfe0d591962e8e2e	-0.5260703976859469
107	0xbfb44878122abbd2	-0.07923078959969068
108	0x3fe0c45867e11e22	0.5239679364103191
109	0xbfb9c44d6205c600	-0.1006515850365517
110	0x3fda72b8cbff03e2	0.4132520668172771
111	0xbfe11d492c6663d0	-0.5348249308764199
112	0x3f849d4627e4c3f2	0.010065601437050351
113	0xbfb04e856ff61348	-0.06369813903263577
114	0x3fd1115d0fa7ce84	0.2666847851644223
115	0xbfb196148d03fa29	-0.0686962932850085
116	0x3fdea83fd5af6380	0.47901912563025206
117	0xbfd4e9da1198685d	-0.3267731830434338
118	0x3fd1fc12210ed82c	0.2810101816970725
119	0xbfd2b5934ca66c00	-0.29233248219833285
120	0xbfa88e38ac6dc18c	-0.047960063026837835
121	0xbfd8ba65bfbf8357	-0.3863767979183214
122	0xbfef62208365aca9	-0.9807283941603561
123	0xbfd058dfffe3a3ec	-0.25542449940854683
124	0x3fe5022f862ca2df	0.6565168018906568
125	0xbfcb5d38909ea775	-0.2137823778296554
126	0x3fa25d9eda28861c	0.035870517855311784
127	0x3fe398305c5dc7a5	0.6123277477292858
128	0xbfb3bbe38d8c3736	-0.07708570676569768
129	0x3f837dc015455532	0.009517193459638838
130	0x3fd7a9eca8f8428f	0.3697463655562751
131	0xbfcc41d0882b3150	-0.22075850151885357
132	0xbfd91f3f9d9fc437	-0.3925322570131046
133	0xbfe3a7fe4983ad47	-0.6142569957568548
134	0xbfc73c5ec2249e8d	-0.1815298507656177
135	0x3fe07ddffbc8493e	0.515365592729985
136	0x3fa3c240400f8f76	0.03859139234535196
137	0xbfb111e1fe6dbfd8	-0.06667911969793694
138	0xbfc54968c5d8f39c	-0.16630277309914454
139	0xbfc160093b243401	-0.13574328792347504
140	0xbfd662211ae4f6e5	-0.34973933817296504
141	0x3fda9057d666d75f	0.41506000459354725
142	0xbfa6c97fad342f53	-0.04450606335930609
143	0x3fc172cefff6dcf0	0.13631618021256697
144	0xbfd536dba73632d9	-0.33147326783436665
145	0xbfa6e1b4ff02ed56	-0.04469075787479919
146	0xbf717dab5ccb5d9a	-0.004270238289528017
147	0xbfe11aa3fbfaa15b	-0.534502021929295
148	0xbfc641da05d87284	-0.1738846329252689
149	0xbfdf2bf7a8dbee93	-0.4870585583700883
150	0xbfd01657ca0d000d	-0.25136370402833635
151	0xbfd316ef3bad6c6e	-0.2982748110568484
152	0x3fcaece7397bd358	0.210354712551317
153	0xbfc3df4b52fed98e	-0.155251899266386
154	0x3fb0b7bfd4a55e2f	0.06530379239608729
155	0x3fd0b0baaaf7c0fa	0.2607866925818737
156	0xbfbf6875ff17baf6	-0.12268769719933545
157	0xbfc06b58194e8566	-0.12827588306121668
158	0x3fda7f6f06bfbab4	0.4140279355914729
159	0x3f94c5dfc92c558b	0.020286080030094616
160	0xbfc2d647ee144e81	-0.14716433644263208
161	0x3fc5fb8074a35da5	0.17173772521230748
162	0xbfc3e952bb5743c2	-0.15555795810226242
163	0x3fbd4cb15ab896db	0.11445148911351614
164	0x3fe86807276d9f3c	0.7626987238008733
165	0x3fcb7fafe085bdb3	0.21483419859894823
166	0x3fdce3af26fbcf36	0.45139674002642793
167	0xbfa8d70f0ec86bf9	-0.04851576858001034
168	0x3fdb608bc749dc39	0.42776770078438947
169	0x3fb93b5f3d9b285e	0.09856219533972552
170	0xbfdd0af778bec17a	-0.4537943534042125
171	0xbfdbcd503c0862b3	-0.43440633642743903
172	0x3fb70422c69d28bc	0.08990685795757519
173	0x3fd2fa5427797bea	0.2965288529866813
174	0x3fc5a636e96cf39d	0.16913496396764752
175	0x3faa962aa6ae3d8e	0.05192693028140659
176	0xbfc06e32e43f6a91	-0.12836300034435458
177	0x3fcc4753e1a2bd59	0.22092674748771904
178	0x3fb95e3b9d0764d0	0.09909412940705242
179	0x3fc2b47a4243fba4	0.14613273845313046
180	0xbf8e3c051a057ce7	-0.014762916428195228
181	0x3f9f411291c84e19	0.030521669528822046
182	0x3f9c53d1b8312d0e	0.027663494937127324
183	0x3fb46ef39ffa2503	0.07981798797313293
184	0x3fbdabb340d2bd57	0.11590118725393005
185	0xbfc85fcda045adc5	-0.19042368245878386
186	0xbfb66b4d85b4cdca	-0.08757481111825097
187	0xbfcccd04aa99b73e	-0.22500665979480944
188	0x3f9b293d7968fe0c	0.02652450612572292
189	0xbfe7d80906235cc3	-0.7451214904675897
190	0x3fdaed8dc0b5d3c5	0.42074912852632124
191	0x3fd5ba513a937d03	0.33949690552067596
192	0xbfa6d6fd4aea73dc	-0.04460898913860209
193	0x3f821cccb297c56b	0.008843993377896727
194	0xbff135937a545532	-1.0755800989621318
195	0xbff1192b2605711d	-1.0686446652608261
196	0x3fd70edc0e06f003	0.36028195733865703
197	0xbfa7d48437821824	-0.046543247009182914
198	0x3ff6e4aeeb7cf3ba	1.4308308790925666
199	0xbfd2eeda7e4d5f09	-0.29582846006586344
200	0x3fe490b692aca1c6	0.6426651825650473
201	0xbfdc3ac5dd01adba	-0.4410872133509788
202	0xbfb1d9b8d5bc4bee	-0.06972842424538303
203	0x3fb2bcb12ebf58de	0.07319171325011406
204	0xbf9d8dbb43041e06	-0.028860975232445817
205	0x3f993932fc2332ab	0.02463225997853395
206	0x3fa42917c18b41c0	0.03937601316067996
207	0x3fdd8e09f9ba5125	0.4617943705318502
208	0x3fa5b4330e899227	0.042390437626441284
209	0x3fb9481d892c5e81	0.09875664328535018
210	0x3f9554c4e30c90f0	0.020831180913902736
211	0xbfa665793538a69f	-0.04374293112443905
212	0x3fc7c23bafafc76d	0.18561502531479893
213	0x3fa37c3b4bc466c1	0.03805718707935802
214	0xbfbd842e234c6863	-0.11529816018847465
215	0x3fd99c54d7998fb8	0.4001667123286512
216	0xbf9c080c48c813e4	-0.027374450628503313
217	0x3fd17dd74c97d7a3	0.2733057258586717
218	0xbfd5ef8e95f208ed	-0.34274639742956375
219	0xbfcddbdc8eb0b7b6	-0.23327214209842645
220	0x3f970f0d0fdd8339	0.02251835259756094
221	0x3fd983dcb9ba889d	0.3986732305294341
222	0xbf8d6067525832b7	-0.014344031525092544
223	0xbfa519e3c5234f8b	-0.04121314794033911
224	0xbfeafe55c8a6c3bd	-0.8435467642758493
225	0x3fc5575a8b366536	0.16672832295879808
226	0x3fcd15c41e669d52	0.22722674831787032
227	0xbfdbf67911cb6393	-0.4369185136579798
228	0xbfdda0394190218e	-0.46290427591932193
229	0x3f621c46d225aed5	0.002210748979612246
230	0x3fc8afcc009e7a6f	0.19286489515521363
231	0xbfcff3a89ab78441	-0.24962337069067256
232	0xbfc28adb7a575436	-0.1448625895851891
233	0xbfe0ae1f3321692a	-0.5212551115649025
234	0x3fdb8f4d9c58db27	0.43062153118391894
235	0x3fd4ece631d2277d	0.3269591795475362
236	0x3fa27da007e4c879	0.03611469360693404
237	0xbfe9472996bc4710	-0.7899368232776585
238	0x3fcf6ff1f3b6f842	0.2456037940991696
239	0x3fc49e6862c7cac1	0.16108422110808898
240	0x3f6115f200528a77	0.0020856596552943324
241	0xbfcfe7abf41c2953	-0.24925755900796762
242	0xbfcd666cff3c8497	-0.22968828642573122
243	0xbff8b6f3c77ffb4d	-1.5446660798040341
244	0x3fc4a9218dca3b57	0.16141147063577918
245	0x3f7d639c72fae6b3	0.007175074700791195
246	0x3fd178b42dbecfca	0.272992176697923
247	0xbfc9349a6eaafb83	-0.19691782382684772
248	0x3fa1dd42b371c855	0.03489120903476876
249	0x3fb97e94a8c3b571	0.09958771820284597
250	0x3f74db5fd85945c5	0.005092024226159568
251	0xbfc2587b13ef4bc8	-0.14332521890045613
252	0xbfc66b71c5bee663	-0.17515394359161282
253	0x3f7f18266f8441ef	0.007591390742405653
254	0xbfafb22882e9c720	-0.061906114559759695
255	0xbfad6c737713d78c	-0.05746804073889597

model.0.bias f8 [20]
0	0xbfd267efc2e361ab	-0.2875937846379439
1	0x3fc0125627ca0bc6	0.1255595869334611
2	0x3fe6806effa94ef3	0.7031779282937961
3	0xbfdba73bfd578aae	-0.4320821737330033
4	0x3fbee85d00eefc69	0.12073308251182059
5	0xbfd287629e2d6617	-0.2895132584286286
6	0xbfcdb6a2ec51c14e	-0.23213612116843269
7	0xbfbe8214d2459d99	-0.11917238362877071
8	0x3fc9e83170dd253c	0.2023984719365134
9	0xbfbf7fdd06ec4a21	-0.12304479044932083
10	0xbfdfe682fd1296fa	-0.4984443160450237
11	0x3fb21d21506daf3a	0.07075699056229903
12	0x3fcd6716f59f357e	0.2297085475278599
13	0xbfd6b188d9c2ecf9	-0.354585850389142
14	0x3fe8099ab09a060e	0.7511723946810791
15	0x3fde17254439125a	0.4701626936187374
16	0x3fad192dcc94c7f3	0.05683272478417214
17	0xbfa552d0054a9c61	-0.04164743485062484
18	0xbfd0e84090705614	-0.2641755495581901
19	0x3fb3c4f9c102312d	0.077224359151107

model.2.weight f8 [20, 20]
0	0x3fe8ab23a47e3684	0.7708910191301617
1	0xbfccfec7f2fd494c	-0.22652530064312726
2	0x3fde380b519f20fc	0.472170667370406
3	0x3fc566ae7cfab255	0.16719609358314594
4	0xbfe390730befe5b7	-0.6113829835077728
5	0x3fa63c6dcbeb7b8a	0.04342978586441067
6	0xbfd9f8939cb2eb6c	-0.40579691221835534
7	0x3fca27aad4558f1e	0.20433555000192255
8	0xbfe911ccac51e038	-0.7834227910634644
9	0x3fd10535eeebf69c	0.2659430344791447
10	0x3fdb1163d6e010ea	0.42293640121375964
11	0xbfd1331503d8e01b	-0.268742803341867
12	0x3fd5970a55271f52	0.3373437720842861
13	0x3fb5504e04cad605	0.08325660340309333
14	0x3fb3e4ae1270b8e7	0.07770812940791282
15	0x3fd8ac9b7ac42b42	0.3855351160897734
16	0x3fd24949211d57a7	0.2857230018029164
17	0xbfaf469959106be4	-0.06108550274094407
18	0xbfbd79589485cba7	-0.11513284326592431
19	0xbfd05a45f1226001	-0.25550983951825407
20	0x3fa7fb5da42bf197	0.04683964375542187
21	0x3fd5bc0f09c065de	0.33960319473552925
22	0x3fe5f2ac01384f4b	0.6858730338885634
23	0x3fab06e831d1eb06	0.0527870713057919
24	0x3fc44f428d8d75f9	0.15866882240054261
25	0x3fcb1ddbae4a6373	0.21184869776041246
26	0xbfdc43f3d1f857b3	-0.4416474867333548
27	0x3fbadf94084c241e	0.10497403338025932
28	0xbfbfd9b45e5bb135	-0.12441565803209616
29	0xbfebab56e54673c6	-0.8646654584914522
30	0x3fc3e7ece8d96938	0.15551530236809596
31	0xbfdd92c9a83619eb	-0.4620842116059111
32	0xbfc035042f7a5fcf	-0.12661793058646117
33	0xbfe056f416883486	-0.5106144371108179
34	0x3fccf63babee6cd3	0.22626443762860635
35	0xbfdde25a6c3681f0	-0.4669405037657546
36	0x3faa725ff6670887	0.051653860882212625
37	0xbfb57205a7ba90cf	-0.08377108902874685
38	0xbfe9540d85fdf218	-0.7915103547125595
39	0x3fd99ffeb9cbc4f9	0.40039032119882695
40	0x3fe5dbb094de8fbb	0.6830675990681735
41	0x3fc180064ceaa923	0.13671950107284045
42	0x3fe318192566d43e	0.5966916780950056
43	0x3fd546b7e9d55192	0.33244130931168414
44	0xbfbf7579542d5c42	-0.12288626008135942
45	0xbfb77a99180f18b7	-0.09171444737794131
46	0xbfbb77b328c514ee	-0.10729522462232285
47	0xbfbc87899a25e46a	-0.11144313825015364
48	0x3f93526f06625198	0.018869147076274823
49	0xbfce5ed0bdf18a6b	-0.23726853632531983
50	0xbfb794a6d62d8a30	-0.09211199501945866
51	0x3fb98471164bde30	0.09967715067238525
52	0xbf95ca0247b8a093	-0.021278415324701937
53	0x3fdb25098c6cd739	0.42413557732958257
54	0xbfd1869f64b42da0	-0.27384171327931917
55	0x3fd4792c9ffc9b2a	0.3198958933229955
56	0x3fd11c574ca3f947	0.2673547981684305
57	0xbfcdf3a0f6a1afc9	-0.23399745981748613
58	0x3fc16a8df910ce8d	0.13606428777130866
59	0xbfd471d871604376	-0.3194485766589915
60	0xbfaed57c36f2cf96	-0.06022251291997731
61	0x3fd81a1aad91a81d	0.376593274594258
62	0xbfc327a564ead60d	-0.14964740207294405
63	0xbfed635de2d668f2	-0.9183797293110543
64	0x3f96216358769d2c	0.021611740373967667
65	0x3fe38ee968e5e491	0.6111952828206474
66	0xbfe5e7245df11000	-0.6844655833051547
67	0xbfce38afce723203	-0.23610494213461672
68	0xbfbe52a4579b982c	-0.11844851626264646
69	0x3fcfe34dc3f6b025	0.2491242606023444
70	0x3fdaf9abd289808b	0.42148871956124684
71	0xbfd78e4675d33b41	-0.3680587912212339
72	0xbfbca4392f6d0b78	-0.11188084991321812
73	0xbfe510e0fc801625	-0.6583104068419671
74	0xbfcccebba569d5eb	-0.22505899025752227
75	0x3fcdcae53596cb21	0.23275437466289708
76	0xbfd3e3572f0abe5d	-0.31075076669637786
77	0x3fda681650d123bc	0.4126029767253916
78	0x3fd2597d351df892	0.28671198069776793
79	0xbfc08e2bdc671bf5	-0.12933872472623845
80	0x3fd85cf9f9d5c414	0.3806748332781933
81	0xbfe203108fa62562	-0.562874107899159
82	0x3fb320c2f5671064	0.0747186516883303
83	0x3fed4ae3559f307b	0.915391604643005
84	0x3fb3df12cdb83f9d	0.07762258074239843
85	0x3fd80dcde6d4518f	0.3758425478165685
86	0x3fd294a65f399843	0.290322869294304
87	0xbfb5339fb21cee88	-0.08281896685087464
88	0x3fa057f274ea097a	0.03192098309684162
89	0x3fc8fc091e36c1f7	0.1951915166405482
90	0xbfce1e4af380b00c	-0.2352994622209511
91	0xbfc6d80a4ed7326a	-0.17846802568091685
92	0x3f95a1abe27d9fb7	0.021124540041824704
93	0x3fce2113f850c92c	0.23538446068557428
94	0x3fb0897baa702a1a	0.06459782515609228
95	0x3fd8453253976a53	0.37922342456082453
96	0xbfa18cc5e2c638ff	-0.03427713769188933
97	0x3fd8eaf47fd52cc5	0.38934051974929346
98	0x3fa9de7aee3bc2c8	0.05052551420329149
99	0xbfe1bf17b6eb3945	-0.5545767376550336
100	0x3fc7b0ceddf118c6	0.18508325421334443
101	0xbfd633b4653bac32	-0.3469058025936561
102	0xbfd93f9a3ac05e30	-0.3945069860214714
103	0x3fafd023289a5624	0.06213483687058055
104	0xbfdef93c62a8e7ac	-0.4839621509050811
105	0xbfe162e50a811bfc	-0.5433221059000739
106	0x3fd10f6f725436f1	0.26656709828317476
107	0x3fdce392f0d5b5cd	0.45139001387618977
108	0x3fc0897b15ae1818	0.12919558104130213
109	0x3fd2af522542b59b	0.29195073736885896
110	0xbfd3c0a6c60cbcc5	-0.30863351193233896
111	0x3fd188426b4e5368	0.2739416168126838
112	0xc0067667d95c826c	-2.807815263877549
113	0xbfc8f9bcf247b575	-0.19512140112002965
114	0xbf6e6c817328a7e5	-0.0037138489072008223
115	0x3fd8203cfbe05ab0	0.3769676646929083
116	0x3fb7dd56f05e68d3	0.09322112434748257
117	0xbfb4113e63e585fe	-0.07838811816102262
118	0x3fd70acd2e1bd7fe	0.3600342703133491
119	0x3fcb82c32b4e8c81	0.21492805113402727
120	0xbfe67407ae8a9868	-0.7016638192187772
121	0xbf7d45713ec83ee1	-0.007146303524237147
122	0x3fe2be19c972af15	0.5857056555300654
123	0xbfc819ded53b0cac	-0.18828950320866988
124	0xbfd75e1ef690b739	-0.3651196868766991
125	0x3fdbfc8bfe12fcf0	0.43728923618250715
126	0xbfddfe2fcec4fa2f	-0.4686393279297673
127	0x3fc85599ebfe4825	0.1901123430548647
128	0x3fcf2a6082e97e65	0.24348074333373684
129	0x3fc2dbb12af01ecc	0.14732946964817584
130	0xbfdc767db3b417c9	-0.44473211812180274
131	0xbfddcc8a886b3be5	-0.46560920068890105
132	0x3fc9e3d0944df10f	0.2022648548262471
133	0xbf9bc6b082afabdb	-0.027125127769902817
134	0x3fa4a57560257df3	0.04032484816229589
135	0xbfdfddb8f8193e6e	-0.49790786960963984
136	0x3f932f9318e2033f	0.018736170190553066
137	0x3fc4555e6087e05d	0.15885524476448412
138	0xbfe11c2d213833c4	-0.534689488298334
139	0x3fd0dbed40f673ff	0.26342326492323304
140	0x3feb788fd6bed28b	0.8584670252081009
141	0xbfb1c77cc899a708	-0.06945018670526448
142	0x3fd5cf328146b406	0.340771318670534
143	0xbfc2729073c20ddf	-0.14412122394797586
144	0xbfc1438c6d5c0661	-0.13487391795938478
145	0xbfd443cfde8f2349	-0.316638915388968
146	0xbfd164795b5d6a61	-0.27175744936326934
147	0xbfe221795ab60623	-0.5665861865711047
148	0xbfd488c37ea92146	-0.32084739083486047
149	0x3fe52c0ad5bce4b1	0.6616262602393786
150	0xbfbc12b054cab80e	-0.10966016836275136
151	0xbfcbe0720703d39a	-0.2177870306255983
152	0x3fe2f662330477f1	0.5925761219439193
153	0xbfae2e25234e5af4	-0.05894580894453397
154	0xbfe3976248e5133a	-0.6122294830061954
155	0x3fd38fae5140c2b1	0.3056445878492396
156	0xbf97c3d0342df8a7	-0.023207905945576226
157	0xbfe21e6c581a048b	-0.5662137718901631
158	0xbfcfff8123dd79e0	-0.24998487712123474
159	0x3fc65b2f162ec7e7	0.1746577127756261
160	0x3fdb81200da2f160	0.42975617725075743
161	0x3fa5ecc608d1577c	0.04282206399572794
162	0x3fd90afdf6d50a98	0.3912959013434061
163	0x3fe4203857c101fd	0.6289331163353037
164	0xbfb790761f12724d	-0.09204805620761043
165	0xbfc0c05d98b33602	-0.13087053257042675
166	0x3fa0e6d8fc9d2cbd	0.03301122745195915
167	0x3fbcefa8c4c5078f	0.11303190998026323
168	0xbfe2d9045731fcd8	-0.588991327574969
169	0x3fdb2689fb205ea5	0.42422723316256344
170	0x3fc5d1d3467b4648	0.1704658598087454
171	0xbf927ebb511f27a9	-0.018061568094516343
172	0x3fd5ab6223147fdc	0.33858540941036863
173	0x3fd50c80edafb15b	0.32888816081574185
174	0xbfbfe71c63d8cef0	-0.12462022245091098
175	0x3fa89537a70fab4a	0.0480134383613718
176	0x3fc21e0a4c3a0960	0.14154175493247134
177	0xbfb66db27f6868b4	-0.08761134729903369
178	0x3fc8b22b1d3987e9	0.1929372685145261
179	0xbf70ea94a742cee7	-0.004129963566970685
180	0x3f43642371a4de35	0.0005917714181923941
181	0x3fe9de25f0bc82dd	0.8083677007562887
182	0x3fc2cbe0545847cb	0.1468468105163637
183	0x3fe22dd6102dcd00	0.5680952373499224
184	0xbfdda49fcc4ee795	-0.4631728644559357
185	0x3fe0aa90083d5190	0.520820633023094
186	0x3fafcb2c59cea583	0.06209696384696441
187	0xbfacab76fe591fb0	-0.055995672748906045
188	0xbfe3946e4c56e0db	-0.6118690005305568
189	0x3fd189609d1e0e6b	0.2740098509168322
190	0xbfdeb47bd24ef1f6	-0.479765849475171
191	0x3fcac9925560a928	0.20927647751643375
192	0xbfa7abfbef567f65	-0.04623400971035955
193	0x3fb8bfd4cdc0d3ec	0.09667711280128771
194	0xbfd2d0628f9d1ba1	-0.2939688112714354
195	0x3fc01174da785809	0.12553272883877778
196	0x3fd1538faab885e3	0.27072517082168995
197	0x3fc96a68999bda91	0.1985598325770366
198	0x3fc8c33c9dc86b00	0.19345815376512832
199	0xbfc6aa7b0edef829	-0.1770776579487017
200	0x3fe3e32c15662711	0.6214809816312671
201	0xbfc62ef464122e11	-0.17330794225959825
202	0x3fcab2abf9953549	0.20857762991583176
203	0x3fd92b3a01d5b2a6	0.3932633417050887
204	0xbfb1cdeaab7ee29b	-0.0695482891741314
205	0xbfe1ad2c0976db26	-0.5523891625260589
206	0x3fdc2702987f09e9	0.4398809899541037
207	0x3fc9c402bfcddbd1	0.2012942730468397
208	0xbfe588c1a97a966e	-0.6729439077505057
209	0x3fd9ae2843628e03	0.4012547166878166
210	0xbfee1a502f738a1d	-0.9407120634826388
211	0x3fde05f3e084a5c4	0.46911332059479727
212	0xbfcb9c19828622c8	-0.21570128319969784
213	0x3fd1daee1ea4b2b9	0.27898743622317174
214	0x3f83a4bae0a63216	0.009591541271924558
215	0x3fd465c57b9637cd	0.3187116343404995
216	0xbfd7942d08fa3d49	-0.3684189403220058
217	0x3fb54abf417aa87c	0.08317180012332587
218	0x3fb921c16bffe3b8	0.09817131888111319
219	0x3fc099bafb14b0c4	0.12969147929960034
220	0xbfe1410cc3ea1401	-0.5391906572773452
221	0xbf9c5be4f990594f	-0.02769429944245277
222	0x3fd4d1c0d28ce8af	0.32530232011380183
223	0xbfdab039b7be1152	-0.41700594848250205
224	0xbfda1ec1393604b2	-0.40812712275517093
225	0xbfdbb227d2d07982	-0.43274875247325195
226	0xbfcdb244324196e3	-0.23200275854031024
227	0x3fbfe49c72d72fdb	0.12458207896923972
228	0x3fd790b4237ff670	0.3682070109060538
229	0xbfd1d4505223e7fa	-0.2785836031104051
230	0x3fe2b4f4dfb26b38	0.5845894211846376
231	0xbf67c99259773d36	-0.0029037340534398227
232	0x3fcb1ed77d52dec3	0.21187871569940428
233	0xbfbb11d46749d002	-0.10574080964744328
234	0x3fd0bbe2679a52a4	0.26146755330527527
235	0xbfd17552517a565e	-0.27278573948692564
236	0xbfec9ccdbe447817	-0.8941410747681883
237	0x3fcfa7e94e279559	0.2473117477049225
238	0xbfded9357981c023	-0.4820073782530036
239	0x3fe091b675553eb9	0.5177871982250145
240	0xbfd029b7413f4266	-0.2525461327723292
241	0xbfa47dc76a762497	-0.0400221173723107
242	0x3f9f203c8e9099e2	0.030396410180537965
243	0xbfec6ae943dfe923	-0.888050682609251
244	0x3fdaaa8ca190eaab	0.4166595056337125
245	0xbfc16840dad7ccce	-0.13599405942622983
246	0xbfa819de001dafcf	-0.04707235099235129
247	0x3fd39d4e2bcb6f7b	0.30647615696738456
248	0x3f84d5b5c6535dca	0.010173244585913194
249	0xbfd113c982392bff	-0.26683271138307413
250	0x3fe197d2f43b9229	0.5497832079095747
251	0x3fd1bfad19761bb1	0.27732398497067395
252	0x3fc0cdbfbea3e083	0.1312789612636643
253	0x3fb12731b1432f73	0.06700430467316014
254	0x3fcd754855727dd6	0.230141679498941
255	0xbfa7b503c2f8e11e	-0.04630290751487308

model.2.bias f8 [20]
0	0xbfe2295d3c15cac0	-0.5675493405854795
1	0x3fe3843bb57a783e	0.6098917526721903
2	0x3febc56e3d624525	0.8678504179862655
3	0x3fd0034fdb57be18	0.2502021448153484
4	0x3fadf9d0418e4f0e	0.05854655075304836
5	0xbfe1dcebf9a36ce8	-0.5582179904698963
6	0x3fe54e213fda7858	0.6657873389374442
7	0x3fc231a9eb1c4663	0.14214061717989343
8	0x3fdecc1fcd12a831	0.4812087538399537
9	0x3fb3c448c3ec3fef	0.07721380980751723
10	0xbfd6be0eaa08c764	-0.35535017590438245
11	0x3fdd647457441d15	0.4592562534530356
12	0xbf988538a5294f29	-0.02394569881501166
13	0xbfd65106a0d297e2	-0.3486954279454705
14	0xbf9f3ae8e0efe768	-0.030498160103867106
15	0x3fe6e72993444264	0.7157180668164753
16	0xbfde5ee2751600ae	-0.4745412963311634
17	0xbfc2fe786fa76b30	-0.14839082195143183
18	0xbfe06f8282282303	-0.5136120359539692
19	0xbfe3c0f242342adc	-0.6173030179064329

model.4.weight f8 [20, 20]
0	0xbfcbfd0c44afccb2	-0.21865990976184474
1	0x3fb7315134e82ade	0.09059627095863784
2	0xbf97147746f0a863	-0.02253900881275007
3	0xbfdfd2116aae1c72	-0.4971965352819502
4	0xbfbd6ba38093cf3f	-0.11492368592354028
5	0x3fc965d0032a329a	0.19841957239659253
6	0x3f88746b3116a924	0.011940801082194037
7	0x3fc5194e398cbbf7	0.16483476457639742
8	0x3fca4cd8d53a77ec	0.20547018443625065
9	0x3fa1979b76420fec	0.034359796701238426
10	0xbfd24e53cafbf945	-0.2860307199734005
11	0x3f8ee6fd71a58352	0.015089015989987384
12	0x3f6a36a279b3c680	0.0031998799655575394
13	0xbfde9f079a357500	-0.47845640239195575
14	0xbfdbc3f5eff229e5	-0.43383549148771144
15	0x3fdebcb42210bed7	0.4802675564451255
16	0xbfcc895f30074173	-0.22294225545057209
17	0x3fc8eb9382b7cd58	0.19468921549524043
18	0xbfa38b7752460a52	-0.03817341689411492
19	0xbfe0e486adac4630	-0.5278962509202696
20	0x3fdd099610f86e56	0.45371009499806314
21	0xbfe35955390ab886	-0.6046548952197248
22	0x3fd4f909eb501503	0.32770011882560385
23	0xbffb0fdade5e80b3	-1.6913708387656186
24	0xbfc8c8c95f737c30	-0.1936275211400882
25	0xbff8ff854db063d6	-1.562382987473247
26	0xbfe3c5337d085825	-0.6178224031489249
27	0x3fc951d1cb8a0c85	0.19780943334999193
28	0x3fc8482e761e8cff	0.18970280425592276
29	0x3fc6bfbbe0d69d10	0.17772625425752908
30	0x3fc005f6f1401a29	0.12518202571682593
31	0x3fd22d4e053edd82	0.2840151835657353
32	0x3fc9bb44bfec533a	0.2010274827122432
33	0x3fd303fe2b603c17	0.2971187041848124
34	0x3fd4544a587d997b	0.3176446785131685
35	0xbffaacd651b942ba	-1.6671965782481224
36	0xbf8a8e94edd2416b	-0.012967265613298825
37	0xbfda0f84d55f32ea	-0.4071971973142313
38	0xbf7d7e7dd99213c4	-0.007200709916223628
39	0xbf92b26df06b4864	-0.018258779334083278
40	0xbfeb2d9213d074cf	-0.8493128191945746
41	0xbfd5557d42836937	-0.33334285254899804
42	0xbff038cd133b1921	-1.0138674498753704
43	0xbfd986b36f123af6	-0.39884649130628647
44	0x3fc589d4fe1dc3a8	0.16826879890461766
45	0xbfe537d66168f892	-0.6630660917796993
46	0xbfc69d7797ac3c7b	-0.17668051629923184
47	0xbfd4e805180220bb	-0.3266613707023784
48	0xbfe50f1b4da7ee0b	-0.6580940739362985
49	0xbfc354e78270089c	-0.15102857464814157
50	0xbfce917367f498d5	-0.23881380630445528
51	0x3fc50a3460dc3061	0.16437391976831164
52	0xbf9f6bcf3dc7d58e	-0.030684698243893353
53	0xbf9c3c6f14736ad3	-0.027574287055226087
54	0x3fe6c344dd203876	0.7113365477432712
55	0x3fd541078073859b	0.3320940737158595
56	0x3fd0edaaec294cc6	0.264506083132073
57	0x3fd8890ef163a1bc	0.3833653790775562
58	0x3fc1c2c3d226a7fb	0.1387562538268979
59	0x3fe0bd360bba4455	0.5230970601134098
60	0xbfbed240121795b7	-0.12039566461279248
61	0x3fe8ecd8122274c5	0.7789116243544859
62	0xbfc54b84ebd89233	-0.16636716380993874
63	0xbff1155c7b02f870	-1.067715149416042
64	0xbfc897e5f8258223	-0.19213556877640867
65	0xbfee37771b32b47c	-0.9442706614696728
66	0xbffc7695ab0dd1e6	-1.7789513284488918
67	0x3f9d5eb1b0b6a0c6	0.028681541834573186
68	0x3fd0eadc93f517a3	0.2643348164459615
69	0x3fd05c15b42e3bac	0.2556204089714196
70	0x3fb2dc5a2bfa9b64	0.0736748082514232
71	0x3fc1258328e8ad9f	0.13395728585724684
72	0x3fbb5ce9d724a15f	0.10688649656788617
73	0x3fe9067c07aeabcc	0.7820415639920326
74	0x3fd9150336c6fdc9	0.39190750455233264
75	0xbfe9450965cd8f9e	-0.7896773327197371
76	0xbfdc93082766dcb2	-0.44647411201317333
77	0xbfe4787cb395128b	-0.6397078998057436
78	0xbfc374f5dc7ca810	-0.152006848010672
79	0x3fb46715f15b3db1	0.0796979631661461
80	0x3fcb156cdc9a0643	0.21159134646954855
81	0xbfe69a72aa464786	-0.7063535047220604
82	0x3fcb1f4a2e3d6f7f	0.21189238794147155
83	0xbfad8c18696e1f7b	-0.057709467763799226
84	0xbfa46c86a3e75966	-0.03989048720147785
85	0xbfc06c5bbbce4f8b	-0.12830683393678685
86	0xbfbd62b101dd76cf	-0.11478716178450131
87	0x3fb3135c2901592f	0.07451416016678956
88	0x3fd2586e1b8741d9	0.2866473454314736
89	0x3fd8d6bf8c1c1960	0.38810719187349285
90	0xbfd5650eadd4bf6a	-0.3342930505341345
91	0xbfcfce1b2b9d1367	-0.24847736005372242
92	0xbfcb167a9d716f17	-0.21162350356723245
93	0x3fdbabc7934aa8e3	0.43235959419202014
94	0x3fe1066186ebcac8	0.5320289263894091
95	0xbfe38b15fb07a3b4	-0.6107282545973391
96	0x3fdc8f420251ff81	0.44624376513092306
97	0x3f8fff0d56238bc5	0.015623192015885476
98	0xbfc9faaf76815e65	-0.20296281134027364
99	0x3fc8c21cead060a2	0.19342385736013507
100	0x3fb76d76a8814f35	0.09151403058905035
101	0x3fc79fc3ac7efee2	0.18456312105808254
102	0x3fcd56dd24ff892e	0.22921337420036408
103	0xbfd16d5f245383ed	-0.27230051562770435
104	0x3fac2283a727db81	0.0549508229777791
105	0xbfe32c6c73269b45	-0.5991728066481775
106	0x3fb825cf276beeb7	0.09432692253534013
107	0x3fd95031544d151c	0.3955195735218966
108	0x3f92effcb4427701	0.01849360323159655
109	0xbfb4a6b6c5c96332	-0.08066885308052177
110	0x3fe0f20915ce20ee	0.5295453477747551
111	0xbff79866d214e581	-1.4747074323953202
112	0xbfeaf527ed19812d	-0.8424262648441406
113	0xbfc6eb1d38d02028	-0.17905011438438234
114	0x3fbead332d02a2e6	0.11983032082447273
115	0xbfd8ac6fb3a43303	-0.3855246786413746
116	0xbfe18d303fb4e5f9	-0.5484849209089467
117	0xbffbe16ec15ba969	-1.7425372651146864
118	0xbfdf37c8a0d23e94	-0.4877797670860471
119	0x3fd2f905c18e6bbc	0.2964491262625264
120	0xbfdd71d25b1b4ef4	-0.46007212540756304
121	0x3fe3792f13267065	0.6085429548288742
122	0xbfa970b7a5146eac	-0.04968809023031659
123	0xbfd98004a69fba13	-0.3984386088549467
124	0x3fce1ba3f7f6bba5	0.23521852119071443
125	0x3fc0d1f047b90001	0.13140681745608165
126	0x3fa38417ecabd11b	0.03811716808368911
127	0xbfca28195c1d0b09	-0.2043487262509063
128	0x3fbaa64d0cb0a6ac	0.10410005149665363
129	0x3fd1f7e3a58c04ac	0.2807549587888143
130	0xbfcf457d4ce1425d	-0.24430814985182084
131	0x3fa7e37af60f0d0b	0.0466574120869386
132	0xbfe0c2698fb33b7c	-0.5237319761889547
133	0xbfb7c1e2bb994271	-0.09280221061750084
134	0xbfe8112f86f4130d	-0.7520978580292607
135	0xbfc4b566703aac9b	-0.16178589324895118
136	0xbfb1f1be07c771d2	-0.07009494485777815
137	0xbfee5c0cc4553c42	-0.9487365564945167
138	0x3ff71db18def4e8a	1.4447494072273082
139	0x3f85ea67f4c7e23f	0.010701000363938394
140	0x3fc0c3d4e2dff62c	0.1309763057505945
141	0x3fd5159d65a7979a	0.32944426467144583
142	0xbfd58b1148a285f8	-0.3366130074810765
143	0xbf6b5c8cc764335c	-0.003340029677139018
144	0x3fe111ecdddebc54	0.5334381421470291
145	0xbff9ff9dc7cd37a5	-1.6249063305617508
146	0x3fb4de89cfc44bdf	0.08152066538268297
147	0xbfd1c3ff42c55c3f	-0.27758771439170354
148	0x3fc7784451eea112	0.18335775375931768
149	0x3fd06244c5f97702	0.25599784215397403
150	0x3fd7a960e9f29b48	0.3697130474706012
151	0xbfe0472e43beda5d	-0.5086890528826405
152	0xbfd66908ed6d0f9a	-0.3501608198750944
153	0x3fe6b1e3f900c05a	0.7092151511515212
154	0x3fa2455e0bb80968	0.035685481005219455
155	0xbfc47014a5eaa32c	-0.15967043019670635
156	0xbffeebbf05444330	-1.9325552182892345
157	0xbfeb8c5a7b1632bf	-0.860882988361105
158	0x3fd0a2a043e48cbc	0.2599259055152279
159	0xbfc4b26ccd9c52b5	-0.1616950992544354
160	0x3fe085dfd3bf8572	0.5163420806604064
161	0xbfd93caf96a126dc	-0.3943289729109958
162	0x3fdb278f66f2dcbb	0.4242895608289918
163	0x3f82047c30616615	0.008797617174582087
164	0xbf944366f6ff3d48	-0.019788369012357948
165	0xbfc2cbe4bdbab1d8	-0.14684733642697156
166	0xbfd421b24886edb4	-0.3145566662094226
167	0x3fe01b2370b48355	0.5033127976676989
168	0x3fb0de9dc2376eaf	0.06589685432066504
169	0x3fd0250eed961a7d	0.25226185991088085
170	0x3fcdc8308f057e72	0.23267180427045592
171	0xbfe218e4d81cd329	-0.5655388089131509
172	0xbfcef7c383b13306	-0.2419361489322897
173	0x3fc08e580522840f	0.12934398890232088
174	0x3fd95a8d986e5e34	0.39615192304470104
175	0xbfd4fef2116130bf	-0.328060643169703
176	0xbfd35e83c36e9670	-0.30264371953157987
177	0xbfc727dfc2c9f875	-0.18090435992411683
178	0x3fb4695454bedfd1	0.07973219937309685
179	0x3f7e58d961449eb4	0.007408951893274885
180	0x3f94fc31f04e20a6	0.020493297855438762
181	0xbfe25eab3e133379	-0.5740562641527581
182	0x3fc8d9d4d1ca64c3	0.19414768451387063
183	0xbfc3a5292a51409e	-0.15347780767706792
184	0x3fd8b14881ccfef5	0.38582050968032827
185	0xc00241793efa0bcc	-2.281969539647866
186	0xbfe0d316822f25ef	-0.525767568841898
187	0xbfa4dd0a0502dbdf	-0.0407488947980068
188	0x3fa37512d5bdad93	0.03800257548467836
189	0x3fd0468972eafb9a	0.25430523130847293
190	0x3fccbbf6a79e19bf	0.22448619064762274
191	0xbfc427c42db583a5	-0.15746357185255735
192	0x3f8c2589b865e101	0.013743472995642938
193	0xbfd145cf38c4a794	-0.2698858312966135
194	0x3fd218b725fc0a77	0.2827585097258302
195	0xbffaa9024b89c4c5	-1.6662619543752026
196	0x3fb8187ce474765d	0.0941236551047608
197	0xbfd7bbf528e6e019	-0.3708470248634526
198	0x3fc56945b2702829	0.1672751542358253
199	0x3f8b8e5bf379189e	0.013455122344691536
200	0xbfca30af977c5050	-0.2046107759166511
201	0xbff04f83d9f1cfbc	-1.0194128526172639
202	0x3fc0ba6ad2254d60	0.1306890035726651
203	0xbfaadc98903ebc0f	-0.05246426354221267
204	0x3fb0058315b055b7	0.06258410720359718
205	0xbfd0e031e60ab425	-0.26368377175350793
206	0xbfe06b4fe0fc91fa	-0.5130996126432017
207	0xbfe5b4f73c736465	-0.6783405476263736
208	0x3fcfe12515e8be93	0.24905837602408507
209	0xbfb88e34371df1fb	-0.09591986032132375
210	0x3fba608edbb1fa23	0.10303585876133829
211	0xbfb5a78dd74b54ee	-0.08458792215545305
212	0x3fb0eabd62dba451	0.06608184493565374
213	0x3f9dfefa5f9998c5	0.029292976460418858
214	0x3fe6ad51c1c0c3bb	0.7086571487653751
215	0x3fd07226376467bb	0.25696711930651944
216	0xbfd3345c158d1b00	-0.3000707827053901
217	0x3fc804388cd4ccf8	0.1876288116123772
218	0x3fe62e9538845aba	0.6931863883827056
219	0x3fd28f07b551a2b5	0.2899798651401782
220	0x3fd27eb59fba2282	0.2889837322077612
221	0xbff0bf370673358e	-1.0466833354906586
222	0x3fd3f713f17af5e2	0.31195543844282103
223	0xbfec836884651351	-0.8910410486065335
224	0xbf73612e6a681923	-0.004731351195465447
225	0xbfed136b56eb97a5	-0.9086205194150706
226	0xbfd30239e304697b	-0.2970108715977841
227	0x3fe5a95e28c41990	0.6769247814379913
228	0xbf83432cccd29241	-0.009405469895065301
229	0xbfceee620b6463d9	-0.24164987140900854
230	0xbfb3c6cf5b69fbdd	-0.07725234967982382
231	0x3fc3095dc3c0f00e	0.1487233358219559
232	0xbfc08e24ca90c22e	-0.12933788195506807
233	0x3fe7189cd4876d0a	0.7217544699628047
234	0x3fc29bf2534fac6b	0.1453841120522584
235	0xbffbf63abf5461ea	-1.7476146196187252
236	0xbfd67a383fbee756	-0.35120969987075534
237	0xbfe03517f33e426c	-0.5064811468929071
238	0x3fbd6ddf9f6827d9	0.11495778695839877
239	0xbfcd12a2d16241cc	-0.22713122581309475
240	0x3fd2d84b656529b6	0.29445156957504126
241	0xbff9832da6860cd2	-1.5945259575681132
242	0x3fc1ba045014a12d	0.1384892836588362
243	0x3fc687a1df29a71f	0.17601416966072578
244	0x3fd6171808971769	0.3451595386398965
245	0xbfd8ffbae2e42152	-0.39060852200829743
246	0xbfc89fee9d1e6812	-0.19238073989691934
247	0x3fad4f1f5213465d	0.05724428059478435
248	0x3f852c0fd9dc4ab4	0.010337947689128192
249	0x3fde3cf7bb8606e6	0.47247117340894673
250	0x3fd9bf88650f55cb	0.4023152338898767
251	0xbfb05f646d814e83	-0.06395557092155894
252	0x3fd27e9ca2bc1032	0.2889777745442671
253	0xbf9c4619bd535f9d	-0.027611162357828446
254	0x3fd981185c8102c8	0.3985043433531641
255	0x3f89f9beae9928f4	0.0126833817513625

model.4.bias f8 [20]
0	0x3fe4f76989e4f7ec	0.6552016919374615
1	0x3fe0fac9a099757e	0.5306137215335835
2	0xbfbc505b8d8de3a3	-0.1106011601058428
3	0x3fa3dd677a62853d	0.038798555078083365
4	0xbfc4168f7562a394	-0.15693848830894963
5	0xbfd4b8c80a21a946	-0.3237781619015049
6	0xbfc4882d8efa92d3	-0.16040582162272318
7	0xbfc65de7dda510d0	-0.17474077532290844
8	0x3fd81544504fb0f9	0.37629802554035013
9	0x3fe0978915531630	0.518497983598257
10	0x3fbd8ebc8960f43f	0.11545923570607018
11	0x3fca334ca462ca13	0.20469053293852876
12	0xbfcf7d99f89cdd34	-0.2460205520562596
13	0xbfd5925a715b744d	-0.3370576960567789
14	0x3fcf8803376279fc	0.24633827404336717
15	0x3fd07265983b6a63	0.2569822298661732
16	0xbff12ce382eb8933	-1.073459159285062
17	0xbfcf4cd90eaf24ac	-0.24453271119117426
18	0x3fc64fcf9ad70585	0.1743106370977722
19	0x3f9dffbfe9d91399	0.029295920036264887

model.6.weight f8 [20, 20]
0	0x3fd35aa3fce8d2ad	0.3024072618311873
1	0xbfc75b0d72c84452	-0.18246620277980924
2	0x3fb0c17797fb4589	0.06545207462774817
3	0x3fa638cd5ccd0305	0.043402116373277656
4	0xbfdbfc5da5000cf0	-0.4372781859712651
5	0x3fb42211af8831c2	0.07864485297631688
6	0x3fd3ae9dbc06dfb2	0.30753272401806975
7	0x3fe092824d1ebec1	0.5178843981029432
8	0xbfee73ab05d5e6c1	-0.9516196359611159
9	0x3fb7808ffb8379cb	0.09180545702427094
10	0x3fbf576f826d68a3	0.12242791113149791
11	0xbfdaa99df7be4d0f	-0.4166026038521559
12	0xbfc357da9090a36a	-0.15111858424031804
13	0xbfe36845a2e17960	-0.6064785176529703
14	0xbfd007b9de991a4f	-0.25047156084148
15	0x3fb732f08a3bb9c6	0.0906210267528201
16	0xbfe111087ca7ac79	-0.533329242197751
17	0x3fdfb8a9c4a2a39e	0.4956459446207705
18	0xbfe149abce1d0d27	-0.5402430558828301
19	0x3fa160ea6b9d53cf	0.033942533146422364
20	0xbfcc52718817c09c	-0.22126597542910964
21	0x3fe1c2f63f180339	0.555049060087277
22	0xbfcee743a19d1dac	-0.24143262282653433
23	0x3fe170caabf651f4	0.5450185164104924
24	0x3fbd6fe61158aaee	0.11498868869299958
25	0x3ff19c0d289b16b0	1.1005984865345617
26	0x3fd8329602fe08de	0.378087523386183
27	0x3fbe0da3dd00efca	0.11739563127133504
28	0xbfbaf6f5c6946f99	-0.1053308114828141
29	0x3fcd3c0f91e9468a	0.22839541077205566
30	0x3fcd4bac290a5580	0.22887184146808792
31	0x3fde9715aabdd02f	0.4779714743992853
32	0x3fdedde5c1911dba	0.4822935476590505
33	0x3fc328fcfdec57f2	0.14968836210817887
34	0xbfd8a583db3389e4	-0.3851022377622526
35	0x3fcab951adfddfc6	0.20878048892677564
36	0xbfd2b0238119920f	-0.29200065238390577
37	0xbfef3da60c46311b	-0.9762754668932162
38	0x3fd897e0e9ea5146	0.38426993220607064
39	0x3fd2e7956ab8adf1	0.295384744854089
40	0xbfe0ceeed2b425ec	-0.5252603640848839
41	0x3fe70b63c90db327	0.7201403548075164
42	0xbfe6ddb68ea10e9b	-0.7145645890927484
43	0x3fd90e23d20c93ea	0.39148803246126695
44	0xbff997602aadd894	-1.59945694610136
45	0x3fa7323cba9cfc07	0.0453051545905439
46	0xbfe21e15737dd534	-0.5661723380750687
47	0xbf88d16ab5e21e2e	-0.012118180919301027
48	0xbfd2a6568f55cfd2	-0.2914024734266124
49	0xbfb18537b4a75f86	-0.06843898926251599
50	0x3fd302cb90cdd8f6	0.2970456041433772
51	0x3fa6da993914a494	0.04463652440819846
52	0x3fb561344349f943	0.08351446764752261
53	0xbfc9edcf51ce267d	-0.20256988043211158
54	0xbff7a1fecf54047f	-1.4770496462590754
55	0xbfe060c7400f755d	-0.511813759916247
56	0xbfe16073457c4810	-0.5430237156999755
57	0x3fc8fafb0f9f5462	0.19515932333766545
58	0xbfeadf06e612e546	-0.8397249692563171
59	0xbfca81bedf43cf3c	-0.2070845213089515
60	0xbfc9e5e2b41b828a	-0.20232805055913544
61	0x3fdfb7bc618ddaca	0.495589347140975
62	0xbfba2c1ccd226a21	-0.10223560341038553
63	0xbfdc7ed09ae210ae	-0.44524016499804986
64	0x3f9da0353612a06a	0.028931456971492166
65	0xbf91ab488f90ce25	-0.017254956972648245
66	0x3fd73703fb5d0a3f	0.36273288294993117
67	0x3fb3621eed4e547a	0.07571595471957152
68	0x3fd173f5a6aab176	0.27270261074115554
69	0xbfb60d7d9910906a	-0.08614335047656288
70	0x3f963dc52f9346eb	0.021720009831205294
71	0x3fda38a5c847d5ac	0.40970749434139964
72	0xbfc67e1fedea333e	-0.17572402111945878
73	0xbfda3439b133765f	-0.40943758301532357
74	0xbfec452ea9527d1d	-0.883445101458992
75	0xbfd44d139b3736eb	-0.31720438154012126
76	0xbfe9c7c3fb8157ba	-0.8056354438983739
77	0xbfe967aeb1e769a9	-0.793906543224968
78	0x3fccf741a3a020c3	0.22629566659475672
79	0xbf8f9246ef3347d8	-0.015415720152677823
80	0x3fca49a3c06dbf32	0.2053723039239173
81	0x3fd396e16bf0c3cc	0.3060840181452107
82	0x3fe718e00fc4e3e6	0.7217865283956797
83	0xbfecf6f8c3890d0d	-0.9051479167032156
84	0x3fd97548a71d6f1b	0.39778343505689556
85	0x3fe972493f299ae9	0.7952009423869103
86	0x3fc50b142be0880f	0.16440059797702175
87	0xbfe7284215b48fb1	-0.7236643241817459
88	0xbfc71ef78b3ad549	-0.18063253687220485
89	0x3fbea0726ea47b97	0.1196357269404714
90	0xbfe7309bd8b5e371	-0.7246836884142863
91	0xbf9d6e0dddfd2198	-0.02874013583576271
92	0x3fc928b473f624d5	0.19655471479590028
93	0x3fd169ea17d9f17d	0.27208950356705214
94	0x3fd6422dd6bf790c	0.34778924914816467
95	0xbfddb67a8799955a	-0.46426261179143113
96	0x3fb7232070b016c5	0.09037974120300436
97	0x3fe8e8d8e09f2b03	0.778423727716785
98	0x3fcef4dda034eb62	0.24184770891755664
99	0x3fc7e97ddafa4878	0.18681309883374175
100	0xbfcd55049fa6d0de	-0.22915704532136422
101	0xbfd1eb70899c9558	-0.2799950927604491
102	0xbfe19fe8b03c27ac	-0.5507701341714344
103	0xbfe1bf5aea0cb0f6	-0.5546087809830442
104	0xbfd16883decd4b11	-0.2720040965843263
105	0xbf793a436c9c5fbc	-0.006159079910297235
106	0x3fe52617ae42b367	0.6608999637152068
107	0xbf7061837471d8c9	-0.0039992461162141136
108	0x3fd429ace02427c7	0.3150436581496447
109	0xbffcf90768bfaf8c	-1.8107980815648004
110	0xbfb283917c6be978	-0.07232007300982513
111	0xbfeb16c55a05aa68	-0.8465296514744525
112	0x3fc8a5c5955a304f	0.1925589541682506
113	0x3fa9504afb8f5dd4	0.04944071121979801
114	0xbfefe7f88fccc0f4	-0.9970667656507701
115	0xbfe6b55321d69c1e	-0.7096343670754128
116	0x3fd652de368facb5	0.34880786255116486
117	0xbfac84aa13cd7c01	-0.055699648778265505
118	0xbfd40e7365aed586	-0.3133820050237194
119	0x3fe35ce0a1729922	0.605087580993118
120	0xbfd5d61ea7acc459	-0.34119383215426563
121	0x3fda3b9e6520b64f	0.40988883853683417
122	0xbf917990efbb779d	-0.017065300590608613
123	0x3fe35711e26a2de5	0.6043786451495491
124	0xbfc7f59eed9f774d	-0.1871832523601661
125	0x3feb348781094f41	0.8501622696153178
126	0xbfe697936d9c3825	-0.7060029164147222
127	0x3fbf487319592aaa	0.12219924324851186
128	0x3fbfddd35c610b4c	0.12447854047154044
129	0x3fd25ff3ca644e12	0.2871064640505391
130	0x3fc8b13699873842	0.192908120121901
131	0x3fb4aa4d3c6f812c	0.08072359776952415
132	0xbfd3327130050599	-0.2999537438336915
133	0x3fc01b3cf982351d	0.1258312433532546
134	0xbfe8c984f194844b	-0.7745995252954655
135	0xbfd2bb27aab2b302	-0.2926730315182767
136	0xbfe58880f8e0e460	-0.6729130612285523
137	0xbfc3343e32f8dd9b	-0.1500318287742005
138	0xbfa35926432beb56	-0.03778953142133072
139	0xbfa6b0244ae483e9	-0.04431260503975649
140	0xbfdce0031ed5c222	-0.4511726189730628
141	0x3fc1b72d0a1b71e1	0.13840258592143953
142	0x3ff0ecb71974a085	1.0577918047293065
143	0x3fe2ae72c402c150	0.5837949589095306
144	0x3fd699ac9195d9f7	0.3531295224887851
145	0x3fee9379d3837ca1	0.9555024272084617
146	0xbfd6327957cd079e	-0.3468306882315292
147	0x3fb986eb0eb109f9	0.09971493824654222
148	0x3faea6da4ca33e70	0.059866735320267206
149	0x3fd754b7e3f3eab6	0.3645457960225643
150	0x3fc17e75bfb38108	0.13667175159844924
151	0x3fc29f72bfa20f73	0.14549097401697572
152	0x3f537b9b7e0e204d	0.0011891382675646323
153	0x3fc8abec108330c6	0.19274664694092375
154	0xbfe0db291f2c9688	-0.5267530068274064
155	0x3fbac6971fccffab	0.10459274793993127
156	0xbfe8d7604b29c77d	-0.7762910335570578
157	0xbfc6fe44de3bf77b	-0.17963467456132406
158	0x3fcc6fecb0727b4a	0.22216566672883636
159	0x3fc97d66b8e64cdd	0.19913944271374975
160	0xbfde9cf6241476b4	-0.4783301689475181
161	0x3fddc1a0618d84d6	0.4649430229820387
162	0xbfb8804f80ac1155	-0.09570786372575431
163	0x3fe7be9a6d75a9f7	0.7420169961818023
164	0x3fb99eab3f0d4010	0.10007734574651317
165	0x3fe1092cae3b5e9b	0.5323699381796873
166	0xbffa6bcb5b978ea1	-1.6513169839680943
167	0xbf8e98580218d3e4	-0.014939010204310273
168	0xbfb9d82a955c180f	-0.10095468660810546
169	0x3fb6ff453f9f9f71	0.08983261874493366
170	0xbfb27bf086b541c7	-0.07220366753359207
171	0x3f9ef6e690ad8a05	0.03023872621577974
172	0xbfbf9cce64f20a9c	-0.1234864231537735
173	0x3fc57dd043ea7c3d	0.1679020244236841
174	0xbfd7e423e2715378	-0.3732995711664482
175	0xbfc468fed60f7782	-0.15945420696419538
176	0xbff945dea2314604	-1.5795580230372943
177	0xbf8f08a8be9fd234	-0.015153234784500126
178	0x3fb687f4ba8ad5a6	0.08801202348953172
179	0x3fab41302027d4f5	0.05323171989940959
180	0x3fc472010e38d22a	0.15972912973815429
181	0x3fd9738ef9dec634	0.39767813111675143
182	0xbfe3364ab0c0e60e	-0.6003774120537757
183	0x3fdfc404e4a82de5	0.49633905725269606
184	0x3fc4ac88d9f25792	0.1615153373901959
185	0x3fee4fb405afd22a	0.9472293959684681
186	0x3fc93f43c44a0ec4	0.19724318584859735
187	0x3fbf5e3cc6a26c87	0.12253169869875268
188	0x3fd1cb82c5e676db	0.27804631544300457
189	0x3fe0dd8354706514	0.5270401620101972
190	0x3fc1a3186aa63290	0.13778977591973218
191	0x3fd3c5d231bdee9f	0.3089490400086365
192	0x3fdc2713c8447a5b	0.4398850875603892
193	0x3fd62f59d784572d	0.3466400723130956
194	0xbfcccc6c3309ab03	-0.22498848430708315
195	0x3fbb6664d1e80db7	0.10703115582150856
196	0xbfe0ede7472616b1	-0.5290409459709818
197	0xbfe70384dc450ad0	-0.719179563726664
198	0x3fdb8a5e920745fe	0.43032039890849194
199	0x3f5393b29f883334	0.0011948818556703602
200	0xbfd0474e17486b63	-0.25435211442679967
201	0x3fd41f29bff13a1b	0.31440204376568354
202	0x3feabaea62dc068f	0.8353168421601412
203	0x3fe23d1631841f37	0.5699568717109064
204	0x3fc80766eb9d2a8e	0.1877258921106954
205	0x3fef4416c2f009b7	0.9770616347671454
206	0xbfe4ce2d665be6ec	-0.6501681327055997
207	0x3fc2eaf6cbd9d49f	0.14779553369195228
208	0x3fcc1a75e963761e	0.2195575131981266
209	0x3fdd51bdf81f4762	0.45811413984949045
210	0x3fe038471487304d	0.5068698311747625
211	0x3fdc214976501617	0.43953167489994044
212	0x3fd2b784446e832e	0.2924509685781683
213	0x3fc3144bb3a51109	0.14905687591284103
214	0xbfa84ac5838dde57	-0.04744546156774437
215	0xbfc03e2d73b276ce	-0.1268975081374521
216	0xbfe5de3f61a30a68	-0.6833798319788231
217	0xbff0c2913cf959f6	-1.0475017911718374
218	0x3fce3769d3c32508	0.2360660823817755
219	0x3fd66a80fdb3da84	0.3502504804195399
220	0x3fa108e77b18a399	0.03327105882301069
221	0x3fdde76478e25620	0.46724807553377623
222	0x3fe4a1259b9ad874	0.6446712531240011
223	0x3fcddc2831ace598	0.23328115869098265
224	0xbfd5f44933936166	-0.3430350307148927
225	0x3ff03c052ca0bcb9	1.0146533721233892
226	0x3fc3543ce2f896d6	0.1510082348115051
227	0xbf96b9d63c8868aa	-0.022193286366111543
228	0xbf9ffcc01c3bb45d	-0.031237603877276466
229	0x3fb0a82ac1a70f42	0.06506602504583461
230	0x3f8ae38be342334f	0.01312932288444704
231	0x3fdd89a5cfe16a6c	0.4615263490756323
232	0x3fd249a2c31464e3	0.28574437189815977
233	0xbfa9ae53957b16ce	-0.050158130643053064
234	0xbfc1a5c2e2412906	-0.13787113235077458
235	0x3fb04ea29c72329f	0.06369987792477126
236	0xbfdb9598cf3fa9c4	-0.43100567092065156
237	0xbfedea516c6042c4	-0.9348532788008801
238	0x3fbf664a06413c54	0.12265455868440372
239	0x3fd30fb20085afa4	0.29783296633717726
240	0xbfc31a70890ac36c	-0.1492443722868545
241	0x3fded56a2ca75986	0.4817758022376427
242	0x3fb9e10262b69642	0.10108961973181699
243	0x3fe0374dcf6476ad	0.5067509699471963
244	0xbfddffad5580b745	-0.4687302908886191
245	0x3fe7e903826e9a4f	0.7471940562725851
246	0x3fc15f14bcd3da0b	0.13571414203734408
247	0x3fdf71f0c05391aa	0.49132937223319095
248	0x3fc268c063f4004c	0.14382176285289672
249	0x3fd4cfdcad13ef8b	0.32518689062248346
250	0x3fc788b6e6fe9663	0.1838596942808862
251	0xbfb5a0c5b2d5f618	-0.084484440003472
252	0x3fd889f9c2712504	0.3834213637206434
253	0x3fbeb06cd303e6a8	0.11987953330744949
254	0xbfd4a03e49176420	-0.3222804750235486
255	0xbfd4dececad35dfb	-0.32609910781090407

model.6.bias f8 [20]
0	0xbfd29b88ace9a251	-0.29074303518294636
1	0x3f9d9b0e7eb1f940	0.028911806567060383
2	0x3fbb13276903cc70	0.10576101602400612
3	0xbf93cbf1d1f2749e	-0.01933267444529873
4	0xbfe3661aef2c7636	-0.6062140151368058
5	0xbfa4177de902ff7e	-0.03924172849065054
6	0x3fbaaae390cb0283	0.10417005810723805
7	0xbfe2d2c510d50cdc	-0.5882287338976329
8	0xbfd0f625b3925834	-0.26502363716406596
9	0xbfb0dd0b91b18f90	-0.06587288195583896
10	0xbfd0d8f0f9a3752b	-0.26324104670296106
11	0x3f7edaf2f2c64e32	0.007533024804064635
12	0x3fab3eb683450af9	0.05321283676541628
13	0x3f9278816b2dee0c	0.018037817160331968
14	0xbfc6692783554411	-0.17508405602214386
15	0xbfdb7dfc40d446f8	-0.4295645363900884
16	0xbf8a62f92522c643	-0.012884088941379384
17	0xbfd246648966f1df	-0.2855464307611139
18	0xbfe10087fc2f965c	-0.5313148427491785
19	0x3fc4140456465f0d	0.15686086857453355
