kaggle_playground_smoking_prob/cls_model_3.pt (torch, 949761 bytes, 62 tensors)

model.0.weight f8 [100, 21]
000000 6e 1e 16 a5 6c 56 02 c0 6b 65 45 c8 7f 23 03 c0
       -2.292199411141886 -2.3923335691621808
000010 52 0c 65 fa d8 38 05 40 d6 d9 95 92 2e 86 fc bf
       2.6527576028907243 -1.7827592588415562
000020 76 5a fd 31 fc 0b ff 3f 85 2d 14 11 0d 9f f6 3f
       1.9404260590287357 1.4138308207646741
000030 e4 13 5f 73 78 ed 02 c0 45 be fc 0f 21 6f e7 3f
       -2.3659523976698313 0.732315570092347
000040 d4 c5 b9 6c 83 44 06 c0 59 e7 76 e0 fe ed f1 bf
       -2.783453797740302 -1.1206043975966706
000050 9e 39 48 19 8f 4e fd 3f 94 72 24 90 8c 36 f0 bf
       1.8316794383605166 -1.0133176451264818
000060 84 e6 e5 32 c2 9e f3 3f f6 bd 54 47 a8 7c f0 3f
       1.2262594211773896 1.0304339205139263
000070 01 4f 01 84 54 19 ea 3f f0 37 5e 02 ca 3d 06 40
       0.8155920580124701 2.7801704583171087
000080 11 3a 05 de f3 ac 24 c0 6a 2a 69 31 00 80 0a c0
       -10.337798059595146 -3.3125003681391734
000090 9c 5d 4f 93 0e 5c eb 3f 91 c2 4e 2b 48 0c fd 3f
       0.854987418856513 1.8154985133843733
0000a0 2b d9 54 90 22 de f5 bf ea 64 67 e3 fa 7f f3 bf
       -1.3667321813532662 -1.2187451250995829
0000b0 10 d2 9a e8 6e ca f0 bf 0a 34 ad 84 65 d4 07 40
       -1.0494221769450895 2.9787092557294317
0000c0 10 62 92 3a c5 d7 f2 bf 5f b0 da ff 6d 4a 05 c0
       -1.1776783264123232 -2.661342619763715
0000d0 b5 23 35 43 0f 9f 08 c0 7b be 7d 28 06 a1 0a c0
       -3.0776658297149546 -3.3286250270246547
0000e0 e9 6b dd 7f 50 11 e9 bf 3c a1 42 d9 5c 8a d0 3f
       -0.7833635804521438 0.2584449884111739
0000f0 5c 2f 94 18 32 69 ec bf a6 94 53 ac f5 24 fa bf
       -0.8878412704520815 -1.6340233546737095
000100 93 5b e1 f3 0a 11 11 c0 57 b2 29 2d 06 b4 e3 bf
       -4.266643343572372 -0.6157256013953639
000110 1c cc 6a 33 25 e4 f6 bf f5 15 52 7f 41 a7 f4 bf
       -1.4306995399936175 -1.2908339475119395
000120 39 3f 90 df ce 88 04 40 13 ce 2f 51 f2 5c c0 bf
       2.5668008294959717 -0.1278365036410923
000130 bb 90 09 83 58 0a f6 bf 99 56 88 45 7d bc f0 bf
       -1.377525817742067 -1.0460179058185644
000140 96 2b 4c 6b 86 32 0d c0 29 65 bd a3 8c c4 16 40
       -3.649670446645767 5.691942747530711
000150 09 20 d2 0c e7 d3 1c 40 be d5 33 31 f3 c4 bf 3f
       7.2069360736131864 0.12409896804077555
000160 85 f3 78 ad ab 06 c8 3f b4 e6 bd f5 6b a1 c3 3f
       0.18770357103667493 0.15336369990455057
000170 f6 52 bb ce 56 1d f0 bf 7e d5 a0 47 32 f5 00 c0
       -1.0071628642519364 -2.119724807353747
000180 ae 3f 8f eb e9 3e ff bf a9 27 99 c4 5f d2 df 3f
       -1.9528598023934864 0.49721521567391364
000190 e1 03 f7 d3 7e 58 09 c0 d4 01 a2 4c 53 f0 ed bf
       -3.1682106551893274 -0.9355865952239193
0001a0 87 b7 d1 34 da 64 e8 bf 79 c7 07 d9 ed af e0 bf
       -0.7623110801339273 -0.5214757193445926
0001b0 1d 07 a4 78 cf 94 ea 3f 5c 79 aa a0 c5 0f fc 3f
       0.8306653362526252 1.7538505817425039
0001c0 11 ec dc 79 36 2a d9 3f 79 8c cd f1 13 14 17 40
       0.39320146465951306 5.769607332392405
0001d0 57 e8 ed 6d fb 46 fb bf 4a 2a cb 38 7c 10 c6 3f
       -1.7048296255220714 0.17237808964849172
0001e0 53 66 3e 34 6e c5 f3 bf 0f a0 5c c9 72 13 f7 3f
       -1.2357008019229354 1.4422481408782948
0001f0 25 64 1e 23 d4 48 e6 bf a5 99 e7 32 17 61 1a 40
       -0.6963902173912443 6.5948150590760735
000200 87 26 76 dd 29 5f 10 40 ab c5 32 42 26 4a d0 3f
       4.092933140121779 0.25452572312050376
000210 23 61 86 6e 9c 5a ee bf c4 40 50 f4 41 05 f4 bf
       -0.9485609205903852 -1.251283602094234
000220 16 3e 7c 2b 33 0a 12 c0 13 c7 d6 07 3c 03 e6 bf
       -4.509960822542345 -0.6878948357682212
000230 58 2d 42 24 9f b7 a5 3f 9c 5c 1f d8 f2 24 ec 3f
       0.04241654698952385 0.8795103284018242
000240 f7 29 79 58 ac 25 d2 bf d1 36 2e 8d bb a3 fb 3f
       -0.2835493911740338 1.727473784910604
000250 bc 9a d9 7d fe 55 f6 3f a2 9f 01 b0 16 00 05 c0
       1.3959946552292157 -2.625043273019359
000260 c7 fc e3 7d 8a 4d 09 c0 f8 e4 47 63 ff da d7 3f
       -3.1628618083192097 0.3727415532626561
000270 fb 3e d9 a6 0c 95 09 c0 a5 37 38 fa c6 75 f1 bf
       -3.197778037552664 -1.0912542127802933
000280 1a e4 e0 d3 a6 5b ce 3f 5f b7 9c 3c e1 6f bf bf
       0.23717198701504644 -0.12280090074338322
000290 fa a2 1e cb 24 ee a3 3f c1 27 23 86 68 3f 06 c0
       0.03892626742828571 -2.780961082408766
0002a0 a9 a9 16 e9 c0 da e5 3f ec ac 32 54 ad 03 d7 3f
       0.6829533150205879 0.35959943029838715
0002b0 b0 af 97 23 05 64 e6 3f e2 e8 9a c1 41 91 e9 bf
       0.6997094817320342 -0.7989815503454134
0002c0 9a f6 e5 8f b4 96 14 c0 47 de b6 83 3a 34 c3 bf
       -5.147173164759488 -0.15003138953555803
0002d0 33 d7 58 08 8c 2a f9 bf b3 89 f9 12 61 03 f3 bf
       -1.5728874517494205 -1.188324998970171
0002e0 d0 41 38 96 68 b6 f5 bf 79 5e 23 d8 39 98 10 c0
       -1.3570333354910993 -4.148658158453707
0002f0 d7 f4 90 f5 bc e0 f0 bf c8 25 50 d2 68 7a 17 c0
       -1.0548677055770008 -5.869540487424679
000300 08 4f f4 fc 39 c6 0f c0 8e 3b d4 11 ac 39 e5 bf
       -3.9717902910287 -0.6632900570128741
000310 e3 6c 88 43 18 48 04 40 2a 47 a3 ed 2d 4c f9 3f
       2.5352025295265874 1.5810984881140464
000320 da 58 f9 53 b2 b8 06 40 d6 6e 3d be 3a 1c 02 40
       2.840183883711785 2.263783918618951
000330 4c f2 bc 1f a9 8d f4 bf 98 be 0f 51 d7 02 a1 bf
       -1.284585117318005 -0.033224800725176695
000340 12 80 6b d5 bf d7 f6 bf 3b 39 5e bd 88 1c 08 40
       -1.427673181220602 3.0139326853160617
000350 63 2d 78 02 98 f6 13 c0 7d 1e 5b 5d 62 61 07 40
       -4.990814245781936 2.922550896971926
000360 bf 12 b5 15 a7 ab d1 3f 7d 2d 7a 75 94 8a f0 bf
       0.2761018478379746 -1.0338329876857124
000370 51 00 8d d7 4c d3 bf bf 6f 3f 43 8d 10 cd f6 3f
       -0.12431793463201869 1.4250646131585787
000380 b6 ef 65 b6 1e 64 01 c0 3e b2 ee 3c 6f 8a f6 bf
       -2.173886704431392 -1.4087974910900267
000390 fe e5 60 54 dc 49 fc bf b1 cc ce 64 69 b3 f2 bf
       -1.7680323883090518 -1.1688016832165824
0003a0 b5 ff 8a 7f 4a 9c e8 bf 57 00 4c 7d 87 c8 a0 bf
       -0.7690784922669908 -0.03277991680624897
0003b0 11 68 c7 4f ad fc 09 40 fa c0 dc 8e 50 2b f0 bf
       3.248377440712837 -1.0105748730239257
0003c0 d7 e6 70 7b 87 0d fa 3f 86 04 8d 91 bc ec 03 40
       1.6283030340113578 2.4905940409813097
0003d0 72 21 db 78 c2 1c 05 40 f3 fc ab cf 52 22 11 40
       2.6390428010819784 4.283519024727172
0003e0 94 4a 06 36 dd b9 12 c0 cb c5 d6 af 1e 31 fb 3f
       -4.681507915624611 1.6994921559056475
0003f0 5e 4c b5 09 98 2d 0a c0 d1 27 e9 eb b4 9c f7 3f
       -3.272262645573888 1.4757584777130328
000400 0f 1a c3 c5 09 21 e5 3f 80 7b 3d b1 51 db fd bf
       0.6602829802075706 -1.8660447047656987
000410 df 76 4a ed 0c 55 b4 bf e0 dd 0f 39 36 e1 c1 3f
       -0.07942276757463727 0.13968541895131548
000420 c4 35 a1 c2 50 25 f3 3f b9 67 54 81 46 7b e1 3f
       1.196610222122545 0.5462982679339269
000430 54 3b e2 e0 98 fd b6 bf ec df 44 26 d0 3b ea 3f
       -0.08980708589863912 0.8198014018480513
000440 3c 5e e0 12 93 c0 05 40 81 3b 38 c7 b7 d3 13 c0
       2.7190305208894454 -4.956755745703846
000450 bf 5d 57 f0 0b b5 ee 3f 53 84 e2 93 20 0c ea bf
       0.9596004194417488 -0.8139803779960267
000460 53 69 08 50 8b 74 00 c0 0b 57 ac 9e 72 b5 03 40
       -2.0569063427512133 2.4635975262016294
000470 32 e8 3d 59 63 e1 15 40 f2 09 99 a3 fe 5e f2 bf
       5.4701055473361055 -1.1481920614756942
000480 5e ac 83 48 79 1f 0a c0 cc 98 32 b1 46 a1 ac 3f
       -3.265368048208571 0.05591793931061914
000490 cd 25 6c 59 c8 32 0e c0 6c 2a 55 f6 07 a3 f2 3f
       -3.7747961984757468 1.1648025152559525
0004a0 37 b7 5a e8 58 93 e5 bf a6 8d d7 74 58 fa be 3f
       -0.67423673040114 0.1210074696787645
0004b0 f0 e9 13 14 3f d6 f7 bf ac 61 58 65 ce d1 12 c0
       -1.4898062500275238 -4.7048889002984815
0004c0 84 d7 af 90 26 1a df bf ac 99 05 a9 a2 41 d2 bf
       -0.48597110871866556 -0.28525606637995327
0004d0 e4 3d 54 23 70 7f f2 bf 95 65 97 7d ed 49 05 40
       -1.156112802509477 2.661097508604778
0004e0 56 2c 7e 1a 81 cd ed bf 5c 33 64 25 8f 4c 11 40
       -0.9313359754027128 4.324764808884392
0004f0 93 79 ab 6e 46 42 02 40 b0 e6 9e 37 65 16 fc bf
       2.282360901458739 -1.7554676220592391
000500 7c 62 86 0c 9b f7 fa 3f 69 df 13 a5 9c 9c f5 bf
       1.6854506005530814 -1.3507353256554444
000510 df fe 6d cb f5 87 ed 3f 2a fe cf 0c e8 06 f8 3f
       0.9228466962085483 1.5016861439215838
000520 8f c5 1c 09 58 1e 14 40 c9 18 e3 a7 f5 36 04 40
       5.02963270414456 2.526835738771386
000530 97 2a 1f 31 97 75 d8 3f 5c 0d 07 7e 1c 44 0b c0
       0.3821771602348831 -3.4082574697401196
000540 a0 74 da dc 7b 66 c2 3f a3 74 20 de d7 a6 fa bf
       0.14375255855421631 -1.665733211214765
000550 4a 0d ac 0b 09 32 c1 3f 11 7c 31 0f 75 95 ce bf
       0.13433945722509072 -0.23893607370243378
000560 11 10 ab 9a 42 db 04 40 f2 cc fa 16 6f 9c dd 3f
       2.607060631127759 0.46267297023878406
000570 3d c1 35 59 76 25 d0 bf 43 5a 6c f6 f0 b4 f4 3f
       -0.2522865172568521 1.2941751123340886
000580 b9 87 27 2c c4 b1 f7 bf 8c c6 33 5a f7 ed f5 bf
       -1.4808999752790284 -1.370597221710713
000590 71 00 e0 36 ae 3b f5 bf 3b 90 07 d3 f8 5a 97 3f
       -1.327070440631385 0.022807968025418495
0005a0 59 44 26 7e c5 57 01 c0 67 ab 86 34 e8 6f 19 40
       -2.167857156317535 6.359284229964806
0005b0 d9 97 54 48 1c 4c ef bf 13 e5 b5 b9 39 40 f4 bf
       -0.9780408299163766 -1.2656800512616584
0005c0 8a 35 7d fb 8d 96 00 40 c6 70 0c de 9a 2f 19 c0
       2.073512997397022 -6.296489209660825
0005d0 f6 16 26 b7 68 4c 0f 40 ae 3d fd 91 ed b7 f7 bf
       3.9123091038226177 -1.4824042990402222
0005e0 bc 84 0e 18 e6 11 05 c0 29 9d 90 2e 19 f4 e6 bf
       -2.633739650672025 -0.7172971639128366
0005f0 8a a6 58 4c 09 b2 fc bf 1e c6 b1 36 17 59 25 40
       -1.7934658987309455 10.674005231095233
000600 9f fd 95 c4 04 b4 fe bf 29 34 d9 cf 73 ae 07 c0
       -1.9189498595368162 -2.960181831184418
000610 6d 96 3c b6 26 52 f6 bf 18 59 5a b0 ab 8b ec bf
       -1.3950564497585234 -0.8920496410744674
000620 1e ba c7 7e 89 78 e9 bf 1a be 17 63 54 77 f2 3f
       -0.795964000337168 1.1541332121668177
000630 dc 4d 64 b8 ad 2b ef 3f 70 32 9f f4 bc 12 02 40
       0.9740818597223853 2.2591494666178775
000640 60 e4 1c 4f a1 07 03 40 73 eb ec e1 b5 4f f6 bf
       2.3787256413166205 -1.3944605660642224
000650 c7 f0 3d 98 f3 8a f2 3f 98 d9 4e d9 3d 3e f0 bf
       1.1589237162543655 -1.0151957024187137
000660 43 93 dd e3 99 3d fd 3f 7e 54 02 99 d8 88 f3 3f
       1.827539339160652 1.220909688655666
000670 44 fa 76 db c0 e4 d8 3f b7 18 fb 1e 51 1d f9 3f
       0.38896199638466933 1.5696574411572735
000680 e2 33 63 20 54 08 07 40 f6 76 1d e8 86 b8 f0 3f
       2.879066708590913 1.0450505320545154
000690 4f 14 9f 8b 86 57 f7 bf af 3a 56 64 c6 15 0c 40
       -1.4588685468636589 3.5106323088469575
0006a0 b9 74 bc bc 86 74 11 40 11 e2 a9 06 03 01 0a c0
       4.363795231821478 -3.25049405294363
0006b0 f1 0e dd bf 71 9d f6 bf 16 29 11 1a dd f5 f0 3f
       -1.4134385580700235 1.0600253122561916
0006c0 04 13 2b b6 64 1a 0e 40 58 68 ca dc 7f 01 09 c0
       3.7628874046225764 -3.1257321595449348
0006d0 2b f7 6a d2 d6 e7 f8 3f cf 93 65 62 51 3b fb 3f
       1.5566013545462265 1.7019819110512235
0006e0 8d 8a fd 22 0e 99 f3 3f 9c 00 f8 ce a5 8a cc bf
       1.22486699741481 -0.22298119169136477
0006f0 95 6e ce 01 aa 32 f8 bf 8e e9 8c 70 00 1d 0f c0
       -1.5123691626130598 -3.889160994816115
000700 12 af ae 78 b1 24 15 c0 79 b8 b7 44 6b 35 e6 bf
       -5.285833249723298 -0.6940208761350412
000710 bb 1d dc ad 6c 7f ea 3f ba 63 41 34 03 3c dd bf
       0.8280547519397524 -0.456787873297397
000720 b6 93 e6 f3 e5 20 0a c0 ea e5 ba 77 19 28 04 40
       -3.266063600038673 2.519579825774362
000730 bb 8d 4d d3 cf 0d e0 3f 85 dd d5 58 f8 f3 f4 3f
       0.5016860129366515 1.3095630140431649
000740 6c 9b 41 d8 c6 9c c9 3f 7a d7 da 1c 11 d3 c1 3f
       0.20009694632900776 0.13925374897888415
000750 9d fa 1d 7d 77 1f f1 3f c2 e9 21 b7 7d 0a cd 3f
       1.070182312716191 0.22688266222014702
000760 70 aa c9 f6 4b c6 e7 bf da e4 ae 32 89 13 e6 bf
       -0.7429561443398836 -0.6898847570329523
000770 25 14 e4 66 04 39 fe bf 67 be cd 84 bd a0 ec 3f
       -1.8889202136208578 0.894621619589043
000780 ea d0 b9 bf 7d b5 b8 bf 9d 09 a6 2e d4 bb f8 3f
       -0.0965193360405611 1.5458566496095962
000790 2a d8 f6 7e 65 7e 03 c0 63 bf 7b 72 39 6e fb 3f
       -2.4367170256691866 1.7144102546698938
0007a0 e8 de 42 c2 f9 6a e9 bf bd 30 ae a2 8a 5e d5 bf
       -0.7943085474171001 -0.33389535795937403
0007b0 c0 8d b0 e3 36 64 04 40 16 7d 67 18 8b 91 00 40
       2.5489328182463566 2.0710660845358104
0007c0 43 b0 a9 9f 91 0e e9 3f 2e 79 ea 0e 2b ea fe 3f
       0.7830284231581647 1.932169969811706
0007d0 85 6a 62 60 ca ff f6 bf af 45 73 d5 8f fa 22 c0
       -1.4374488606469253 -9.489378614732088
0007e0 70 33 ff 3c 77 f4 08 c0 af 4e b6 50 6f d5 03 c0
       -3.119368053949465 -2.4792162233005324
0007f0 f4 ef 1c e5 3d c8 f7 3f f8 15 0b af 3b f5 ff 3f
       1.4863871526458725 1.99737137199679

model.0.bias f8 [100]
000000 47 bc 22 82 1f d2 f3 bf 4e 7c d2 91 3f 42 00 c0
       -1.2387995799470148 -2.03234781192399
000010 6a 25 82 2b 8c 09 13 c0 36 73 e8 48 22 7f 08 c0
       -4.759323768442622 -3.0620771118105052
000020 97 d8 ad d5 6f 10 0b c0 d5 ec 4d 01 cb 3a 0a c0
       -3.3830258077314954 -3.278707513990961
000030 b7 eb a0 d7 de 48 e8 bf a0 c8 11 0e 2f cb 0c c0
       -0.7588953219886808 -3.599210843961444
000040 5f 53 8d 4a 41 0d 0a 40 93 2b f8 c4 67 74 d8 3f
       3.2564721893672153 0.38210481868071006
000050 1d 05 13 8c fa 87 db bf fd 5b 16 53 b0 5d 15 c0
       -0.4301744811928801 -5.341492937316613
000060 2b e2 c3 32 40 0d f7 bf 34 c4 b7 cf 26 c9 d0 3f
       -1.4407350523962446 0.26227731976456714
000070 5e e4 4a 2a c9 a5 08 c0 13 f5 d6 32 e7 bc e2 bf
       -3.080950098429226 -0.5855594628298227
000080 6e 7f 2a 56 71 45 fd 3f 9f cd 21 95 80 5b 0d c0
       1.8294537893161436 -3.6696788454953118
000090 7a a0 da 11 25 b4 ee bf 64 ab f2 08 63 ec 13 c0
       -0.9594903324805408 -4.98084653836381
0000a0 1d 70 b9 f4 96 10 01 c0 32 a8 f3 01 e0 35 0f c0
       -2.133100425633542 -3.901306166885683
0000b0 c3 52 28 3f 2f 40 13 c0 81 8f dd ab 85 6c f8 bf
       -4.812680231891764 -1.5264946664328536
0000c0 1c 10 c0 4b f3 7f cb bf 6a 49 d5 6e 98 89 0a c0
       -0.21484223555319282 -3.3171852740135153
0000d0 12 03 8e 48 13 4f 02 c0 0f b3 20 23 42 e0 13 c0
       -2.2886109989489194 -4.969002293463531
0000e0 5e 11 0b 05 5a 7c ee 3f f0 57 d7 95 36 0e d6 bf
       0.9526796434879932 -0.3446175063412502
0000f0 4f 0b de 66 44 15 db 3f f7 9c 72 4c 80 60 0e 40
       0.4231730465473235 3.797119710204807
000100 b5 6b 91 ff 80 22 fe bf 67 0d a2 f7 cd 13 03 c0
       -1.8834238036276763 -2.384670195229478
000110 f7 06 37 d0 c1 ff e3 bf 20 cc f2 b8 f4 68 09 c0
       -0.6249703470895999 -3.1762480210395694
000120 10 45 73 17 11 7d 0b c0 57 7b ba 8a a7 84 13 c0
       -3.4360677558949035 -4.879545371658273
000130 0c ec 4d ee 19 27 19 c0 9c cd 08 24 a3 8c 02 c0
       -6.2881848559436655 -2.3186705413042557
000140 20 41 84 06 d9 3b 0b c0 33 59 c2 9d 6e 75 e5 3f
       -3.4042225369559134 0.6705849724992617
000150 d7 f8 f6 e9 72 63 f8 bf bb 0e 43 43 8c a9 08 c0
       -1.524279512333626 -3.082787061199125
000160 c2 e8 39 80 11 0a fd bf fe a6 d2 f4 c2 d8 08 c0
       -1.814958096393227 -3.1058405997072205
000170 3e 18 87 60 98 14 12 c0 3e b9 4c 81 9a d4 11 c0
       -4.520112522359396 -4.457620640094602
000180 91 8c fa d4 9c 65 fb 3f aa f3 45 cf 81 3b 03 c0
       1.7123077697258717 -2.404056186029682
000190 b2 a1 3f ea 01 16 07 c0 db 13 f8 db 63 6c de bf
       -2.8857458401364164 -0.4753656051764758
0001a0 1a 53 16 de 90 83 05 c0 b1 98 92 48 04 c5 08 40
       -2.6892411566317493 3.0961995763528525
0001b0 53 db 81 83 87 49 0a c0 02 2e b1 d2 08 93 09 c0
       -3.2859030031208163 -3.1967941723175963
0001c0 da 90 cc 80 49 61 c4 3f fc a8 1a 8e d7 cd 01 c0
       0.15921896733301005 -2.2255087949644103
0001d0 41 49 ef 32 cb f9 09 c0 5f 73 27 9a 6d 50 f8 bf
       -3.2469696025156343 -1.519635774769277
0001e0 30 9b 33 aa 40 18 e0 bf 2b d4 cf fb 7c 83 fe 3f
       -0.5029605221032849 1.907101615562406
0001f0 cb 20 29 8e 64 df 0d c0 3e 3a 9c 73 23 50 f8 bf
       -3.734078512792711 -1.519565059282868
000200 c8 59 ab 66 6f 12 0e c0 56 4a 62 28 f4 0d 0f c0
       -3.759001543144425 -3.8818133502002565
000210 46 b6 7d 72 24 78 11 c0 b8 05 a8 de 0b 58 10 c0
       -4.36732653515134 -4.085982779507894
000220 be 1a 22 04 45 bb 06 c0 c6 54 24 82 6d ba f8 bf
       -2.841440231600557 -1.5455145915669148
000230 73 01 19 88 00 7f 06 c0 24 72 de 88 28 7d f5 bf
       -2.8120127327567217 -1.3430562349741502
000240 6c e4 46 d6 4a c4 14 c0 8d 9e ce be 32 ae 0f c0
       -5.191691730572625 -3.9600577265553683
000250 f7 c3 d3 3a 46 c0 0b 40 43 23 a0 f0 e2 71 11 c0
       3.4688839527011583 -4.361217269681961
000260 f9 a1 bc 27 21 8a f6 bf 14 99 4f 87 4a 56 13 40
       -1.4087230255337302 4.834268678887629
000270 37 e5 34 00 4e d1 f8 bf e9 49 23 d5 48 f1 05 c0
       -1.5510997779914086 -2.7428146983522663
000280 34 4f 41 7f fa 77 12 c0 7c f1 55 2d 91 68 06 c0
       -4.6171665080653845 -2.801058153329164
000290 98 19 0c ca bb bd 03 c0 53 c8 5d e9 49 c5 0b c0
       -2.467643335813772 -3.471332381414905
0002a0 7c 67 54 85 de 37 e2 3f a9 0e 05 c0 6a 8a fb bf
       0.5693199733825476 -1.7212932110568693
0002b0 64 87 31 0e f2 41 0d c0 e3 e1 81 09 dc 91 0f c0
       -3.657199965368749 -3.9462204687845186
0002c0 a3 0c 42 63 d6 7f f4 bf 34 77 31 97 42 91 0e c0
       -1.2812103154435952 -3.8209277927370753
0002d0 1f 25 9c 8b 67 47 f6 bf 7d ee 93 86 51 d4 05 c0
       -1.3924327329171502 -2.728671122922434
0002e0 6d 8e 2d d3 22 8c e9 bf d9 c1 81 29 3e 46 18 c0
       -0.7983564495629715 -6.068596504730942
0002f0 0d d0 05 88 e3 a6 f9 bf 24 6b e3 eb 8b 53 02 c0
       -1.6032443345438907 -2.290794222715151
000300 14 c8 46 08 6d 69 e7 3f 6f fa e3 3c 2b b6 e4 bf
       0.7316193734789089 -0.6472374142902718
000310 8d ae 6c d4 b9 35 f5 bf c0 f3 73 72 52 bd 01 c0
       -1.3256166742166073 -2.2174424115787303

model.2.weight f8 [100]
000000 d5 67 62 8a d2 cb 07 40 db 8d 20 62 48 88 02 40
       2.9745226680069927 2.3165443102059107
000010 eb 3c 5c 98 4e 52 0a 40 ab 5e 3f a5 9a d5 0e 40
       3.290188970866088 3.8542988691295554
000020 48 e0 03 71 84 a4 04 40 2b 81 4f 5d e6 d3 06 40
       2.580330737047948 2.8534667291534297
000030 a9 d7 2a 38 2e 2b 03 40 fb e3 cf ad bb 0a 0d 40
       2.3960842502665014 3.6302407816951905
000040 76 80 ea 18 63 68 04 40 e9 ff 61 22 79 6f 06 40
       2.5509702631534834 2.804430264106476
000050 03 a9 9f f4 00 9e 03 40 8d c7 8b 35 73 11 0c 40
       2.452150260088389 3.508520525291664
000060 4a a1 38 48 b3 c2 05 40 20 22 56 85 75 09 06 40
       2.7200685159952274 2.7546186844740674
000070 60 28 45 a2 19 3c 09 40 e6 e4 3e f4 fa 97 0a 40
       3.1543457677226314 3.324209125680329
000080 c9 b7 c1 65 8d c4 0a 40 b5 e6 a3 5d 83 61 0d 40
       3.3459728193038 3.6726138415950467
000090 a4 3d 78 95 d6 b7 08 40 ee 34 33 3d 13 db 0c 40
       3.089764754993398 3.6069702893497526
0000a0 30 7b 50 63 64 dc 0a 40 67 1e 0d 1b f8 83 07 40
       3.3576133498130716 2.9394380677584198
0000b0 74 66 c4 68 fa 14 05 40 c7 e3 ae 87 c0 f3 0d 40
       2.6352432427345835 3.7440195656058424
0000c0 62 fa f3 b6 c1 cd 0b 40 b5 39 e3 62 39 cc 09 40
       3.4754671376424975 3.224718830642099
0000d0 ec 0f 6b de ed 28 09 40 e6 dd 11 0c 2d 9b 0a 40
       3.144984948770789 3.3257695143654358
0000e0 a3 71 44 2c 7b 3a 07 40 39 71 56 9d d7 47 09 40
       2.9035552461993617 3.1600792209630097
0000f0 9b a7 b8 ad 62 5e 07 40 a4 4b c8 9d 53 62 0e 40
       2.9210866519906182 3.7980110480070426
000100 3c 81 7e 25 6a 2f 0f 40 fa 0c e8 d8 37 ba 03 40
       3.898151677058335 2.4659268327537776
000110 bb 3c e6 1a 9f 1b 05 40 8e 33 07 02 e4 a0 07 40
       2.638487062598498 2.9535598905990303
000120 1f 6e 84 3e 1e 79 07 40 e5 bb dc ba ba f2 02 40
       2.9341397174992063 2.368520221577898
000130 2f 7c 90 0c 99 ab 01 40 6f 07 e1 c2 b0 b2 1c 40
       2.208788011702857 7.1745024156424355
000140 96 15 a6 ab 16 9f fc bf 42 43 53 36 a5 dd 03 40
       -1.788839979651447 2.4832252735290306
000150 20 8b ad 84 f9 32 04 40 28 71 59 ac 00 ab 01 40
       2.5248899808369885 2.208497377852968
000160 a8 4b d7 64 ce 50 11 40 39 4e 8f ce b8 ee 0a 40
       4.3289123302846875 3.366563428638781
000170 c8 c6 e4 eb b6 52 08 40 89 6e 14 6a a3 90 01 40
       3.0403879574958843 2.1956241881833347
000180 75 64 72 b3 41 4e 04 40 8e 34 71 4c e0 14 05 40
       2.538211252144317 2.635193440632583
000190 60 2c cf ce 4f 67 af 3f f7 a6 bd 2a dc 75 05 40
       0.0613350810959552 2.6825488413932095
0001a0 64 3d 35 df 3f d8 09 40 d0 f3 db 4d 71 84 0d 40
       3.2305905759928226 3.689669235491671
0001b0 49 92 29 7d f1 50 05 40 4c d0 4a 1d 32 84 0f 40
       2.66452310355297 3.939548710675842
0001c0 7e 55 4e fa cd b4 0b 40 28 e9 d0 e3 e3 4a 10 40
       3.463283496394694 4.073134956003095
0001d0 76 c8 e0 12 92 f2 0a 40 cc 6d e6 8c 75 0f 0b 40
       3.368442676052889 3.382548428327686
0001e0 10 c3 70 a3 2a 8b 0a 40 9f 5d 0d 35 55 d9 03 40
       3.3179524201190205 2.481119551153554
0001f0 a1 01 00 22 9e 07 0b 40 77 5e 90 eb 07 ff 10 40
       3.37871958315391 4.249053650557122
000200 79 b1 d8 2d 8e 54 05 40 81 89 3a 35 e8 9d 08 40
       2.66628681008859 3.0771030577172387
000210 61 8c 44 af 02 a2 07 40 b4 d9 57 bc a1 02 00 40
       2.95410668304389 2.0012850488958183
000220 2f a2 de 22 34 84 07 40 4f 09 67 15 78 86 05 40
       2.939552566928135 2.690658728796883
000230 04 7f 05 54 69 38 07 40 c8 90 4f 13 96 af 06 40
       2.9025446476151746 2.8357354649216155
000240 bb 82 16 f7 f7 22 06 40 63 e5 0b 03 62 60 04 40
       2.7670745185608587 2.547061942863978
000250 5e 9a a8 9b 40 af fb 3f 2d 56 b4 0b 64 94 06 40
       1.7302862244047428 2.8224564470681544
000260 df 78 9f f6 4d 1a 02 40 a3 75 b5 d2 ab c3 10 40
       2.262844015828804 4.191085140538607
000270 ed 1e 07 37 37 9c f8 3f 6c b3 11 ac 29 2e 08 40
       1.53813859458199 3.022540420808971
000280 fa ad 1c 13 46 b0 fe 3f 90 47 0e 8f e4 7a 0a 40
       1.9180355784000072 3.310006253836896
000290 b2 56 4e 65 11 fe 07 40 79 76 a1 ad bd 77 0a 40
       2.999056617215353 3.3084672512912303
0002a0 12 59 57 46 de c2 09 40 8a 3f 71 90 9b 13 0d 40
       3.2201505179792855 3.6345740589676483
0002b0 e8 38 78 30 66 bc 06 40 97 92 18 63 74 71 07 40
       2.8419917856873447 2.9303977720140426
0002c0 76 c2 aa 5a d0 aa 0f 40 29 aa b7 8c 89 3e 0d 40
       3.9584052165376375 3.655535792689325
0002d0 4b 2a 83 49 67 81 09 40 ab ce cc 3c 2b 9c 08 40
       3.188185285868973 3.0762543439867236
0002e0 ac 31 93 ba b3 01 0c 40 d3 6a 8c 8b cf b6 0b 40
       3.5008310867471746 3.464263048384376
0002f0 b2 fc e0 f6 c6 aa 12 40 1b f7 f3 81 cf 4e 05 40
       4.66677461384022 2.6634817268922126
000300 5a 32 7f f6 cb b1 09 40 fa 76 66 bd c9 ee 06 40
       3.2118148095671986 2.866595725717045
000310 5b 5a 4e 25 9e 85 06 40 2f 8b 83 13 43 27 09 40
       2.8152430452858375 3.144170906497855

model.2.bias f8 [100]
000000 15 04 72 61 a8 df f7 3f 6d 04 f2 2a f2 0e cd 3f
       1.4921039396724656 0.22701861473982224
000010 0e 3d be ef 41 5d f8 3f 2b 01 3d 1b d1 0d fe 3f
       1.5227679600682822 1.8783732475277002
000020 97 aa 50 cf 94 ee d4 3f 02 2e f9 cc 41 1c ef 3f
       0.3270618462144425 0.9721993449579147
000030 ce 1f eb 51 60 6c f2 3f 78 48 e0 de 52 0c fa 3f
       1.1514590454043971 1.62800871907214
000040 11 67 68 a5 0f 70 f1 3f 41 91 56 64 de d2 ef 3f
       1.0898586713069032 0.9944908103684967
000050 b0 cb a6 4b 37 3d f0 3f fc 82 cf 0f 4e 91 01 40
       1.014945312036371 2.1959496722414524
000060 00 9d 52 2e a9 47 f0 3f 6a 46 4f 4f 05 7a c1 bf
       1.0174953279000079 -0.13653627750913994
000070 45 d8 e0 16 f3 5c e5 3f 81 ba 64 3b 5a 49 e2 3f
       0.6675963827935979 0.5714541587856986
000080 4d fa 5d 22 53 63 f5 3f 9c 96 da 36 54 e5 e8 3f
       1.336749204870688 0.7779942580570665
000090 24 32 48 43 f0 aa f7 3f 3a 0b a6 39 44 c8 fc 3f
       1.4792330387309756 1.7988931896113187
0000a0 d0 fc ce 78 b5 42 e0 3f a0 d8 f5 2f 2d c6 f1 3f
       0.5081431731740853 1.1108829377604152
0000b0 5a 47 96 9c f2 48 ef 3f 9c e8 13 f9 ee 52 02 40
       0.97765474875835 2.2904948672485954
0000c0 9b d5 6a 1b f1 37 01 40 ef 67 a1 44 36 09 e3 bf
       2.152315344045474 -0.5948745098532963
0000d0 ab 6a ff f3 23 0c fd 3f a2 be f7 7c da 44 dd 3f
       1.8154639750634185 0.4573274822605332
0000e0 6b bf 60 c5 42 12 d4 bf 58 e6 6c e9 32 e7 d2 bf
       -0.3136145522612341 -0.29536125941704006
0000f0 9c 4f b8 3d 5b 8a f3 3f 55 1a 71 56 b1 ff 02 40
       1.2212784205375788 2.3748499634996656
000100 01 94 32 4e a0 b6 ed 3f 8b 43 a2 ff 3c 38 e7 3f
       0.9285432364746385 0.7256150238846301
000110 9a cc 7d ce 34 4f f5 3f 8b 02 bb 43 07 af f8 3f
       1.3318374696798743 1.5427315374110175
000120 e7 81 9e 1c d6 55 fe 3f d5 b8 09 89 84 5a f7 3f
       1.895956146043426 1.4595990517660102
000130 92 53 80 48 74 98 f3 3f cf bf 6d 2e de 19 0c 40
       1.2247202713090002 3.5126308085673155
000140 33 ff 95 e9 f5 5d cc bf a5 04 0b c4 89 39 f3 3f
       -0.2216174498134876 1.2015473993235812
000150 e8 e5 5c 02 c2 80 d5 3f a9 93 e4 78 c6 01 c7 3f
       0.33598375540495207 0.1797416773125893
000160 37 07 45 e8 66 41 d7 3f 21 d8 a5 92 67 f4 fb 3f
       0.36336682016927874 1.747169087260325
000170 cb eb 99 3f 02 ae f5 3f 79 d7 bc 75 35 5f ef bf
       1.354982613031768 -0.9803721713603714
000180 7e 5b 11 77 bf 8c e2 bf 03 fe 50 51 b4 04 a2 3f
       -0.5796811414282812 0.03519214146262686
000190 f2 ef ca 08 9e 34 c2 bf 60 76 03 7b 82 24 e3 3f
       -0.1422307532246801 0.598206749211112
0001a0 a3 a4 f5 65 98 18 ee 3f 5d 9a 43 bb 01 0e 81 3f
       0.9405023566624958 0.008327497031541837
0001b0 a4 7d 90 bc d7 1a ed 3f 35 ad f9 1c 1b 89 f5 3f
       0.9095266993426105 1.345973122772944
0001c0 0d 21 50 1e 9e 1b e2 3f 6d f5 d2 71 ed 0a 02 40
       0.5658712951708665 2.25533570218129
0001d0 b3 a7 09 1a 3f db ea 3f 16 f6 b1 87 b6 4b fc 3f
       0.8392634876774906 1.7684846211044536
0001e0 3a 69 05 a3 51 d3 f6 3f fe c8 b8 91 d1 dc 71 bf
       1.4265915267956886 -0.00436097968081328
0001f0 a7 20 8a 40 e6 ec f0 3f d5 5a 7d 93 5d d6 fa 3f
       1.057836773021373 1.6773353349032523
000200 b3 66 ab 37 9a b9 b8 3f a3 28 29 21 d3 d6 f5 3f
       0.09658206805343177 1.36494744256428
000210 ba 31 70 86 30 27 f3 3f 25 66 c8 77 d3 fc d3 3f
       1.1970677615637286 0.31230627725162413
000220 3d 1b 3b e3 d2 36 e5 3f 23 ac 15 09 aa e7 f7 3f
       0.6629423559287272 1.4940586428517768
000230 55 57 2f 59 7e 19 fe 3f 6f bf 9c 83 1a c2 d0 3f
       1.881224010828608 0.26184714176905904
000240 10 87 11 e2 a6 f3 c4 3f 33 1b b7 48 f9 b1 e7 3f
       0.16368566549777386 0.7404753132076166
000250 52 53 47 85 7a ec d8 3f 05 38 17 2a 83 42 e3 3f
       0.38943350806703336 0.6018691846927601
000260 f1 a2 c5 90 08 f5 e4 bf ee 96 1d 7a df 4d fd 3f
       -0.6549113109186618 1.83151195241356
000270 f4 36 76 3c 28 e2 e3 3f b3 02 b6 ba 8e e1 f2 3f
       0.6213570767301619 1.1800677579305272
000280 1f 60 a6 39 09 11 e0 3f e9 df 7d 44 d7 7e fe 3f
       0.5020795942282382 1.9059670138794849
000290 71 d5 84 5f c8 75 ff 3f 0c 03 6d 35 fd 68 f9 3f
       1.9662555438238452 1.5881321036287686
0002a0 02 50 f4 a5 ea 72 d3 bf a1 81 fc 51 6a 21 ef 3f
       -0.3038889523170384 0.9728290177627522
0002b0 a0 f9 19 b5 02 3b f4 3f ce ed 0e e3 65 44 d2 3f
       1.2644068788791643 0.2854246823660248
0002c0 a4 01 f7 13 a2 0b 04 40 28 fc b3 53 56 1b 05 40
       2.5056802329783796 2.638348249368864
0002d0 1d e7 26 e0 f2 55 fc 3f 14 0b b9 54 08 fa 01 40
       1.7709835773407072 2.2470862025233007
0002e0 e6 df a8 2e 25 84 01 40 eb 62 e9 54 88 bd fd 3f
       2.1895240445410193 1.8587725941526354
0002f0 a3 88 17 8e 0e 75 03 40 01 ae 4f eb bd cf c5 bf
       2.432156667798226 -0.17040227880293915
000300 64 d4 69 bf ee fd fa 3f 30 88 e5 67 4d ac f0 3f
       1.6869952656827758 1.042066007467394
000310 2b ba 4d b2 76 4e e0 bf 64 8f d2 09 9c ef f8 3f
       -0.5095780832760445 1.558498419160025

model.2.running_mean f8 [100]
000000 e3 03 37 53 5f ab 1a 40 6a 16 7f fb ec c6 e2 3f
       6.6673558237389186 0.5867829238929521
000010 d3 59 86 e1 ad e8 ed 3f 4e b5 6b 08 a7 88 e8 3f
       0.934653225401059 0.7666812099902616
000020 f7 95 35 d8 d0 50 f3 3f aa e7 8b 7a 0b 6f f6 3f
       1.207230419700293 1.4021105563137817
000030 a8 f8 3c 15 b9 97 0a 40 c1 50 62 92 8e 5e eb 3f
       3.3240834864837616 0.8552925929129956
000040 e1 89 3c eb a1 97 1d 40 79 f0 98 b5 d7 20 03 40
       7.398078609056456 2.3910364329622635
000050 56 18 95 b3 08 d8 06 40 c7 8f 01 7b 9c 41 f5 3f
       2.8554853467822268 1.3285183720517908
000060 1c 2a 6c 86 4c 36 06 40 6e 71 eb 8a 7f 4c 33 40
       2.7765131475218947 19.29882114647028
000070 f7 e3 ee 54 c3 8e bc 3f 6e 54 59 5f 4c 5c f6 3f
       0.1115533907276499 1.397533771950545
000080 45 fa 97 f4 25 67 11 40 2d 0a 89 27 56 a4 e8 3f
       4.350730726028421 0.7700606128858617
000090 0a 2e 49 cd 41 2d 03 40 09 1e 78 75 d1 bb e9 3f
       2.397098163409969 0.8041770262070155
0000a0 be 3b 82 21 c2 04 08 40 21 77 eb 64 43 ac e8 3f
       3.002323400294215 0.7710282298173504
0000b0 00 7a 52 9d c5 f5 fe 3f 79 90 99 c2 5a 2a 02 40
       1.9350029130361008 2.2706809237588996
0000c0 1b e0 ee 68 e7 d6 11 40 8b cf 61 bb 3a d4 f3 3f
       4.4598671336935025 1.2393138236629706
0000d0 22 ec e7 0b d4 58 e9 3f b2 5d f1 11 3b 59 ef 3f
       0.7920932991540932 0.9796424246259703
0000e0 08 39 08 33 e6 97 03 40 4d 0c c6 cf e6 6f fb 3f
       2.4491695391544717 1.7148197284848437
0000f0 70 8c 46 1e 6b 06 01 40 c5 78 ea 48 d7 1b 23 40
       2.128133999374363 9.554376867887536
000100 45 b0 e0 0e d7 d1 fa 3f 63 91 8b ad cd 29 f8 3f
       1.6762304860267403 1.5102059153660654
000110 68 18 4c 73 42 a6 12 40 ce f0 09 fb 09 d7 c5 3f
       4.6623628630824 0.170624969079546
000120 5c e2 9d 03 71 7f dd 3f 5c 2a b2 50 66 4d 88 3f
       0.46090340951153563 0.011866378152508954
000130 a3 92 54 0c 2f 51 f2 3f 3d 93 ad e1 68 91 0b 40
       1.1448202592520509 3.4460008269401485
000140 b0 07 1c 7e 5f 36 e1 3f 0e 53 23 c2 62 f4 09 40
       0.5378873313022634 3.2443289916067277
000150 97 03 e3 b6 10 be f4 3f a3 b2 c5 37 ef b2 bb 3f
       1.2964026588453856 0.10819907294871682
000160 b1 20 de 57 1a a8 11 40 8a 0f 9f bf c9 d2 f4 3f
       4.414162991459464 1.3014619336326825
000170 00 a5 45 7f 4b 6b a3 bf 90 c2 db dd a5 e5 55 3f
       -0.037927970205439365 0.0013364906112053633
000180 84 7f 76 19 8f aa 23 40 c8 04 05 d1 e1 bd e5 3f
       9.833123012271024 0.6794289667524476
000190 4c 3d 2a e8 d9 b0 e4 3f a9 0b 7b 87 56 8d 00 40
       0.6465882811043371 2.069012697641899
0001a0 22 c6 14 91 29 ac f3 3f 60 f2 a4 96 6d ad 13 40
       1.2295318286163668 4.919363359277298
0001b0 71 cf b7 f0 16 4c bb 3f 02 60 d9 a1 4f 87 f6 3f
       0.10662978531746405 1.4080349275809572
0001c0 61 8e 03 22 1b 35 05 40 c1 b6 be 6e 9b 07 00 40
       2.6509306580863243 2.003714432902456
0001d0 ed a6 20 33 65 d0 06 40 64 eb 90 31 97 15 f3 3f
       2.8517555231418243 1.1927711425948582
0001e0 5a 43 8d 21 d2 21 04 40 38 47 f8 8c cd 07 14 40
       2.5165140744433474 5.007620051053713
0001f0 cc 1a b6 02 e0 59 d7 3f 2a 79 13 f3 3f 42 09 40
       0.36486053719310685 3.1573485365216998
000200 30 96 8b 27 3d 82 ed 3f 29 4b 61 8f 02 20 d2 3f
       0.9221483013504379 0.2832037353702384
000210 ba 43 e7 32 08 71 f0 3f 74 01 96 15 83 97 aa bf
       1.0275957096493884 -0.05193719519138798
000220 f8 02 8a a9 f4 9c ee 3f ea 6f 22 9b ab 7e 0b 40
       0.9566596328077983 3.436850749958457
000230 22 33 ac c5 b0 48 08 40 b4 67 5b 74 18 35 fd 3f
       3.0354934161354246 1.8254627747723875
000240 4f aa 5b 39 3f c5 a5 bf 7f 6b 4e 16 dc 8b d2 3f
       -0.04252049994632456 0.28978635958053894
000250 02 a8 df 2c 17 b2 1e 40 66 b2 31 87 22 5e b2 3f
       7.673916531706711 0.0717488842071333
000260 2b 15 15 f4 b9 a9 e1 3f 72 9c 19 fc f5 cf 22 40
       0.5519685523255807 9.406173589826924
000270 6b ca 12 a7 69 c7 fb 3f 42 2b 21 17 55 05 e6 3f
       1.736184742575143 0.6881509258031218
000280 8a 46 60 0b 3d f3 bb bf 2f 28 44 5d 04 a7 04 40
       -0.10918027427421798 2.5815512930321556
000290 ac 7b 72 34 92 20 d3 3f a8 34 8e 96 c1 19 b1 3f
       0.2988629829578098 0.06679925847693602
0002a0 d0 5d c0 3e 97 e7 03 40 6e db 8f 00 ed c6 ef 3f
       2.4880814459281524 0.9930329333281926
0002b0 0d 3b 46 eb 5a 8b c1 3f 6f 7c 75 b7 da e1 f8 3f
       0.13706528175358593 1.5551402250637485
0002c0 6a 53 64 5b 02 18 09 40 aa d1 cd 5d a3 fc f3 3f
       3.136723245619966 1.2491792358606326
0002d0 6a 61 fb 09 6a 79 18 40 7f a3 23 63 50 2f 15 40
       6.118568569152879 5.296205090570651
0002e0 bf 08 01 4d 2b 42 15 40 d3 d7 68 56 69 05 d3 3f
       5.31461830443203 0.2972052902072139
0002f0 de 1e 30 c1 3f c7 0a 40 5f 4e 6f e9 16 88 f6 3f
       3.3472895710764154 1.408224975447318
000300 ca ed 1a 30 ba ef 15 40 0f 10 90 4c 48 a3 0a 40
       5.48410868801461 3.329727743288465
000310 9f 97 57 b8 a6 35 01 40 85 4c fb 65 5a b2 05 40
       2.1511968995791473 2.712086483699354

model.2.running_var f8 [100]
000000 a2 3e 8c 41 3a ef 4c 40 82 2f 24 e2 64 e3 1d 40
       57.86896533344158 7.47206452699527
000010 90 86 03 6c 77 58 28 40 04 89 35 ab a5 e9 1b 40
       12.172786117010475 6.978171038763552
000020 06 0d e7 67 f3 c7 29 40 7a 7f ed 5a 4a d3 34 40
       12.890528914408161 20.825353320105457
000030 92 44 2c f7 10 56 38 40 8a a5 78 ac e4 09 2d 40
       24.336196373279172 14.519322766997693
000040 e7 fd f5 83 fb fa 49 40 0c 30 44 b5 7e c1 50 40
       51.96080064307517 67.02335864695505
000050 c0 42 2c ae d9 f1 37 40 76 91 60 44 ef 5a 2a 40
       23.94472778874001 13.17760671309291
000060 d0 07 30 a9 8a c1 3f 40 9f 51 65 dc 10 d5 4b 40
       31.75602204725857 55.66457705447396
000070 0d c5 71 f2 62 0f 0d 40 f8 c1 06 27 dd ba 30 40
       3.632512945267655 16.729937018537356
000080 70 17 08 65 e1 0d 41 40 ea 1d 3b 2a cc d3 22 40
       34.10844099898429 9.413667030064023
000090 b9 60 ab 3b 8c f2 37 40 41 75 82 45 2e 6f 1c 40
       23.9474522870448 7.1085749493479975
0000a0 30 12 3f d8 ac aa 31 40 f6 e2 36 46 7f c5 1c 40
       17.666699901006893 7.192868325328837
0000b0 c6 dd a3 7d 14 7b 2f 40 7b b5 e3 6d d8 f2 30 40
       15.740390707257472 16.948614948361392
0000c0 1b 3a 7b b7 78 0a 45 40 21 39 8a e1 4e 00 28 40
       42.08180898205702 12.000601814387268
0000d0 64 ea 2b 19 fd d4 26 40 3a ca 19 e4 87 96 22 40
       11.415993486986913 9.294005516193568
0000e0 e8 c7 9b 3c fc 48 31 40 88 59 06 c9 72 79 28 40
       17.285098827393 12.237203866982568
0000f0 c5 27 83 ee ce 59 3e 40 33 1b 17 1d cb f7 54 40
       30.350813776989316 83.87177207237691
000100 dd 6a da a7 dd be 32 40 45 9d a5 c7 1f 76 36 40
       18.745569697212762 22.46142242234534
000110 8c 89 65 48 c2 ad 43 40 da 01 49 0b b1 d5 fa 3f
       39.357491540507084 1.6771707955195923
000120 62 1a 37 35 88 08 14 40 a9 a7 df 58 87 fe 1d 40
       5.008332091797088 7.498563183451474
000130 3d 9a f9 8f 0d bb 22 40 e4 30 a8 8a b6 f6 49 40
       9.365337847918562 51.927445728420736
000140 12 19 9b 0c 34 f9 11 40 f7 e5 e6 b2 ed 97 3b 40
       4.493362614599635 27.593470746394782
000150 0b 19 b4 c6 21 cf 34 40 c0 1d 92 f7 3e a5 04 40
       20.80910913369102 2.5806865064111832
000160 2e 4c 6f 83 be b6 3c 40 ce a8 80 43 49 7d 32 40
       28.713844504043827 18.489399165068612
000170 8f e4 72 c8 30 9b e5 3f 7c 38 67 34 3b bd f1 3f
       0.6751941599860788 1.1086990401268215
000180 cb 91 81 17 ac 0c 47 40 ae 53 c7 38 48 ab 16 40
       46.09900182558666 5.667267691770503
000190 6a 78 ad 87 15 ea 1d 40 55 cb a2 27 cf b5 2e 40
       7.478597755396644 15.355096090910289
0001a0 62 f9 10 8f 5e f9 25 40 82 9c af 70 18 48 50 40
       10.98704955179409 65.12649171018168
0001b0 52 72 85 8b 3c 1a f2 3f dd ef 55 a5 af 35 27 40
       1.131405396466239 11.604855696430542
0001c0 86 fe f5 65 db 0d 39 40 4d b7 47 70 9e 97 35 40
       25.054129002148805 21.592261331089777
0001d0 81 b1 08 66 6e ea 36 40 a7 91 15 e6 47 ad 2a 40
       22.915747048494726 13.338439169056825
0001e0 22 6c c8 ed 5b e7 35 40 41 12 b4 ba 83 f2 42 40
       21.903746472769974 37.89464505951447
0001f0 22 8a bd 38 35 50 17 40 ff 01 00 69 06 1d 3a 40
       5.828328024452761 26.113379061223892
000200 7e 34 13 51 31 8a 23 40 5c f9 2b c0 91 fb 00 40
       9.769907506555906 2.122836591093046
000210 39 08 cd 0e 10 83 20 40 0c 25 d1 1a 3d 99 e1 3f
       8.255981886413894 0.5499558948296523
000220 38 e1 31 90 ab 14 25 40 a2 62 ca ba b2 3f 3e 40
       10.540371423806036 30.24882094803855
000230 7b 47 5f 51 4b 4e 42 40 b2 42 e0 50 a3 c7 34 40
       36.61167351867967 20.779835753203493
000240 fa 9d be cb 56 f0 ff 3f ba 9b 9d 7a 4a 17 1c 40
       1.9961765249989853 7.022745052213333
000250 58 57 67 d5 ca 8d 43 40 e2 3d e3 38 29 3f f1 3f
       39.107752490481914 1.0779201719450318
000260 3d 23 65 24 09 23 1e 40 d7 2c bc 3e 60 9d 51 40
       7.53421456210418 70.45899933220367
000270 af f5 1a b2 95 5e 30 40 4e ac 05 e1 9d 3d 1c 40
       16.369471675474127 7.060172573062188
000280 69 c2 07 34 37 6c ec 3f e9 79 a6 fb 39 dd 36 40
       0.8882099167077061 22.864166000503165
000290 da 75 ca 4b 74 25 04 40 a2 dc 5b c3 50 dc 0b 40
       2.518288223377323 3.482575918427373
0002a0 98 9b 72 69 4c 55 34 40 01 05 8c 52 2c 41 32 40
       20.333197203140656 18.254582556900463
0002b0 79 aa 39 9d 13 2f 02 40 70 92 55 d1 d5 c0 30 40
       2.272986629793476 16.75326259936486
0002c0 b5 d7 f9 db cd 31 40 40 aa 26 9c fa 5d be 2a 40
       32.389094826692066 13.371810752450376
0002d0 41 9c c8 23 48 c1 5b 40 6f 60 02 2e e6 89 53 40
       111.02002806273323 78.15467405540561
0002e0 9b d8 cd f8 ba 54 53 40 d4 d7 20 19 ee a5 24 40
       77.32391185857925 10.324082169779935
0002f0 52 26 90 36 4f ea 40 40 de ca 6b 1b 36 f5 2e 40
       33.83054239309844 15.478928429516085
000300 47 19 6a d9 a1 b8 49 40 3e d7 8c 18 33 b2 36 40
       51.44243924790003 22.696092161545714
000310 6b 1c e1 fb d4 fd 32 40 b7 54 f0 24 f9 98 35 40
       18.99153112645983 21.597551640200177
