kaggle_playground_smoking_prob/fold_0_cls_model_3.pt.pt (torch, 950621 bytes, 62 tensors)

model.0.weight f8 [100, 21]
00000000: e0f4 9247 283a fa3f 7247 5f51 95e7 fcbf
00000010: 243f e67c ebd3 ebbf a826 df3d db63 ecbf
00000020: f536 b36f ae48 09c0 b2b8 42cb e3b0 07c0
00000030: e205 6819 651a e6bf 2d24 ea2b ac41 e4bf
00000040: 7387 e4f4 bec9 c43f f02d fc0d d2d5 e63f
00000050: c572 011d dfd5 df3f ac90 cdf0 9a6f d1bf
00000060: fbb1 5b6e 684f f23f 53e6 ace8 4a9b d63f
00000070: 2187 5e51 ced8 f4bf e4e2 dde9 8ece fc3f
00000080: 960a 6a2e a44c 99bf e287 d3a4 497c e13f
00000090: 5eda 2bc2 1ac6 0240 8210 6c1b 5aa6 f9bf
000000a0: dba3 9ad3 e35d 08c0 b760 f652 15b1 0540
000000b0: 6a1b 8a71 2cee fdbf 7b96 8cff a93a 09c0
000000c0: c618 1fc8 64dd 10c0 7249 1dce b5c2 f3bf
000000d0: e0a0 8395 dc3b eabf c919 955a 65ea 86bf
000000e0: 4313 ef5c 15cb f73f c8aa 7d25 5739 eabf
000000f0: d035 1758 8849 e23f 2977 53fc c02b f1bf
00000100: b5c2 8013 8d4b f43f fcc4 d656 d38e f13f
00000110: 648e 0ff4 2ca0 fabf ab9c dd26 626f c43f
00000120: 3dc3 bbe7 b0bf f8bf 67e7 be51 6732 f6bf
00000130: 6c36 34eb b062 b43f 444a d8f4 7817 0140
00000140: 83f9 f4d1 e7b2 f3bf ef05 69a1 cfb3 ecbf
00000150: f35c b9f2 fa40 fd3f 3aff c0b5 9921 f23f
00000160: 7bb6 f50b 267a 8abf 8bd1 e334 e5fe b0bf
00000170: e7f9 1faa 5ae6 f0bf 7e96 00d7 035d 02c0
00000180: d69b 415e fa34 dd3f 4901 b238 e645 823f
00000190: 3cbe bf9b 3e33 e23f b976 6bd3 9f27 b33f
000001a0: 66ef bf8d 4a2d d9bf fac5 253f bd6f e53f
000001b0: 7303 f35a caab c9bf 1922 2d31 0ad8 e0bf
000001c0: 09ed 8a86 f0d1 e03f a21d 8859 b259 efbf
000001d0: c33d 9abc 40c6 dabf b03a 8ab2 4d1e d9bf
000001e0: 20fd 3776 4bb1 29c0 e54d 0bf4 fb7a 02c0
000001f0: f4d8 7101 7cd7 f23f 6f2c c3fa 604d f9bf
00000200: 1d13 08eb ed07 9bbf 507a f566 5212 0940
00000210: 7ef2 3ea3 a54c ff3f e4b9 83ec 1ac9 f3bf
00000220: 9e12 0e89 db8f f0bf 31b7 08cd 1b43 0a40
00000230: f7e5 e658 b088 0340 1ee4 8bc8 0763 0540
00000240: eb61 b10d f704 f63f 9832 be06 a420 f23f
00000250: 210c 1f3f 13ce e23f 0c87 7b5f ff7e e03f
00000260: fc12 2c36 9300 ea3f 33aa 042e 339b d9bf
00000270: 4d80 c289 c43c dd3f 9569 3da7 b428 fc3f
00000280: ed06 f3e4 a929 0640 9276 61f1 0f69 b6bf
00000290: 22f2 f232 b864 0740 6897 cd76 637a e63f
000002a0: 7e64 e100 123c d93f 79c6 9f77 dd68 f2bf
000002b0: 4fba 1719 bd23 db3f 6301 1990 a3c0 06c0
000002c0: 5242 220c bacb 05c0 d8b3 5c1d 9d27 05c0
000002d0: cade 631c b0a8 e6bf 60ee fd3b 2677 02c0
000002e0: 29f9 b314 47c8 edbf 95c3 311a 9f66 0e40
000002f0: c40b 6b37 621c 0040 6317 948b 3938 e63f
00000300: a1c8 3040 4ade 0040 9db2 5321 cea2 f1bf
00000310: 2ff4 7d5c df89 c63f 8e55 5bbe 6283 f0bf
00000320: a954 011d 4d5f e4bf 4569 48b8 8d7b e6bf
00000330: b70c e2de 9d9b d53f bcad 6332 76c3 f23f
00000340: 6dd2 8ca8 eba3 e7bf 3843 9e4d 761d e3bf
00000350: e798 67d9 cf09 f6bf db9f 3cd3 14d1 843f
00000360: b63b e285 d82a 0740 a279 57d9 02d1 c2bf
00000370: 3676 2927 0377 d8bf 5f45 25b4 0b38 04c0
00000380: 3dc0 7573 51cb c43f 0f07 97be 6f50 efbf
00000390: 40b0 acd6 da9b de3f dc43 8dab edb3 fe3f
000003a0: 1c38 a1a4 0463 0a40 2f78 6b4c 4b66 07c0
000003b0: 1680 a55b 4023 0640 3b1a ea11 43e8 953f
000003c0: d716 1736 e8f2 f5bf 7c0d 808d e979 fc3f
000003d0: ed76 7e2c 100e 06c0 bb04 aa1a 3646 fb3f
000003e0: 6bce 5dee e56e 0540 2184 45fa b5a6 fb3f
000003f0: 2487 29df fffc d43f 0631 bafe f4c1 e5bf
00000400: 5ada af64 567b 953f da3e 9587 cac3 00c0
00000410: 42c6 badf ddb9 e33f a6e7 2c2f ec45 c33f
00000420: 309c dbeb eded 1340 6cd7 06f6 1684 0f40
00000430: 381f 4174 b916 d8bf 7dbc 7da7 ca17 fe3f
00000440: 4da4 a544 9b03 ebbf 7079 120b 6e1f f63f
00000450: 2063 3298 9b42 f53f 9dce d2f5 0b42 ffbf
00000460: 62cb cf6a 45f8 e6bf d5b8 364e f914 f3bf
00000470: 2bee 9ffd 3c86 f73f d7a1 a502 3ee1 d53f
00000480: 810d 421b bc97 ffbf 5837 7ac4 ef71 06c0
00000490: c81c 8439 daf9 efbf f3c5 20ab 23bc c73f
000004a0: 9a57 9068 51bd e5bf 8790 dddb ad63 04c0
000004b0: 2cb2 8219 9a6a 0fc0 eab0 cdf8 13a2 e0bf
000004c0: 9ec8 38f1 50a2 ccbf 7703 99b1 e7cc d93f
000004d0: baa4 ed96 ed4a 5abf 1bdc cbd6 227d 06c0
000004e0: 9821 2b53 ac6b f23f 3a1b b4db 5376 f33f
000004f0: 8e55 b1c1 5072 e83f 9993 a043 e408 e93f
00000500: cc06 fc91 9d43 1040 cb8b 2388 d0cf edbf
00000510: 55cd abeb 9e75 f4bf bdde ae90 fbde 00c0
00000520: 6437 a7f9 e8a7 f3bf c042 89e0 03a5 dfbf
00000530: dc79 bcb1 a23f 1040 ba75 0b28 27c6 a13f
00000540: 4e60 768d eddd 1b40 2562 0dc5 95d4 f6bf
00000550: a4f2 8db2 a00c c23f 0c60 146a 6f24 efbf
00000560: f8cd f1b5 61fa 02c0 1b45 3831 61d1 d7bf
00000570: 9eba 245c 8a66 f6bf fcf1 2020 f1da f03f
00000580: 96a0 d54e 6d79 e13f c569 9112 0233 d43f
00000590: 3cc2 2a9b 2d91 e13f ad52 4ef1 5c21 d43f
000005a0: 9ded 6a90 abf5 f23f 952f 301d 50db f2bf
000005b0: a5e7 aa9d 8021 c93f 5ad8 4bbc 595c df3f
000005c0: 1c97 299c aee8 93bf 3b65 49c2 6c04 cbbf
000005d0: e318 7a11 bb75 f93f bc5a ceac fe68 0dc0
000005e0: 3aba f780 053c 0d40 8da4 d9a8 e03f a03f
000005f0: 42b6 f717 5382 e7bf acff f1c0 0889 d1bf
00000600: c89e a181 f508 e43f e7a9 fe11 ddb9 f0bf
00000610: a9c2 0465 57a1 f9bf 7685 4a6f e098 dbbf
00000620: bac7 0bcb 5ea5 debf ba56 5e63 1316 cebf
00000630: 79b1 536f 64f3 dcbf 949b ee37 be36 2ac0
00000640: 266d 17a4 c746 e93f 9b7a cfbf 2cb2 0240
00000650: fa45 35c1 1b54 9b3f c3ee 1bcd b256 bd3f
00000660: 0d91 8cce 0b3f e73f fb73 c8db 8b5b e6bf
00000670: edf6 3b39 0503 d0bf b560 223f 9eee da3f
00000680: bd5d d64c fdd4 01c0 0161 79ae 7d07 ef3f
00000690: 2931 6ad8 b60d fa3f d880 43b5 ec28 fdbf
000006a0: ffe2 0922 eaa5 f1bf 431e f64d 1ad9 f5bf
000006b0: 3e43 2bcd 024f ecbf 16f3 bb81 4158 c4bf
000006c0: a80d 7991 9a13 d03f ae76 2353 5203 b33f
000006d0: c978 5d7c 1200 e53f df58 ea46 787b f43f
000006e0: 4f99 d218 fc7b fdbf 8957 5fbc 0c9e e53f
000006f0: e402 d697 9185 dd3f f4d7 6b49 685a 22c0
00000700: de27 b2d1 b8ef c13f 0cf0 abd0 8a1d 09c0
00000710: 786c 0c08 f974 eb3f c21f 44ef 8070 cfbf
00000720: a3d2 6180 cdaf 9d3f 9d02 6fb3 6982 f5bf
00000730: 00a1 7a94 f4ba fd3f 80c5 ee5f bd3b fe3f
00000740: d5b9 7a1b 72b7 e6bf 32db 1ec3 336b f8bf
00000750: 59d5 1aa8 f207 0540 1ade dfc3 09bc d93f
00000760: 0f9e eecf c669 f83f e9c7 93f9 9e64 f3bf
00000770: 031f 163d f668 e0bf 274c 2de5 9094 e13f
00000780: 0277 f965 9453 0140 b359 87cb 2089 d6bf
00000790: 54d8 0bfe e12b e9bf ab63 3db8 61c5 0140
000007a0: 1fe2 0875 ec5f 0540 dfe0 1c36 2ea4 f63f
000007b0: 1150 e823 074a 05c0 0266 f5e0 619c d8bf
000007c0: 0c53 9ee1 caac 06c0 01e9 90e0 c1d7 ec3f
000007d0: 0ec2 24f1 0e8c 1240 251a ac51 e345 bfbf
000007e0: 3168 7ae3 9a4d f63f 7dd3 09c7 7dae 15c0
000007f0: 541c faeb 138f f3bf 6bad d8ec 5f7e b43f
1.6391985698567666 -1.8065388849831518 -0.869619125312941 -0.8871895035201378 -3.160488960892389 -2.96137198254936 -0.690722036000974 -0.6330166681010546
0.16240679700518576 0.7136011384149565 0.49742868263801326 -0.2724368430701911 1.1443867026201804 0.3532283088894463 -1.302931135033255 1.8004292617244397
-0.024706425984286705 0.5464218348754424 2.346730725253379 -1.6031132765938598 -3.0458447009627725 2.7114664536894355 -1.8706478533874482 -3.1536445584086414
-4.216204764268872 -1.2350366641372514 -0.8198073311041547 -0.011189262225013945 1.4870809202413546 -0.8194995624774828 0.5714761467476652 -1.0731820923314876
1.268445087607842 1.0973695175310345 -1.6641053708671274 0.15964915178048975 -1.5467995693290526 -1.3873055642311216 0.0796309065082938 2.1364611748224736
-1.2311781121676126 -0.8969495918792613 1.8283643227967417 1.1332032298814299 -0.012928292503342256 -0.06638939419992178 -1.056238808203142 -2.2954174801878358
0.4563585205527806 0.008922384839252688 0.5687554399464214 0.07482336913696032 -0.39338935702084254 0.6698900445318821 -0.20055512848741905 -0.5263720474695815
0.5256273868357378 -0.9796993015924509 -0.41835039537633295 -0.3924745791963842 -12.846278852781836 -2.3100508752774993 1.1776084953722235 -1.5813913150220988
-0.026397435636698597 3.1339462321914553 1.9562126519005285 -1.2365979422426046 -1.035121474619849 3.2827678697857654 2.4417426057304925 2.6733546893779154
1.3762121710661812 1.1329689277073722 0.5876556618535497 0.515502630700412 0.8125701959657756 -0.4000976514240932 0.4568339677152878 1.7599379093941014
2.7703435789743396 -0.08754062312206148 2.9241794567481216 0.7024400062916643 0.39429140172939714 -1.1506018326585077 0.4240563149495857 -2.844061971438508
-2.7244759509997403 -2.644342641250187 -0.7080917887205598 -2.3081783949726713 -0.9306979565006134 3.8001081510960355 2.013859208063396 0.6943633772031997
2.108540059555779 -1.1022473623117215 0.17608253494464196 -1.032076591092252 -0.6366334501750731 -0.702582225730375 0.3376230885116444 1.1727201431593661
-0.7387598316186775 -0.5973464504223562 -1.3773954861040296 0.010164416023670178 2.895920797316161 -0.14700351345431978 -0.3822639353219047 -2.5273660730241967
0.16245477807706435 -0.9785689089260091 0.4782626244002621 1.9189278317683067 3.2983486997318447 -2.9249483080193595 2.767212596882028 0.02139382168618396
-1.3718034851930747 1.7797637488700664 -2.756866786584274 1.7046414414947282 2.6791494963052194 1.728200891135437 0.32794186394868263 -0.6799263930456909
0.020978307624284966 -2.095601138345825 0.6164388055532941 0.15057136825072098 4.982352910307824 3.9394969197118623 -0.3763869891449647 1.8808085005400976
-0.8441902485620943 1.3826733047968354 1.3287616677463987 -1.9536246874312504 -0.7178065382162055 -1.1926205687737383 1.4702730090347227 0.34187269457336583
-1.9745446266905164 -2.8056331014439984 -0.9992495654450062 0.18542905670032858 -0.6793601076376377 -2.5486714531890047 -3.927051734257722 -0.5197849139636024
-0.22370349672707318 0.40313141196752816 -0.0016047783098776373 -2.811101606460864 1.1512873886841586 1.2163885671777295 0.7639545233784462 0.7823354073376435
4.066030770308952 -0.9316179903947782 -1.2787160116102616 -2.108878259979831 -1.228493666847009 -0.4944467251525957 4.06214406693331 0.03471491206958484
6.966726503706083 -1.426900644050087 0.14101036756973884 -0.9731976577631953 -2.37225668090991 -0.37215452009793787 -1.4000342940668484 1.05345261144896
0.5460726299034089 0.31561328709872455 0.548971942005728 0.31453631939920507 1.1849780694309182 -1.1785431995549278 0.19633491228688374 0.490011628993107
-0.019442299157524365 -0.21107253538756673 1.5912428553288513 -3.6762670040583014 3.654307372627298 0.03173734723243014 -0.7346587627523109 -0.27398890344920335
0.626093629060926 -1.0453768446847052 -1.6018899866141203 -0.43120585315963156 -0.47884340122902425 -0.23504869796732014 -0.4523554885079402 -13.106920001866264
0.7898901181137361 2.3369994149391693 0.026688035647856247 0.11460416324183158 0.7264460596238976 -0.6986750881802658 -0.25018435086518204 0.4208140961213858
-2.2289987566871035 0.9696644218156792 1.6283482030585879 -1.8224913673985181 -1.1030064897187797 -1.3655036015860709 -0.8846448905188493 -0.1589433558910051
0.25119651991209446 0.07426943330525645 0.6562588147169431 1.2801440019734895 -1.8427697152743183 0.6755431822918904 0.46127738788349704 -9.176576895155428
0.14012823332842478 -3.1394249250861375 0.8580289036939481 -0.2456208389560271 0.02899094673235204 -1.3443390854955972 1.8581434059106527 1.8895848986979615
-0.7098932778079027 -1.5261724111457622 2.6288807995976353 0.4021019375645395 1.5258243677470806 -1.2120656727897716 -0.5128127282232245 0.5493854976761029
2.16581039111668 -0.35211963535166574 -0.7866067849961476 2.2213777917608772 2.6718377250038112 1.4150831331044669 -2.6611464314719417 -0.384544820486184
-2.834371340412309 0.9013375650459069 4.636775749081165 -0.12216015571548462 1.3939465413918806 -5.4204016780612365 -1.222431108269821 0.08005332500822752

model.0.bias f8 [100]
00000000: 0c92 f8f3 aa0c 0bc0 16d2 918f b326 e7bf
00000010: e476 e01c 23df 05c0 af97 a3b9 7b86 fbbf
00000020: 4204 ec29 280c 02c0 50bc a121 95b7 e33f
00000030: e677 5702 539b dbbf 13b7 764c f986 c8bf
00000040: e51f f30f 795f febf 7671 25ee eac2 fdbf
00000050: 785f 6b9b c27e ffbf 9206 b80b 40f1 f43f
00000060: 29c9 890b 2f42 f0bf 4445 3614 8bf1 f1bf
00000070: dfda 6415 5792 0840 3156 d114 1122 0bc0
00000080: b5c8 2f26 98d1 09c0 b74b dc0e c261 05c0
00000090: 7d74 6875 73cc f0bf eae7 223d 1888 f5bf
000000a0: 8946 d726 664f f5bf 0228 f647 0e8e fd3f
000000b0: 804c 61bc 90e3 fbbf cf38 1b7a 3598 f73f
000000c0: 0e73 f428 ba9b e1bf 3810 28d3 0798 fa3f
000000d0: e13c db40 3047 fbbf 5e14 5d59 bab0 f5bf
000000e0: bc2b c2ab 50f4 03c0 ee84 8f8f 54e9 f1bf
000000f0: a90e e580 5a0c fcbf cc14 a509 fb4d 04c0
00000100: 65b8 d3f3 9337 07c0 4c6c ec46 d1f3 05c0
00000110: b9b7 f514 1266 07c0 e5d4 f82e fc16 08c0
00000120: e17b ea2d c1b9 f8bf 2e64 324d 64a0 01c0
00000130: ecf4 4735 cb70 d4bf b9ab fe5e 0dad f9bf
00000140: 8fec 5f82 2e53 07c0 5352 c032 e27a dabf
00000150: 9e74 53c4 9674 0340 ad4f 58b0 b56b 01c0
00000160: 2e4d fadd 83c0 f4bf fa99 ed3a 74d9 f83f
00000170: 955e b1d9 0365 00c0 3c91 f1c1 c0dd d33f
00000180: 5ea6 ad14 b203 0440 4236 23f7 3f34 fdbf
00000190: 1204 d827 8957 00c0 09c8 2b0d 5e8b f4bf
000001a0: 7d38 ffa2 df9c 0e40 c00a de19 4a76 c5bf
000001b0: 45e4 2744 cda4 f5bf e34f c04c 8952 f1bf
000001c0: c61c 63f4 609b 0440 e430 21b5 4e87 d6bf
000001d0: d261 0c44 a8fb fbbf 045e e9d3 2df6 d43f
000001e0: dc61 57fa c921 ffbf 0334 daed f9bf fb3f
000001f0: 882e df0d 6a7e 0340 b6fe 2f18 abdf ebbf
00000200: 65dc 05ce 07ca e8bf e560 ba9e 75ee 0ac0
00000210: d973 29ab 00f3 e5bf 5895 9155 8854 eebf
00000220: 3221 38ef 844b ebbf 42ec b5c1 cb71 fdbf
00000230: 5d5b f1fa c2fd b03f ee8d 76a3 7fbb 0c40
00000240: 4dea f013 841d 01c0 a5e1 ea82 94c7 e1bf
00000250: 1285 54a7 4a25 d9bf a90f cba1 0b1b ef3f
00000260: 78b2 7a9a c38f 01c0 a360 6385 4b15 fcbf
00000270: ff6a 38ce 1ec7 f43f a817 b34c 1bfc 04c0
00000280: 5148 8ffc 997d 06c0 ba6d 47d9 4988 e6bf
00000290: ccde 06d2 bcb6 00c0 684c 406f 74e5 0dc0
000002a0: d416 5fab 6073 cdbf e0ca f22d 131b 06c0
000002b0: c004 853c 1c8b f1bf 8a56 b86a 954a f13f
000002c0: 20f4 23e6 13bf e5bf a64d 495f 19b1 ffbf
000002d0: 4e99 f79f 2bc1 efbf 64e1 0361 11a8 a3bf
000002e0: bc9d 3445 6126 0bc0 d3a4 3cf6 fde7 fcbf
000002f0: 8857 d86d 28a8 07c0 8e2b 3c56 8202 fe3f
00000300: 5d3b 75c8 41ab f1bf 24e7 1184 e482 f3bf
00000310: 5b49 4275 0cbb 0840 844e a465 f37a e9bf
-3.3811854419930167 -0.7234742931455596 -2.7339536911011795 -1.7203328372502076 -2.255935981288105 0.6161599785681435 -0.4313552401416686 -0.19161907418804755
-1.898308813384568 -1.8600873282040005 -1.9684473105498608 1.3088989694373692 -1.0161581469261114 -1.1214705266505272 3.071455161228513 -3.391634142530869
-3.227340982754948 -2.6727334176043445 -1.0499147974253724 -1.3457262409342499 -1.331884528848976 1.8471815882680862 -1.743057952747023 1.4746603746203168
-0.5502596664333355 1.6621168373394664 -1.7048800023510966 -1.355646466328174 -2.494294492591022 -1.1194654090725709 -1.7530159983588567 -2.5380764726165577
-2.90213766565198 -2.7440515080357155 -2.924839175938328 -3.0112231893241295 -1.5453502458183197 -2.203316310024568 -0.3193843860934311 -1.604749079774349
-2.9156160531543445 -0.4137502189271675 2.4319281900375946 -2.1775926377249193 -1.2970007582669711 1.553089361370097 -2.0493237502340187 0.3104097265225112
2.501804505872129 -1.8252563146410385 -2.0427420723722287 -1.284025241326619 3.8265984281670726 -0.16767240775160097 -1.352734819635104 -1.082650470551919
2.575868520044966 -0.352008511433054 -1.74893976766008 0.3275255746316079 -1.9457492617567516 1.73436921034886 2.43672571980807 -0.8710532638942456
-0.7746619247326519 -3.3664352799061015 -0.6859134047514274 -0.9478189154876118 -0.8529686615229706 -1.8402822081395844 0.06637209536107265 3.591552044921392
-2.139412074842119 -0.5556128079397707 -0.39290109959445474 0.9720514450095737 -2.1951973026937672 -1.755198975608473 1.298613362835283 -2.6230989448694864
-2.8113288623072 -0.7041367763262578 -2.089227333864846 -3.737038487577184 -0.2300835453772182 -2.7632201757163415 -1.096462475208952 1.0807089012863877
-0.6795749182634871 -1.9807370874521921 -0.9923303722724002 -0.038391631214781424 -3.3937402159387755 -1.8066386812809483 -2.957108362354976 1.8756125801616892
-1.1043107824695746 -1.2194562109929814 3.091332355580716 -0.796258638877092

model.2.weight f8 [100]
00000000: 6d6a 18a6 e3ae d6bf 6535 f355 512d da3f
00000010: 2403 a270 325a 0640 0a97 61ed 8ae7 df3f
00000020: 922c 987c 9d7e b83f 8136 817c fca9 f63f
00000030: 6bb2 c168 953b f33f 104e 0bc7 c11f d03f
00000040: 35a5 9461 bcac 0640 a07e ab36 bb8c 1140
00000050: e6c2 49ce f3fe 0e40 b274 673b cfcc ddbf
00000060: 40c4 1e87 158c 1640 e8eb 2f54 b7ec c6bf
00000070: fa55 4019 0741 f33f 49b7 5ea1 4d87 ea3f
00000080: 6347 01d5 3b89 efbf af9c e32a 550b ee3f
00000090: 9c7e 5b78 8984 1240 617a 5044 4be2 0240
000000a0: a9fb 4315 0d58 1340 eaa0 21a1 f277 ba3f
000000b0: e147 dc0b 8fff f53f 2852 7c55 9062 fd3f
000000c0: 98eb b5b8 254e 1940 deb1 0e49 d5fa 0640
000000d0: ef7f fa0f 56b1 1640 dddd 75e0 c38f 1040
000000e0: 1209 c9b7 d724 e33f 8340 65d6 713c 0c40
000000f0: 35b8 8596 c65f dc3f c7a5 479a 64b6 0840
00000100: 63a3 d759 5e77 d4bf 2911 6d3b 00ca 0240
00000110: 9c7e 0df5 83c9 0a40 f15b 7eb9 6bd3 f53f
00000120: 1acd 0cda e54a e0bf 76ae 132c 8912 d1bf
00000130: e7e7 25c6 3e4c 0d40 632c b72c f350 1040
00000140: de88 9d3d 26bb e73f 2353 c8c7 921e ea3f
00000150: d4c8 382a 895d c93f c8f8 522c fdb5 1140
00000160: 0527 eecd 6c81 0340 2f93 dad9 137d e13f
00000170: f2e5 d548 bbfd e33f 826a 9964 0db1 0940
00000180: 4438 065f 5e61 d03f 3ac2 75f7 fdd2 f03f
00000190: 8c67 3696 328b 0240 1aaa 5d17 ded4 f83f
000001a0: 27bb 3e1f 4f1b f03f e02c b017 11f2 0e40
000001b0: 52c5 a801 a385 f53f 6539 2d87 9d45 f43f
000001c0: 8287 4c76 995d 0440 54d1 1203 4ef0 c13f
000001d0: c069 d182 180c 1440 6b90 1904 024c e23f
000001e0: 00e7 4d57 1582 fe3f 4313 43cb e0de 0040
000001f0: 610e a817 8965 0540 70cc 35bf 449f f13f
00000200: 7fec 41df 01f2 d1bf 336c cb4e 6339 c0bf
00000210: c21d 00b3 a93a 0d40 527f b614 b4d3 e83f
00000220: 3d77 094e 7492 0840 1e30 42e7 d894 69bf
00000230: da84 7308 021f fc3f 02dd 8bad a380 c6bf
00000240: 5fc1 3f41 c0dd f53f c0d2 6a16 f213 fc3f
00000250: 7968 8491 16a1 e7bf e0f5 1215 ce4f ea3f
00000260: 1361 5c6b 62d1 d1bf 895f e66a 8100 fd3f
00000270: 0d5e d39b 4aca ebbf 79de e718 01d5 db3f
00000280: 6f39 2e4f 03fa 0040 160c 6d77 3953 1740
00000290: a473 25c6 f5a6 f93f f2f2 01df 1c75 f5bf
000002a0: 498b eced fc43 0640 3c38 dc0b b78b fd3f
000002b0: cbb1 211a 0b0a d7bf 66d9 440e 6979 0340
000002c0: 4104 d137 9bf3 c9bf 7e2c 09c1 fa7d 0040
000002d0: ed21 51e0 815a f53f e0a8 3013 9faf f63f
000002e0: 6f51 f837 b59c 0940 030e bb1c 74e1 0440
000002f0: eabe 316a 01bb e9bf 99c5 06e7 c993 0440
00000300: 8ed9 b299 c2a3 fc3f fadf 0b9c d38d f93f
00000310: 7dfd 0109 f7e8 e93f d347 cb49 8713 f93f
-0.35442439289332733 0.4090159739833637 2.794041519111845 0.49850724393614654 0.09568199436050609 1.4165005553690266 1.202046784596997 0.25193829000383605
2.8343436835754354 4.3874329130336776 3.8744884601841134 -0.4656255798452761 5.636800872090191 -0.17909900294020464 1.203375910413682 0.8290165092237
-0.9855021629575557 0.9388833844831391 4.629430656990419 2.360495122629161 4.835987407945972 0.10339275773879178 1.3748922789859466 1.8365634288103454
6.326315771201642 2.8724771220788474 5.673179864563266 4.1403956481876465 0.5982473935658013 3.5295140027665766 0.4433456869072672 3.089059071837912
-0.319785678612382 2.3486332552585236 3.3483962197058883 1.3641164060443283 -0.5091428049840119 -0.26675633720763103 3.6622291069333985 4.079052637748734
0.7415953830170812 0.8162320997240368 0.1981669860993579 4.42772359138889 2.4381958092025138 0.5465182547528452 0.6247230932778491 3.211451326305281
0.2559429100009576 1.051511732712369 2.317967580352109 1.5519696152429163 1.0066672535428525 3.8681966639174874 1.3451261582198026 1.2669959335649648
2.5457028619866273 0.140146018505798 5.011812252074776 0.5717783050609005 1.9067586336445288 2.1088271980137576 2.6745778892671273 1.101383921541835
-0.2803959541558427 -0.1267513403643946 3.6536439880762552 0.7758427052067225 3.071510896362183 -0.00312273372589368 1.7575702982069772 -0.17580076192800936
1.366638426665382 1.7548695445704396 -0.7384140817769228 0.8222418223955934 -0.278404812664591 1.812623422219959 -0.8684437793226053 0.4348757498951055
2.1220766244870712 5.831273904829706 1.603261732109993 -1.3410919867739577 2.783197268277409 1.8466101134577135 -0.35998799850383695 2.4342824091683495
-0.20274677491582518 2.061513431637251 1.3345965158824769 1.4178763150799156 3.2015175221114798 2.610084747751672 -0.804077823076992 2.5721624421064004
1.789980507264406 1.597125634723851 0.809688108056363 1.5672676928120282

model.2.bias f8 [100]
00000000: 2002 e2d3 3805 763f 180a e1fa d60e b4bf
00000010: 2307 f158 b448 f23f 5305 9ec4 4fb2 d1bf
00000020: 923f a44c ae3f dd3f 84f8 b3ec bb1c c13f
00000030: 4839 3132 f31d e33f 7b39 39d0 5401 d73f
00000040: 030e a592 1827 dc3f 6992 01fc 0fbc 0740
00000050: 89ee a63c 4ec0 0340 df69 85ac f6d9 ed3f
00000060: 797c 3974 f6a8 0740 34a4 a3ab 499e d73f
00000070: b60e b039 d6ba e23f 6c43 b37e 1d45 cbbf
00000080: 4b3e 89d2 ceac debf 5e55 9c1b ed34 e73f
00000090: 389a 9b96 1a61 0940 aff7 e780 64ac ec3f
000000a0: c486 9978 e8f9 0540 0075 a006 7d4c b63f
000000b0: 17e2 bf7e d923 e23f 28fe 8f7e a943 fa3f
000000c0: e234 dba6 320c 0540 6e00 8491 c4e3 d9bf
000000d0: f149 eb15 17ff 0140 f32f e7fb 11e8 0340
000000e0: 98fa 2b94 4857 a43f 5547 b7f4 19d1 fc3f
000000f0: 4f02 0b91 bb5a b3bf 8dd9 cb9d 5692 fe3f
00000100: c680 89ee b0f6 e43f 9cb8 60b8 d071 f03f
00000110: 163f 0b3b ed8d da3f 3526 df6c 8cc3 b3bf
00000120: ca69 eddd 43e9 c83f 4095 5131 2ec0 e13f
00000130: 6b35 f255 4014 0140 948b 45f1 d42c 0940
00000140: 75b3 c4a0 5b4c e6bf 1764 1ce2 c46d d0bf
00000150: 7c67 56c9 5aa8 b8bf 6419 4c5c 48da f93f
00000160: d9d7 477e d1a3 eb3f 83fd d764 3bf2 cb3f
00000170: 9a55 1f01 536d c9bf 626d a0a1 f8e8 fd3f
00000180: ae45 fbab 213b d1bf 7d85 56ed 8d66 acbf
00000190: fa74 8dff 2a84 f53f 3213 81c1 d971 f93f
000001a0: a5c9 a821 9a9c a83f 6427 3a17 112c d83f
000001b0: 8c1c fb14 9526 d6bf 483f 6568 7562 e53f
000001c0: 8607 125c bb61 e63f e52a 0911 c410 ddbf
000001d0: fe53 2f27 b165 f83f e345 07ca 9385 e0bf
000001e0: 454c 0994 883b cbbf 56b6 a3bf e355 ecbf
000001f0: dbb2 fcda 1439 0a40 eedc d5d6 9d8c e73f
00000200: cee8 a5d3 be9b e5bf 71f7 ba3f 10dc e5bf
00000210: b8cc 71f1 fcf4 0140 9959 e515 0a51 f03f
00000220: 5ed1 8562 80b9 f23f d7e2 50ed b0f2 f23f
00000230: 6466 0921 9bd6 eb3f eca0 1fc1 3d66 dbbf
00000240: fb33 3616 ea80 eebf fec3 925e 2dc7 bb3f
00000250: 8095 4391 7f83 e13f df0d 4f55 139d cabf
00000260: e852 d842 97d5 dbbf 4063 c0c7 831f eb3f
00000270: 18bb 9f73 0ae5 e2bf 901e fc46 b732 aabf
00000280: 7e07 5c8d 1654 f83f cc1c 5d91 53e6 0a40
00000290: c1e7 9058 f59f c93f 2f4c a43f 112f d9bf
000002a0: b165 ee18 70d4 0040 4aa5 2ef3 b0e2 e43f
000002b0: b8ca 1358 b167 b83f 5dd0 52e7 6e56 b93f
000002c0: 075a 7205 9b07 dfbf f6cc ab95 ab98 ec3f
000002d0: 8589 19f2 ff6c f73f b67e 8dcb 416c d83f
000002e0: 6403 e1cf f136 c4bf 053d a563 f674 f73f
000002f0: 129d e480 99f9 d1bf 3344 712b 802b f23f
00000300: b24e 4b44 ec11 f43f 0cc1 4b85 e68e bbbf
00000310: 1792 be9d 782a e13f b570 d22f 944b e93f
0.005376073821139943 -0.07835143685319002 1.1427501177099166 -0.27650827599434996 0.45701177105456126 0.1336893945480747 0.5974060039823508 0.3594562562401717
0.43988622971320995 2.9668273628215514 2.4688992250865494 0.932856881099095 2.9575013237040904 0.3690361190952587 0.5853072287286156 -0.21304672895942234
-0.4792973571793239 0.7252107180853888 3.172413994430169 0.8960440175721852 2.7470254346706913 0.0871046200922656 0.5668761706902526 1.6415190643164213
2.6309559856077707 -0.40452684603224653 2.2495557510785535 2.4883155517509237 0.039728420340897574 1.8010501441207982 -0.07560322085465397 1.910727135078193
0.6551136645248554 1.027786941743705 0.41491251722344324 -0.07720258386611863 0.19461868606852156 0.5547095263724842 2.1348883356610506 3.1468905305241126
-0.6968210353858085 -0.25669977265494154 -0.09631888785807335 1.6157916646348776 0.863747355119581 0.21832983421334626 -0.1986488109093159 1.869377738336731
-0.2692341022021435 -0.05546992799942083 1.3447675688287846 1.590295558810976 0.04806977902298407 0.3776896216228265 -0.346104879845776 0.6682688750242756
0.6994301603556188 -0.45414830840733905 1.52482714945404 -0.516305822931994 -0.21275431850753726 -0.885484575553799 3.277871809803725 0.735915107345958
-0.6752618917228348 -0.6831132168515365 2.2446230757573993 1.019785008936742 1.1702884529632551 1.1842507620005358 0.8699470181702051 -0.4281153093311463
-0.9532366212675919 0.10850795325201543 0.5473020398318766 -0.2079185644671346 -0.43491155174096585 0.847597017421414 -0.590459085300469 -0.0511681818152826
1.520529319940095 3.36246408048064 0.2001940424395894 -0.3934977647306281 2.103729433799082 0.6526722669270069 0.09533222580265999 0.0989751162294978
-0.48483920604613256 0.8936365054381941 1.4641112763425508 0.38160748365587993 -0.15792677545871492 1.46605528759011 -0.28085935198983336 1.135620279023226
1.2543757121792791 -0.10764923815054689 0.5364344674058569 0.7904759344123905

model.2.running_mean f8 [100]
00000000: ec33 68ee 7637 64bf e9c9 93d1 2484 0340
00000010: 7f45 37eb c982 ef3f c1e8 0455 0953 0440
00000020: db08 5b45 86c2 ec3f 5afc 1f42 0eb5 0540
00000030: c457 0b19 928f 0d40 8650 d763 7fbd 0440
00000040: 1757 08d9 f4b0 f13f 7d75 a1d0 637a 0840
00000050: 69ee e724 e512 1040 b40f e56a ca13 1440
00000060: cafc 7976 e7b8 0d40 dbf6 e052 9d49 ff3f
00000070: 0dbc 246c 50bf 1d40 f653 77cd 3872 d33f
00000080: 1a5f 6e7a 90cb cb3f 946e 056f a0f6 ee3f
00000090: 8ccb 8294 82a7 0c40 9016 d399 6992 0340
000000a0: 5ea5 96e6 ff62 1140 0d23 8003 4260 1740
000000b0: 732c 14a9 14cf f23f bd6d 34ca 0c7f 1140
000000c0: fcc7 e149 5c9f 0e40 d869 6e48 928e 1940
000000d0: 6f38 b5e8 9b58 0340 9c54 d17f 621f 0e40
000000e0: 8e3a dcc4 6824 e03f df4a f0b4 8cfe 1040
000000f0: 1112 b2b4 b849 f53f c607 4471 f0e2 d33f
00000100: c903 5151 278e cc3f e158 501c 4a65 ec3f
00000110: 0b9a a802 ce63 f13f e939 0bb5 1000 f53f
00000120: ebf8 2676 65a3 f93f 4b32 dbad cef2 e63f
00000130: cb8c 51d4 1d1b 1440 7026 5773 e1be 0540
00000140: 059d 2520 b1cb e13f e499 0b17 82a9 0740
00000150: d934 b0b5 a5ae 1040 ddef 4049 f1ac fa3f
00000160: f829 0beb a7b1 f03f 674d c723 face 1b40
00000170: 0a0f 0b09 f83f 0140 18e7 d552 cd43 1740
00000180: 5ea8 01b2 0c89 0940 b85e 6ede 6637 f13f
00000190: d73f e2b1 0121 0140 19e3 e5d2 c4a8 f33f
000001a0: 60e7 0488 f697 2240 ca39 0a4c 5ba7 0a40
000001b0: 3c7e 630f fd1b 0640 5a13 e990 78d4 0140
000001c0: 82b1 7a84 9e4c 1340 2a9f ea56 27c2 1140
000001d0: 51dc 3327 2d03 0140 de5b b2b3 5126 0f40
000001e0: 2814 ec60 ccda f43f b389 7660 429d 0b40
000001f0: 22d5 1a60 d796 2640 081e ed18 f182 0840
00000200: 9034 a792 ef94 fd3f 0475 0790 8ed0 da3f
00000210: 4cff 7f3d f92d 0e40 ea85 5d07 fdf1 0140
00000220: 77dd dadf 9684 0840 8c67 dd29 56c0 0240
00000230: e6c1 9af8 e0e1 fc3f 417a 52da 6d22 2240
00000240: b7ce 99a2 b5a5 e83f 6851 7cb0 9efe 0040
00000250: 9aa8 b0cb e7ba 0340 887f 4a85 8ef6 1040
00000260: 95bc bfdb 9bf6 e43f 4518 a64b 4e5c f63f
00000270: a5bb 5b52 8f7c 1840 ad58 615b 4293 ff3f
00000280: 8802 7976 6fa5 e53f fce0 af3f 5ac2 1340
00000290: 9eaf 7575 2171 e83f 9d7f b6bc 6ef5 d43f
000002a0: 809b c70e f337 1240 8444 0469 3cb0 d53f
000002b0: 9019 015c bfd6 0a40 7ff5 1c7e 07d7 1440
000002c0: 05d9 a83a 2270 0040 f118 83f2 c922 0840
000002d0: ae8c 5b42 2a08 0440 8658 e3bd 807d 0240
000002e0: fa9d 5e58 584a e43f 2b72 9dc1 5337 0340
000002f0: c5fa 604c a98d d83f d7c1 b9da 1289 1d40
00000300: dd23 ae85 b8ba fb3f 79b6 3286 d2c5 ff3f
00000310: 914c f7dc aec9 2640 531c e71c a84d 0340
-0.0024678538204683156 2.4395233510233436 0.9847154230175618 2.5405451433299224 0.8987456659890783 2.7134061018000866 3.6951028782450255 2.5925281334003243
1.1057022550425637 3.059760694434486 4.018452240615809 5.019326849203868 3.7152852302529924 1.9554723012401414 7.4368302247448925 0.3038465506081701
0.21714979150851194 0.9676057976134467 3.5817920305648325 2.44649048018875 4.346679308838558 5.844001822181565 1.1755568127289535 4.374072226953499
3.8278127452876998 6.389229900111296 2.4182661228469935 3.765324591232071 0.5044444889952773 4.248583628813065 1.3304984148427403 0.31072627125842833
0.2230881831219718 0.8873644402508739 1.0868663886882384 1.3125159332299694 1.6023916831323344 0.7171395679120648 5.026480977513709 2.7182034502955545
0.5561147334928199 2.957767658273257 4.170554007415569 1.667222295901403 1.0433730298415167 6.952126082457972 2.1562348085880148 5.816212934785447
3.191918745685185 1.0760258377758145 2.141116513936122 1.228703330822276 9.29680275974141 3.3317171040173195 2.763666267608441 2.228745586502936
4.824823446262942 4.439603193350004 2.1265509665204623 3.8937105215841106 1.3034175668738133 3.4517867599654095 11.294611933970888 3.063936419235464
1.8488612869871623 0.4189793020758119 3.772448044270197 2.2431583953300462 3.0647408951442077 2.343914343899945 1.8051461897958858 9.067244360511838
0.7702282119557456 2.1243261135042992 2.466262427643483 4.240778048202522 0.6551036159488769 1.3975356059104496 6.121640478943765 1.9734519547978764
0.676444751159651 4.939797396764558 0.7638098997244815 0.32748001507752084 4.554638129170485 0.338881590419142 3.354857176574292 5.209989519612804
2.054752786901306 3.016986746431137 2.5039868530453395 2.3112807116513663 0.634075329396125 2.4020152212308594 0.38364632090444345 7.383860986316413
1.7330861303219003 1.9857964746583134 11.393912224948766 2.412918306162774

model.2.running_var f8 [100]
00000000: f703 7439 b1c9 ee3f a4ce 9c6f 2494 3440
00000010: 4176 0ec8 32cc 1240 3c29 df49 192e 3a40
00000020: 763b c0b5 7938 1f40 44d9 06b6 59a4 3240
00000030: 8c1c ceee 91fa 4040 ffaa 30b8 005f 2e40
00000040: 7169 4443 f06c 1d40 e0c2 a979 e950 3640
00000050: d723 80aa 1abb 4b40 7029 4329 63ef 3c40
00000060: 2c3f ae2d 95a3 4440 b387 d8da 8abb 3340
00000070: 55c6 efca 661d 4540 230c 674d ee0e 0340
00000080: d38c 2791 b823 f93f 5fda e9e5 dc48 1b40
00000090: 8476 fb28 7af8 4440 4227 07f6 6af1 3a40
000000a0: 1b3a 04b6 5422 4d40 d476 3226 26c0 4240
000000b0: 144a b40e 0a7f 1f40 0d38 21a7 357f 4140
000000c0: 9488 3d7b 8321 4640 ce5f 72b2 1c4c 4c40
000000d0: 4f82 a3c0 f09c 3340 f327 6af3 170d 4840
000000e0: 80eb 7bbb 73e4 0c40 015a 505b bccd 4d40
000000f0: cf7c 97ee a21f 2a40 884d eaca b759 0340
00000100: a13f 45ed 60f5 0240 1cce e001 eb8e 1a40
00000110: 7f03 44fe 66b4 2540 25ad 5d97 061f 2e40
00000120: 7f00 3aa5 718f 2940 5622 42e8 073f 2040
00000130: a75c a050 76f2 4c40 5088 592f ae74 2740
00000140: 087e 42b3 8939 1040 1854 8d73 10ac 3740
00000150: 6df3 46b6 836e 3e40 1d69 c71e 3b8a 2e40
00000160: 7021 d39f 39e1 1e40 0321 a548 0605 5440
00000170: fd65 55a6 76a0 3940 caea da6d 8e5d 3b40
00000180: 0d95 096a 4f8e 2f40 2f71 66f3 95d1 2140
00000190: ba35 ff0b df23 2f40 7938 4eee 53e2 1c40
000001a0: d4b9 780a 552c 4640 40f4 f806 b698 3b40
000001b0: c89f ad50 2a1b 3f40 751d 7a62 2b49 3440
000001c0: 4454 d469 58a5 3d40 74a7 1f19 4d4f 4840
000001d0: 0416 90a8 2bec 3140 cbdc 4227 a343 3e40
000001e0: f659 0fef 72ce 2140 2a12 a708 e7c7 3540
000001f0: d823 2935 dd90 3d40 81a3 0f4d 145b 3840
00000200: 03d9 8756 8aad 3140 7eb1 e96a e985 1040
00000210: 8509 35cf 935f 4340 47e2 0d31 0fa1 3040
00000220: 0e13 f3e0 126a 3e40 4901 bdd6 bf29 3240
00000230: 0b3e 023f 2777 2e40 cc20 8a23 874e 4440
00000240: f056 f53c 16a6 1540 0e7d 846c 5eea 2d40
00000250: ba86 4550 80f5 3140 c0d6 b3cc 1b9f 3a40
00000260: 0da9 5c33 9424 1240 7eac d94b 187d 2540
00000270: fb44 396d c76e 4440 91df f9d8 0c45 3640
00000280: 003c f753 0a45 1140 e18e 9d9a 5f59 5140
00000290: a466 fb75 8b31 1c40 4a14 e6cc fde4 0640
000002a0: 63e8 7062 c89f 4440 822c ee23 5bf8 0d40
000002b0: cfaa 5196 804f 4140 19de fa83 fc9e 4640
000002c0: ee41 a98b b6de 3840 26bc fff0 70f6 3340
000002d0: 0711 009b 6ea4 3840 d314 7e23 fcdb 2f40
000002e0: 53d7 dfcf 5023 1740 a601 ae48 b65e 3140
000002f0: 0e2c 0295 eeee 0840 98fb 3600 af1a 4d40
00000300: 213e d925 7197 2840 5676 046a 2a6e 3240
00000310: 42b8 5a07 9c8f 3b40 c2e9 96ef e150 3340
0.9621206400043992 20.57868096903134 4.699412465937315 26.180073372824367 7.8051517866687075 18.641993881866497 33.95757851661719 15.185552364293015
7.3563852797036455 22.316062549539197 55.46175128228031 28.935106829544964 41.27799006469863 19.732587507118023 42.22969948489905 2.3822904631683897
1.5712209386918417 6.821155159376388 41.941228029999394 26.94303834604876 58.26821017462154 37.501164221420964 7.874061803583135 34.99382485506076
44.26182499413076 56.594625764700695 19.613048591536707 48.102293421587 3.6115488669578895 59.60731069014947 13.06178994750226 2.418807587886196
2.3698137795217495 6.639568356843963 10.852348275949906 15.06059716242323 12.78016392071754 8.123107202599538 57.894235685636254 11.727891425780541
4.056189347203606 23.672126028064753 30.431697265932076 15.269982301561464 7.71994638181819 80.07850853086352 25.62681045136377 27.365454545923775
15.77794963232966 8.90934715867533 15.570061087516354 7.221023295902449 44.346345242450894 27.596527515201387 31.10611442793723 20.285818247617005
29.645880331361937 48.61954034848796 17.922541175057646 30.264208272765966 8.903220625518752 21.780869046009833 29.56587536100764 24.355778518980063
17.677892120519584 4.130773230088719 38.746698285004676 16.629138055696128 30.41435056623873 18.16308347811108 15.232721299194074 40.613499109692924
5.41219420669016 14.957751647160446 17.95898915955943 26.62151793852422 4.535721590548076 10.744325990983494 40.865461018527604 22.269727288250184
4.31742221065997 69.39646020304237 7.048383563489242 2.861812210818731 41.24830275071215 3.7462675864276784 34.621111669422696 45.242081162923746
24.86997292406334 19.96266084903268 24.6423127055323 15.929658040180959 5.784487960850885 17.36996893165783 3.1166659966743344 58.20846560177523
12.295785124558337 18.43033468827192 27.560974559448603 19.315947508186362

model.3.weight f8 [150, 100]
00000000: e4f3 3a12 2782 e5bf 37cd ca72 2746 f4bf
00000010: d10a ddcb 4eaf 0840 382d 425c e21a f03f
00000020: 383e 3e7e e47a d23f c8af 361d d9d4 f5bf
00000030: 9a8a 3f55 f489 fdbf b394 3f29 8460 bd3f
00000040: f252 8a2c 17f7 983f 86f8 5e33 d262 0f40
00000050: 2cbf 915f c580 ed3f 13dc a7a8 3e4f 0040
00000060: 7e11 ef4c fbea fa3f c896 efd5 76ef c6bf
00000070: 48f3 377e e8c7 12c0 6aa0 05bd 3d46 83bf
00000080: 3c7a 5ad8 7d6f 02c0 3f3e 40c0 df5d 0140
00000090: 7c95 627c 5e4a d9bf 2e0b 42d5 5151 df3f
000000a0: 65b1 8fce d779 d03f 5d8c dea9 a79b ed3f
000000b0: 6c3b 0914 ea23 e63f 37c1 a078 a059 ebbf
000000c0: e13b 7478 9134 e13f f09e 5124 874d 08c0
000000d0: 9884 4404 63cd ee3f 6b92 ff6e 52cd fe3f
000000e0: 9f7e c7f2 e73d 00c0 8b56 d4cb 8288 f73f
000000f0: 14be 48ca 2b03 fc3f 25be 7795 289d e3bf
00000100: 9f84 0576 36c5 f23f 8838 7dc3 2880 0ac0
00000110: 7ae9 bbc3 2032 e23f 3d37 78c0 3927 0ec0
00000120: f779 d604 29b8 dabf 6f33 fa8d 1b49 853f
00000130: 40a9 7333 31f0 fc3f 049e 18d7 20f1 fe3f
00000140: 8572 9348 1bd8 eabf 4483 d134 6483 0440
00000150: d595 5cb9 6c27 febf 8130 f7e5 0342 fe3f
00000160: bfb6 191f 73e4 c6bf fe0b 66a2 f160 ebbf
00000170: dd67 c323 30e2 fdbf e4ad af88 82f9 e73f
00000180: 0815 35aa 31d0 febf f0a6 a6db d54d f9bf
00000190: de5d 2531 63ea d2bf 84fb 69f4 c650 f5bf
000001a0: 3046 1660 9f5e 0cc0 1baa 2c7d 6d55 b9bf
000001b0: 258e acc0 1f88 05c0 6dda d44a 6a11 e53f
000001c0: 85f2 7e49 9779 10c0 66c7 7af7 218a c3bf
000001d0: 1bb3 7598 f092 a0bf a18e 7bde 5baa f5bf
000001e0: 8fcc 8c97 8d27 b9bf aa63 f900 42e5 e6bf
000001f0: 5d0a 871a 8163 fa3f 5c44 c7e2 e207 0ac0
00000200: fd42 07f9 2b34 aa3f 6c5d e676 2f11 f4bf
00000210: 2438 0959 54a2 c43f 327d d8c9 2af4 e53f
00000220: b6de 80ac 11ff f5bf d96d 5770 2be6 f1bf
00000230: fce7 387f 4c75 0bc0 3313 9f38 e66d 03c0
00000240: 321c 6c98 e071 d0bf 5221 ec85 8bbe 0bc0
00000250: 1bf4 7b91 fad5 05c0 5310 2ca5 357e edbf
00000260: 6480 5abc 0b44 dfbf 8ab3 5a29 5aef f2bf
00000270: d068 1fe0 8404 d23f 751a 374c 057c e5bf
00000280: 4c5b 7117 db1e fc3f b427 67ae 6667 e03f
00000290: fbca 4295 c70a 10c0 b0af 44b2 c52a e13f
000002a0: eac9 3222 e73c 96bf 2da3 785f ca47 fdbf
000002b0: 26b0 2c83 ce4c ef3f 2047 764d 1adf fcbf
000002c0: 67aa 0e17 0ced e13f c382 0bfd 004a fd3f
000002d0: 85e4 b091 2a58 b53f 29a2 4ad1 7bcc 11c0
000002e0: f245 cd81 2142 f3bf 01c9 b1cf f274 d23f
000002f0: 8d18 3f94 8a06 e33f c7a9 36fb eda3 d6bf
00000300: f1f4 bf47 2165 02c0 0b68 3f05 6ee4 ed3f
00000310: ef02 6d44 1642 d93f f3bd 80b8 4ac4 f03f
00000320: 2426 4515 f8bf f2bf a8fc 497b 05eb 6f3f
00000330: 71d9 9127 c9a2 fc3f dcc5 9610 0cfc debf
00000340: 9f1c 0715 4153 fcbf 38c2 2cd4 6033 0fc0
00000350: 6016 4843 7ea5 e63f c406 5d2f aca9 8cbf
00000360: f93d 78d2 b707 ff3f c64c 12c3 bff5 e83f
00000370: ee24 c1b6 c7c7 e83f 33be cbab 5a52 c4bf
00000380: f92a 1fd5 2bb7 b5bf e4c8 e8b4 b7a9 d33f
00000390: 1ec8 352f 1904 0bc0 d5a7 a446 eea2 f5bf
000003a0: be61 46a4 999a d73f 1e36 79fd 9da9 e7bf
000003b0: 60ea d537 ab90 f8bf 5a80 d8f9 1098 f23f
000003c0: 3f42 7679 cafd f33f b54c 8417 72e2 f7bf
000003d0: 00a3 38f8 7f14 ecbf 6c54 c515 dd90 04c0
000003e0: e105 5114 4c1e e03f 6f5c 3ffb 8ba0 d1bf
000003f0: c567 3163 b775 0c40 989e 13fb 66f9 b5bf
00000400: 1842 f7e4 bc34 dd3f f1ca 5ba9 aaea f53f
00000410: d8a7 5acb ae19 b0bf 4cd1 a980 4882 d23f
00000420: fe88 311f c884 f53f 2a16 ea5e d91f 0cc0
00000430: ed7a e78b 3eb7 ea3f 0cf4 8642 6573 f8bf
00000440: b5b3 d169 a5a4 fd3f 09b1 1613 a11b 0140
00000450: 40ee 6baf c0da 0140 4fd5 fbf2 2f2f f73f
00000460: fb36 5c87 03eb f2bf c462 c3b7 f890 f03f
00000470: 5146 eaf3 7db7 c2bf c325 f87a 8dec 06c0
00000480: 6e79 6f5c 5d4b ecbf 4313 e225 5140 d3bf
00000490: 34fc 0b15 6e69 d8bf 833a 51de e41e c93f
000004a0: e0d9 9ee8 cd73 fcbf 354d 2b2c 9cfd 10c0
000004b0: cbd0 de81 352e e7bf c329 7e22 1f86 e83f
000004c0: 1e74 fdf2 aea8 e13f f571 2d46 dad5 0440
000004d0: b3f6 bfac bacd e8bf f974 da53 da9e e6bf
000004e0: dde0 2b65 c7c9 03c0 96f3 2f65 6bff 82bf
000004f0: 8aa4 53b9 02a7 14c0 8aa9 6f38 9e64 cfbf
00000500: 2104 e07f 0d36 e23f 239e 3ba7 d30f 02c0
00000510: 99c9 d20c 3d23 e0bf d49b 0e00 f0c1 f2bf
00000520: 95f1 d59a a49b fdbf 05dd 1660 6ca3 ea3f
00000530: 7948 ac57 03df 0540 3106 cd7a 36a2 06c0
00000540: 77b0 4df4 4fc4 0ac0 c5ff f1ba 1575 f1bf
00000550: 3782 50eb 0aa9 e8bf b876 8045 da03 eabf
00000560: 63d5 75f2 9e66 f83f cd88 b8e8 2c54 febf
00000570: 6c40 e054 fda1 cebf 6436 188e f378 e33f
00000580: deab 01a9 8d17 fd3f e060 aa18 e0fd fdbf
00000590: 98b8 e6a5 8598 d93f 1f57 a512 a8b7 dcbf
000005a0: 6099 0f33 2731 fa3f f522 63ba 8254 e33f
000005b0: a856 1c26 9b4b eebf 1798 4644 e1ef d3bf
000005c0: 9a85 e428 c6e6 f73f 2fd8 16da f511 04c0
000005d0: 269f b38a 62cf c43f be62 faf3 78c0 eebf
000005e0: 2bcf 6836 e68a e93f 6e3c 2bb7 4560 ddbf
000005f0: e70c a87a d95a e3bf 7952 4e35 ee3d f0bf
00000600: 495a f778 cf9d edbf cfed ee08 844f fd3f
00000610: 33dd 5e16 fd24 01c0 0206 19bf 46ee 10c0
00000620: 4935 bb5c 0ce1 0bc0 bbdc b6bf cb37 e63f
00000630: 47ae 642d 42cc eebf e312 36ef 4eba e93f
00000640: a72e 2c2d 5399 f33f a90f efc3 0fc9 f23f
00000650: 14d0 8f29 cb0f f13f b2b4 2e94 30ad d3bf
00000660: 7d6b d998 849f f13f 7577 4a48 1b4f 0cc0
00000670: 288d dc51 cede 0d40 318c a982 4ef5 d0bf
00000680: a52a 2c3b 09d0 d2bf 4197 bf90 58a1 0440
00000690: d101 b6d9 4792 e0bf 9626 41c8 75e6 f13f
000006a0: 7796 2b59 4483 e13f 354b 5b34 40fc fa3f
000006b0: 3c4a d8a6 d712 11c0 86c1 b1f0 2fe6 f03f
000006c0: 56a1 4add dcbb 0040 a572 c170 38ec fb3f
000006d0: a09e 2abc b8ba df3f 0164 6486 3bbd e6bf
000006e0: 1bd6 153d 5826 ea3f 8e8b 9260 181e ecbf
000006f0: b6f7 d1af 5315 0340 a33a bd42 08e0 12c0
00000700: 6d51 2c89 2637 dc3f 30f4 9487 35ba 0bc0
00000710: 77df 04cd 39e2 f33f 0347 bb0f 27ea c83f
00000720: d8a7 d4bf 83be 05c0 b367 01ab 5310 dfbf
00000730: 9500 8c4c be75 f1bf 36c3 75d3 9e25 ea3f
00000740: 3363 600f 41af ff3f ff6b ec03 1d6a e5bf
00000750: 307b e492 8eb6 0040 f11f 4caf 610f f2bf
00000760: de4b 9098 ba18 f3bf 943d dc63 4846 e03f
00000770: 0a26 8f0a 951a ec3f de2e 5c09 cb2a f73f
00000780: 37f0 52ff f4ba eb3f a757 9eda 2fbe b33f
00000790: 83c3 d734 9160 edbf 410a 14d5 65e1 f43f
000007a0: d37d 7500 289b f73f f607 980c 7435 dabf
000007b0: dedd 95b5 9be8 07c0 d5eb 372f 070b 0440
000007c0: 8e08 20ef fcac fcbf b8a4 0423 5493 d3bf
000007d0: af0c d1a3 12f8 f03f 9071 1738 6ec5 edbf
000007e0: 2f3a 4398 e13c 15c0 ccfd 947d 0914 efbf
000007f0: d4fd b38a 7779 0ec0 cd32 7077 b999 ff3f
-0.6721377712307199 -1.2671274646825859 3.0855995108443968 1.006563530335212 0.2887507660716184 -1.3644648686558742 -1.8461802797325277 0.1147539711669932
0.02438007554390515 3.923252488456515 0.9219691149319025 2.038693730948134 1.6823685651043827 -0.17918286748970602 -4.6952228280686725 -0.009411318140976916
-2.3044392492877517 2.1708369273763135 -0.395164128751581 0.4893383581731311 0.2574367062759591 0.9252508466492021 0.691884078152595 -0.8546907764448751
0.5376670220010703 -3.0378554189118105 0.9625716288902764 1.9251274429199394 -2.0302275626307416 1.4708278619849888 1.7507741834377883 -0.6129343909541985
1.1731476412026394 -3.3125777504529346 0.5686191389971065 -3.7691531216322844 -0.41749024841729415 0.010393347997956074 1.8086406717144001 1.9338692094987673
-0.8388801972865428 2.564155972141096 -1.8846251717271703 1.8911169989615078 -0.17884673136307147 -0.8555839702461296 -1.8677216908458754 0.7492077512410416
-1.9258286141133016 -1.5815027790180771 -0.29555587577257636 -1.3322209880277294 -3.546202421836618 -0.09895977312104558 -2.6914668133411106 0.6583758794357216
-4.118741176961184 -0.15265297492947666 -0.03237106190758806 -1.3540915194252323 -0.09825978231383402 -0.7154855746294875 1.6492930446844618 -3.2538507191716644
0.05117928900620503 -1.2541956562543772 0.16120390269719664 0.6860555593774846 -1.374772714463615 -1.1186937702503796 -3.4322748126260176 -2.428661768297752
-0.2569505203723025 -3.4680395567594724 -2.7294818273499124 -0.9216564394014405 -0.4885281886472568 -1.1834355941202568 0.28152582060796494 -0.671389244897752
1.7575331607565259 0.5126222044284447 -4.010526973916735 0.536471222095761 -0.02171670099478177 -1.8300269822449977 0.978125816536253 -1.8044684434757485
0.5601864290559434 1.8305673489159495 0.08337656075390683 -4.449691076450599 -1.2036452360520085 0.2883879688516942 0.5945485015333972 -0.35375546963282684
-2.2993798833327834 0.9341344931119705 0.3946586292477567 1.0479228217262715 -1.1718674498428152 0.0038962466299491023 1.7897426171963071 -0.484133735847619
-1.770325739040153 -3.900087030044485 0.7077018083661635 -0.013995499797263895 1.9393842908356176 0.7799986658086702 0.774387223188709 -0.158763250240996
-0.08482622101943695 0.3072337404911549 -3.377001160458362 -1.3522780189036798 0.3688110450980523 -0.7394552183774896 -1.5353195363119525 1.1621255645368564
1.2494606728179318 -1.4927845877289603 -0.8775024269171752 -2.5707341862530964 0.5036983868414461 -0.27542399917496757 3.5574786900951687 -0.08583682660866498
0.4563438640589381 1.3697916617936097 -0.0628918882818249 0.28920185627727757 1.3449174135681115 -3.5155513205707125 0.8348686916832243 -1.5281727408139458
1.8526968129692538 2.138490819101325 2.2318128304303 1.4490203372527792 -1.182376412154041 1.035393445801831 -0.1462247315399048 -2.8655042273501024
-0.8841997914676492 -0.3008005971862994 -0.381434937051327 0.19625531058632725 -1.7782725416888 -4.247666063445014 -0.7243907486468059 0.766372268074797
0.551841234769771 2.6044202311152227 -0.775113427545611 -0.706891216064519 -2.4735248474135987 -0.00927623655842939 -5.163096328478 -0.24525811916039358
0.5690982339439224 -2.257727915293587 -0.504301571889573 -1.1723480226735221 -1.8504987762708869 0.8324491383308731 2.7338930940105084 -2.829205474263994
-3.3458556257447145 -1.0910851767111904 -0.7706350894914696 -0.8129702908952003 1.5250539275269481 -1.8955506411225997 -0.23931852955184085 0.6085145736012234
1.8182503320519952 -1.8744812930581745 0.3999342079286037 -0.44870950528035 1.6370002741401422 0.6040662422538775 -0.9467292541837269 -0.31151611011080277
1.4938413236016914 -2.5087697065564707 0.16257888577023855 -0.9609951749035515 0.7982054770168124 -0.459000996471281 -0.6048400302537659 -1.015119751192428
-0.9255139696713935 1.8319130276639617 -2.143060850877782 -4.232691751386939 -3.484886860335483 0.6943110222263366 -0.9624338995540221 0.803992716988969
1.2249328388742613 1.1740873006501522 1.0663558600908845 -0.3074456641287028 1.1014448137927666 -3.538626255772153 3.733791961234278 -0.2649723316191653
-0.2939475133759209 2.5787822063893207 -0.5178565265815057 1.118764669651147 0.5472738019568187 1.6865846676998448 -4.268400771094601 1.0561980630992323
2.091729859199556 1.7451710133092686 0.495771583324748 -0.710599672779722 0.8171807473251563 -0.8786737333469874 2.38541352614899 -4.718781512069344
0.4408661212521768 -3.4659224121410475 1.2427309044414565 0.19464576976911738 -2.718024729420886 -0.4853715105033373 -1.091245936404481 0.8170923357084579
1.9802866554875436 -0.6692032887107188 2.0891391254403047 -1.1287552688172549 -1.1935373267667653 0.5085794401547212 0.8782448965295668 1.4479475370052834
0.8665719019695705 0.07712077224127133 -0.9180379898153749 1.3050287555094118 1.4753799455573826 -0.4095125315653826 -2.988578241954868 2.5053847969952394
-1.7922334042382633 -0.30586722774257735 1.0605646514020852 -0.9303504081286054 -5.30945432577441 -0.9711959316991225 -3.8093100391558696 1.9750303903157829
