kaggle_playground_smoking_prob/fold_1_cls_model_3.pt.pt (torch, 950621 bytes, 62 tensors)

model.0.weight f8 [100, 21]
0.8451342778701824 0.5762689891158838 1.1837976583828365 0.9975144880811041 -1.5366379374861996 -2.104033094562174 -0.4892490628713775 -1.7037223745919776
0.039562121460439074 -1.1934285444166763 0.4824831160118757 -2.7966487589271716 0.8140144563775643 -2.7934201148624664 1.5876942697245708 6.24989253393619
-0.7188806002099841 0.5169112247336352 -0.30887909644645534 -0.38031575020593317 -0.17142613266731208 3.1033193531859604 0.6092204161856939 0.5732962248610558
1.1113898337830055 -1.4508057342512595 -0.9178022410047539 1.0817063731900782 1.773665422759922 0.7541630472357128 -1.5518571169324047 -0.9260105208955756
-1.566868345208578 -1.1005867492824997 -1.8482860469997062 -0.3652418431914693 -1.0235048336588526 1.4217041863851736 1.774699146995608 -2.4985001247919087
2.645719605393373 5.025572019051338 -1.9645828471844209 -1.0814322305946351 1.6027413346951045 0.7275472871168254 -1.9723918547438244 -2.12649669246799
0.04019068880721639 0.33910711496482965 -0.3465106442252309 1.6932212929888766 -2.591013550418405 1.2112512220553415 0.9480237148192918 -0.4263057542016452
0.3575157541944553 -0.6335578952982143 -0.16669734242476153 -1.0533758443395416 -9.912857053232553 -2.0488484969584975 -0.38229626944818695 4.849818619666301
-1.5667595931640066 0.25669894567065343 -1.927536178453743 -1.2716232693714282 -0.6304000854628471 1.1171695653154785 1.0271896458988714 0.8289953558656215
2.1883489010567407 -2.5098166531632535 0.6617496582767104 2.6464073985242003 -1.8708810798843338 -0.9827261232653245 -0.8592005331555603 -0.34328227225855984
-0.3528843482588486 2.3373683387588793 0.8633865767483045 2.4742081162257725 1.0578520406953664 0.7810927169961762 -0.07776831289024846 0.36547092434312894
-4.977688653625528 -4.668939335131071 -1.9097523039419158 0.29526012656060835 0.16562911730319574 -0.9220180982891422 -1.2920132542412166 -0.8357265530470207
-0.09945959311666351 -1.3583021187208788 -0.20503677440160864 -0.9334682834247342 0.16600386046446172 1.0665584544627913 0.4173776766707304 1.7226727821962298
-0.8163746463517352 -1.1531715295293095 -1.0419970691562497 0.9901062752796292 0.46057592922265095 1.0643992349419384 1.0121048394260623 0.8406368378891522
-0.3887057332771429 -1.059874519000143 -0.834690746027826 -0.23419523207259438 -0.6340652490516784 -0.7914246941453348 1.4130777334888982 -0.12667022258099236
-0.8343707788674651 -7.857823109722022 -6.053103938140325 3.1189091231599075 0.20645472322466218 -0.09027850239017317 -0.9465333205586218 -5.249595119894105
-0.017469790623033988 -1.7615719510859926 0.0515790290616875 -0.3768873494310447 -2.373361412053627 -0.05723890904438681 -1.0295521984929348 -0.08963140428981607
-1.9720949172262396 0.42910108841113026 0.7333826017908053 0.5596208196184039 -1.8308772936125508 -1.1488852654802877 2.1741917742282446 0.7443647112344652
-0.6096660755033112 2.944607137956042 -4.7439988824431785 -0.368569503044373 -1.0309974610751478 -0.575444238145623 -0.6942876998641585 -1.7594912551908028
-1.8374384714059306 0.5688829883521755 1.8533704501239756 1.6349860876483802 1.6703552358457534 5.73653168954317 -0.9115512703406743 -1.0295767838107424
0.8220331832223027 -2.3802738864990367 -0.5208762480834052 1.9716980019459391 0.7563682074448111 1.5504422660267532 0.9380034756309447 0.6755146562068489
-2.0666574205792565 0.5732205582188491 0.28217932136742335 1.006182667386642 0.14040429934979382 0.17545663633227343 2.678327236654422 3.5729844122162535
-0.7263154931034136 -0.3015851138064443 -1.6401077608422265 -0.07909295009201756 2.2541621502027223 -0.9955024950245774 -1.2153172366826834 4.585224056875018
-1.9522186494038767 1.3858868305829195 -0.3133496539362636 -4.974337151653289 -1.4374969799901558 -1.6406728917038975 2.950130702617096 -1.0282266770861983
-1.1474269319894197 0.07554100810508928 -0.23486046140517336 -0.4053799031217761 -0.8450152050099652 2.0168917281531487 1.1565121107775675 -2.7316194474208477
0.957209667905532 1.4295387460153268 -0.7153561109197671 0.48493506007078446 1.6877835021318224 -2.281958871362944 2.210629480677196 -1.076629052774363
-1.91539979751738 3.2131564477884247 6.009862035623405 -1.3615558208682805 1.370687579452424 0.7150138349641063 0.5462751134541054 -1.4178897761795053
-1.8305943273256244 0.6394909952189509 0.21139334095053655 -0.3634350859836285 0.9429632809601484 0.5586985304886446 -0.7737717089415321 0.5103921705493958
-0.5116301155801182 -0.29864723095897483 2.7346388245672406 1.747965121279451 0.26954355622130843 -2.9437324209432787 3.2506049132021464 -1.335885487918591
-2.470578480341027 0.8326514752421778 0.898208032596892 -3.0006785250433072 -2.359866126015971 -1.721430836880583 0.408517118891882 0.38484927111363976
-4.25680844719096 0.08323604761475528 0.9543382919160807 -6.614522118135918 0.11968608420630283 0.5206282143774214 -0.2537526517214316 -0.8465568262183369
-0.08369256610129377 0.9631987265027925 2.7395196780186026 -1.0739254985671491 1.6024897253818071 -0.45870153210477665 -0.23323072173988454 -1.7045958389985623
00000000: d5ca 850a 570b eb3f 5574 bea9 cb70 e23f
00000010: e05e 3dd0 d5f0 f23f 5706 f380 a3eb ef3f
00000020: e8bc 74a9 1196 f8bf 0bc5 964d 0fd5 00c0
00000030: d065 284d db4f dfbf 4760 8564 7242 fbbf
00000040: 777a aa83 7c41 a43f c11e 8687 4818 f3bf
00000050: dd29 09dd 00e1 de3f f5ed 6f62 895f 06c0
00000060: 879c 930b 680c ea3f 3695 2aa5 ec58 06c0
00000070: d937 481b 3267 f93f 0015 13d4 e3ff 1840
00000080: f62e 74e3 1101 e7bf 1452 a568 898a e03f
00000090: 9ff4 69d4 acc4 d3bf ad71 52df 1757 d8bf
000000a0: bf30 bea0 4af1 c5bf 12d2 d718 99d3 0840
000000b0: 8b56 72d0 bb7e e33f 165a 1653 7158 e23f
000000c0: 3547 d3b4 40c8 f13f b755 d712 8036 f7bf
000000d0: 20f3 29ce a25e edbf 579e 8b57 ab4e f13f
000000e0: 4ecc 8cfe ee60 fc3f b454 f78a 1a22 e83f
000000f0: e6a1 d420 68d4 f8bf 12f3 dfd0 e0a1 edbf
00000100: 8aef bc8a e411 f9bf c344 e9d9 009c f1bf
00000110: 0c45 d863 9492 fdbf f9d6 e852 1f60 d7bf
00000120: 96cd bd9a 4660 f0bf 0ec5 91e3 4cbf f63f
00000130: 1d5d c9ee 2a65 fc3f ed43 28a2 edfc 03c0
00000140: 8d67 5c0a 6f2a 0540 9f12 268d 2f1a 1440
00000150: d208 6f6c ee6e ffbf 9be8 f3e1 8b4d f1bf
00000160: e467 0719 d4a4 f93f acba 8e3f 1148 e73f
00000170: 1958 f0c2 ea8e ffbf 149e a9b2 1003 01c0
00000180: eab8 0fbc df93 a43f cb59 2754 eeb3 d53f
00000190: d272 2afb 3a2d d6bf ee72 e435 6f17 fb3f
000001a0: b551 f44f 65ba 04c0 ce7b 1ff6 4861 f33f
000001b0: b866 5fd4 3556 ee3f ae21 19ee 9748 dbbf
000001c0: 3b7a 04c2 89e1 d63f a3b5 0d35 1b46 e4bf
000001d0: 00b1 05a9 5656 c5bf 015b 1da1 a0da f0bf
000001e0: 0e1d ebff 61d3 23c0 fd29 47ae 0a64 00c0
000001f0: c66a aac5 8a77 d8bf 98fe 2bda 3666 1340
00000200: ba56 d581 7211 f9bf 48ae 246a c16d d03f
00000210: e30c 052d 30d7 febf b086 2ca4 9158 f4bf
00000220: 4eac cecc 3c2c e4bf 40dd b131 eddf f13f
00000230: bdce fe68 5e6f f03f b951 bf44 2187 ea3f
00000240: be35 9211 bd81 0140 bb56 e2c0 1a14 04c0
00000250: 3401 8e9e 0d2d e53f 586e 64a4 d72b 0540
00000260: 1def ccff 20ef fdbf 8f2e 0b0e 7e72 efbf
00000270: 127c d31d 927e ebbf cd69 2935 56f8 d5bf
00000280: 9cb0 c23b a895 d6bf e266 ed2b eeb2 0240
00000290: 410f dee2 dca0 eb3f eb7f f59f 2dcb 0340
000002a0: 03b2 ec42 f6ec f03f 378e 5427 b6fe e83f
000002b0: b259 87c8 9fe8 b3bf 0954 ec28 e063 d73f
000002c0: b8f7 e336 27e9 13c0 7095 dd6e feac 12c0
000002d0: 4642 8e6e 588e febf 2500 d9ba 8ae5 d23f
000002e0: c491 0abd 5533 c53f 741a 4f19 2c81 edbf
000002f0: d56e 0f17 16ac f4bf 5f8b b79c 45be eabf
00000300: 2fa4 b513 2f76 b9bf 21e6 9f00 9bbb f5bf
00000310: 6920 4420 a53e cabf 2333 a5e0 f8de edbf
00000320: ad30 da4f 9d3f c53f 370a 1399 9f10 f13f
00000330: 6366 d8db 50b6 da3f ccdf d355 1190 fb3f
00000340: 16a8 ebb8 bd1f eabf 5f1b 60fd 6373 f2bf
00000350: f3dc 681e 05ac f0bf 007e fc5a f3ae ef3f
00000360: 9b82 5576 137a dd3f a368 ff7d c707 f13f
00000370: 1255 17d8 9431 f03f 147f d139 7fe6 ea3f
00000380: 915a 0c03 8ee0 d8bf 7082 cffb 3ef5 f0bf
00000390: cdd3 0e5e c9b5 eabf 17c2 50ff 1bfa cdbf
000003a0: 2fa0 8634 434a e4bf 853b 53e1 5953 e9bf
000003b0: 63a6 c065 f79b f63f 3863 aed7 ba36 c0bf
000003c0: 7529 ff58 2ab3 eabf 5309 682e 696e 1fc0
000003d0: f067 f6e0 6036 18c0 bc57 59a0 86f3 0840
000003e0: 5c65 2dbe 1b6d ca3f e532 4cef 7d1c b7bf
000003f0: 3ff4 0b3f 004a eebf dabe f4dc 95ff 14c0
00000400: 1d5a 93cd 99e3 91bf aa71 f711 662f fcbf
00000410: 7a71 f505 9168 aa3f 0b47 051e ec1e d8bf
00000420: a2de 72e8 a4fc 02c0 4508 cf14 6b4e adbf
00000430: 38d5 e0b9 0b79 f0bf 5f8b 1e6e 15f2 b6bf
00000440: 2e83 6166 b38d ffbf 02d8 5969 6476 db3f
00000450: 67b3 44ca de77 e73f 0f7f cdeb 69e8 e13f
00000460: dae0 30fd 454b fdbf 7d81 2184 d561 f2bf
00000470: 1857 2ca8 be64 0140 698d 61f1 d5d1 e73f
00000480: 728e f86d 6282 e3bf 03b7 e82f 8e8e 0740
00000490: 7f6a d1d7 daf9 12c0 3d3a 788a a496 d7bf
000004a0: 8b3a 9931 f77e f0bf 0d3a f008 0a6a e2bf
000004b0: decf 9dd6 9a37 e6bf a247 6a4d e026 fcbf
000004c0: 7b9c f1e1 2566 fdbf a025 c718 4a34 e23f
000004d0: 017c eac5 67a7 fd3f 26d6 fd2b e728 fa3f
000004e0: dc8e 6a69 c6b9 fa3f e038 fc5c 35f2 1640
000004f0: c6b1 d791 6d2b edbf 0d02 7381 2579 f0bf
00000500: 8254 c588 184e ea3f 184a 1009 cd0a 03c0
00000510: 4b01 59aa 04ab e0bf 4324 3f34 138c ff3f
00000520: 1bb5 5619 2b34 e83f 91bc ae8c 9cce f83f
00000530: d1d0 6bdd 1f04 ee3f 3311 8ce9 d09d e53f
00000540: 9563 8baf 8388 00c0 f93b dea3 d257 e23f
00000550: 0d5b 38db 390f d23f 8da4 23ff 5219 f03f
00000560: 986b f6a0 c4f8 c13f 5ae6 74f1 5c75 c63f
00000570: 9955 8bd4 366d 0540 57b1 fcd9 7895 0c40
00000580: ffa1 2efd f93d e7bf 5d95 30a6 2b4d d3bf
00000590: feba aba2 e13d fabf b847 fd81 6f3f b4bf
000005a0: 8c03 582a 8608 0240 5cf1 660c 28db efbf
000005b0: 5213 9d7c f071 f3bf 4d71 a4f9 4457 1240
000005c0: 884b 5d9f 493c ffbf c2f8 54ab 972c f63f
000005d0: 7aa0 f7b4 eb0d d4bf c283 66a3 b8e5 13c0
000005e0: f780 52d5 fcff f6bf f3d4 d437 3240 fabf
000005f0: d353 3520 de99 0740 0e5c efd0 9d73 f0bf
00000600: 561b b757 dc5b f2bf 7b77 51cf a756 b33f
00000610: 8ce9 6d58 e80f cebf 7a46 978c bef1 d9bf
00000620: 457f c453 5d0a ebbf f2ec 5f21 9822 0040
00000630: 377b d3d7 1281 f23f 3152 fe4b 5bda 05c0
00000640: 8c37 622b 76a1 ee3f c802 2805 64df f63f
00000650: dd9c ac7f 32e4 e6bf 2805 ec0f 2d09 df3f
00000660: 0227 0646 2901 fb3f 3c91 1aa7 7341 02c0
00000670: faa7 5882 5eaf 0140 f76d b962 df39 f1bf
00000680: 7ca2 1142 7aa5 febf 6876 215e 8bb4 0940
00000690: e6e5 0146 190a 1840 56ec a4c1 eec8 f5bf
000006a0: 4881 6c19 56ee f53f d577 abb1 64e1 e63f
000006b0: 29ee 5cf2 157b e13f 3861 a030 adaf f6bf
000006c0: f2b4 0147 1d4a fdbf 0ea9 d1d1 b576 e43f
000006d0: 05c4 fcde ef0e cb3f 4631 213c 8542 d7bf
000006e0: b1af a154 c12c ee3f 1fb4 98bd dbe0 e13f
000006f0: 482a 0fe3 bcc2 e8bf 8b9c 14f6 2155 e03f
00000700: 0017 c21e 465f e0bf d69f 8046 091d d3bf
00000710: fe1a ef51 8ae0 0540 471a 6746 aaf7 fb3f
00000720: 0c5b b49d 3340 d13f a302 6195 c38c 07c0
00000730: 715c 1326 3d01 0a40 4cfb 1c76 c95f f5bf
00000740: f420 7aa6 bec3 03c0 ab33 e4b4 14a5 ea3f
00000750: ca42 a0c5 1ebe ec3f d4f6 16be 6301 08c0
00000760: 1b6a d17d 01e1 02c0 f3a5 ab0f fb8a fbbf
00000770: 32cb 5ffc 2425 da3f 2ca4 54d6 5ea1 d83f
00000780: 3d16 28cb f806 11c0 4c8a 5a26 f54e b53f
00000790: c133 2375 f089 ee3f ea3f 4049 4575 1ac0
000007a0: b4ce 7349 bfa3 be3f 6307 4480 fca8 e03f
000007b0: 4aad 1ac3 7b3d d0bf a806 5a57 fe16 ebbf
000007c0: b4c8 5242 e06c b5bf 611b bc22 86d2 ee3f
000007d0: f0b4 fe4a 89ea 0540 7ffb ea80 cc2e f1bf
000007e0: db0d 2b44 cca3 f93f 8ff7 c0ab 5d5b ddbf
000007f0: bfcb 2519 81da cdbf 1758 5649 0646 fbbf

model.0.bias f8 [100]
-2.421298063835489 -2.646170829743528 -1.8928873728948414 -1.4892115167127566 -4.639341028119577 3.1010350693831663 -0.7325699122878557 -1.3341839087834773
-0.9520411242026365 -0.36712412119206794 -2.676896891064181 -1.4378323738841885 -0.18594143649985495 0.9794302446194988 -1.7006091124879663 -2.782392494936314
-0.4796490132570033 -1.3055523369575754 -0.27002102019797164 -1.0016584666366262 -0.6869227449648472 -2.392563620897694 -1.1831803113580386 -1.2535016419221188
-0.446318339073251 1.9455033318797232 -1.207899817710899 -1.3445198427221063 -4.345602481253153 -1.7474068163362082 -2.9280664927527518 0.2662093236574285
-4.152797755570335 -2.687447383612037 -0.24424291874605317 -3.4505232874187626 0.6328738619846054 -2.7180467655649436 -0.3765952192113538 0.6255734029843851
-3.320668079858875 -0.5990883668795901 -0.8823019089330926 -2.710446327825543 -0.6863591802282081 -4.251521340931894 -2.091848418439126 -0.8034453310434471
2.5295929759222844 1.7562735043083237 -1.924859239310526 -1.8778807520987746 -3.1254677892629283 -0.7389942027977169 -3.601059947035611 -0.900764479961877
-0.7761975033632579 0.8639015280005269 -1.0103628018447237 -1.7771956731481682 1.695324001829642 -0.2107538807281508 -1.7203154812835166 -1.0667171912491638
-1.2711339026262356 -3.9656825136458758 0.19254387778407178 0.03659770881192951 -3.075736398004608 -1.6896441596674223 0.5071605714003518 0.3697689466042691
-1.9519877628711142 -3.109009372203836 -0.7634829384030092 -1.1000507675342217 -1.2384747600583923 -0.915481041314117 -0.5917833044285515 -2.0280261633594225
-2.8947290607474057 -3.780706131716675 -1.655136286899093 -1.1518770948944206 0.9250861699277453 0.5224250309728329 -1.7800871937491478 0.5100225823890955
0.29068194525281543 2.1889038536557472 -1.8310259311353319 0.1450421880501364 -0.404004992003135 -0.7595432868219745 -2.173565760895872 1.976271893974811
-2.0034721233784545 -3.2300240731723373 -0.2628341271254053 -1.531244036709991
00000000: 1655 f084 d15e 03c0 6605 ab9c 5b2b 05c0
00000010: e583 1945 4449 febf beb9 9174 cfd3 f7bf
00000020: f30e 1b6a af8e 12c0 92ff 7579 ebce 0840
00000030: f0ea e974 3671 e7bf 1431 f139 d158 f5bf
00000040: 7cb7 9cf2 1e77 eebf 58ee 852b f67e d7bf
00000050: ee13 cfea 486a 05c0 f366 ef84 5c01 f7bf
00000060: 4c7b 5ed2 edcc c7bf 3154 ab18 7e57 ef3f
00000070: 7ba5 96e6 b135 fbbf 3819 13ff 5642 06c0
00000080: 09d7 5fc6 91b2 debf c12f e7d8 8ae3 f4bf
00000090: e9e6 be3e 0648 d1bf fc73 3f07 cb06 f0bf
000000a0: 0815 9068 45fb e5bf ead6 4a65 f823 03c0
000000b0: aadc 687a 4eee f2bf d79a d8bc 570e f4bf
000000c0: 802d 7bcb 7a90 dcbf 4ceb 0a1a c820 ff3f
000000d0: 4f9a 5ec2 8e53 f3bf 3c08 153d 2783 f5bf
000000e0: 5198 e99d e561 11c0 3c8b 8fd9 60f5 fbbf
000000f0: 8817 1720 ae6c 07c0 8bee bfd4 9209 d13f
00000100: a24e cc03 779c 10c0 fcac f269 e47f 05c0
00000110: fb9d 251a 5a43 cfbf 6366 0cf4 ab9a 0bc0
00000120: 77f2 76af 8040 e43f d3cc 784d 8fbe 05c0
00000130: 0def 95d5 221a d8bf 7417 6283 b204 e43f
00000140: 7deb 1e6d ba90 0ac0 322e e55d bb2b e3bf
00000150: b21c 8236 d13b ecbf 8e97 fc7b feae 05c0
00000160: fa76 0c87 a7f6 e5bf b731 76cf 8e01 11c0
00000170: 3d15 0b06 1bbc 00c0 7293 9efb d2b5 e9bf
00000180: 6038 fe3d 9b3c 0440 7a5e fd3e b219 fc3f
00000190: d5df a333 39cc febf 7cd5 00b0 cc0b febf
000001a0: 82af 9c41 f500 09c0 a564 9e2b d7a5 e7bf
000001b0: a6a0 7b84 f8ce 0cc0 f0b5 da07 10d3 ecbf
000001c0: 4bd3 8525 9cd6 e8bf 0e41 37d1 14a5 eb3f
000001d0: cc49 702f 722a f0bf b439 ecba 646f fcbf
000001e0: eab6 7f0f 0c20 fb3f 4fc2 9db0 fbf9 cabf
000001f0: ada4 ae86 6986 fbbf 2cf0 a70b 4611 f1bf
00000200: 4fdd c980 9056 f4bf c56c f3c0 b7b9 0fc0
00000210: 8055 101d 47a5 c83f 755a e954 efbc a23f
00000220: 805f 44af 1b9b 08c0 3a62 7a50 c808 fbbf
00000230: a086 7fce a83a e03f 1d78 2f5f 4baa d73f
00000240: 0694 3b85 573b ffbf 7095 444e 40df 08c0
00000250: 47d6 6fc5 736e e8bf a5fc 67d5 ce99 f1bf
00000260: b4f4 f5e8 cad0 f3bf 46ab 91e5 9e4b edbf
00000270: b3dc 5a8a e3ef e2bf 147d f8c7 6539 00c0
00000280: f986 b5b5 6728 07c0 0b14 3cdb e23e 0ec0
00000290: be78 ea2f 707b fabf 1254 39ad 166e f2bf
000002a0: 424a ba4f 4e9a ed3f bc7b d4b2 b4b7 e03f
000002b0: 66e5 92b5 3c7b fcbf e9a4 f2e0 1a52 e03f
000002c0: 1a81 1972 889a d23f 8551 0c06 e082 0140
000002d0: ccaa c5d8 e14b fdbf 5e99 1b0f be90 c23f
000002e0: ccbf 04c1 37db d9bf cc7e 19b9 2d4e e8bf
000002f0: 6706 1672 7663 01c0 3f03 0a47 cf9e ff3f
00000300: 78dd 8264 1c07 00c0 0f8b 7cdc 16d7 09c0
00000310: 44af 113b 46d2 d0bf bad4 3dbf f97f f8bf

model.2.weight f8 [100]
1.1424012757538515 1.8761204573377102 1.999204701379797 2.935653956986148 0.6917479164649373 2.278431719860735 -1.365555240756393 -1.353605633114514
2.123220254279305 0.09608630545348701 2.462421769155123 2.5588306174073585 4.980428195275567 -0.4954180893024803 2.2685741500925585 2.507413449054108
4.432141045504494 1.5573922692387265 5.430315662903163 3.1880395194723348 0.9396080668425307 -1.590899245789733 3.0422848989003732 2.098286747288302
7.207165222750832 1.63819838737338 -0.14560060511695855 1.378894839763911 0.31858976783668247 -0.2306688258040807 0.7068894066323573 2.9525676359687694
0.22578873156837123 1.8101091708287458 2.115265788890059 2.619225944950985 0.14952230183641863 0.8437335731927922 4.981311909927836 0.9019578123405549
0.04162886714604294 2.2110407904683713 -0.22640147516405815 -0.4870014071995404 1.8507807949658923 0.6226490820488844 1.6647244916910777 2.6714897170924052
2.209239550321717 1.2028313370393242 4.075470483421242 1.2931240625507028 1.3830997280871205 4.471578868627601 0.9925092518972033 2.8664453230866638
1.5103946043977206 1.7417862401931088 1.0685021712967009 1.7964117282972878 -0.28938453823778604 0.956282746676331 2.268917513937766 0.6652865597660204
0.5549231383595461 0.28145623048008056 1.9117398011010596 2.2820382115459936 0.07681368900591032 2.678395437136531 0.12642124655682987 2.4468629452402
3.0214710648413945 0.46749968096178857 4.614789337125345 -0.9978502440392423 -0.4935986771352533 -0.40178876853182555 0.3894331960658883 2.2700002278166473
1.7158629132155145 3.646807851681846 0.980895756801238 3.0905001645959547 0.3908876645796031 3.1646154503797623 1.4082215799847273 2.3476626999712473
-0.2643092518032862 2.9220519699639054 6.671614519460061 1.5630692212439758 1.8115982296250628 2.2194879557332787 0.2892694979195172 -1.0587331466121588
0.2711770263656038 -0.893243837457168 -0.1912038728824685 4.8847977513370715
00000000: f157 648f 4647 f23f d4f3 79e2 9604 fe3f
00000010: 85f8 a611 befc ff3f 2907 4d24 387c 0740
00000020: a160 c986 cc22 e63f 62c4 d768 3a3a 0240
00000030: bfe1 be73 50d9 f5bf 0a88 5e61 5ea8 f5bf
00000040: e4ac 92e6 5afc 0040 3c25 84b3 1c99 b83f
00000050: 75d6 3b2f 0ab3 0340 0e25 ce2f 7c78 0440
00000060: b323 6b5e f5eb 1340 56a9 d912 eeb4 dfbf
00000070: 9996 3934 0a26 0240 55e7 49c8 2e0f 0440
00000080: e0cd a62e 83ba 1140 e4c6 f627 14eb f83f
00000090: a980 4cab a4b8 1540 f3e9 13dd 1a81 0940
000000a0: bbaf c4ef 4411 ee3f 155e 7ec4 5274 f9bf
000000b0: 5822 0f77 9956 0840 27de e98f 4ac9 0040
000000c0: 6155 c21e 23d4 1c40 c60e 2283 0f36 fa3f
000000d0: aaa8 a066 0aa3 c2bf e98b 1609 f40f f63f
000000e0: e0b8 6c56 c663 d43f fe82 845b 8e86 cdbf
000000f0: 87fe 6b88 d69e e63f 10b6 ddc7 db9e 0740
00000100: ed1b f228 a5e6 cc3f e162 ae08 35f6 fc3f
00000110: 260b 4d78 10ec 0040 8431 73bb 2cf4 0440
00000120: ce7c 34fa 8b23 c33f f8ce ec8c ddff ea3f
00000130: ec42 8107 ddec 1340 fefa 4ba1 d6dc ec3f
00000140: dc6e ecfd 6050 a53f 1a78 6927 36b0 0140
00000150: b742 cc39 b9fa ccbf d5ca 41f3 072b dfbf
00000160: 1f18 a752 cc9c fd3f a219 89c4 bdec e33f
00000170: 4c9d 0a26 b6a2 fa3f ee18 3400 365f 0540
00000180: cb4a 0dc9 85ac 0140 7001 7312 cc3e f33f
00000190: 206e 6822 484d 1040 ff36 65db a2b0 f43f
000001a0: ced9 332e 2d21 f63f fef5 2892 e5e2 1140
000001b0: 7d07 3cc3 a2c2 ef3f 5c6f b3e2 7aee 0640
000001c0: ce16 5f88 932a f83f 0609 a43f 5bde fb3f
000001d0: 04ca 96bb 9518 f13f c600 7339 1abe fc3f
000001e0: 31c2 ecb9 4685 d2bf 4d86 5646 de99 ee3f
000001f0: 8279 bd39 be26 0240 a13a 150a 074a e53f
00000200: ac88 612b eec1 e13f 6db6 4afe 6003 d23f
00000210: ae0c 4379 7c96 fe3f bd7f f63f 9d41 0240
00000220: 2e5e 2ada 0faa b33f 630e 4296 5a6d 0540
00000230: e595 bd47 922e c03f a4ce 3ce1 2c93 0340
00000240: c46e 8a05 f92b 0840 a3c3 27c8 83eb dd3f
00000250: 1088 0356 8b75 1240 8488 8ea2 63ee efbf
00000260: 0244 e9e7 1e97 dfbf b0a2 2f3d e8b6 d9bf
00000270: 8f1a 4536 79ec d83f 9514 23e1 f528 0240
00000280: f5e0 8aab 2c74 fb3f 0828 4e98 a92c 0d40
00000290: 38e3 877f 7f63 ef3f 27c7 7926 58b9 0840
000002a0: a0de f1b1 4d04 d93f 0e61 bee7 2151 0940
000002b0: c5e4 f859 1388 f63f 1553 b361 03c8 0240
000002c0: 399f 215a 71ea d0bf a6a8 81c8 5c60 0740
000002d0: 1c66 72b7 bbaf 1a40 7508 2adf 5402 f93f
000002e0: c3b2 db6c 4efc fc3f 31ec bde6 82c1 0140
000002f0: d1db 5236 6483 d23f 0f3f fe2a 92f0 f0bf
00000300: d2ac eae2 f65a d13f 2b6d a719 7495 ecbf
00000310: 070a 7356 5e79 c8bf ac44 f66b 088a 1340

model.2.bias f8 [100]
-0.05831659195952179 -0.4879708574656293 1.2824602370657325 1.9811125708727633 1.3199407101985365 1.5974735522870163 -1.6086362751223757 0.05507874769052459
0.74489257116834 0.11386314822512866 -0.01923665768143646 -0.08774086318725452 3.0172514523711165 0.32996327919052526 0.9708721357236 0.6661265455919205
2.93037634254859 1.3864109319379696 3.0189590460276787 2.690332354724764 0.7638679863833223 0.7312855262947381 0.2261854696484666 -0.24617900957083882
1.7869888079440197 -0.5991430511731444 0.5708772900969523 -0.6802849767812332 -0.32283084953935814 -0.43613468728316407 0.2976550531387983 0.5761912092057963
0.6598015363415549 1.1120719718970435 0.4976723157478962 2.055260925968419 1.3386895830971748 0.03270184906070906 3.018799477462808 1.3424948496313593
-0.2028616033160847 0.2805342291760847 0.7353100445513072 -0.16851815932589836 1.3567147283625225 0.5110078908679782 -0.4600225404253356 1.533952403429824
0.14589787884011804 -0.44261601742228607 1.2020445321677269 0.007117339671317757 0.1717108968669883 2.5892205234347463 -0.13965417461490892 0.35572826573068916
-0.02700184243738166 1.808140947833225 -0.3745314712037306 0.45388259556777016 -0.43770668513927186 0.31265919773465334 0.9313366573097271 -0.51198978714197
-1.108484392374073 -0.2730340999494787 2.0263757284811748 1.8117538973841965 0.7135684233124233 2.1955077536116927 -0.7466314558681824 0.1849525348501897
1.3802260619458084 -0.09902430350922128 1.4877197193324463 0.16492581237286041 -0.22317323136209033 -0.14461716016853404 0.8855760897777891 0.034986589130928766
0.7283133308662446 1.9212576667206618 0.6813580301899188 2.9168094097709205 0.2804089116164855 0.9041686450895416 -0.35381838030434865 0.36212789008275886
-0.37472956973698973 0.9609096002588247 1.7376409867830418 0.401487652957356 0.21999470255489115 1.5822025806765723 -0.3052311513299677 -0.47647235615892525
-0.015432093723707217 0.5182087170581965 0.6546245130050211 2.767852273882949
00000000: 7386 8f1e acdb adbf 36d2 8d1e ea3a dfbf
00000010: 37e2 8906 f584 f43f ee7c 5918 a3b2 ff3f
00000020: 3d63 6f26 7a1e f53f 4dc3 746d 408f f93f
00000030: 32f5 0c64 f9bc f9bf 0425 1218 4833 ac3f
00000040: a571 06f2 28d6 e73f 10b6 d8a1 2226 bd3f
00000050: c224 813e c6b2 93bf 527d e969 2f76 b6bf
00000060: 88f0 bdba 5423 0840 3245 404d 1e1e d53f
00000070: 25fa f070 6211 ef3f 7212 0a9e e850 e53f
00000080: 0dbf e126 6971 0740 eed8 b73a bd2e f63f
00000090: c937 1500 d426 0840 ea4e 37f8 cc85 0540
000000a0: ab49 7f46 9b71 e83f 672b 6fe7 b066 e73f
000000b0: 773b 7c3d a5f3 cc3f 1cc2 8835 cb82 cfbf
000000c0: 5e00 8793 8197 fc3f 0642 4d0c 2e2c e3bf
000000d0: 42db 5f73 a044 e23f 5989 e7ff e4c4 e5bf
000000e0: 0855 3ab9 42a9 d4bf 7612 a276 a1e9 dbbf
000000f0: 1519 aec7 c70c d33f c702 f98b 2870 e23f
00000100: 4700 8e1c 181d e53f 5a89 e1fa 0bcb f13f
00000110: 55c1 10fc dcd9 df3f 903f eea3 2c71 0040
00000120: 315f aec4 456b f53f f10c 78f8 4bbe a03f
00000130: c313 2757 8026 0840 2871 23e1 db7a f53f
00000140: a3a8 ed77 5ef7 c9bf 1212 eed6 45f4 d13f
00000150: d494 38ee a887 e73f ee1d 8bc7 0092 c5bf
00000160: d018 c580 1ab5 f53f 33d4 6838 2d5a e03f
00000170: 892d a361 0271 ddbf 88a0 e5ac 118b f83f
00000180: 2b48 161d c8ac c23f 52ed e021 d253 dcbf
00000190: a5ef 1f0c 933b f33f e61f f751 1227 7d3f
000001a0: b18c 3467 9ffa c53f 1e46 f23f b9b6 0440
000001b0: b046 5c20 30e0 c1bf f2de e47c 40c4 d63f
000001c0: 391b cdf8 5ea6 9bbf c808 d833 25ee fc3f
000001d0: 7323 09d9 52f8 d7bf 8dfa 0b96 690c dd3f
000001e0: bf7a 7ae6 6203 dcbf 7c17 44b9 9b02 d43f
000001f0: 75c2 9688 82cd ed3f f724 f567 3862 e0bf
00000200: 1ef8 5521 5abc f1bf 9c73 7e04 6479 d1bf
00000210: eae0 597a 0436 0040 8fa6 9aa7 f1fc fc3f
00000220: 7cb9 3272 8dd5 e63f 5f03 7f5e 6690 0140
00000230: 7acc a3a6 67e4 e7bf f836 3f50 86ac c73f
00000240: 4e4e 52ec 6715 f63f fece 1421 a859 b9bf
00000250: c05a 4231 b3cd f73f 742e 34fd 491c c53f
00000260: 1c7b 05c1 f090 ccbf aa9f aeaa d082 c2bf
00000270: a0e2 f6aa a356 ec3f ee5a 3b20 c3e9 a13f
00000280: 90f6 29c2 574e e73f 7912 dcad 78bd fe3f
00000290: bb0b 115b afcd e53f a10c fd2b a055 0740
000002a0: aa95 3938 38f2 d13f 844d 1715 f3ee ec3f
000002b0: 2460 08d9 f5a4 d6bf e3fe 3775 1a2d d73f
000002c0: 5554 b7bb 91fb d7bf 4ec5 707d c5bf ee3f
000002d0: e0c1 a6a2 60cd fb3f eec6 cc44 f9b1 d93f
000002e0: d71c 6252 c928 cc3f 6071 3aa7 b350 f93f
000002f0: 58b0 2b3d e888 d3bf 38a4 c9e8 857e debf
00000300: 3229 d18e dc9a 8fbf d98b 8872 2a95 e03f
00000310: 1b87 501b aff2 e43f 5be4 a3bb 8f24 0640

model.2.running_mean f8 [100]
0.8492906476005379 1.6905508269562506 1.6565199352284408 1.8993208262345083 -0.1421211284212181 7.367864787590634 4.383769090216601 2.276705463822521
2.601679899098175 2.4603404140938263 1.222962006539322 2.0506286680944354 4.9420136815537425 5.093346614859726 2.43112052604942 0.47403001587918436
3.737875369415942 1.941427179877746 4.052731037960097 3.5606888280165547 3.256153147625713 0.5925447046548731 1.5651253164854009 2.031365542739267
3.958824480472577 6.731097124752119 2.155707256615798 0.8202368154863079 -0.08830099912727506 0.9994007618009855 0.6406840013843048 4.160723097361128
-0.12395686903095579 0.7682879325062516 3.014849455157069 0.6101339394719965 3.7945508229470133 0.5081466907442755 4.098925511597787 4.368519180315342
0.10777326321244646 2.860369953681557 4.112904357705846 0.8291652409327537 2.8422055927410224 -0.14005899281332584 0.9430049839689404 2.9338819911900558
6.729018232945666 4.938242033283149 1.5805645312314018 0.9104815230328459 0.04661597450410096 4.000852271509499 -0.007346583519042928 2.907091159929517
1.2930661826574275 4.343759302253379 2.263854292964134 0.6725050027011843 4.691504518542441 2.9055269118211386 1.0922801885599092 3.1498975612188462
0.738424506349505 -0.05841292665374387 3.9889106188963894 3.3940124151683997 0.16976472865684167 3.044896722995637 4.99755874050184 4.322643871714858
2.353443378648514 0.3033494471508267 3.3241564601702756 1.7851547147501057 1.2645679316303946 1.654943377296357 2.307155444312856 1.7643002366250915
0.41205543557325075 1.1067914634429774 0.5073839197925317 3.0841012770456837 4.27328920072368 3.6703871074248458 1.5474167789217443 2.420113333479873
3.4777688398596087 7.456760872843989 2.32817374444521 1.8288949647484394 3.2474175158172485 3.3067985320110296 1.9296368937937942 6.247855615134918
1.040300936190106 0.46858231056589017 3.7618585371418347 3.283069510609666
00000000: 6bc6 8794 632d eb3f ae0b 2006 7f0c fb3f
00000010: aca6 2f0c 1b81 fa3f 629f 143c 9e63 fe3f
00000020: 42e3 516f 0631 c2bf 0035 008c b178 1d40
00000030: aec8 aec3 fa88 1140 1bf0 ad5a b136 0240
00000040: 454c 0a8d 3dd0 0440 0c7b 7cf4 c6ae 0340
00000050: 0d64 e59b 4091 f33f 26a5 cd00 b067 0040
00000060: aca1 0a3c 9fc4 1340 300f 4841 965f 1440
00000070: f221 8051 ef72 0340 5480 e1fd 8156 de3f
00000080: b852 a133 2be7 0d40 323f 52f2 1510 ff3f
00000090: 4c17 0e20 ff35 1040 6682 9c6c 4a7c 0c40
000000a0: 268f 7e05 9a0c 0a40 1e24 fd4f 20f6 e23f
000000b0: a524 07d8 c00a f93f a24a e293 3c40 0040
000000c0: 0cdf 512b acab 0f40 390a 84b9 a4ec 1a40
000000d0: 5f51 3772 e33e 0140 e5a4 2f47 613f ea3f
000000e0: 67ad 74ef e49a b6bf 080c 714e 17fb ef3f
000000f0: 2383 20bc 7b80 e43f f082 7b98 94a4 1040
00000100: 1e3e 9a2a a3bb bfbf 67d3 0093 d095 e83f
00000110: af1a 2264 691e 0840 a0c7 869c 3786 e33f
00000120: d989 3c76 3d5b 0e40 3c27 4ad9 bc42 e03f
00000130: d335 b4ba 4c65 1040 cc9c 8d17 5d79 1140
00000140: c472 e150 0797 bb3f c42f 6ca4 09e2 0640
00000150: a2b0 2f33 9d73 1040 0a28 198b 8588 ea3f
00000160: dca5 2a49 d6bc 0640 6a6c d2fc 73ed c1bf
00000170: 4192 c3c9 182d ee3f 90e0 131f 9778 0740
00000180: e4c1 72c1 83ea 1a40 14bc 0285 c2c0 1340
00000190: fcb3 ad08 fe49 f93f 1d3a a125 aa22 ed3f
000001a0: b4bc ee8b 0cde a73f de0a f96a df00 1040
000001b0: f5d7 397f 7317 7ebf 961a 9302 b941 0740
000001c0: 443c 612a 66b0 f43f 057f 4370 0260 1140
000001d0: 7285 b9a3 5f1c 0240 70ef 1f36 2985 e53f
000001e0: 3cb4 b0c2 19c4 1240 7a5b bfe4 843e 0740
000001f0: b6ef 7eca fa79 f13f 177b 197e fd32 0940
00000200: 12c1 2a6e 2ca1 e73f a06f 4893 4ce8 adbf
00000210: ed9d 76f8 49e9 0f40 15ee 2afb ef26 0b40
00000220: ac37 ccc2 d9ba c53f eeb5 27d0 f25b 0840
00000230: 6b2d d909 80fd 1340 9e14 b527 634a 1140
00000240: d043 421f dad3 0240 5470 b1cc 136a d33f
00000250: 68bf 9957 df97 0a40 3c6e e263 fe8f fc3f
00000260: 3cc4 5e95 ab3b f43f a883 23e8 a57a fa3f
00000270: 83e5 e0e9 0d75 0240 c813 8ae2 923a fc3f
00000280: fe45 fbc2 1d5f da3f 4fac 2ff7 6ab5 f13f
00000290: 87ce c033 7d3c e03f 52b4 534a 3dac 0840
000002a0: 2ed5 cd1f d917 1140 e465 70ea f35c 0d40
000002b0: 4502 ac18 38c2 f83f da46 1f61 645c 0340
000002c0: 84f5 3178 78d2 0b40 53d4 4b1f b9d3 1d40
000002d0: 6262 5e8e 19a0 0240 309e d65d 2743 fd3f
000002e0: 2324 d708 b6fa 0940 e095 ebc9 5274 0a40
000002f0: 6dfd 7fef cadf fe3f a989 c4dc cdfd 1840
00000300: 7cf4 2e98 12a5 f03f d455 d7a8 40fd dd3f
00000310: e39e e949 4918 0e40 8481 94f2 b943 0a40

model.2.running_var f8 [100]
8.763732409406858 14.949181174090052 12.63202064127658 16.37470403904951 0.001044808596607476 47.34802659519179 43.909530417759726 27.704066013746232
19.709588682122135 18.1409795142814 8.568750230591949 19.33372862945428 72.47901896021386 36.98300709043383 25.637278464186696 4.292005885485532
44.040117536058915 16.496375316418415 53.57976490985601 41.68230319189388 32.42211009511692 5.828503120065467 9.789442123807142 18.25788602672223
46.526016348527335 42.707086834065144 22.729627407154567 6.703057531957151 0.26590112124913107 8.329243299165517 5.851328285196377 28.135812458803702
0.02303093592350209 6.478798725498175 21.720317127646855 4.838901020803217 30.640851634180454 4.044716331069067 55.13209451422575 26.767839858401143
1.6923544574657374 21.51441267746044 39.81578641325076 9.719589122207958 17.5819339286192 0.001807927996586595 6.739603161107487 14.638771051661056
36.86329908673029 29.63004522697622 9.95572022817912 6.461951133472735 0.6702831708872319 53.26139313405013 0.6493888078853608 12.891157839910301
11.832733668280216 29.216848673213427 19.679793229186384 5.809902237461254 26.957256412085354 19.74268740554035 4.578228954058167 20.476270689336996
4.706172944758213 0.46496013911538603 46.37669493130922 21.20275757229071 1.2530348823887474 21.72357853464489 43.54862753750201 37.84773983410433
20.777488691725917 2.6827602048497736 29.26300133870636 13.312341253192375 7.701220878945977 12.600762833847938 17.70654397024085 13.571163866984344
3.386930771739985 9.515564791476303 2.916946874457947 24.025087528195687 38.968279948186954 21.395424104488942 13.082452556504569 19.55181564000841
23.115263111342188 26.23179000857284 23.377673472090912 10.284904668711691 23.813877448438067 36.17164114238389 20.235617439934934 28.187886368706213
10.242822801662838 3.820313259739493 35.203384267091465 24.385090292641518
00000000: 7198 32ef 0787 2140 2d64 2913 fbe5 2d40
00000010: 165c a135 9843 2940 9265 999a ec5f 3040
00000020: ae4b 31b0 3e1e 513f 553e ae22 8cac 4740
00000030: 647f 237e 6bf4 4540 e143 97ab 3db4 3b40
00000040: 8953 979a a7b5 3340 9d3e c33b 1724 3240
00000050: 42f8 ef3a 3323 2140 bb3e 4d3d 6f55 3340
00000060: 1412 243f a81e 5240 2093 242d d37d 4240
00000070: 8120 72ae 24a3 3940 7a99 4197 032b 1140
00000080: 40af 4892 2205 4640 0a8f e673 127f 3040
00000090: 9899 8fbc 35ca 4a40 0092 03b6 55d7 4440
000000a0: 58eb 1eb4 0736 4040 b542 351f 6350 1740
000000b0: 44ac 0fc2 3194 2340 0bde 92d1 0442 3240
000000c0: 0a0b f380 5443 4740 f9de 45d2 815a 4540
000000d0: 80fe 9bdc c8ba 3640 89d9 4b50 eecf 1a40
000000e0: 1f06 ef22 8604 d13f a3af e493 92a8 2040
000000f0: 1450 1c9a c267 1740 85f3 f49a c422 3c40
00000100: 72d1 59f2 6b95 973f 4a86 8d36 4aea 1940
00000110: edfd 09b4 66b8 3540 2cb9 83de 085b 1340
00000120: a964 4ada 0ea4 3e40 ae27 2e1e ca2d 1040
00000130: 514a 1979 e890 4b40 ef65 2827 91c4 3a40
00000140: f5e1 8044 e213 fb3f 2457 9a8c b083 3540
00000150: 72b7 6eb0 6be8 4340 8de1 44fc 6d70 2340
00000160: 2eda 379f f994 3140 4e70 9be7 ff9e 5d3f
00000170: 46e6 f387 5af5 1a40 1208 d1ff 0c47 2d40
00000180: 2d16 a095 806e 4240 1fdd dca4 4aa1 3d40
00000190: 594f 6829 54e9 2340 4d76 cab7 09d9 1940
000001a0: 88a2 40b1 f572 e53f 7712 8954 75a1 4a40
000001b0: 9331 8809 cbc7 e43f 3dfa 23d7 45c8 2940
000001c0: 5215 3f11 5caa 2740 f6a1 0765 8337 3d40
000001d0: d365 d7ed 06ae 3340 cb69 1b03 573d 1740
000001e0: fbca 97c1 0ef5 3a40 68f2 05c3 20be 3340
000001f0: d61e 3d40 1b50 1240 ebbe 3ae0 ec79 3440
00000200: e539 1c00 1fd3 1240 aa6d dc2b e8c1 dd3f
00000210: 6245 1d8a 3730 4740 4501 96eb e733 3540
00000220: c4b5 094e 6e0c f43f 2d63 5e71 3cb9 3540
00000230: c9a0 596d 39c6 4540 4e7f 27bd 82ec 4240
00000240: fff8 b77f 09c7 3440 66b8 76fb 4a76 0540
00000250: 4c8c 440e 5443 3d40 4a4e 5731 eb9f 2a40
00000260: a261 99d8 0cce 1e40 f00e a82f 9733 2940
00000270: d65e cd10 e0b4 3140 95b5 2297 6f24 2b40
00000280: a383 1329 6f18 0b40 35b8 bc1b f807 2340
00000290: fcba 2f3e e855 0740 5123 e122 6c06 3840
000002a0: f36a eb98 f07b 4340 81d4 9c83 3a65 3540
000002b0: 4351 b338 372a 2a40 e741 2fca 438d 3340
000002c0: 60a6 1de2 811d 3740 235c 0a97 563b 3a40
000002d0: 7e32 6b35 af60 3740 5930 5506 df91 2440
000002e0: 51fe bf45 5ad0 3740 ec97 4256 f815 4240
000002f0: 46e3 ae6c 513c 3440 17f5 3052 1930 3c40
00000300: dfba 2f45 537c 2440 4173 f865 0090 0e40
00000310: e2d6 e37e 089a 4140 03e7 0447 9562 3840

model.3.weight f8 [150, 100]
-0.43125258991806337 1.2374040431555269 -0.059380414825927846 -0.5104618408479857 -0.809035246013341 -1.5660856412110316 -0.7494173167045624 0.6804134326528055
1.8469339325917669 0.29023959603692484 2.4006674608610226 -5.047013918991314 1.6831326021747535 1.0042116077332641 -1.6854750516826873 -2.8935890461928047
1.7059828709369467 -0.5548799119817319 1.3880384983165546 1.786171261763408 -0.5793349103007654 2.177565367208363 2.4862935967287387 -2.376905428564683
1.3747098899816224 -0.6710394869010243 0.8922117023697412 1.152907070866345 2.2287455162470744 2.228938001022254 0.16687176465820439 -2.481833973600942
-1.9006529790542812 -1.020386168063555 -2.2305403474799634 -2.5161710659920424 -0.537505451612636 0.5025973191451932 1.6421600059705364 1.9862206998315188
2.0112511991604243 -3.1836146344903233 -0.6755319077564663 -0.3425495174103086 1.6207692061758139 -2.1209836949996115 -2.350291983917846 2.110141462461949
-3.769383696494063 0.3038954958707996 -0.05385467959529992 2.089148312176245 -1.3253533358720238 1.2365520031694073 -1.09552327027089 1.9067246733392416
-1.5439485833075826 0.005813880623368389 -1.8920351472510155 -1.3760386182432958 -1.929015193206926 1.4706651357939857 2.7276504519162863 -1.5673804825692126
-2.5734528200769247 0.5824594504608183 1.5082898249357102 1.3792422087701595 -0.4665204158416491 1.2094708481987055 0.18279765502428763 0.7278812213030689
0.754694641881934 0.8845897913067257 1.6812316674559802 -0.7657380236352298 2.696786156698542 1.2700269004039597 -1.7082359260744455 -0.6807661288433259
3.0767011297997398 -2.1472976658285816 -0.6059173934565549 0.1660124204327066 -0.8980337287876099 0.36080489539899696 -0.4497962295110402 -3.683327219095144
0.8423829745598184 3.4373994709116573 1.6322831417982382 -1.6082534326266633 -2.2968376724253723 0.09287432778955887 -0.00547075966166184 0.34648014515779063
1.271796564256898 -0.13484255881066953 0.0780448521810161 2.0295643310447913 -0.5155499495216646 -0.015962130513845305 -0.8362459547975749 -1.4878478255270962
-1.9006694671954463 -0.29725751975200426 -0.952438120490939 1.877913681169037 -2.004742524961616 -0.37856709160559426 -2.273173405212821 1.9053947320871982
-2.555180471187673 -1.0672857781393208 0.725723419574693 -2.00016238068581 -3.0929062425863605 -4.6728490473113125 -2.5700440571627077 -4.111643531413431
-3.9857129820397876 0.8242568760353554 -0.9473397127524172 2.0260819109820773 -0.0023613494199631086 0.14495919364993665 -0.5264669386287527 -0.2532903768491733
-0.11500432357473873 -0.20459604604592221 -0.9703171254676013 2.3653168744798685 -1.7553998451080008 0.0507564773104226 0.0649095783613338 -2.132277979357507
-1.9552010357900511 0.230578999076391 -2.4437756788648866 -4.011806076446773 0.41025520613735067 1.9854655590921308 -1.0686263975110828 -1.7760992575685381
-3.334331131886729 -4.786196572416748 2.394018980902688 -0.7914139578475041 -0.06456388782625287 -0.3568887666293804 1.513913183182977 -0.35907149268446975
1.1168224725333489 -2.476484391389912 0.5143917140668457 0.6710874959975722 -0.10552272334098194 0.6586031569465525 1.3040311159027778 1.260988165859752
2.8644278825775746 2.067714346050916 -0.373516320091496 -0.011640800582318202 0.564716172970683 1.2287943615984398 -3.64072368351684 -0.9264455417124026
-1.9181705082813896 -3.272282412227042 1.9430853616321908 0.598049801151751 1.0522007721824185 -1.4008802409853143 -0.538016712234167 0.6091289275215114
0.4433875483222589 -2.279176831402237 -1.5698981374225158 0.5826796827214238 -1.464635060130473 -1.1507715636783677 -1.8758664305222073 -2.769897853019909
0.2993232054669014 -0.607843486406465 1.5928779427677762 3.0386021218445016 1.5097992418180872 -2.5199905218950645 2.009874701317671 -1.0229876522049093
1.0397369649264727 -2.780457874405458 0.13720632523056317 -1.0690212282952718 -2.030046833165937 -3.223437896577186 0.6414538122815692 -4.471977511534779
-1.8890700586227187 0.5182613292622077 0.9458217158944924 -0.8873728231793305 0.5704579568014786 -3.3809977311965116 -0.023645600468834706 0.43278936343792546
1.17494917591554 -0.9172023618433136 1.085394416084055 -0.6154896164020732 1.312997351371065 1.7267724895954146 -1.9637909809830443 -1.1342663883189834
1.2520776477204685 0.6937248802507138 2.480672283165551 1.7928843076712013 -1.1200111735963665 1.55910248341888 2.1368594208650027 0.23765095088754867
2.63962308005382 -4.033082845157828 -0.6144690767816581 -1.2687338698699793 1.0537526055813875 0.13276296792955228 -0.9744097392892644 -0.35498580284247233
0.5438327177884958 -0.02296620892214868 -1.3133716370823116 -0.5459648361666525 -0.49595818737096964 -1.7778945604966818 2.7797565339828285 -0.019208063378960617
-1.6056945415595378 1.1727431569850404 -1.1803465581616075 1.1822718802861556 3.5025983931404396 0.3737757462630935 1.0296414017759419 2.3553266148206458
-0.9790120481775241 -2.942000818636641 -0.07352545123573573 -2.7120509648342512 -1.083200808112851 1.8679789902853754 -2.1249489494414595 0.6179205857731308
00000000: 3edb 8076 a499 dbbf 98a8 942e 68cc f33f
00000010: 448a 6617 1c67 aebf ac89 0912 b455 e0bf
00000020: 2009 5ee2 9de3 e9bf fec8 3bd1 af0e f9bf
00000030: 60ab 4906 3afb e7bf be17 2064 f2c5 e53f
00000040: 3eab 6598 0a8d fd3f e8e6 3e19 4993 d23f
00000050: 70c1 4724 9134 0340 1319 b26a 2430 14c0
00000060: 49c0 9273 1cee fa3f afa5 d730 4011 f03f
00000070: 8237 13b0 b4f7 fabf 08b2 8b03 1226 07c0
00000080: b25d e3b1 b44b fb3f 9b67 6584 93c1 e1bf
00000090: a2bc 3ddb 6735 f63f 2543 2551 2894 fc3f
000000a0: 3e88 a55d e989 e2bf 487f 2864 a76b 0140
000000b0: 17a2 b1e5 ede3 0340 20f6 4afe e603 03c0
000000c0: 5a57 2fcc cffe f53f 8c10 52cd 2779 e5bf
000000d0: 352b 598e ff8c ec3f 712b 4baf 4e72 f23f
000000e0: 421a 7b87 78d4 0140 199e 5972 ddd4 0140
000000f0: 1399 ead1 0d5c c53f 00be 35c5 cbda 03c0
00000100: 6c54 2119 1369 febf cbfa 5172 8053 f0bf
00000110: eaad a689 25d8 01c0 459e bc4b 1e21 04c0
00000120: ab22 03a2 3e33 e1bf ed25 19f9 4615 e03f
00000130: f714 0792 4946 fa3f 3aa2 465b 8fc7 ff3f
00000140: 7b7a 63de 0a17 0040 9b9f 11f3 0a78 09c0
00000150: 0cfe 6617 f59d e5bf 446c a2cf 54ec d5bf
00000160: 5a39 eeb0 abee f93f 06fb aa4c c6f7 00c0
00000170: 2ad3 37e2 65cd 02c0 55a9 d9d8 91e1 0040
00000180: 0624 b4a3 b227 0ec0 a5ac 0a18 0673 d33f
00000190: c65d 322f d792 abbf 1753 ea63 93b6 0040
000001a0: 0270 13b3 a534 f5bf 7fa7 d6c0 eac8 f33f
000001b0: 8720 9d68 4387 f1bf 437e 27bb f181 fe3f
000001c0: 822f 006e 03b4 f8bf 6c52 3eb2 4bd0 773f
000001d0: e335 85a5 c645 febf 2f35 f611 4104 f6bf
000001e0: 51f9 0409 3fdd febf 1ea4 592a d887 f73f
000001f0: 5833 6f66 3ad2 0540 1e60 908e fd13 f9bf
00000200: 233c a06e 6e96 04c0 0a36 5f00 82a3 e23f
00000210: a7d0 ef82 f421 f83f e6e3 3e47 6011 f63f
00000220: 6f32 3d72 78db ddbf 40a9 a71a fe59 f33f
00000230: f2b1 0edf e965 c73f a5d0 1b8f cd4a e73f
00000240: c82d ab60 7526 e83f 1536 0140 8f4e ec3f
00000250: 5691 4b2d 53e6 fa3f c224 1a07 ed80 e8bf
00000260: 2d9b da9e 0493 0540 7367 24ba 0752 f43f
00000270: e778 c531 ef54 fbbf 5369 730c d6c8 e5bf
00000280: f672 607b 159d 0840 5016 0c66 aa2d 01c0
00000290: a626 9fdf ac63 e3bf dc7f 3e1e e53f c53f
000002a0: 8220 fb3a b1bc ecbf d66c 7e6a 6d17 d73f
000002b0: 3b4c e71f 76c9 dcbf 98d7 d342 7477 0dc0
000002c0: c021 ce23 cdf4 ea3f 80d3 364b cb7f 0b40
000002d0: 785e 7ded d41d fa3f eafa 8cf3 67bb f9bf
000002e0: 484d fa6d ec5f 02c0 ea7f 7ea8 9cc6 b73f
000002f0: ce3d 4cdd 8168 76bf 75a0 0a0f bb2c d63f
00000300: 6b60 aa5a 4759 f43f 3cb3 195e 8542 c1bf
00000310: 1916 bd57 bffa b33f 56b9 5739 8c3c 0040
00000320: cdcc 949b 627f e0bf 3c34 2072 6058 90bf
00000330: 7692 68e0 86c2 eabf 7904 8185 39ce f7bf
00000340: 53c3 2163 2469 febf b1cb 7467 4406 d3bf
00000350: 011d 5f82 5f7a eebf cf4f 5537 ef0b fe3f
00000360: 85e2 ec72 b609 00c0 5b6c 7277 713a d8bf
00000370: 4b35 cc89 752f 02c0 2c90 c42f 7f7c fe3f
00000380: 0a08 7975 0271 04c0 3b82 8940 9a13 f1bf
00000390: 8b77 2052 2039 e73f 65e1 5d22 5500 00c0
000003a0: 7305 cca0 45be 08c0 2b63 3557 ffb0 12c0
000003b0: 0858 3642 738f 04c0 2cec 90ae 5272 10c0
000003c0: 04d4 e87c bde2 0fc0 3766 c2f4 4f60 ea3f
000003d0: 4628 8f5f 9b50 eebf 4d7b d56e 6a35 0040
000003e0: c9ba 0fd1 1b58 63bf b291 fdd9 058e c23f
000003f0: 51be 7a31 d1d8 e0bf 965b 3dd7 e835 d0bf
00000400: 55f0 a660 ec70 bdbf 213e 5407 3430 cabf
00000410: f839 1480 d60c efbf 358b e440 2bec 0240
00000420: fb46 e225 1e16 fcbf 4884 37c4 c0fc a93f
00000430: ef52 4204 ea9d b03f 5792 dac1 e70e 01c0
00000440: 722d 9de1 8048 ffbf c4b8 16d6 9c83 cd3f
00000450: 0ce1 5b43 da8c 03c0 8fee 60e4 160c 10c0
00000460: 0aea 570d 9f41 da3f 3229 ba88 77c4 ff3f
00000470: 043d 4ffe 1719 f1bf db4e 1b0e e76a fcbf
00000480: c2e7 ebcc b5ac 0ac0 6707 dbb6 1025 13c0
00000490: a4d7 676c f326 0340 cab1 515d 4353 e9bf
000004a0: ef63 b74a 4287 b0bf e6e8 3efb 43d7 d6bf
000004b0: f910 ac07 fd38 f83f 675d 80ff 06fb d6bf
000004c0: 5a7f af3d 81de f13f d597 700c d7cf 03c0
000004d0: fa03 a89c e575 e03f 230d 027c 8c79 e53f
000004e0: e3ff bb85 8903 bbbf ec16 84ed 4613 e53f
000004f0: 124d 3cbb 4fdd f43f a82b 50ed 012d f43f
00000500: a45e 6b2a 59ea 0640 d711 aed1 ad8a 0040
00000510: f12c d4fe b0e7 d7bf 410b 67ce 21d7 87bf
00000520: b9cd cda6 2712 e23f 2431 c946 24a9 f33f
00000530: e2d1 13bd 3320 0dc0 b3c0 e51e 71a5 edbf
00000540: 3586 138f d3b0 febf 3f54 be66 a22d 0ac0
00000550: d8be 18ad e016 ff3f 326f 2a56 3923 e33f
00000560: 4897 157a d0d5 f03f f84f 4a66 016a f6bf
00000570: fce8 f7d2 6e37 e1bf 0914 d8f2 fb7d e33f
00000580: acda df2a 7660 dc3f 5b63 0510 c13b 02c0
00000590: 0e7f 6482 4d1e f9bf 26a1 aadc 4fa5 e23f
000005a0: b25d 3d2c 256f f7bf 5ca5 7271 8f69 f2bf
000005b0: 3b1d ac84 8c03 febf 58d9 9f34 c028 06c0
000005c0: be82 9a84 1c28 d33f f679 e62e 7473 e3bf
000005d0: 5751 eb94 6d7c f93f d806 17a1 0e4f 0840
000005e0: 0326 f23f 2328 f83f 7927 6eca f028 04c0
000005f0: c1bc f92f 3914 0040 18e9 e64c 285e f0bf
00000600: f1d2 4c3a c3a2 f03f 23d1 b3b2 603e 06c0
00000610: bbb5 d513 fa8f c13f 8820 e400 b61a f1bf
00000620: 595e ae31 893d 00c0 6be3 d3ce 99c9 09c0
00000630: 869a 3425 ca86 e43f 15f5 a112 4ee3 11c0
00000640: b532 9a86 a139 febf 31ce 7ec8 9895 e03f
00000650: 5ea1 33e7 2b44 ee3f e442 ddb0 5b65 ecbf
00000660: 1392 860b 3141 e23f b7b6 da89 480c 0bc0
00000670: e7ea d462 8d36 98bf 6d71 8128 d2b2 db3f
00000680: 714f d081 97cc f23f acca 7dc4 b859 edbf
00000690: f778 0589 c65d f13f 052f af47 17b2 e3bf
000006a0: 39f9 bd82 0902 f53f ed1d a730 dca0 fb3f
000006b0: eb07 7817 b06b ffbf 5c83 2c83 f425 f2bf
000006c0: 3d31 5092 8208 f43f 8925 2385 fe32 e63f
000006d0: 4b51 c2b5 6ad8 0340 c059 af74 a7af fc3f
000006e0: fc03 1cd6 90eb f1bf f357 1672 15f2 f83f
000006f0: 141e 86c0 4918 0140 0271 f6aa 586b ce3f
00000700: 98c8 94b4 f21d 0540 c70b 2878 e021 10c0
00000710: f0c6 a50d bba9 e3bf 8eb4 e6e2 bb4c f4bf
00000720: e2bf 30b1 2bdc f03f 264c b07e 60fe c03f
00000730: 43d7 6455 5d2e efbf 9b2c 705f 16b8 d6bf
00000740: 34af 2cdf 1367 e13f 7057 ef30 7484 97bf
00000750: 3d33 4cfa 9103 f5bf b441 833f 8b78 e1bf
00000760: b645 bc68 c7bd dfbf d81c 1191 4172 fcbf
00000770: 7463 62fe f03c 0640 fae6 2050 47ab 93bf
00000780: a6d2 75c2 ecb0 f9bf 97bc 1d54 8ec3 f23f
00000790: 1701 9412 b3e2 f2bf 92f3 4ceb 95ea f23f
000007a0: 937b 6c4e 5205 0c40 143b 8f1b f1eb d73f
000007b0: a7c3 3343 6979 f03f ac6c f07a b5d7 0240
000007c0: 87ff 2913 1154 efbf fbcb a6b9 3789 07c0
000007d0: 302b 7b60 90d2 b2bf 0863 b8c6 47b2 05c0
000007e0: 0887 dd5e ca54 f1bf ac40 0ef0 3de3 fd3f
000007f0: 3e2a 1c3c e5ff 00c0 dd76 6d64 01c6 e33f
