kaggle_playground_smoking_prob/fold_3_cls_model_3.pt.pt (torch, 950621 bytes, 62 tensors)

model.0.weight f8 [100, 21]
00000000: 3b6b 783b 4e56 04c0 6722 58f2 7689 f43f
00000010: 94f4 ba6c 0ae3 f73f a1eb 83cf ed6f d0bf
00000020: 4ac8 519e 4d87 f73f 0814 e705 3299 f93f
00000030: 3030 e274 72a7 f33f ccd0 845e 432c dcbf
00000040: e0d6 4c8d 5e61 edbf de80 b398 1833 f23f
00000050: f4bf 2fe4 e83e 98bf f3f8 67e6 f445 d7bf
00000060: 90cf f23c 94ac f43f 9bb4 66f0 2bec e43f
00000070: d52c 926a bd1e f4bf 2b13 9539 5390 0e40
00000080: 4214 ba66 c764 fa3f ca0e c567 be77 0440
00000090: d1bb 8a40 cb1c 14c0 659f b384 1f01 10c0
000000a0: cb9e 0d95 b3fa fbbf f185 17d4 7c1c f43f
000000b0: fcd8 73be e715 b2bf ec21 6edc 79e0 d93f
000000c0: 828f ff6f 2f7e f5bf e377 3adf 83f9 06c0
000000d0: c5f4 7386 87ce 0dc0 c8c0 2d8a 024c e73f
000000e0: e226 5a0d ed4b f9bf f3d7 1b5a 4030 dc3f
000000f0: 0c5c 486b 9294 ee3f 7915 7910 96c8 c03f
00000100: 81c7 289e 2c1a d4bf 8101 7191 b20a f83f
00000110: f295 9273 fa86 0bc0 1423 ed53 9e42 f0bf
00000120: cf88 80df aaf7 02c0 27d6 4ed1 bd3e ef3f
00000130: ca81 451e d670 05c0 7b3e 4256 1861 f2bf
00000140: e4dd 6e5f ca8e 11c0 b3ab 782a 947a c33f
00000150: 5224 859b 32c7 f73f 57cb a260 5054 ea3f
00000160: 2f56 751f 2432 d3bf 4130 5659 883b 5abf
00000170: 6146 4e7c 8df0 903f 5225 792e eec2 f5bf
00000180: 7c57 287c 1397 e93f 6c43 0ad2 0013 e0bf
00000190: 0134 38ad 838e e2bf 0f99 c0e7 ae1a d6bf
000001a0: 9115 d00a 4d45 0ac0 73c3 3c2e 3b43 ed3f
000001b0: 6d2a 5df9 fa1a a2bf abab a8ac cee8 ce3f
000001c0: 464b 1f04 809c 89bf cb65 7aff f775 cbbf
000001d0: 5a8f f4b0 854d e2bf 0426 8952 1fc4 d13f
000001e0: e573 b53b 4201 2ec0 941d a404 4040 e0bf
000001f0: 1134 a86d 6d15 e73f 6d74 0f26 77d6 f93f
00000200: c2c1 b4e1 07d6 07c0 e13e 5cfd af2a f03f
00000210: ebc8 e189 38b1 e6bf f4c3 312f bfd0 d0bf
00000220: 382a 96dd e369 debf 363f 69fc 0e36 c8bf
00000230: abc0 f32f bd67 c5bf b397 f6f7 f600 f6bf
00000240: ffb0 fb0d b3f9 0440 05c5 523d a5ad 00c0
00000250: f978 2b4d 8ddf f03f 3607 de99 11ff e83f
00000260: 926d a618 3350 11c0 49a7 b5b1 11b6 cbbf
00000270: 7aed d504 3631 13c0 d940 579f cbf7 dd3f
00000280: 1ab8 40e7 68fe cdbf d306 f233 55f0 9bbf
00000290: 3a0d f959 893d d1bf 3f6f 2c41 0c85 0540
000002a0: 31de 0d78 b370 00c0 067d d2cb f1af 0940
000002b0: 54e6 88fd f7e5 f0bf 8c98 1626 96c0 ba3f
000002c0: 1dd8 5ac6 76a7 f1bf 5cfd f434 41b9 df3f
000002d0: 4cf7 1100 29aa 00c0 b472 b58a 0c34 e6bf
000002e0: be44 35ff bbb4 ac3f 5c8b ed58 3f3d ecbf
000002f0: e23b 3d86 1f3a f43f 13ae f1de 19b1 0bc0
00000300: a6b5 80d9 1f3e ed3f baed 32e1 ffb1 1740
00000310: 03ed f75f 00ed f23f bbc0 a626 63cb f5bf
00000320: 9ee2 befc 5a63 00c0 4710 2061 ec09 f53f
00000330: e69a 3059 077d fa3f d741 0c31 9aa1 0540
00000340: 2f68 e0bc d801 e23f b274 0759 b081 e73f
00000350: 4208 d233 1a9f f33f 1ab0 2917 8907 f43f
00000360: b8e9 7c41 3210 03c0 3800 3662 526a c3bf
00000370: af38 4b29 0127 d0bf 5ea2 fa38 5eff e03f
00000380: 94a4 e997 9735 fa3f 45ce 908c 2d40 0040
00000390: 6cb0 c1d7 41e0 f43f c1f5 7386 ce25 0940
000003a0: 3269 9c2d 2491 f7bf 6a6b 6eed 34c6 ea3f
000003b0: b2a7 7dbe bb2b 1140 5236 204c 7908 0940
000003c0: 0a67 8183 f18e da3f 0308 f776 e101 de3f
000003d0: 9cb1 ccdd df8b e63f 19d4 f953 1d74 a9bf
000003e0: 5291 410d 1ea7 e8bf 1ae7 9ae1 8d02 df3f
000003f0: 11d9 f1cb 0aea ea3f 7109 7942 43de 02c0
00000400: e3d7 6e8c 0e73 c83f da75 d729 7553 e4bf
00000410: aebe b2c8 797a eabf 24bd 6a24 67d6 eabf
00000420: 7229 cd2d 5bdc e6bf ebff 191e 3e93 d03f
00000430: d66b 12b4 0a67 f9bf 239a 5e37 cc96 f43f
00000440: 1daf a7a7 39fb 02c0 0fb6 67cd 92b4 e43f
00000450: 21af a95c 233b 0240 8141 2663 8120 12c0
00000460: 41fa cfd5 f192 d3bf bfaf 2240 1c96 10c0
00000470: 2cd3 2035 9dd2 d43f 1839 5ab8 19c3 c23f
00000480: 05d2 4307 ce8a e53f 12ca 2d72 5662 00c0
00000490: c969 52ac 888f 0240 8afa 75ea a525 fbbf
000004a0: 0b3e f26c 35c6 febf f694 ad5a c128 da3f
000004b0: 3b6c f2b2 ed66 fcbf f6c7 bc61 9cc2 dabf
000004c0: 03bf 32fa 10c7 debf 9caa 04f9 343d f5bf
000004d0: 20f9 d5dc 4faa f4bf daa6 fd9d e59d 02c0
000004e0: a568 9891 3314 f63f f56a 466d f43a dcbf
000004f0: b573 266f 68c7 0540 df10 1631 7c6c d73f
00000500: 8b6c ceb2 6920 b9bf 605d 196b bdf8 c03f
00000510: b317 2207 924a a6bf e8f2 8e4d d915 f13f
00000520: 10eb 6434 98b0 e33f c290 8d1b 0028 1140
00000530: 7a37 c9fe d6f9 eabf dfbd 8cee 8dca fabf
00000540: f761 3381 806d 0140 bef7 ec6d b90e eabf
00000550: 685e 1acf 9348 e7bf f049 c359 5450 e23f
00000560: da62 1b29 738e f4bf 20d8 587c 63bd fbbf
00000570: 3bf4 681a dafd e23f aeb7 a994 c698 f63f
00000580: 1fd2 19d3 3720 fa3f 9238 e7a1 a544 03c0
00000590: f992 5613 ea3e 21c0 5d6f 76da 9879 b0bf
000005a0: 3916 91d3 2786 e33f 661c bb76 c1c4 e73f
000005b0: e46e c8c4 2cec f43f 532b a3a9 843a f03f
000005c0: 8c1f 02d4 7554 ecbf d1c6 37fc dec7 ef3f
000005d0: cc0a dfff dd5b f8bf d5bf e882 0c7e 0ec0
000005e0: 649f 7903 2020 0240 9c11 d7e9 6424 06c0
000005f0: 5940 06d5 35b0 f0bf 00f2 2486 2139 d03f
00000600: 7c0c dcd5 9029 ef3f 5693 c1a0 3837 00c0
00000610: f580 6252 2643 02c0 f20e 7e1e 125d f1bf
00000620: e136 538b 38d9 eabf da1e 62bb 8b3c fbbf
00000630: 1100 5c87 8ada fabf 7ad8 e578 5526 07c0
00000640: 6dfc 1cb9 c2a7 e1bf d172 1060 10b6 e1bf
00000650: f307 2c74 cfe9 02c0 252a 9201 4060 e53f
00000660: a514 9e19 12e8 d53f fb18 2d3e 2780 05c0
00000670: dc98 9d5c 1244 f7bf 6e1b 1131 8d2c 0240
00000680: fef9 c989 5beb 19c0 5640 736f 8d89 f73f
00000690: 40e5 fa43 2045 1c40 04c1 0a20 cd17 01c0
000006a0: efa3 0848 6197 e5bf 4b73 89f8 8a7c f4bf
000006b0: 1723 3220 79a6 01c0 0527 729e 479e 00c0
000006c0: 7d9f 294e 44c7 b5bf 4534 0e54 5204 f33f
000006d0: af5d ca0d 8ef9 cf3f 9b77 08a1 37c1 d8bf
000006e0: 6d05 2789 22f0 f03f 415c c21b cbd5 e23f
000006f0: 324b 434c 5f1c f73f 241a 19c8 97b6 c33f
00000700: 3dfd 5dc5 c139 ddbf 2645 583a 1c8a f53f
00000710: f5b5 3245 004a f03f 7c45 a84b ef41 f53f
00000720: b951 d85c a609 e4bf a69a a49e 0bd8 fdbf
00000730: ee83 6d35 15bc 0640 27ec 5c26 3318 d03f
00000740: 447c 0738 dda2 f83f 5df5 0b66 4c91 d5bf
00000750: 7935 19a2 8a51 f0bf 482e ed34 ed1d 00c0
00000760: c68d 154f d169 fabf 60f2 afaa 1b6f f13f
00000770: 7670 c548 150d e3bf 6706 6df3 3427 dbbf
00000780: fab4 204c deae fb3f f968 f7ae 3cdc f53f
00000790: 46cd 3eb3 9a04 1340 ebbb 7835 6ad7 f0bf
000007a0: 443a 20e4 c816 0140 e0db 589c 7fe8 b5bf
000007b0: ca53 3a60 e337 f63f 6417 220c 58a1 0140
000007c0: 7b44 8294 3993 e83f 292f 531d ee49 1340
000007d0: 3745 a790 2047 e53f af75 03ee 79f2 f4bf
000007e0: b65c b553 457c f5bf 5d59 9f53 9998 f6bf
000007f0: 62fa f941 91d1 cdbf e286 9120 d480 f1bf
-2.542141403782265 1.2835607019971123 1.4929298636700752 -0.2568316008106937 1.4705330070833207 1.5999012213299029 1.228380638672217 -0.4402016089473022
-0.918135906197417 1.1374746289148372 -0.023677481582069462 -0.36364481449699254 1.292133558349608 0.6538295455299193 -1.2575048602037004 3.8204712389582673
1.649604226376383 2.558468638135172 -5.0281190952946 -4.001096795523925 -1.7487064192190924 1.2569549832190854 -0.07064674758644068 0.40432592893969743
-1.34330695866899 -2.8718335571020233 -3.7258444313179973 0.7280285548022443 -1.5810366174286448 0.44044503020938847 0.9556362243046137 0.1311214046892635
-0.31409755177730153 1.5026117020898655 -3.440907385741178 -1.0162642744418848 -2.370931383237895 0.9764088714643478 -2.6800958981477594 -1.1487048501475374
-4.3894438659112645 0.1521783072833763 1.4861322474482859 0.822792233221075 -0.29993537017921573 -0.0016011077435420659 0.01654263564302594 -1.3600904288635616
0.7996919083550291 -0.5023197271676572 -0.5798967726892671 -0.34537861473144543 -3.283838352656581 0.9144569304536233 -0.035362093868191426 0.24147971563919887
-0.012505531431008198 -0.2145376203014123 -0.5719631630094952 0.2775953584683466 -15.00245844449996 -0.5078430262228033 0.7213656560649061 1.6148597227795805
-2.979507220581781 1.010421743096167 -0.7091334050185457 -0.26274089440181503 -0.47521301879229183 -0.18914973568689114 -0.16722836343206401 -1.375235527616934
2.6219235508380048 -2.084787825668743 1.0545781149335751 0.7811363225193648 -4.328319916875801 -0.21649380852914593 -4.798057628209216 0.4682492309630227
-0.2343264702953441 -0.027283984466072674 -0.26938089167034074 2.6899647800145483 -2.055029809878555 3.210910408364387 -1.056144705171751 0.1045011370648316
-1.103384756873772 0.49568205043393276 -2.083086014316825 -0.6938536366611374 0.056066393760042285 -0.8824764954446027 1.2641902202337794 -3.461475126028526
0.913833546457387 5.923827666028439 1.182861685635374 -1.362155104619929 -2.0485133882287547 1.3149226945834174 1.6555245861033483 2.7039073783746335
0.5627254189487355 0.7345811594820104 1.2263433479534034 1.2518397240446633 -2.382908355354825 -0.1516821841760263 -0.2523806479702086 0.5311728585121036
1.6380840238655638 2.031336877984162 1.3047502925865286 3.143460321821039 -1.4729348928145325 0.8366951596575352 4.292708374423386 3.1291376063661938
0.4149745735390843 0.4688647901313063 0.7045745212577006 -0.049714008809054806 -0.7704000719937005 0.4845308974432655 0.8410696013732225 -2.3585267251193547
0.19101125580863174 -0.6351877038211413 -0.8274506492507123 -0.8386722289341475 -0.7143989462431775 0.2589869779549178 -1.587656691938482 1.286815849578155
-2.3726685617492778 0.6470426570719513 2.2788760413440206 -4.531743573389009 -0.3058437908183898 -4.146592142216774 0.32535486400893165 0.14657899381240536
0.6731939451115642 -2.048016445181255 2.3200849020624656 -1.6966914328219524 -1.923390794345212 0.4087375054862855 -1.775129031192377 -0.4181281046359112
-0.48090004380627266 -1.3274430968546431 -1.2915800691985808 -2.3270981162103057 1.3799319922750695 -0.4410983149661399 2.7223671611413587 0.36599640649389004
-0.09815083136929752 0.13259093980262104 -0.043537677164791865 1.0678341893791927 0.6153069518398713 4.2890629105715465 -0.8429980255402676 -1.6744517629957654
2.1784677594953297 -0.8142974040017561 -0.7276095433216598 0.5723058465176205 -1.2847777944318097 -1.733737455111175 0.5934877887554032 1.4122987563273273
1.6328657384993972 -2.4085190437973063 -8.622879604642991 -0.06435542424736469 0.6101264125979419 0.742768031975072 1.3076598822435068 1.014286673208251
-0.8853100910937299 0.9931483198290271 -1.5224285120936427 -3.811547301032969 2.265686061047676 -2.767770602107886 -1.0430200883165723 0.2534869966509916
0.9738239457077635 -2.0269634780001224 -2.282787936812492 -1.0852223578557951 -0.8390162202064994 -1.7022816962871077 -1.6783547675586343 -2.8937177128928484
-0.5517285933964452 -0.5534746052031442 -2.3641652179658137 0.6679992705042578 0.3422894716425822 -2.687574849845189 -1.4541190736577425 2.2717536767335593
-6.479841378166837 1.4710821488879637 7.067505895794341 -2.1366217139512873 -0.6747290045651634 -1.2804059704278241 -2.20628571656233 -2.0772850397669367
-0.08507182033792833 1.1885550769250284 0.24980331109393947 -0.3867930481518386 1.0586266858593618 0.588597826211192 1.444426820661374 0.1540097929993901
-0.45665020250449456 1.3462183264821959 1.0180666640329694 1.328597350632065 -0.626177960718045 -1.8652454564086525 2.841837327389377 0.251477038825842
1.5397617519991096 -0.3369933125066689 -1.0199076015445299 -2.014612592209037 -1.6508343781687116 1.0896259944412563 -0.595347063189833 -0.4242679955678796
1.7301924680462535 1.3662688097597864 4.754496384342309 -1.0525915230498366 2.136125356896885 -0.08557889525478357 1.3886445769214668 2.203781218328844
0.7679717922748205 4.822197397424852 0.6649325204145161 -1.3091983125117215 -1.3428395528660935 -1.4122555986883392 -0.23295798989780098 -1.0939523002820626

model.0.bias f8 [100]
00000000: 6829 ea8a f9ae d03f c0cb e794 6ffc 0ec0
00000010: 5aca 47f7 3e55 f7bf 8ada fa09 7021 b03f
00000020: e2b9 91be fa81 d93f 34b6 d90a bb9e cebf
00000030: c8b1 ae25 d03a c1bf 7ae8 5d53 44ac 933f
00000040: 30b0 56e4 26e3 f8bf ba2f 1390 da60 fdbf
00000050: 0058 cb40 410e 02c0 ba66 6df9 5e2b f4bf
00000060: b5f0 44f5 c034 c4bf 11a6 e445 f001 f9bf
00000070: cebc 828a 8ce4 ac3f cd5a 336a e539 0040
00000080: 7e8a 5eec 093f 0440 9ab4 9fcb 7c7b df3f
00000090: 74de 29c7 f87b ae3f 1244 fa5d 94db d23f
000000a0: f43f 43b7 3512 e0bf 5313 af02 5777 0ac0
000000b0: ae34 26a0 e65c f4bf 024f 3605 ff35 fabf
000000c0: 2660 d4b9 4919 e8bf bb51 4692 7d9d edbf
000000d0: d64e b996 d8cb f1bf 7526 881a 4929 08c0
000000e0: 55d7 61b3 317a f8bf 2574 965c a574 05c0
000000f0: 644d 7a1b 077a fd3f 05c9 4ef1 f445 08c0
00000100: 675c a988 265b fcbf c2f0 4d3d bea2 e9bf
00000110: 5550 79be c2b8 13c0 64a2 114d 036d 0840
00000120: 3c30 d184 f8b8 fdbf 6e4b 3ed6 2089 fabf
00000130: 7a25 2c1c d124 bd3f 663a c4cd e72a e93f
00000140: 15f1 2042 829b 06c0 4e5b 7c3c edc1 1640
00000150: 1be4 5258 4d46 f6bf e92b 56e6 9f9b fabf
00000160: 1b8b c8f4 4731 eb3f 64a8 d917 3914 d63f
00000170: 610e b193 4e4f d9bf 5bbd ea7a b8a2 e6bf
00000180: ca84 ecbc 22c3 e9bf 9ceb 388a 5307 efbf
00000190: d6f2 ff5c dfd2 f5bf 1f5e a54d 1c60 00c0
000001a0: 52c0 7b82 4c2c 0bc0 56c2 42a2 3df7 e6bf
000001b0: 902f 08c0 42fc fabf 9fa8 27e6 8dcc 773f
000001c0: 58a2 4330 aaf7 f1bf 6a77 122a 5cba f2bf
000001d0: 64b6 5c94 d0ea d6bf 33e1 a295 615a 03c0
000001e0: e721 d011 fdfa bebf 514a e3ad 5c75 0140
000001f0: 8a3d b8eb b0e7 9bbf 534c 09a2 0e8f 04c0
00000200: d7bc efc2 c775 b73f 026a 232b e698 dd3f
00000210: 51a4 2580 2545 f0bf 2d71 970b 61f5 00c0
00000220: 1bba 30f7 f8e2 c43f 0197 4c1b 04c0 0cc0
00000230: 115b af41 b440 d23f a602 c701 5a11 efbf
00000240: 1f87 6626 b5d5 f5bf b165 3526 219c 0240
00000250: 5a3d ac10 fafa e13f 55b5 f207 57db 05c0
00000260: 5b6d 904f a780 febf c85a 0ccd 2419 00c0
00000270: dbe8 6a7b 9688 d43f acc2 38e1 fdbe febf
00000280: 19a3 d7e2 4ab4 08c0 5ecc 538e a2b2 ecbf
00000290: a092 0061 76c0 c6bf 7614 e65c 0a3e 00c0
000002a0: dbab f81b 5f43 f3bf 7171 e3ab 69b8 05c0
000002b0: 494b a495 3a95 03c0 13ab 6e9b 16fb acbf
000002c0: 89a1 6d14 30a1 eebf a2b3 c3e6 c72c 0540
000002d0: 4715 5b0a 03b8 efbf 2f75 e67c ba76 e4bf
000002e0: 7928 7f18 bf4d fb3f 2cf0 743e 31a9 f3bf
000002f0: 773b 068e da87 04c0 0aa2 cde1 6ffe dcbf
00000300: ff7b 4650 549c fbbf 5dba c9ae b7fd ebbf
00000310: 26eb 6093 283a f5bf dbe6 7248 f254 10c0
0.26067961278808705 -3.873259700130319 -1.4583120021240092 0.06301021808290322 0.39855831728246305 -0.2392190745335242 -0.13460733261071156 0.01921183356123677
-1.5554570121266913 -1.8361459377219789 -2.256960397916373 -1.2605886214500246 -0.15785991645851075 -1.5629732828332445 0.05643119040302623 2.0282696053430755
2.530780645976221 0.4919120777620464 0.05953957968898474 0.2946520726919185 -0.5022228793477539 -3.308271428077583 -1.2726808791951885 -1.6381826594924296
-0.7530869130596372 -0.9254749161651071 -1.1122671020174741 -3.020158965377784 -1.5298325545422433 -2.6819560273566077 1.8422919343327857 -3.034158597199282
-1.7722535456030302 -0.8011161038735042 -4.93043038955155 3.053228952503831 -1.8576588810128802 -1.6584785813217553 0.11384303033641699 0.786487485778548
-2.8259320417693155 5.689381547060135 -1.392163605704133 -1.662994289162038 0.849765756695294 0.3449843151962624 -0.395465511541465 -0.7073633576127735
-0.805070275299067 -0.9696443271308115 -1.363982547073808 -2.046928984269257 -3.396630305673207 -0.7176807564884011 -1.686587095379739 0.005810312550673795
-1.1229650388069299 -1.1704980510180243 -0.35808195579998015 -2.4191314401943145 -0.12101728138816946 2.1823056778896803 -0.02725101889342122 -2.5698521288955276
0.0916409350318078 0.4624572201988998 -1.0168814664596264 -2.1198140054313144 0.1631766516670304 -3.5937578327892656 0.28519922651814605 -0.9708681139673743
-1.364674711229277 2.3262351021810095 0.5618868184700816 -2.732099592298861 -1.9064095600104654 -2.01227722352937 0.32083665897847674 -1.921628837368341
-3.0880334589059086 -0.896806028349953 -0.1777484868663537 -2.03029320313595 -1.2039481251365405 -2.7150453022751937 -2.447865647388799 -0.05660315177313726
-0.9571762465466672 2.646865656707136 -0.991212387300643 -0.6394932212312251 1.7064810711767946 -1.2288067283361768 -2.5663348289157812 -0.45302960444544793
-1.7256663451914844 -0.8747213758304714 -1.3266988522506806 -4.082955486310051

model.2.weight f8 [100]
00000000: d5ce 2155 d405 0240 500f 9bd8 727d 0540
00000010: 51d0 c733 a947 0840 1ed5 476c 2edb 0040
00000020: 53e6 f39e a04f 0b40 ae1c bbdc c98c db3f
00000030: b094 8558 84a3 e33f 9f9b 5280 333f c0bf
00000040: 0239 50e8 99b0 f33f 28fd d37f f6ba 0640
00000050: 966d dffa 83e5 0940 2a89 6874 aea7 ee3f
00000060: 2b7f 964a 2cbd 0940 07d9 7fa0 7098 f13f
00000070: a39a b82b 9b61 e3bf 3844 aa79 4a77 b0bf
00000080: a865 5fdf b910 e3bf b3ff 70a9 a881 0c40
00000090: f3a1 1e2d fff4 1440 238b d65d 8bec e9bf
000000a0: 9ea4 5f62 03c1 0540 6b28 d58a 2723 f43f
000000b0: 995c 5f5f f9fa f63f b328 2925 59bb 0440
000000c0: 03e1 345f f306 2040 5e99 824d 5db1 ff3f
000000d0: bd0e 51f0 3626 0c40 2f74 0232 0e77 1140
000000e0: 1faa 6de0 2329 d6bf 7b2b 2d6d b58c f8bf
000000f0: cdfa 41fa e064 f93f 0915 32dd e08b e43f
00000100: d23b b62e 5287 f53f 19be fd65 3dba f03f
00000110: b9de f83f 76e4 cc3f 8de4 f0bf c5c8 0640
00000120: 3f23 d870 e6c2 f53f edab 9836 5ac9 e2bf
00000130: fdf9 96d3 cc4b 0a40 b7e9 d884 5006 fc3f
00000140: de87 c41c bfd2 0440 c180 e3fc e529 da3f
00000150: 9b85 d481 ba71 f03f 11da de5f 3b89 0040
00000160: 65d8 24db 8a2d 0640 0eb5 6cef afa6 ec3f
00000170: b2f2 ba54 340e e53f 44c2 d99f 7354 0640
00000180: 3e87 a8a5 8e20 0540 d526 7979 41b4 f13f
00000190: 3f87 d7a8 4ac8 0640 a41e 1afd 890e d93f
000001a0: a932 8fee 3941 0240 aa72 9a24 1093 1340
000001b0: 0a81 6435 8bf3 eb3f ed72 2acb c34d ec3f
000001c0: e17c 889e e4b6 b5bf b085 5f77 9811 e23f
000001d0: 7d98 ee8d 9a96 d83f d3d2 7f01 5b02 da3f
000001e0: 751f ecc9 4433 f63f d200 4554 b2f7 0040
000001f0: 12e0 ff2b 9837 0840 569a 8861 d475 0040
00000200: 0bc7 3138 4adf d4bf 2cba 66bb 6c5c fb3f
00000210: 211d 8972 c35e 0240 3953 6b62 4207 1e40
00000220: df06 0104 0c0c ef3f f998 c77a 6473 debf
00000230: 66f9 8e31 2d11 e93f bb05 4016 dfcb f93f
00000240: 76b6 d80a 4dfb 0040 8131 5eb2 88fa fe3f
00000250: 62f8 5f46 cc33 f33f e089 73a3 8347 fb3f
00000260: 5e48 7685 766d ebbf 0e28 6df1 0289 c33f
00000270: f136 5b2b ef6a e03f 81fa 4256 74a9 f13f
00000280: 032b 7252 0944 b63f fcda 8b88 61e4 1440
00000290: 8ac2 14ed 1863 f23f 6752 aa4c 9b53 0240
000002a0: ffc9 b1b6 a419 1040 0234 9f46 bccc f73f
000002b0: fb0b 4d1b 8db2 1040 d293 4336 3fad f23f
000002c0: 8a14 297e c0ee d93f d298 e143 ddfc f93f
000002d0: f258 b00d 3616 fb3f 559b 0abc 9928 a7bf
000002e0: 99bc d1be 550b df3f 97ba 19a4 181c e83f
000002f0: 52a0 9ec8 8e4c fb3f eb79 41ac 5be4 c1bf
00000300: 8932 5848 0a6e ed3f 0602 8d97 a4d7 b0bf
00000310: a210 ee0e 04b4 0140 54ab 1dc1 9cba e33f
2.2528463984434475 2.686254207832384 3.034990696463901 2.1070221385404144 3.4138805788214 0.43046804958107543 0.6137105683270843 -0.12692874685054975
1.2306155276051531 2.8412904726570964 3.2370681380686603 0.9579689286804627 3.21736963531284 1.099716784430315 -0.6056648115089341 -0.06432023496951522
-0.5957917559382411 3.563309978257132 5.239254670138041 -0.8101250489019985 2.7192447362363756 1.2585826323652565 1.436272976445059 2.5914786246476864
8.01357553024764 1.9808018710842457 3.518659474824601 4.366265088462611 -0.3462609950717325 -1.5343527092652198 1.5871286178295805 0.6420749969699112
1.345537359684148 1.0454687103300613 0.22572210429802 2.8480334277524606 1.360083046720504 -0.5870791498504083 3.2870117693375946 1.7515416325901307
2.602903580424921 0.40880727478180395 1.0277657577029007 2.0670077791103343 2.772237503110818 0.8953475643408255 0.657983937729645 2.791236161072705
2.6408970777564766 1.1065077538536816 2.8477986517690677 0.39151239125247117 2.2818487775278595 4.893616268088104 0.8734794657539464 0.8844927757341715
-0.08482197637976042 0.5646478969103352 0.3841921220831706 0.4063937677995401 1.3875167739479057 2.1209456046636683 3.027145713564104 2.057533990842141
-0.3261285351537572 1.7100646324503357 2.296271223840123 7.507089174080471 0.9702205732539503 -0.4757929991741459 0.7833467452945058 1.6122732991355935
2.1227055404077033 1.9361655204293984 1.2001459836024186 1.7049595246140754 -0.8571121794395926 0.1526187590446288 0.5130534979632256 1.1038707131953347
0.08697565329400096 5.223028310333344 1.149193693254491 2.2908235539892305 4.025042395211584 1.487484241358516 4.174366404130519 1.1672966117559906
0.4051972610507809 1.6242344524012435 1.6929226431580529 -0.04523163242747922 0.4850668300122805 0.7534297185028035 1.7061908566193051 -0.13978143607069113
0.9196826374987533 -0.0657904500958538 2.212898365631262 0.6165298244280657

model.2.bias f8 [100]
00000000: 71a1 2954 fabc f53f e682 2a64 0c44 d43f
00000010: 8e40 435c 245e 983f c69d c49b 80bc 0340
00000020: a846 f210 c089 0340 5ec5 ac5b 0d10 e63f
00000030: 05ef 8c75 8d4f da3f d050 2dde e5f8 d5bf
00000040: 78c1 d2cf 46ab ee3f 0acd 0504 c813 e73f
00000050: 93a6 3d2e 713b f43f 87ef 0d63 c522 dfbf
00000060: 5df1 3fd3 d764 0240 1f26 0aa0 aa82 d33f
00000070: 838c 6495 6eb0 d53f 9281 99ca cd37 e3bf
00000080: a3d9 67ba 4c2a e1bf 7f09 f830 f0e5 0440
00000090: 637d 1941 ff51 0240 32e3 2421 6e91 c8bf
000000a0: 3a78 fdae 033b ed3f 5d8b e673 89c2 fa3f
000000b0: 1251 fee3 af0d d4bf 9704 6179 d2ac e03f
000000c0: 35d7 0403 f91e 0940 e382 4ff1 f847 ed3f
000000d0: f998 bcf8 7a77 ff3f 3876 8213 eaa1 0440
000000e0: 7a29 e730 0813 debf 4207 77a4 2a16 d1bf
000000f0: 974d a570 ccda e93f 6aca 7eac cc6f d13f
00000100: 74d3 75ce 6bb0 e1bf a094 883b 2fd6 eb3f
00000110: cec8 dcbf 4c5f e13f 3784 0fe6 87dd de3f
00000120: 7a88 ed84 1079 ec3f 7df7 8f35 6c78 dfbf
00000130: dbc1 42c0 8d71 0340 0c75 ac34 a1b7 f33f
00000140: decd 1b84 4547 d43f c496 581a 81e8 c53f
00000150: 40a3 3d2f f101 c8bf b51c 26b1 f23d fa3f
00000160: 2cf8 2732 8e9c f33f 3337 26e9 309c e23f
00000170: 29c5 4370 eb19 d53f 0a78 aa3c bc19 e13f
00000180: fbae 105d f457 c23f cde8 01e5 d478 e4bf
00000190: 1aad 906d ffe4 f4bf bef1 7bcc 85e8 d13f
000001a0: b41c d77e dca2 ef3f 2947 1404 a990 0740
000001b0: 9918 2fe2 6284 c6bf 8175 e34d 9446 f53f
000001c0: e580 3522 b3cb da3f d4a5 9f9f 23f1 a9bf
000001d0: e58e 59b9 8180 b63f 438f 4862 172a e2bf
000001e0: 08b4 86f9 ec05 b83f ba09 af0f ff19 ef3f
000001f0: 87b7 01db ce7b fe3f 77b0 7fb8 5279 e8bf
00000200: ffc1 637f 484c d7bf bf44 c591 7a01 e83f
00000210: b368 29b5 5302 f93f 7422 d3c9 0fcf 0440
00000220: 70be a24d d781 eb3f 3359 1085 8805 cf3f
00000230: 8b25 4dfc c2f1 f1bf 1fe8 fe95 e719 9fbf
00000240: dd69 ba2d f43e bf3f 0c13 bd3b 81fc ebbf
00000250: 02db 6195 c644 a4bf eecb 5bf4 b141 0640
00000260: a52e 6c57 d1be a03f 3be8 6cf6 cc0f d23f
00000270: db2e 79af 89fd bebf db93 d251 51e3 d0bf
00000280: a973 1a63 eaaf e4bf 4169 b712 b73a 0940
00000290: 01a8 19c1 c2c5 e93f 7ab4 33ad 71be a93f
000002a0: 3ad6 3cd9 03eb 0040 737b 6c3b 1b1b fd3f
000002b0: 2a2a 8c09 2a31 0140 ff47 69f4 1917 c7bf
000002c0: 6175 e994 5cd4 d43f e470 2166 e2af fb3f
000002d0: 5f41 5dd4 e407 f13f ac70 b391 30d6 ddbf
000002e0: 8ba8 4670 e01a b53f 7da9 e531 fb7f e03f
000002f0: d9ed f26c 68a4 e73f cc16 5862 c6d8 b33f
00000300: 8c40 1d11 ec94 c4bf 4936 0fdb ef77 a5bf
00000310: d481 356c 93a6 ec3f 7118 6901 b22b f73f
1.358637169609292 0.31665334493486197 0.023796623355167905 2.46704217618728 2.442260868447949 0.6894594946408394 0.41110550384085826 -0.3433165235230833
0.9584077891395699 0.7211647108619286 1.2645122343332431 -0.4864972560242155 2.299239778889542 0.3048502505194807 0.33889355267655946 -0.6005619961761559
-0.5364135399566304 2.612274534768573 2.2900376401809566 -0.191938177283896 0.9134539048934649 1.6724943663945944 -0.3133353926180159 0.521096455639184
3.1401233898021936 0.915035697278736 1.9666700092580511 2.5790597461880473 -0.4699116208618289 -0.2669779401877471 0.8079588127242684 0.27244870038263136
-0.5527857811381254 0.8698955691112538 0.5428832766831648 0.48227117030006944 0.8897783848044718 -0.4917250178403874 2.430446149861593 1.2323314721646197
0.31685007001143883 0.17115796839168784 -0.18755926901510556 1.6401240272405577 1.2257215460990762 0.5815662912079688 0.3297070118270136 0.5343915161972757
0.14330915970037225 -0.6397499535371708 -1.3059076576126416 0.2798170563617325 0.9886305310582402 2.9456348723114343 -0.1759151081479942 1.3297312777061452
0.4186828455040213 -0.05066787074595039 0.0878983571542978 -0.567638103446804 0.09384041873882165 0.9719233805010881 1.9052265696477393 -0.7648099521152422
-0.36403095665357904 0.750180515964665 1.5630681110983857 2.6011043326910173 0.8595997349093079 0.24235636231669275 -1.1215238433381696 -0.03037225583077696
0.12205434910212128 -0.8745733420151693 -0.039587217078340245 2.782077702571306 0.0327058238236451 0.282214394235442 -0.12105618032472469 -0.2638743685768625
-0.6464740691768515 3.1536694967482224 0.8053907176483791 0.05028109778673069 2.1147534343424725 1.8191177674522947 2.1490059610271333 -0.18039249834197332
0.3254615263193355 1.7304405202367485 1.064427213237728 -0.46619810322386956 0.08244135609735019 0.5156227087548327 0.738819325247671 0.07752647305468513
-0.1607947429242852 -0.04193067120614253 0.8953339684922477 1.448167806157951

model.2.running_mean f8 [100]
00000000: fc85 f6bc d75e 1240 9690 46b2 ac52 b93f
00000010: 8bbe 8f08 774e 0a40 aa6a ece4 37eb 0e40
00000020: 82a5 389a a55a 1440 e48c fed3 bcd9 1040
00000030: 0acb 1e17 9480 0740 52d7 c612 e9a4 0340
00000040: 0c56 54da b408 f83f 074a cf98 3a11 e23f
00000050: 8930 5918 75b9 e83f 156c 78a6 9fca f73f
00000060: 9f1f ed58 ab80 1040 ad84 3722 41d8 e83f
00000070: 32cf ad03 9743 0240 3619 e5af 728c 1e40
00000080: 3cfc 0a88 0180 2340 c57b 8987 6fc8 1040
00000090: 0c6e cb1e c21b 0a40 67ff 63e2 9e39 1540
000000a0: 738e e7f1 e5e4 0540 5f2a e01c b47d af3f
000000b0: 6532 682e 238f f23f cf05 51d8 9e13 f23f
000000c0: eedb c46c 8d2c 1040 7d42 958c 5352 fc3f
000000d0: 5a94 c5b6 7b42 0040 dd64 5caf e185 f03f
000000e0: cb52 a82c d13e 0340 53ac 78e3 a8c8 e73f
000000f0: 553e 3ae4 b7dd 1d40 6075 8805 29b7 d63f
00000100: b439 2593 d8f9 0140 217f 9189 3193 0340
00000110: 9bc8 f082 861d c1bf 5810 905f 6624 2040
00000120: 91c1 5dc3 5f98 e53f 865e 4c80 2ecf 0140
00000130: ecf1 8238 a4cd 1140 7fb5 5376 9629 0e40
00000140: 18f4 25e2 7f71 da3f 6a69 91a9 9437 2b40
00000150: 49e7 1657 ba19 f33f c48c 0006 18c1 e93f
00000160: 1cf6 36cb 8f4e 1340 f230 d559 bf8d 1240
00000170: e4ea 2945 4bed 0240 28c9 3ad8 c42a 0b40
00000180: 1b7f 2747 7333 0840 5734 e3b6 b3b8 f93f
00000190: fa41 29b7 56e1 fa3f a69e 3fd4 eb1c f23f
000001a0: 0fe6 3998 3f7c eb3f 9d0f 9ff3 e05e 0e40
000001b0: 3bc3 e278 c3a2 f63f 83f5 78a0 d8d5 0f40
000001c0: d009 51b9 e425 ff3f cf26 a4fd 8ae7 f73f
000001d0: 09f2 e21c 82ba 0b40 d775 4feb 8688 ef3f
000001e0: 8c0c e6b7 d453 0c40 f637 0c71 7684 1740
000001f0: c9df c406 2659 1240 668c 4750 2cf7 da3f
00000200: 6b47 defa 3314 1140 1632 c457 3e7c 0b40
00000210: 9fc5 75d1 efc8 f23f 326c 0867 0980 ff3f
00000220: 826d dd2b 02d9 0c40 426f 5d55 75ea aebf
00000230: 9ae7 35e9 1731 fd3f 4f95 7f59 a34f 0e40
00000240: 8414 db16 ddf6 0340 1c46 4700 0edc 1640
00000250: 41b9 e24f 0691 1540 2a5b 8af9 bce1 f13f
00000260: 8366 4f6a faf1 ea3f 0090 5acb f136 e33f
00000270: 0d26 1618 3e54 1440 892b acad df1f d83f
00000280: cc75 220c 34e7 ba3f 3e55 f124 650f 1040
00000290: c6f3 567e 2dad f73f dfa4 1427 76b3 f83f
000002a0: 7890 bb4d 98e5 0240 495e b475 0e20 ca3f
000002b0: 7f4e d8ee 1a4d 0340 5691 ecea bf08 0940
000002c0: 6d70 8539 c324 ff3f 3974 8fd6 62da 2440
000002d0: 406e adba 9786 fd3f 3d88 81b4 7c39 0740
000002e0: 73dc 1541 8125 1f40 3eb8 e1ed a281 0140
000002f0: 6b6e 35f1 e916 f23f 0493 054c 4fc9 0740
00000300: a0a8 33ac 91e8 f03f 8cde dfa8 8516 0340
00000310: 8042 394d f66c 0440 ab26 4226 2dd5 b2bf
4.592619850679963 0.09891776421005924 3.2883129757754594 3.864852703537811 5.088522348124913 4.21263438454773 2.9377824598572078 2.4555226771289336
1.5021255997174903 0.5646031364979657 0.772638843112433 1.4869686606168717 4.125653638337012 0.7763982456491668 2.2830028808038145 7.637156246526777
9.750011683789232 4.195737951055837 3.263553848822772 5.306270158151029 2.7367667101660174 0.06150591709600372 1.1599456608556917 1.129790158258732
4.04350824309857 1.7700992099309183 2.032462528137825 1.0326859331165033 2.40567240608866 0.7432445948410397 7.466521802954579 0.35492921390853915
2.246995114873437 2.446871828797058 -0.133713544784375 8.071093546234053 0.6748503509279989 2.226162912684063 4.450821764938592 3.770306515149684
0.41317746243277176 13.608556078911267 1.1937812234813967 0.8048210255841686 4.826720404843879 4.638425258290441 2.365866222707483 3.395883263868331
3.0251222189834954 1.607593264011731 1.6800143389447144 1.1320608416516875 0.8589170430342977 3.796327498714119 1.4147371980763654 3.979417089167954
1.9467513312271087 1.4940290363178297 3.4660684830435042 0.9854158969789591 3.540933071811713 5.879358068819775 4.587059121862645 0.4213362487773281
4.269729537789185 3.435665784525791 1.174056833461101 1.968758966896314 3.6059611727666274 -0.06038252512982335 1.8244856939113334 3.7888857833919825
2.495538881836696 5.714897159910404 5.391625641072381 1.117611861007115 0.8420383526201508 0.6004570934060212 5.082268120147558 0.3769454189320461
0.10509038254027486 4.015034272413059 1.4797797141211375 1.5438138510310677 2.362106902395734 0.20410328624051235 2.4126490268479865 3.1292723039097536
1.9464752432750416 10.426535325061296 1.8453595439995212 2.903069887354859 7.7866258782952285 2.188299044085425 1.1305941984382126 2.9732957781983504
1.0567795492775431 2.385997123081159 2.5532041581248563 -0.07356531318705588

model.2.running_var f8 [100]
00000000: 4c65 82fe 5b71 3c40 fbda b857 b933 f23f
00000010: c94a 5bda ac7b 3340 1b7e 3465 9f70 4540
00000020: fe30 4115 79cd 4340 59ae 9ac3 daac 4540
00000030: abe0 f964 2102 3d40 d3cc c753 3466 3240
00000040: e8c6 22b5 8c19 2440 2ae4 73ba d4b5 1240
00000050: 677a fb7c 3a62 1440 d907 d8f5 d57c 3340
00000060: 973b b61c b234 4640 435c 402f b66a 1240
00000070: 01b4 8313 f53d 3440 3a1c 114c 6013 4f40
00000080: 6bdb ccc3 faed 5240 e0f0 3c27 a997 4740
00000090: 3e4f 5802 adf3 4040 54a4 a6bc 091b 4c40
000000a0: fedc 4fab f6b2 2940 c24b 9318 21fe ea3f
000000b0: d5bc 1e18 22e5 1c40 82d2 dd0a 678b 2540
000000c0: 6b7b 67c3 2d86 4a40 1a85 ea4e e7eb 2d40
000000d0: 20e7 dda6 9150 2b40 39cd cb01 7b0e 2140
000000e0: 23c4 71f1 7f7e 3840 f8c3 9914 a050 1f40
000000f0: 81ee 2abc 53e8 3b40 d529 5991 66d2 1740
00000100: 93c7 b90e 9fa1 3540 94b9 f96f 857f 3640
00000110: c84e b109 619a d13f 8ec6 9d22 bdb4 4940
00000120: 2ba8 3b23 de8c 1040 97ef cf94 fcc5 3240
00000130: c80e 56ab bfa7 4340 c51f fad7 6108 3940
00000140: 6254 7c62 bd6b 0840 2855 62ae e068 4540
00000150: ab59 a17d a617 2640 9395 93f0 cb7f 1640
00000160: df0c af51 e428 3c40 04e7 6530 b9da 3e40
00000170: ea87 0e16 3cad 2e40 49ea 8c03 d404 3040
00000180: 82a3 0694 401d 3e40 cc6b bdca 8e3f 2c40
00000190: a407 394a cb0b 3240 ab41 025b 242a 2240
000001a0: a076 7e1b c6c0 1940 b9c1 7215 c22d 4740
000001b0: 9d33 079d 9ab8 2840 6dd9 8f69 8a71 4840
000001c0: 1b65 755f ec17 2f40 14bd 6cd1 c9a2 2940
000001d0: 7134 0152 3f75 4140 894d 0385 47ef 2140
000001e0: fca6 56ee 5bf2 3b40 da2a ccca 6d92 4140
000001f0: a3e6 1328 9623 4540 ca0e c0c5 3d2a 2e40
00000200: 9a59 4d1f a067 4040 d55d 9b35 cc69 3c40
00000210: 6b0a 0860 3ccb 2440 6f81 4323 4990 3440
00000220: 5343 d28b 419f 4240 e18e 95a4 8916 e33f
00000230: 8af7 b36a d599 2840 2eec bd79 bc74 4240
00000240: b542 51f4 052a 3540 36ed d7e2 72fa 4040
00000250: aeb1 0149 6a0f 3c40 c800 08e0 eacf 2140
00000260: dd75 669c fdbe 1440 31dd f6ee cd35 1240
00000270: 2eaf 815e f1cf 4840 9f24 b484 4298 0b40
00000280: 6302 a98b cbc4 f73f 86b3 495e 0036 4a40
00000290: cdef 63d4 c416 2340 e42c 19a8 d22c 3040
000002a0: a841 8e9c 15b3 3240 cd84 8648 d271 f73f
000002b0: 1adb 4bc0 b2b1 3040 70f8 039e b9f8 3740
000002c0: 5ba2 32b1 febc 2b40 5b46 ebf8 6854 3d40
000002d0: fa0c a579 87c6 3140 4514 b0ea a071 3f40
000002e0: 9ee6 ff77 1de4 4c40 f384 22dc 773c 3340
000002f0: a97d df90 01b6 2340 366a 88bc d7fe 3740
00000300: 9260 ea21 5fed 2740 87ba d4dc 7f5c 3540
00000310: b9ef 1168 ccf9 3140 c6c1 56e8 9c14 d73f
28.442809969744573 1.1376279284137911 19.483106276786916 42.87986435950389 39.605257660705306 43.35042614987169 29.008322058682705 18.39923595073635
10.0499016385033 4.677569306682054 5.095926239823348 19.48763977550684 44.411685551625105 4.604210604003188 20.24202081647309 62.15137625537359
75.71843047147347 47.184849648243244 33.90371732055654 56.211234647148245 12.849538186549122 0.8435216407764232 7.223762871624065 10.772270526483457
53.048271585014696 14.960749117019578 13.657361235225437 8.528282219055301 24.494139757418576 7.828735658536054 27.90752769516121 5.95546938997946
21.631333275181145 22.498129843204495 0.2750475496916178 51.41202194885146 4.1375661378060995 18.773385334745026 39.310536782284146 25.032742975774244
3.0526073164169683 42.819356725706086 11.046192098566129 5.624801405914144 28.159733872639546 30.854388260725514 15.338349046014589 16.018860074904556
30.11426663553312 14.124136291144076 18.046070708201697 9.082308620477155 6.4382557197510835 46.3574854669891 12.360554606560806 48.88703650974171
15.546725256996572 12.817945999644998 34.91599488314467 8.967342526105101 27.94671525588545 35.14397559136496 42.27801991435742 15.082502536482384
32.80957404400688 28.413272238189013 10.396945000630884 20.563615993481502 37.244187810580705 0.5965011801276568 12.30045636603224 36.91200181745113
21.16415335639859 33.95663104575435 28.060215533174123 8.906088829972205 5.18651432395333 4.552543386285195 49.6245535023903 3.4493456237292572
1.4855456786609913 52.42188623999304 9.544470441054637 16.17508936514504 18.699548516016563 1.4652884324098523 16.694133776206492 23.97158229443488
13.869130647116597 29.329726750793593 17.775504687114314 31.443861644733506 57.7821493148342 19.236203916957447 9.855480696946715 23.99547937708322
11.963616428242208 21.36132602876253 17.975775246027954 0.360633112805797

model.3.weight f8 [150, 100]
00000000: b921 ec30 d924 ef3f d3ed ed25 71fe 09c0
00000010: 0a72 d1d8 4a29 dd3f 42f2 72c1 1ec5 c2bf
00000020: 393b 7128 5676 10c0 e935 210c 1dfa de3f
00000030: 8114 e72e e876 eabf 9033 ef5c 831a c73f
00000040: 6b0b 4b28 2279 00c0 eee7 7b91 8571 03c0
00000050: bb4e 55ad 179f d5bf 758e 2726 a68c 0ec0
00000060: 5824 5425 d648 dd3f 5bc1 8cc1 debc f2bf
00000070: bf33 4ba7 06f2 d4bf dddc 3f2d d36e ecbf
00000080: c413 b493 787d f0bf cf6a 399d 83e1 bbbf
00000090: ba62 6f3d 4104 f53f fb2a e2f0 ac3f eabf
000000a0: 926b e346 37b2 f83f 8ab6 58d7 aea3 f7bf
000000b0: 56db 611e 7b49 ed3f e1d1 7b33 bdd1 e53f
000000c0: e9e1 a561 2891 f13f dffd 9eec 9c65 10c0
000000d0: d57e 0016 ede8 f43f 9432 2003 f658 e3bf
000000e0: 2748 2026 b931 e3bf c288 f3f7 44bb dd3f
000000f0: 9737 5b4e c8aa d7bf f69e bfe0 31bb d2bf
00000100: 8f98 f6c7 63b1 03c0 bf35 64f2 cc91 c8bf
00000110: 8ca8 e442 3f3e ddbf 0ac1 0cb5 bf02 04c0
00000120: a874 e85d 736a 02c0 a24b 5a45 81d5 fbbf
00000130: 6e4b 55a1 baf2 e13f 977a 7374 3695 fd3f
00000140: b2ac ae9d 64d5 f4bf 5e30 7484 037c d43f
00000150: 8392 c25e 53a6 d9bf b1b3 beb6 197f e5bf
00000160: 2e38 ed67 3914 ff3f f17d f368 7b04 fcbf
00000170: 41d3 6d51 538b bc3f a7e3 ae91 80f6 f83f
00000180: 4e28 17e4 77e2 15c0 c257 eb2e ac13 04c0
00000190: 1207 6d92 b9f5 f2bf 9bdf 224f bc33 fd3f
000001a0: efc7 ad51 166c 0bc0 af7c 239a 630a f43f
000001b0: a8d3 5941 def2 00c0 1408 248c e16c e3bf
000001c0: 633b f7b8 2975 e83f a2e3 a7bf ff09 09c0
000001d0: f82e ca68 5c0b f73f 39a8 5a22 79f6 ebbf
000001e0: 0984 e3ca e4aa f7bf e71e 1321 b64d 06c0
000001f0: bae8 97d4 7ff3 91bf c1b6 8539 9bf2 dabf
00000200: cf31 ce3e 86be e4bf 9b38 e6ec 07c5 ed3f
00000210: 0739 ebed dfc1 e7bf 2eab 9421 5663 0340
00000220: 6c6f 7037 d282 f8bf fa1e 504b f31b d83f
00000230: 0d03 2a3d 268b f5bf cc7b 62e8 d907 10c0
00000240: 8916 3949 63da bcbf 8178 d705 8578 f3bf
00000250: ccd4 5c8d 5036 0440 4876 d75d 67d8 04c0
00000260: 8466 2c29 ebca c03f 6fd1 ddc2 b437 e6bf
00000270: eef1 3bad 0f1f f2bf 289c ce00 496e e2bf
00000280: ddd3 c542 3398 ec3f 511f 44fb e06c ca3f
00000290: dfaa d566 177f e23f 9fbc eed6 77db c73f
000002a0: fba2 9ebe cce2 f13f b8e0 9cb5 95d9 06c0
000002b0: 2c85 ae3e 33b9 e2bf 07a2 7e62 02fc 0dc0
000002c0: 6ce5 5e2b 8b0e d8bf 518a 8261 cc75 e1bf
000002d0: 1f22 f826 2e92 00c0 ba10 db78 df81 ce3f
000002e0: ce4a e4d8 1dc8 f6bf a6f6 4434 c9eb 0940
000002f0: 48bf f898 6d16 00c0 41b9 c3a0 ad66 f43f
00000300: 879d 4922 e7cf f2bf 9fcb f17e 0db1 e4bf
00000310: 44b9 5fc9 1613 01c0 16a4 ea57 3c16 e2bf
00000320: 3533 9c2a 7d64 00c0 8652 5b0c 105b a53f
00000330: 5211 1fbe d573 ec3f 3639 dc53 05b3 e53f
00000340: ad13 3047 457c c0bf 7d83 231b cf88 e1bf
00000350: ba6e 1c45 fb70 ec3f 116f 5ce7 8416 e7bf
00000360: b2c0 543b 1c62 d33f 8ca5 3a9a 2810 08c0
00000370: 5754 388c ca8d 05c0 76e0 cf6c 8611 d4bf
00000380: 02a3 2b56 c9ec 01c0 b618 d295 7f83 ca3f
00000390: fa51 eeca f15a f13f 432b f893 c0e5 debf
000003a0: 4c1d 426e f5e0 fdbf ea90 4a7e f8dc d0bf
000003b0: 0d97 7b28 e5bf febf eeae 8e6a 68a6 01c0
000003c0: b3e7 d52c 3b4e f9bf 219b 9393 546a f1bf
000003d0: 9c12 5701 ffcf bebf e296 ad18 a2e5 edbf
000003e0: c85c 05b9 ea16 13c0 7aa3 ed61 a439 0440
000003f0: a5ca 195a dc32 de3f 3713 eb19 f40e f83f
00000400: 6d04 a97d 0d0b bf3f 5d5b 256a 3371 1040
00000410: b8e3 9a6d d2da e7bf 6013 1e34 b4e1 0740
00000420: 30c8 011a 2893 09c0 4dfe 39c8 93b9 0240
00000430: 219c e426 1569 e43f d0b6 4827 0711 0640
00000440: a19c 1f11 3b43 fe3f 93aa b6ff 8c39 9d3f
00000450: b6bc 715c 9ef9 da3f f53d caea a422 f0bf
00000460: 5b2c f9ee 54fb 0dc0 5c4f c5f8 dca9 0040
00000470: c530 48e4 5de6 e13f 48af 9a36 2c79 b4bf
00000480: 26d0 aa38 0433 05c0 89ad 1e71 4499 0240
00000490: 5e70 6f47 ac44 eabf f262 8d5a ee3e e5bf
000004a0: c298 a09d d46a f43f 7537 9447 5d51 e1bf
000004b0: 58fd ae46 a8ad 02c0 0d0f 8f18 4a74 cd3f
000004c0: 6e0b 240b 6e58 f03f 5ddb 369b b56c f2bf
000004d0: 44f1 2fc7 ba69 91bf 9dfb 0456 e8d9 e53f
000004e0: 8c47 3e8a 0776 e23f 7d21 f36a 4f30 0dc0
000004f0: 4c5e 2ae2 9dfc de3f 9c27 7ed5 caa6 e03f
00000500: 903a a80c 4a88 06c0 fda7 ca39 2b74 ed3f
00000510: 1254 4db6 b590 be3f 7cf9 a417 c057 e83f
00000520: dcee 7bd7 cac3 c83f a6f4 13fd 27cd f53f
00000530: da26 fd12 59ec fabf 50ae ba23 d5ec 11c0
00000540: 4ed1 8932 737a 0540 2180 c4d7 f583 f53f
00000550: 0f60 8781 6783 f23f 6842 2c6a d46f fd3f
00000560: e05a 0606 fcba a5bf f1c3 10db eef5 f83f
00000570: 92f2 5639 0bdc fabf 30b7 cf86 502a d03f
00000580: 29c7 4151 88cf f43f 6c88 3998 6558 a13f
00000590: 04f4 07d9 71a9 e03f b2cb de85 51cb f7bf
000005a0: 6f4a f4b9 b486 b9bf de47 638c 4f3f ffbf
000005b0: 083f c260 8319 fb3f 66af aae6 da54 f6bf
000005c0: 356d c2c2 be24 f03f 8b07 fe3a 0ff3 e73f
000005d0: 0c10 3c3b 25c4 e23f 57be 8c46 b140 fc3f
000005e0: 7481 2102 c22b f73f f2b6 9e0d bd2e ebbf
000005f0: d294 a709 8df7 f23f 274c a4bc d4e5 f1bf
00000600: d5c2 d08e e404 fd3f 541a c92d 5d7c c53f
00000610: b1d0 1ff3 c17a 0140 135c cdfc f2fe 0440
00000620: 6bb7 b6ef 7a14 f93f 80cd e4a6 1082 e93f
00000630: 8b01 cfeb 1093 e1bf b761 3f0a 1346 ff3f
00000640: 2084 cd80 24f6 0dc0 9c6c 5c0f 6a2e fdbf
00000650: 06d6 db12 bc9c 98bf 2cbc e018 9153 d13f
00000660: 344d 315c 93af f4bf c9df e13f a764 e1bf
00000670: 6789 4b7a f4d2 e73f 7658 49d8 a3f7 f8bf
00000680: a254 9ad1 dd20 c7bf 2ffc 766c 486e 0740
00000690: 9ebf 4f80 90a4 f3bf c6eb 523b 29b0 c8bf
000006a0: 4bf2 87b8 6468 f13f 469f bb7e 7f17 fe3f
000006b0: 827e fbe7 214c ccbf 08e0 e0ef 1e9a c73f
000006c0: 1b10 1e85 5f0a b2bf 63fb 6ae6 22e9 0440
000006d0: deac 2593 661e c9bf 8775 c686 f7d0 f2bf
000006e0: 62bd c818 dd6d d63f 6a85 3eee 3710 f6bf
000006f0: 10c2 a37f ccbb fabf 687f cf8c 6260 1140
00000700: d576 f420 4100 0040 1ec8 797d 8fe7 0ac0
00000710: ad70 dd57 cd7f debf a9d8 ebd4 1a6a 04c0
00000720: 01b2 909a 5050 e83f 5fec 6298 7565 f23f
00000730: 5c2a 765b 6571 f8bf 7d3d e1dc 24e0 0340
00000740: b56f 3d19 28f2 ebbf ae8b 180b 11af f23f
00000750: 97bc de4d 05f6 ec3f 01d0 5b93 c6a1 b13f
00000760: c320 55ef 6433 04c0 8169 04a6 52ee d7bf
00000770: b243 d565 175f dd3f a56b c974 a896 02c0
00000780: 5352 3653 0c91 00c0 c1f0 636e 4f85 eebf
00000790: 78cc 42ca 0ba8 fb3f 1876 79c2 ffa7 02c0
000007a0: 299c 768a db77 e9bf 849f 025c bb40 f8bf
000007b0: 9448 89a1 f351 613f f315 fcf6 1a36 f73f
000007c0: 953a b9b9 1be8 e63f 6197 fa21 c53c c4bf
000007d0: 46b5 c372 a379 0940 9cd6 c348 2dd2 e0bf
000007e0: b23b 06f4 09d8 f7bf dcb3 0a40 afa0 0240
000007f0: 7126 7b30 8ae5 f63f 0d7c a0e9 1e81 0140
0.9732480960383817 -3.249239250491635 0.4556452863087378 -0.1466406292510261 -4.115563041602223 0.48401571449798425 -0.827015010458709 0.18049661672412443
-2.059147181310825 -2.430430542558489 -0.33783523490022177 -3.8186762791463544 0.4575705875909697 -1.171110874227529 -0.32727209412842834 -0.8885284312990752
-1.030632569281111 -0.10890982235415979 1.3135387801941492 -0.8202728943591348 1.5435097474171227 -1.4774616634344135 0.9152198403743153 0.6818529134312109
1.0979389013647227 -4.099231431202013 1.3068667277765844 -0.6046094952631216 -0.5998197312021646 0.46455501760477713 -0.3697987332533272 -0.2926754660424956
-2.4616160986070734 -0.19194948039550572 -0.4569242623571277 -2.501342215015147 -2.30197785726212 -1.7396252354708186 0.560880007842895 1.8489288853521992
-1.3020979079690673 0.32006919798801003 -0.4007767129317374 -0.6717651910054113 1.9424375590929333 -1.7510942554143833 0.11150093782437144 1.560181206774567
-5.471160472787302 -2.5096057572909283 -1.1849914283524794 1.8251307574518936 -3.4277769452246427 1.2525363942184347 -2.1185879807985266 -0.6070411431430807
0.7643021214115432 -3.1298823330984797 1.4402736752844572 -0.873837058160695 -1.479222099813571 -2.7879450401268175 -0.017530438757582735 -0.42105751626409577
-0.6482573725384614 0.9303016306819417 -0.7424163481571505 2.4235041259284094 -1.5319387593835598 0.3767059550741433 -1.3464720143530855 -4.0076671896085365
-0.11270733392401601 -1.2169237354460452 2.5265208286242338 -2.6056659060839458 0.13119258413717116 -0.6943000608430746 -1.1325833098372828 -0.5759625449908343
0.8935791305690334 0.20644771832325629 0.5780140884865793 0.18638513560060674 1.1178710409241706 -2.856242579317122 -0.5851074432613692 -3.748051423539667
-0.3758876727620961 -0.5456296829691586 -2.071377090880801 0.23833840752752683 -1.423856589539969 3.2401298602624875 -2.0109512282287234 1.27506792830134
-1.1757575358732042 -0.6466128806481385 -2.134320805772548 -0.5652143208618579 -2.0490668610495058 0.041710378178014415 0.8891400063808226 0.6781031263251751
-0.1287924382778817 -0.5479503183415627 0.8887916898560981 -0.7214989203234571 0.30286317628907533 -3.007889943041567 -2.6942339853945145 -0.31356964708493906
-2.240618394095123 0.20713801207984311 1.0847032477369098 -0.4827729649556895 -1.867421560951544 -0.2634869798005314 -1.9218494016035408 -2.206253845671987
-1.5815994025601696 -1.0884595646582016 -0.12036126883237802 -0.9342813951486415 -4.772379771187111 2.528145566048292 0.4718542938127633 1.503650761836253
0.12126240079762036 4.1105476937580905 -0.7454616680835136 2.985206992309415 -3.1968538314622705 2.340613903302972 0.6378274688366937 2.758314425379332
1.8914137524496157 0.028539851291194806 0.42148551013719826 -1.0084580584988292 -3.7477205915252347 2.0829410014356835 0.559370942939062 -0.07997394879447228
-2.6499103953483596 2.3248375737654823 -0.8208829302998415 -0.663932015285438 1.2760816724126447 -0.5411821744944364 -2.3347936174538226 0.23011137198602008
1.0215893206775166 -1.1515403807695386 -0.017004888923098052 0.6828500442569411 0.5769078922332809 -3.6485889773795734 0.48416850172495596 0.5203603906422702
-2.8165474881018966 0.9204307678930942 0.11939559651121126 0.7607117139630613 0.19347510835347392 1.3625869642121784 -1.6827021352532285 -4.481281812924479
2.6847900341328232 1.3447168758793924 1.1570811328620072 1.8398021838549088 -0.04244220326943604 1.5600422436948487 -1.6787216415242807 0.252582675601718
1.3006671117877409 0.03387753947460301 0.5206841696632414 -1.4871382932003425 -0.0997116998662848 -1.9529567226313627 1.6937288074149723 -1.395716572801541
1.0089709861557143 0.7484203483765993 0.5864435345579309 1.7657940631724125 1.4481830676305352 -0.8494553819670883 1.1854372384198553 -1.118611084825497
1.8136945322732363 0.1678577874719901 2.184940242203162 2.624486899392204 1.5675000537698576 0.797127080883385 -0.5492024045598084 1.9546080017372398
-3.7451868117064038 -1.8238316154518435 -0.024035395289464766 0.27072551183204285 -1.2928651429436515 -0.5435367820455151 0.7445013416839118 -1.560458989018597
-0.1806905053569255 2.928849074727189 -1.2276768695992142 -0.19287600895571994 1.0879866798633369 1.880736823130023 -0.22107337786927778 0.18439089501202965
-0.07047078132569633 2.6138360978506383 -0.19624025521202432 -1.1760173096330122 0.3504555456192603 -1.3789595896162958 -1.6708493219304081 4.344125938572553
2.000124223194556 -3.363066654471381 -0.47655042248312435 -2.5518089899515712 0.7598040598728063 1.1497703507036687 -1.527684552451908 2.484445310233865
-0.8733101361244652 1.167740863173758 0.9050318261050901 0.06887475106833564 -2.525094861779594 -0.37392107212658493 0.45892891831050087 -2.3235634921997694
-2.0708242894127493 -0.9537732273161269 1.7285268688981699 -2.332030791598992 -0.7958810524331784 -1.5158036798620467 0.002114272920416724 1.4507093093719703
0.7158335330403413 -0.15810455474018695 3.184393784139192 -0.5256563588324812 -1.4902438671303853 2.3284592631593863 1.431039990786669 2.1880472423649793
