kaggle_playground_smoking_prob/fold_2_cls_model_3.pt.pt (torch, 950621 bytes, 62 tensors)

model.0.weight f8 [100, 21]
00000000: 44de f780 ada1 f5bf bea0 001c 7d10 9b3f
00000010: fdba 9206 9706 edbf 68e5 50fc ca60 eabf
00000020: 515c c861 4a4e f9bf a0f1 f441 d1f2 f2bf
00000030: 998b 7dfc 8c1c fe3f e014 8503 b82a 0540
00000040: b2ad bb2a 49e9 e2bf 0ece e104 5b63 fb3f
00000050: f114 aa53 8b74 f7bf 42a2 0309 3f7c 85bf
00000060: 3c7f d52f 488f 0640 bacb c687 9d8a 0040
00000070: 59f9 66c1 1ecc f63f 9160 d586 638a 11c0
00000080: 6b50 b8fb eb05 ea3f 3f0f e67e 4196 0340
00000090: 3d81 48ea 10a2 bebf 9da8 2115 f48f f1bf
000000a0: 866a 0f3d caaf e1bf 3a93 dea8 6265 bc3f
000000b0: 3d83 8579 c589 02c0 c374 eafe 7390 db3f
000000c0: 58fa f5b6 2468 973f d1c4 8e05 6eeb cf3f
000000d0: de09 df42 fa11 e83f fded 69ba 8127 e7bf
000000e0: b83b d092 9f71 dabf 053b d424 ff24 ef3f
000000f0: a08b 17d0 affa c5bf b077 02d8 676c dc3f
00000100: b2db b17f 4673 e93f 3849 383a 8494 fdbf
00000110: 7fac dd06 5649 cfbf bbbc dbfa 2354 f1bf
00000120: 0e06 ccf2 7834 e8bf 8653 46e4 03d3 fb3f
00000130: 4228 1439 01ca 28c0 1d37 e550 41d9 c73f
00000140: 87b9 daee 2cdb 07c0 9a8c 9e2f 1545 05c0
00000150: b74b 2d3f ab81 f43f 0ebd 62a3 9fa0 b13f
00000160: 3678 daaf fcc5 f9bf 6a74 4dec 68f7 ff3f
00000170: a1c4 3061 2670 fcbf ea67 2198 314a fdbf
00000180: c5e2 3517 02ac f0bf c81f 0eb6 b8c3 f2bf
00000190: 5857 ce31 7985 10c0 9344 6399 b7ec e33f
000001a0: 29cc 6119 1db6 fabf 9d0c 85f3 522d 0240
000001b0: cb0d 13e9 d522 e23f 275f 5c79 abb3 ffbf
000001c0: e0d3 d6b2 6fce fd3f 7453 a479 2a8a f3bf
000001d0: b195 45ce f622 f9bf 1a40 46af 122e 8d3f
000001e0: a594 fe96 ce3f fcbf 03ed 45b0 3ce2 fdbf
000001f0: 5731 6d9a a19b c5bf 8925 2a01 af44 f23f
00000200: 7d9a fb19 1fa9 fcbf f310 067b 6517 f4bf
00000210: ebb5 5007 e490 cabf 23af 29a1 0dbe e3bf
00000220: 93e8 a6c4 dea4 dfbf 1f91 4fb5 6091 e8bf
00000230: 3226 1089 d65f d83f e574 89e6 eec2 b3bf
00000240: 2898 0d2a b0b0 0040 bfaa 15e8 0061 e9bf
00000250: efb0 c2fe f9d6 e43f 577e e724 110a e63f
00000260: 3211 ecac 70dd 20c0 95ce e1c3 82f8 e1bf
00000270: d204 8777 c5c6 0dc0 4295 bc9c 1095 b63f
00000280: e394 a835 0f13 a5bf 9614 026b 3c1d 01c0
00000290: 5b54 5568 9cc5 f5bf 7f6e 563e 1593 0340
000002a0: fa40 3384 5492 d23f 5d4f b5f9 931c f0bf
000002b0: 792d 67b9 6457 f53f 5fa3 7497 959b e83f
000002c0: e71e 4909 c058 e93f c063 b3de 98a2 ef3f
000002d0: ac64 8c9c a3c1 0440 99c1 82c8 be5e 1b40
000002e0: 4d55 80f4 dc86 f03f b49d 2d03 0fc4 e03f
000002f0: 0f63 a739 3f49 9e3f 5609 b12f ed74 d43f
00000300: a355 4561 7114 e33f eac2 8357 31cd 0540
00000310: 8e44 ea20 f599 fa3f 300b 5bf6 5891 dbbf
00000320: a05b 233d e9d3 88bf 5e2a d28f 66fe 03c0
00000330: 3754 a709 56e0 c9bf 651c a8b7 1c32 ea3f
00000340: 9771 6697 4242 f13f 866c 8a30 c522 fcbf
00000350: 2624 3a86 ea7d f63f ba52 b115 8628 febf
00000360: 6323 bc79 c6bc febf e9a0 5599 1b8e 01c0
00000370: 4821 4d56 1fb9 04c0 835c 10c0 9313 f8bf
00000380: dd4a ddf6 cc8c c4bf 180a ee5d ecd8 fc3f
00000390: a0f4 62ec ddd4 fc3f f212 35e4 c2a7 d9bf
000003a0: a245 e294 240e 0840 7cdf 75d0 04ab e0bf
000003b0: 650d 8007 742c fe3f 0ff0 5985 8749 d23f
000003c0: 7393 104f d110 0ac0 8413 85fb a9e4 f13f
000003d0: e24a e5f4 8c30 0340 c6e9 3ef6 003c e2bf
000003e0: bd54 ccb2 0d07 0b40 651d 2f03 77b9 f43f
000003f0: 265d 3bcd b89b febf 3e7d 69d2 a737 cbbf
00000400: 15d0 4134 3f2d a23f a4d5 842e 9d5b bd3f
00000410: db9a e25d 9f10 0cc0 d635 98f2 54e4 08c0
00000420: d16a 6a52 ea1e d7bf 3b28 c470 7e1e b63f
00000430: f4cc f3ab 1409 eabf 3cc0 416e c729 ea3f
00000440: 71f0 7d94 843e c8bf 976f f168 6861 d2bf
00000450: ec35 c3c6 e1f7 f23f 6aac 769f 73e7 0cc0
00000460: 40db 25f8 ae8f f3bf b4ea 242a dde2 03c0
00000470: 1713 5851 23fc d4bf 9d3b 4265 b86a f13f
00000480: 0eda bfd9 f7e3 08c0 1e55 bef9 1bb3 eebf
00000490: 114f a06e d26a 0440 1205 a691 dee0 f93f
000004a0: 3332 a106 5f30 c43f 187d 785c 3909 1240
000004b0: bfe6 2cd1 2759 0640 16fb 3fcd 24b3 0bc0
000004c0: 545e fa66 9128 08c0 7ca9 1d78 8a57 e4bf
000004d0: 6d1e c68f a32e d93f fcfa 4fe3 a5ef f23f
000004e0: aab6 cb8d 43fd f63f d5f7 2c27 bdae ed3f
000004f0: 34c2 fbf9 a6ad d13f b860 1481 f63c f43f
00000500: 5d6f 20e1 524c ea3f bd2c 2d01 0934 0540
00000510: 8a6c c31d 4e11 fb3f bea6 5a8d 0750 e1bf
00000520: f9ed e31f d266 cf3f 2981 d8f6 b736 bf3f
00000530: 39c9 61c0 00da 1040 afba f03e 8c91 d7bf
00000540: c7b8 bb17 8d25 f63f 0fa5 b9f4 b4d7 f93f
00000550: 93f3 3a12 cf2a 05c0 9f73 7068 ede7 05c0
00000560: 82ea aee6 49d1 f13f e44a 1b88 31ff ca3f
00000570: 6776 db5b f1c6 0a40 3e84 0a85 e77b 0a40
00000580: 0c9c 5556 21bb 0140 81a2 63d7 89b0 d5bf
00000590: 64e7 caa2 c3aa fe3f d71a fc7f 8979 e13f
000005a0: 9158 2ec1 5276 fcbf 89db 00e6 f28e eb3f
000005b0: 6c7e acbc 1187 f33f e37a 8dd1 6d7f fcbf
000005c0: 9363 cb73 9661 f43f bdc4 d3a7 e046 f03f
000005d0: d47c 36b4 4ae0 dfbf 84ba 4093 fa23 db3f
000005e0: 3590 65f9 1837 d63f 35d9 a55d 6b8d d5bf
000005f0: abbe 8fc0 d424 fc3f ca8b 1028 d696 03c0
00000600: c0f3 6aae e128 febf 8e70 4a54 4be6 f6bf
00000610: 5d40 3e8d c8fa fdbf 632f dc8a 7005 adbf
00000620: dba3 abb1 aad8 f23f bcc8 e773 5aba 08c0
00000630: 5c7f 817c a3b5 fabf 04ad 79d5 b6be 12c0
00000640: 7f92 ec9c 3f13 7d3f 88b6 9cbf ccc5 f0bf
00000650: 06f7 63ad 80ff f8bf 6a7e a26d 0547 d4bf
00000660: 3158 df7a 2d87 e9bf 09d0 9f4b ca11 fb3f
00000670: 1e7e 1b8e 8e95 f73f a522 2820 be8f d8bf
00000680: 42e9 2b8c e5e1 f73f d493 da08 2f57 fe3f
00000690: cfd3 8587 afac f03f 82c5 8f41 f692 14c0
000006a0: a5ba 7692 5cc2 f0bf ebad bf6a 523b c43f
000006b0: d19c 646f d5a0 e4bf c23b 9f67 520c ccbf
000006c0: ab1b 8a79 47b4 a53f e7fb 5c21 9824 cf3f
000006d0: 5d64 e9bf 47b3 b2bf 4b68 bd3b 1fac f63f
000006e0: 9d17 4d83 83a8 e9bf ef5c 674d 0709 a23f
000006f0: 321b ef03 0c00 dd3f e268 8a53 f5eb 18c0
00000700: 0f9e fa4b b4ca cebf e568 3b2f 2218 0dc0
00000710: 3f83 5292 10b8 c13f a31b b872 8f73 d5bf
00000720: 4db2 2768 1dc0 da3f 20c4 972a 7fb8 f4bf
00000730: 53be a880 500c 0e40 2c27 3d8d 4d81 fbbf
00000740: e03a 554f 49aa d0bf b37c a669 0493 de3f
00000750: f64a eccd 3597 d53f ce29 0d39 efa5 04c0
00000760: 7188 8447 6e19 01c0 bdba 9076 79fe f5bf
00000770: dc17 9dc4 558f e63f b392 8184 78b5 f53f
00000780: 3105 841d f026 12c0 c356 c961 7570 e0bf
00000790: c41f b271 a614 f83f 7774 531e 2744 1fc0
000007a0: 87e4 b85f 5afd efbf c30f e103 57e7 02c0
000007b0: 0663 bad8 ff2f d1bf 7b55 a0a7 3d9d f63f
000007c0: b980 6f9f f252 f2bf 5686 ccaf 66b6 e83f
000007d0: 11ae 03ee c413 0340 f069 38c9 91d7 ed3f
000007e0: 8376 cb7c 301e e33f 2294 4211 5c79 05c0
000007f0: 03c3 7b58 da7c 0440 2877 e588 4ce4 da3f
-1.3519721067258539 0.026430086931356504 -0.9070544365293639 -0.8243155410811314 -1.5816139049182036 -1.1842815948904004 1.8819703925043767 2.645858790873362
-0.5909772715216859 1.711756724424848 -1.4659531849040912 -0.010490887129393948 2.8199619042424313 2.0676832778494516 1.424834018208989 -4.385145289205085
0.813222877159672 2.4483671106299023 -0.11966043205075479 -1.0976448846290972 -0.5527087395269781 0.1109220182684795 -2.317271184336646 0.43069171804547696
0.022858213107151165 0.24937224646922698 0.7521945291594496 -0.7235726014036455 -0.4131850179409713 0.9732661933247476 -0.171712853057298 0.4441165551633004
0.7953217023885968 -1.8487589143956722 -0.2444255383992164 -1.0830421256212464 -0.7564053289535779 1.739017383287519 -12.394540580473521 0.18631760072678896
-2.982019296693753 -2.658731815362967 1.2816574542855343 0.06885717142971634 -1.6108366841576873 1.9979027967995315 -1.7773803516868514 -1.8306137030217493
-1.0419941813144515 -1.1727835761575864 -4.130345133036677 0.6226461406569278 -1.6694613448605742 2.272130873201219 0.5667523910746523 -1.9813647022874166
1.8628994928269478 -1.221231913722673 -1.5710361535542285 0.014248033498716995 -1.7655778787823604 -1.8677336583776316 -0.16881198921545135 1.1417684598439755
-1.7912894263223784 -1.2557120137799387 -0.20754671437445835 -0.6169498584472176 -0.49443787769599473 -0.7677463093973848 0.3808494890696209 -0.07719319465964565
2.086273506679408 -0.7930912526038226 0.651242253855825 0.6887288780962518 -8.432500270668786 -0.5615857911893324 -3.72205632572932 0.08821204973772459
-0.04116103677760365 -2.1392753944406406 -1.3607448649902583 2.4468178625227774 0.29018128309418467 -1.006977057860204 1.333836292486778 0.7689922292821442
0.7920837575302045 0.9885982846855015 2.594550345453703 6.8425246553237224 1.0329255629379361 0.5239329397272088 0.029576290029441895 0.319636627744463
0.5962454700299314 2.7251917683682807 1.6625872884508541 -0.43074630792777935 -0.012122938326155908 -2.4992190586101932 -0.20215869399422257 0.8186172091526599
1.07867678776447 -1.7584888359185995 1.405741237950005 -1.8848934981698862 -1.9210877185125461 -2.1943885783440362 -2.590391802052327 -1.5047795774933383
-0.16054689458777363 1.8029597920545992 1.8019694551324292 -0.4008643368327248 3.0069057113220916 -0.5208763190739627 1.8858528416611418 0.2857378771075227
-3.2582117249425493 1.1183261704438516 2.3987063534235498 -0.5698246774184603 3.378444096432388 1.2952795147301341 -1.9130180374975878 -0.2126359727289841
0.035501456383741616 0.11467916856493915 -3.5081164679316834 -3.1114901497555634 -0.3612619213906046 0.08640280011255268 -0.8136084898418674 0.8175999787763497
-0.18940789461692334 -0.287195303424363 1.185518051544359 -3.6130135019389416 -1.2225789731289325 -2.485773400546657 -0.3278892797828105 1.088554759542354
-3.111312581221916 -0.9593639257242648 2.552159179942358 1.6173997582812416 0.15772617171968903 4.509007878164333 2.793532976324826 -3.46247253753189
-3.01980858279766 -0.6356861444485697 0.3934716133157739 1.183507812441973 1.4368320025345533 0.9275804295682472 0.2762238923305944 1.2648835222408206
0.821816863728127 2.6504077999030344 1.6917248880988915 -0.5410192261526487 0.24532534176965706 0.12192868973261696 4.212893491714845 -0.3682585348750917
1.3841677596170017 1.6151628074242728 -2.6459027694931563 -2.7382457885091323 1.1135958682122298 0.2109128870566429 3.347140042910542 3.3105001825174716
2.21637217949638 -0.3389000514421597 1.9166904791913675 0.5460860728934119 -1.7788875146993954 0.861199807381909 1.2204758997030707 -1.781110590519966
1.2738251231405442 1.0173040920019922 -0.4980646858111417 0.42407097225342505 0.3471128879084547 -0.3367565550355665 1.7589919588025775 -2.448650658612199
-1.884980851478062 -1.4312241833313553 -1.8737264172850907 -0.05668212599820668 1.1778971615078635 -3.0909928374395275 -1.6693453658590078 -4.686244330932144
0.007098434913846873 -1.0482909664964684 -1.562378575617403 -0.31683479029195516 -0.7977511787273724 1.6918433145592664 1.4740129042692227 -0.38377335682211317
1.4926505542230903 1.896285090050914 1.042159585367006 -5.143517517471425 -1.0474515649072285 0.15806036197987736 -0.6446330238003616 -0.21912603435199968
0.04239104612957275 0.2433042681604711 -0.07304809985488832 1.4170219739521766 -0.801820522735159 0.035225132178021805 0.45312786468678035 -6.230428033182962
-0.2405610438338361 -3.636783951759855 0.13842970986027045 -0.33517824366611587 0.4179757611407567 -1.2950431503088637 3.7560129214760223 -1.7190680997031889
-0.26039345500332267 0.4777232200376133 0.33735413655919844 -2.5810226876394387 -2.137417372448049 -1.374627555032631 0.7049969520674 1.356804387666824
-4.538025342162016 -0.5137278470890226 1.5050415459863737 -7.816555475085912 -0.9996768827032988 -2.3629589369829502 -0.2685546509251683 1.413388876714946
-1.1452509143783074 0.7722657617161512 2.384652957427314 0.932564633377579 0.59743523000698 -2.6842576359217825 2.560963336254987 0.4201842629316723

model.0.bias f8 [100]
00000000: 9c51 ef28 fc95 f8bf 6c47 f8a8 98c5 e03f
00000010: 6621 441c 6823 00c0 6429 6e87 1f35 eebf
00000020: 976b 3aeb 8a9e ea3f 16d6 c2be f062 00c0
00000030: ae14 f608 d347 0dc0 6834 120d d35e 04c0
00000040: 5ecc df90 0952 cd3f e504 cd4f ce76 01c0
00000050: 48c6 1ac4 142c c1bf 313f 36a4 88c6 f6bf
00000060: b796 0c4b ef55 d03f 578d 4344 927e dabf
00000070: e793 f24a ff2c 0340 19dc 9e66 d470 04c0
00000080: baa8 9c93 1480 f1bf 0961 6291 abc6 11c0
00000090: 0585 eb8d 1867 06c0 bcd8 6963 12cc e3bf
000000a0: b5ed cfc0 fc76 e6bf 352b 9e36 757b 0fc0
000000b0: a3fa 0b19 f3bd 0ec0 0fb9 7424 6c39 01c0
000000c0: 36e8 ed71 c980 e0bf 38bd 2e4c 68f2 f73f
000000d0: 8da7 447d 1a52 f0bf 62ce 30dc 4848 02c0
000000e0: fe96 7b8e ae65 f3bf 015c 0acc 0d03 f1bf
000000f0: 8a87 389c 3db1 12c0 3fb9 4572 aa16 04c0
00000100: 501e 2276 26e9 e2bf 8f46 9fcc 5a62 e8bf
00000110: 7c49 3ec4 f2ac 01c0 782f 84fb c7a7 f5bf
00000120: 24c3 41bb 585b 0040 7767 5510 591b f9bf
00000130: d5d0 97d7 5687 0ac0 d93e e158 a147 0f40
00000140: 3b15 1a9d b252 04c0 5d9c 0d78 6665 fb3f
00000150: 4954 20f2 c15d fe3f 72f5 2305 9010 0340
00000160: 0ca6 65d5 5f8e edbf 1d9d e807 6faf 03c0
00000170: 5410 317d d672 02c0 26d5 5114 70e2 f1bf
00000180: 0f5e 1018 515f 973f 6346 c204 a475 f9bf
00000190: f781 9b93 9eeb f5bf 3229 2cea 29a5 eebf
000001a0: a47c a0b4 bf1d 0fc0 5a06 9a88 97c5 99bf
000001b0: 901c cc9b 90d6 04c0 9b1d ca2c 4b87 f3bf
000001c0: dd56 9423 61f8 04c0 3457 6dc1 09b3 02c0
000001d0: eeda fedc 2118 ea3f a701 22b9 22d4 ffbf
000001e0: ed5a 6acf 5dab 0ac0 4be4 a552 fe4c 0640
000001f0: 8a45 16e7 d237 f3bf d775 4424 f3b9 0cc0
00000200: e6aa a8cd 4148 03c0 0039 ff5a 4686 be3f
00000210: 8255 d766 de5c ab3f 64bd 3cd1 21e5 ffbf
00000220: a5e6 47c3 4efa 02c0 fbea f88c 5e26 febf
00000230: 828e df60 41a2 fd3f 66b1 8098 b7d2 05c0
00000240: b40d 8585 2e5b 02c0 166c 5fda 302f f23f
00000250: 982f e49e ec43 f8bf 34a4 0ef5 d8fd e4bf
00000260: 3cb5 43bc 3931 e9bf c103 49ac 1490 03c0
00000270: 9d65 bfa1 b1f8 fbbf efa4 9cee 1567 fc3f
00000280: 0b9f 9746 c654 00c0 c323 9b31 8180 debf
00000290: 4722 1d16 6497 98bf f82f 74dc a9c4 00c0
000002a0: d35f 1e6d fb4f cc3f caf7 0276 f761 e5bf
000002b0: d099 b855 1554 fabf 8c17 f7f5 2bda f2bf
000002c0: 3f67 5eff 7882 f13f 9b38 134b e8d7 ecbf
000002d0: b05a e0d6 0304 eebf e9b0 597b ab75 f4bf
000002e0: a40d 6dbd 7c5b f1bf 5029 93f5 3717 ecbf
000002f0: 25b0 c26f 465d 0bc0 ad7c d5f6 e807 fe3f
00000300: e7c5 d61c b251 ffbf 3d2d 536e 91a2 c83f
00000310: 9bbd 3e7e 62c6 e33f 7862 15bd ad28 fcbf
-1.536617431546893 0.5241206455413994 -2.0172884186069266 -0.9439847607730312 0.8318533510495055 -2.0483107474526703 -3.6600704860780615 -2.546300985448898
0.22906608175216808 -2.183010695881068 -0.13415774894160593 -1.4234701551940356 0.2552450402166459 -0.41397530237573704 2.396971307304273 -2.5550926224928046
-1.0937696233836918 -4.444013854627209 -2.8003398025035744 -0.6186611119908529 -0.7020248189796151 -3.9352821604747086 -3.8427488285809246 -2.1530382965203283
-0.5157210564787025 1.4966814971811129 -1.0200447934425683 -2.2852952196497407 -1.2123246732457456 -1.0632455797510831 -4.673086586904796 -2.5110672881629905
-0.5909607226648834 -0.7620061871077314 -2.2094474154957293 -1.3534622025353809 2.044602835602193 -1.569176734736599 -3.31608360702567 3.909975714086482
-2.5403797410569076 1.7122559251381724 1.897890039258771 2.383087196502566 -0.9236296813880371 -2.4606609933722567 -2.3060731678579405 -1.1177826684700647
0.022824542134996458 -1.5912208734411244 -1.3700242772976006 -0.9576615880662642 -3.8895258056141575 -0.025167815887931468 -2.604768006483546 -1.2205306768026734
-2.621279027904946 -2.337420951031982 0.8154458347624691 -1.989290927100322 -3.333675022538378 2.7875944573284293 -1.2011288668475992 -3.5907957871811322
-2.4102817599390276 0.11923637124639086 0.05344290738473047 -1.9934404538469943 -2.372220540649169 -1.884367514298616 1.8521131309616128 -2.7278892435335136
-2.294522326586696 1.1365211992440485 -1.516583080930081 -0.6559872423432638 -0.7872589757004458 -2.4453519305975253 -1.7482162779109338 1.7751674004342097
-2.041393805982698 -0.4765933021959052 -0.02401501069042158 -2.0960271094281744 0.22119086101588312 -0.6682088189042983 -1.6455281589966155 -1.1782645805373901
1.0943536734907438 -0.9013558832464413 -0.9379901119999285 -1.2787279909489888 -1.084835758157035 -0.8778343006500027 -3.4205445033349116 1.8769311563444646
-1.957445252086808 0.19246118437727402 0.617966887066291 -1.7599313150477922

model.2.weight f8 [100]
00000000: 8cc9 93e9 d9c8 e63f 83e1 ff3b 8b09 0940
00000010: 4d6c 147b 42b7 b3bf f64d cf2f 9d1c 0b40
00000020: 28b8 5dd0 52cb b73f 1ef1 e00d 8f22 ef3f
00000030: d2b7 a6f0 3e68 0040 9fd9 9ff6 9b4f ea3f
00000040: 718d f27b 06e1 c9bf f0a0 cef8 26ee ce3f
00000050: db2f f056 aef7 1340 f4d9 af0c 536d 0240
00000060: 3e08 6560 58f7 ac3f d84c ed05 270c 0240
00000070: 8913 8201 2f0a e0bf 9e3a 279f ea28 fc3f
00000080: b18c 471a 5854 86bf fd22 870f 2539 f43f
00000090: 93fc 5761 a7c5 0340 b407 777f 530d 0c40
000000a0: 5c60 7242 c995 eabf 5e67 9999 a853 1140
000000b0: be3d 68ba 4944 0540 c375 9aa7 a944 f03f
000000c0: 1d72 0998 5b20 1a40 a1c3 fd04 bdc6 ea3f
000000d0: e7d1 c1a0 6b93 1540 a15b d00d 1e3c ac3f
000000e0: bcb6 fa14 1e46 0440 daeb abf0 fc9c e43f
000000f0: 21ce 965b 4e72 cfbf d5b2 8def e9f8 f43f
00000100: 20bc 4655 4b50 0f40 8fbc 9fb0 e75b f93f
00000110: dfb3 efaf 458a f23f 9268 9d22 b921 0140
00000120: f2d7 5b0f d68b fa3f 3689 5b0c bcc5 0140
00000130: 8568 bf54 17a0 0140 8767 89c0 c8fd 0540
00000140: 6c80 5ad7 2660 0240 8858 7729 478d ef3f
00000150: 1828 f078 17fe af3f 2943 610f a794 e53f
00000160: d9e9 42ff 0145 f83f c93e e2a7 861a e4bf
00000170: cc94 c2c2 5585 f53f d526 3e34 902a f93f
00000180: 6e0e 388a 65e6 dabf 2657 1737 08f8 f43f
00000190: 513f 392f 5a02 0f40 248b 03eb d7a9 a0bf
000001a0: d978 1150 92f8 fb3f e78a f488 946e 1740
000001b0: 03cc c2ef 913a d4bf 5bcf 0f18 d179 0d40
000001c0: 527a 9b5b 20b4 f7bf 09f3 debb 9f7c fa3f
000001d0: 824d 881c d4b5 0440 7094 0266 f4da 0040
000001e0: 82dc 0e3b dda8 f73f e6b7 b14b 5e51 e73f
000001f0: 00c7 4b5c 6639 1940 159f 3c81 7676 0b40
00000200: ae58 6531 1469 e13f 857a 6c3f a9ed e13f
00000210: f80d 62a2 2f19 e83f 274f 71cc 8150 ea3f
00000220: e5e2 59c6 f696 f23f 7e04 b418 1aca b7bf
00000230: 8c3b 1ef5 8f4a ef3f 4fa6 f433 c962 fabf
00000240: bcc9 890d ff1e d0bf c9a9 9291 fda2 0340
00000250: 9dc6 2199 b739 1640 7ae5 7144 5f4b f13f
00000260: 8690 8c2e 3ffc 0640 1144 4f13 7215 fd3f
00000270: 961d 731b d261 f13f 5979 cf8f cf10 ff3f
00000280: 641b 64a9 0636 eb3f fd32 90c1 3222 0b40
00000290: 8ac2 dda5 1c19 a2bf 619e facc f7f2 f63f
000002a0: 1dd5 5d24 9937 c03f 80d6 9656 b9a5 b23f
000002b0: 3e21 dd35 b09c f43f db1f 3862 715e cc3f
000002c0: f2b2 a762 9f93 e0bf 837d 3a9e 1355 0e40
000002d0: b8ca c0d8 ad2b f43f f19f 7044 c232 dbbf
000002e0: a145 8b68 d3b3 8f3f f9ab e186 fc2c f93f
000002f0: 488f 55c7 2702 00c0 142c b76e 04e9 d1bf
00000300: a8f1 b028 7061 0340 210d d8f0 7e07 df3f
00000310: 248a 3918 b3e2 0840 ad86 de14 c4c0 1140
0.7120179712349439 3.1296600997413306 -0.0770150709617365 3.3889716849459957 0.09294622027457022 0.9729686041896775 2.0509012986067114 0.8222179238207906
-0.20217972805140108 0.24164282940660753 4.991875990304801 2.3033810607114393 0.056574594275403886 2.2559338057559266 -0.5012431172805104 1.7599893776820532
-0.010903061201082616 1.263951359420559 2.471510658738745 3.506506915874491 -0.8307844445980765 4.331697845447563 2.658343750292004 1.0167633578306414
6.531599402977489 0.8367600533948584 5.393965255575018 0.05514615934969603 2.5342370642673284 0.6441635799995951 -0.24567584488032515 1.3107699735220895
3.914206186505467 1.5849377536176552 1.1587578651917665 2.1414663986480003 1.6591396903945648 2.2215500798639836 2.203169500438039 2.7489180604870316
2.29694908375682 0.9859958467375387 0.06248544074340162 0.6743960667027739 1.5168476077220616 -0.62823803701209 1.345052490979742 1.572891429971084
-0.4203122949404364 1.3105547096251455 3.8761485757203578 -0.03254580253430664 1.7481864097276711 5.857988490987487 -0.31607483305123213 3.684480846388323
-1.4814761713420421 1.6554257715899345 2.5887834767433455 2.10691146560071 1.4787266070323146 0.7286826589968285 6.3060545369387455 3.4328432175278842
0.5440770115626685 0.5602613676781664 0.7530744716208906 0.8223275177974515 1.161856436547333 -0.09292758086304961 0.9778518474066558 -1.6491176633375237
-0.2518918640336343 2.4545852063067497 5.556364433943284 1.0809014009122095 2.8731673847815413 1.8177357439310564 1.0863820144894354 1.941604196319153
0.8503449734133537 3.391698372090444 -0.03534783863768094 1.4343183524123548 0.1266967227526629 0.07284124721521756 1.2882539848379362 0.22163216873036515
-0.5180203368050498 3.791541324768049 1.2606638399999337 -0.4249730747565073 0.015479709270411148 1.5734830159005908 -2.0010524342523333 -0.2798472481924261
2.422577207469846 0.4848325111381247 3.110693158393831 4.438247991640009

model.2.bias f8 [100]
00000000: e102 56b0 7431 f63f 2c9a 8c64 19e5 c23f
00000010: 58bb 6035 5b68 ccbf cb3a f911 1228 0a40
00000020: 6c07 c3c0 5c31 a63f ac47 381b 7cc6 d73f
00000030: 36f3 1674 0349 f83f 8ab2 44e0 7afb f4bf
00000040: 67b2 c0d5 f09b e63f 1de5 bcb6 ccb0 b6bf
00000050: a40b cca4 3a34 0d40 b583 d59e 7d1e d7bf
00000060: 49d8 0561 3bce d93f 001d 2021 22cf e73f
00000070: 5d8d d801 2751 983f ff1a ef02 5ec9 d4bf
00000080: 04b1 a3fd a22f cfbf 70d3 7952 6c44 a53f
00000090: caa8 15c2 f2c1 0340 fa1c 1c9c e0e7 fe3f
000000a0: 0db3 906f cca7 a3bf 3122 0c89 4ac7 f53f
000000b0: 82b7 ba59 8613 e83f 4430 6c82 6b03 e5bf
000000c0: eb40 a518 2a2a 0a40 2fca 4028 d3d1 e4bf
000000d0: d64d a4de dc80 0e40 4415 183e 85c2 b23f
000000e0: e8e7 0b00 0a46 e33f b49d dd18 d544 f03f
000000f0: d3da b0d6 6e74 c93f 8d3e be5e c75d d43f
00000100: aa7d 321b 3e99 0840 1255 49d0 ec8f c53f
00000110: 8140 89ab bbb5 de3f 7187 0125 58c4 c73f
00000120: 8f94 e3bd faa1 d83f 68ab 5a12 0ebf ef3f
00000130: 1822 278f 79fd e93f 276e 966c f3d2 f13f
00000140: 5964 d8ea ac40 e63f c918 c738 b42e c3bf
00000150: db7c 8a97 516b b23f 29df ef2b 87ec c23f
00000160: 732d ea55 e973 f23f 9299 6356 8648 d63f
00000170: 1403 f77c 2dfd cdbf 24bf 52a1 3727 ec3f
00000180: 0197 ba49 6d80 b43f f12a f68d 374b c83f
00000190: 97b5 d35c a819 f13f a1d4 1d82 2acb e9bf
000001a0: e59e d7c3 2c87 f13f 0965 f0e3 8a80 0f40
000001b0: 3a31 efe9 e702 d4bf 6a75 29c2 a6bc 0740
000001c0: 7d0f 4d0e 87cc f73f 0df5 f2e9 6f74 d7bf
000001d0: e0a4 3b84 a708 ec3f 0e65 e20d 9681 e03f
000001e0: 08d8 2352 1198 e43f 505a e138 6535 e2bf
000001f0: 09b0 2419 34a5 0840 bf2c a401 1fd2 0040
00000200: 45f9 6ebe 4be7 8fbf 159f 80ea 44d3 cb3f
00000210: 1ecc 8800 a4df dd3f 3d0d 1c0b 0509 c93f
00000220: b5fa ddc8 7faf ec3f d10d 1037 a52a d93f
00000230: 7d61 1948 2e3c d0bf 1e9c 4225 ff87 da3f
00000240: 972e 1d62 1a45 d6bf 43ce d8a8 122f f23f
00000250: ba07 c392 d2db fb3f 9e45 0a6b 1626 da3f
00000260: 4ea3 b805 2ac7 fa3f f5a1 9c35 12b1 e83f
00000270: 3638 347c 4a6f e3bf 2244 2419 80c2 c93f
00000280: 78e3 d024 1431 d1bf 785a a9c0 22fc 0640
00000290: b8d5 a9c4 73a6 dfbf 0c43 96ec 5b3f a53f
000002a0: 6026 a800 c42a d13f 140f 39fc 77de d53f
000002b0: d02a b78c d006 f13f 39cd e06b 0a58 d2bf
000002c0: 77ac 5e6b 7eb3 e73f bbe9 ca4b df9d f93f
000002d0: bd32 9aa3 52a3 cf3f c0a4 b699 877f d9bf
000002e0: 69b0 e01e ca3e bc3f 8b29 1403 b84c f93f
000002f0: e25d 9db6 3572 edbf df9d 1ca4 de86 c8bf
00000300: 5c2c 462f 75b7 da3f c3bb 764f 2bae ea3f
00000310: fdf2 bda2 728e f93f 2fc8 6638 0c52 0540
1.387074173748424 0.14761655244474647 -0.2219347010263515 3.2695657161887985 0.043345354586121626 0.37148955019176344 1.517825559115591 -1.3113964806063074
0.7065357375009399 -0.0886352487695103 3.650502479054426 -0.36123600493561564 0.4032123992432202 0.7440348288518237 0.023747071731248116 -0.32479048048519127
-0.24364125618684096 0.04153765208039928 2.469701305662146 1.9316106889762623 -0.03838957654838824 1.3611550668157515 0.7523833992506612 -0.6566674754444723
3.270588104766025 -0.6506133829300945 3.8129212755099884 0.07328064695328346 0.6022996903332087 1.0168047877612993 0.19886575205756304 0.3182238030649181
3.0748254895003884 0.16845474405514743 0.479842107311022 0.18567945296222946 0.3848864416489243 0.9920721395950354 0.8121917530016303 1.1140016786292877
0.6953949534246348 -0.14986279270505623 0.07195005368929534 0.14784326215134883 1.1532986980481297 0.3481765597956833 -0.23428886987496667 0.8797872687191313
0.08008463907261999 0.1897954409763183 1.06876407871764 -0.80605054295906 1.095501675614224 3.9377649123895293 -0.31267736287260883 2.967114941492288
1.487433486808157 -0.3664817604693134 0.8760564406085471 0.515818621747856 0.6435629467293902 -0.5690179930632642 3.080665775711172 2.102598202536313
-0.015577880620068494 0.21738492441476667 0.46677494098838845 0.19558775942287268 0.8964232371507338 0.39322786690919737 -0.2536731437771989 0.4145505775326813
-0.3479677160400824 1.1364924045164038 1.7411676152118916 0.4085746808351248 1.6736240600095758 0.771615128241193 -0.6073353219851529 0.20124818065281241
-0.26862052531537683 2.8731131602938227 -0.49453443723117685 0.04149901640915318 0.2682352072157297 0.34170341139928095 1.0641637322138884 -0.28662357840513014
0.7406608674113063 1.601043029847104 0.24717171657939288 -0.398408794508736 0.11033309224939249 1.5812301750434894 -0.9201916281407956 -0.19161589635153484
0.4174473725949548 0.833760886385669 1.597277293883223 2.665062370907456

model.2.running_mean f8 [100]
00000000: 0e6b 88cb e172 f63f d3ef 3e9b 36cf 1540
00000010: c39f a16d 6e2f f63f f33c 2a10 7c52 1040
00000020: 32f1 dbc8 683b 1640 c523 68a6 aa6f e53f
00000030: dabc eb01 162f 743f 6585 9fd4 bd62 da3f
00000040: de09 a20d 3683 1340 1afe 3a82 b1f4 f03f
00000050: 3547 6139 56d6 0d40 12fe ebc5 07f2 0540
00000060: b01e e33e b357 1040 283d 4a07 d681 0340
00000070: 68b4 8763 99d1 1f40 f760 9540 4d72 d93f
00000080: fa5c 0ac5 e898 0640 5360 c83e 8a55 bcbf
00000090: ec6c 37f9 19bc ce3f 44d9 4d5f 2b35 fe3f
000000a0: 6a5f d30d 8b0c fe3f 5e36 ec46 c63f e93f
000000b0: 6880 7159 637f c53f 7289 6eb2 87a4 e83f
000000c0: ae9e a227 40ef 1040 551c d81b 7298 1040
000000d0: 17d8 a75d e973 0840 28d3 a03a 176d e63f
000000e0: 45dc fbf2 00dc 0440 0c6a cdb7 0992 ff3f
000000f0: ca00 a6e0 b1fe bdbf 854d edec c521 e23f
00000100: 7e62 d3ed b14e 0f40 0613 243a 809c fe3f
00000110: 2fa6 8814 9855 ff3f 5801 5e4c 2570 0640
00000120: 7a42 79c0 1ef8 1b40 c0b9 0742 081d fd3f
00000130: d1a6 046e 67b6 db3f 208a 11ff 84ce 2740
00000140: ef3e e4ed adbd e53f 8f2e fec9 a161 1040
00000150: a290 5abf ecac 1d40 de8f ca15 81c4 1c40
00000160: c43e 1a5e 7d24 0040 0426 fabe 08f9 f53f
00000170: 6231 271a b07c ed3f ef5c fbbb d270 0940
00000180: 9685 5a77 d979 0440 54b5 314e befd fb3f
00000190: c090 6b4c 92c0 0640 9263 5e48 735d f53f
000001a0: 7042 126c acb6 73bf 88d6 978e 9c14 1540
000001b0: cfc6 4f5b 9d64 dd3f fbe5 d8dd aae6 0640
000001c0: b816 2eb2 2773 ea3f 0156 6c13 5646 fb3f
000001d0: 57e1 bb19 6f0d 1240 bfee 9ccc 2717 ee3f
000001e0: fd47 1796 87ad e03f 0e8e d196 bf5e 1e40
000001f0: 6ea2 ceb9 70d6 0240 b1a2 2660 f4c9 f03f
00000200: 6ea1 73c9 99f0 e83f 0cc6 0dfb 26c6 1340
00000210: 9465 74af 0085 1040 d7bc 9738 e8fe ea3f
00000220: 20f2 08bf 1df6 e23f 1e5b 8605 100d d83f
00000230: 0bec 37d2 34fd 1140 8649 3738 fdf8 e73f
00000240: f3b2 7c4d 401d f13f 9ad7 948e 49ee 1640
00000250: 026f 04d6 c71a 0040 0830 c892 245b 0240
00000260: 1e9c 8bae f958 f73f ee51 946b 64db e73f
00000270: 6472 c6da bd42 f03f da71 f9bd f4d9 1840
00000280: 109e eac4 7cae d93f 6640 ecfb d387 1040
00000290: fee9 f6ab c693 1240 acfb 2a00 d119 ec3f
000002a0: 28d5 a170 a426 0a40 4183 dc02 5ea9 0840
000002b0: de40 86da 8d43 e13f 4e82 a041 b803 f83f
000002c0: 35cb e493 b290 1240 3dd2 ebb6 bed5 fb3f
000002d0: 0d48 f839 af94 0840 421e 4efb 9f04 f23f
000002e0: 5cdc d070 580a 0a40 d899 5c92 6c0a 0140
000002f0: 7486 72ab 1c20 dc3f b4d0 7c8f a801 1f40
00000300: 7e01 92c5 ce83 e73f 12da 512b 459a 1340
00000310: 702b 7449 a4a1 1640 5032 0a45 7ea3 0d40
1.4030473661902678 5.4523567444957335 1.386579921958387 4.080551388338097 5.558016909050183 0.6698811769612055 0.004927717177209712 0.4122767044446703
4.878135884299324 1.0597395980001978 3.7296566469966828 2.743178888573092 4.0856447054026575 2.438396508172122 7.954686694295653 0.3976014261911724
2.8246627229487986 -0.11068023712903256 0.24011540097021766 1.8879808161560314 1.8780622997346321 0.7890349755486559 0.16795007579185328 0.7700842366214558
4.233643168736007 4.14887279039893 3.056597453770347 0.700816740520712 2.6074236853706076 1.973153799036143 -0.11716758474904335 0.5666226985435264
3.9134253101477148 1.9132082244042876 1.9583969881154066 2.8047586408794523 6.99230480899916 1.819587953501113 0.4330080580135532 11.903358431712206
0.6794042249984765 4.095343738688498 7.418871869948051 7.19189867066231 2.017817244697513 1.3732993564648277 0.9214706908037835 3.180089443787089
2.559496815156943 1.7494490675411116 2.844029042275082 1.3353150202658282 -0.004812882923162051 5.270128467576463 0.4592660323824988 2.862630589658463
0.8265570144728462 1.7046719320982222 4.513119127361583 0.9403265949581153 0.5211828166450229 7.592527729549614 2.3547071949181406 1.0493053203482925
0.7793702063182033 4.943508074489284 4.129885426978394 0.8436165910078682 0.5925434809829007 0.3757972768739125 4.4972718092567545 0.7491441820114211
1.0696414019432126 5.732702472529036 2.013076469431213 2.294503351911775 1.4592224901368875 0.7455312825355216 1.0162943406968674 6.2128476794718726
0.40127486448406646 4.132644592566157 4.644312560029446 0.8781514170913076 3.268868331850758 3.08269884334041 0.5394963520102711 1.5009081424288016
4.641306219901527 1.7396838326796022 3.0725998429197774 1.1261291329009429 3.255051499723363 2.1300898966321533 0.4394599603930154 7.751619569771879
0.7348398073955165 4.900654484625663 5.657853267398295 3.7048306840645537

model.2.running_var f8 [100]
00000000: 7e62 45c0 4dde 2640 fab8 f3a2 f48e 4540
00000010: e2ad dc35 a5ee 2a40 82dc c03c 4d6c 4b40
00000020: 15c6 84e4 0923 4940 a140 6b79 d810 1540
00000030: 969b 869b f27a e13f f1f3 fa89 9abe 2040
00000040: 6107 a0cd 0102 4840 a9d0 2171 9782 2040
00000050: d4dc f445 8995 4540 5630 e456 4f36 3840
00000060: 878f 172b 6dd8 4440 e923 c55f 230a 3040
00000070: 5f3d 35bc 58f6 4340 2e43 5785 a878 0440
00000080: 7927 5e8c 0ed1 3440 7e07 9017 1fe7 9f3f
00000090: be7f a424 742d 0040 4bb1 0bcf e0c0 2840
000000a0: 0b42 6791 d06d 2d40 4dbe 8eec c85a 2040
000000b0: a091 459c 4b09 ff3f 148c 7006 04a7 1740
000000c0: 5aaf baae 8a58 4d40 6a1f 1038 e8a5 3c40
000000d0: aece 8626 ea4e 4240 4aaa 85b0 226f 1940
000000e0: 4cd3 101d c5f9 3240 eb92 e58c adda 3240
000000f0: d93f 6de6 080d e33f 1c3d 8ddb 13c2 1340
00000100: ba28 f49e c18e 4640 c879 670c f327 2d40
00000110: f28d 2913 6111 3040 350c 0301 2516 3840
00000120: d140 cb2b 4c18 4340 ecbc 7e30 10d4 2940
00000130: 235e 82c4 ebc1 0740 67b6 39b5 0647 3b40
00000140: 456d c0c5 afe7 1a40 98eb 4c18 8c1b 3740
00000150: 59bf 98e7 cd10 4540 7e7c ee27 8429 4940
00000160: 69e7 2b22 0be0 3040 1403 ce40 3751 2a40
00000170: df65 df90 1268 2940 8bb5 7418 7664 3540
00000180: 6e33 3d30 906f 3440 2a4b d57b b46b 2d40
00000190: 9843 449a e3d2 2940 68a4 0685 a857 2440
000001a0: 7890 4332 d147 d83f 52e4 4e4b 2b6e 5340
000001b0: 8cbf 1ab7 fb8d 1340 b2b2 15a5 1af4 3c40
000001c0: eec4 53e6 cf4f 2040 5b82 8141 bfc6 2440
000001d0: a846 0b7c b8f4 3d40 7758 99cf 7b0f 1a40
000001e0: 3437 cc7e cbc8 1240 4a54 ffa4 a531 4140
000001f0: ea7e fad3 10bd 3540 9c2e 4d83 7992 1f40
00000200: 885f d074 2e23 1740 76eb 1918 c774 4540
00000210: 1c5c 2610 6547 4040 62da dced 76db 1240
00000220: 7535 56d2 919d 1140 34d9 03cf 4e65 0040
00000230: be18 a9cc 12e6 3f40 968e 20de 7346 1940
00000240: c155 8a5c 1610 1f40 1c3e 7dc4 3918 4640
00000250: 3b25 9290 c1be 3340 0f50 1b89 3fbc 2740
00000260: 0a26 ea6c 52a4 2140 d91c b318 52ef 1440
00000270: 35b8 6e98 52ce 2240 a417 5521 d0d8 4440
00000280: 7a24 f0ec 6013 0840 392d e1a6 64f0 4140
00000290: 8e6c 83eb a859 4340 43a3 bb67 f25f 1640
000002a0: 0570 504c 4630 3240 e16a d37e 6362 3e40
000002b0: e742 64cb 6b4a 1340 6ec8 4a4a 8045 2740
000002c0: a349 44be fc73 4040 cc46 20f6 3f6e 2540
000002d0: 4108 5f4f ee11 3a40 c5bc d097 00ac 2140
000002e0: bb6a c6bd 151e 4140 aaa3 5ca2 9c86 3240
000002f0: 6a04 f63f 7f9c 0b40 fe8b e86c f7de 4f40
00000300: d65a b5ac 4167 1340 817a 9e0e eb2f 4440
00000310: 98bb 1f93 fcba 3a40 1095 fe0d a91e 3b40
11.434186943502251 43.11684071445957 13.466104205311186 54.84610709588107 50.27373939974874 5.266450783892794 0.5462582624066836 8.372272788890742
48.01568003000171 8.255061660173242 43.16825174766714 24.212148123464736 41.69083155298636 16.039602265958738 39.92458298301312 2.5589151780372026
20.816628239619124 0.03115509587588105 2.0221941816998585 12.376715154816926 14.714481872420057 8.177314178871848 1.939769373356377 5.913101292247138
58.691732255129594 28.64807463067647 36.616520706008814 6.3585307675917395 18.975663963897475 18.85421066860992 0.595341157963044 4.939528875823523
45.11528384134131 14.57802618754512 16.067887494702468 24.08650213550955 38.18982455658409 12.914186015578217 2.969687972286708 27.27744610461232
6.7262564562509555 23.107606428889625 42.131283711990086 50.32434558052863 16.875169883459794 13.158624673030808 12.703266646642929 21.392426994794317
20.435793890897394 14.710361356531923 12.911892720063221 10.171207577763383 0.37938337238870856 77.72139246658597 4.888655529983122 28.95353156833398
8.155883023954143 10.38817791658328 29.95594001078885 6.515120738729926 4.696088772978147 34.38786756961106 21.738538025528136 7.893041659913845
5.784356904237832 42.91232587113966 32.55777170060193 4.714320866207887 4.40387657786538 2.0494667218255476 31.89872435692154 6.318801375138397
7.765710302298829 44.189262925294514 19.745141063385045 11.867672237953256 8.820941356260864 5.23371161072938 9.402973903194018 41.69385162978077
3.009462214544837 35.878071651410615 38.70046752850713 5.593698139979838 18.18857266391571 30.3843306795269 4.822676828379122 11.635744401577735
32.90615061125143 10.715331736984261 26.07004257269023 8.83594202445091 34.23503849209143 18.525827548615474 3.451414584822989 63.74192582468821
4.850836466378231 40.374360873586745 26.730416484114897 27.1197670694865

model.3.weight f8 [150, 100]
00000000: 1841 b9b3 6034 f6bf df99 dfad 3840 01c0
00000010: b561 538b d4db eb3f be71 b28d 3eca c0bf
00000020: c309 ebd8 3e1b fbbf b18f 70f9 ef26 08c0
00000030: abd4 ccfd a194 ecbf b680 db0f 097d f73f
00000040: 5587 d602 be19 e2bf 5a37 3914 0659 05c0
00000050: 86e3 60bb 8fe9 eb3f ac81 390f eb9e 11c0
00000060: 1ac2 33ae c46d edbf ddef b74d aace 0440
00000070: b28e c954 be56 f23f d9cf b7fb 6299 05c0
00000080: 21a6 c500 baab d9bf eda5 4cef 01d8 0ec0
00000090: f54b fff1 e862 eebf 090e 9964 36b6 b3bf
000000a0: 4fa5 d719 592a f9bf 4939 395e cb97 e63f
000000b0: 9a38 5c4e 8241 e5bf 9b94 7aac 4383 a3bf
000000c0: f30d 3748 a78e f13f d0c9 751f 4bb4 d93f
000000d0: 987b 2486 ea3b f23f 2287 e404 0531 d13f
000000e0: ba40 e8a1 5004 fd3f 8224 f0a9 069c f0bf
000000f0: d770 2850 1f9d fabf b57a a314 c126 f93f
00000100: e924 ee5f cd4a e13f b813 79ee 7727 f0bf
00000110: e13c a8b6 96cf 07c0 3a87 ac97 5945 12c0
00000120: 6c45 e67f ebc3 0bc0 a118 4209 a319 fabf
00000130: 952d 7cd0 bc9d e13f 13e4 2ded 1bec dd3f
00000140: 5319 21a7 5789 e23f 2689 0a05 0e2f 04c0
00000150: 81e1 c1c6 bb1c 0840 b19a 5fad e1a1 0240
00000160: 028d 3170 fb76 bbbf 8879 b65f bc46 07c0
00000170: ff59 ef14 081b c83f 43d2 c67d 0221 bebf
00000180: d0d2 a467 41bb d23f d918 e73c 1d33 e13f
00000190: 743e 34d6 69d8 e43f 757f ddd7 722f 0640
000001a0: 5b14 ecff 1e76 06c0 d037 413c 2fe5 d23f
000001b0: 7f2f 389b e8b0 81bf 9f68 35e1 f5b1 f83f
000001c0: c15f 4e40 8b0f dfbf 28d9 f6a9 ca93 0fc0
000001d0: ee8b 7eec ae95 b63f 1304 5320 db19 06c0
000001e0: ad97 abd0 6cc0 dabf d06a 1551 3370 f53f
000001f0: e2d4 380f ab6e 0540 fa06 5ff4 3c1c f5bf
00000200: 227c 5785 2acd fabf cbf0 a427 7385 f73f
00000210: bb9b f588 296b cbbf a572 dcd8 7dd0 f7bf
00000220: f7be 93c8 0c64 0140 f150 fd0f 8757 e03f
00000230: 2e82 de17 5edf fb3f c956 ae76 3418 9d3f
00000240: 9de1 9db9 d01a cd3f 1144 f6dd aeb2 fdbf
00000250: a974 8a54 082a ff3f 64bf 4439 b66b 03c0
00000260: aab5 05e3 4dfb 12c0 5784 685d f25a f7bf
00000270: 995a 1d90 6be7 f13f db74 78e5 4b4f ffbf
00000280: 0849 4377 3443 fc3f 40fd 4c70 8ea0 dbbf
00000290: 5563 96bf 32fb 0040 1611 4ae0 eab6 e23f
000002a0: e034 5db0 4eda fabf 8355 2e01 698c d93f
000002b0: 46ad 97fd a12a f43f 0422 5f6a 3ee7 f2bf
000002c0: 3a39 8367 c4ee f2bf 7d61 2533 ece3 f63f
000002d0: 92a0 7c22 0dec f13f 83d4 827d a7df e23f
000002e0: 20b8 2451 7c26 f63f 5a22 af19 c4af f93f
000002f0: 7607 1bf6 3e69 f13f 4aeb 49cd 65ed f8bf
00000300: 685b 79ed 79f7 f1bf 1e1c f15d f9bb febf
00000310: 3173 2e18 5c3d 0440 8620 7c19 f61e e83f
00000320: 8413 5062 5ce1 0140 cd02 a13d 38f2 0240
00000330: 2845 a004 2b5c e63f 81fd c0d3 078c 10c0
00000340: 7b29 c265 ed2a e3bf a2b6 be00 bfb9 dc3f
00000350: ada5 8007 4fae e4bf ad12 ee24 29e1 c3bf
00000360: 2c43 e89a b027 fdbf 6941 255c a074 0640
00000370: ec69 040a e6b2 1bc0 86f2 9c89 d5ee f13f
00000380: ffd1 0a51 d191 e93f f099 4b74 4136 e1bf
00000390: 9943 17c1 5c01 e7bf 7eae d298 59fa 0d40
000003a0: e948 0261 e274 f03f 20cb 711b 5316 993f
000003b0: e581 bf03 aa09 febf 8b34 5a05 2508 f4bf
000003c0: 0a40 8730 18c7 d53f 8578 f396 8679 bb3f
000003d0: 6eed 6d5e d063 f0bf 3996 6c92 2bbe d3bf
000003e0: 10e4 19a9 d321 10c0 4141 537a 75a2 f93f
000003f0: 056d 8f02 c196 14c0 283f 0663 d3ba 9abf
00000400: 4fb8 b589 1be9 e53f f04d 2f76 6b2e 05c0
00000410: 6e02 2578 7737 f83f b724 04b3 91d7 ffbf
00000420: feb1 707d 76fa 15c0 7eb8 8b34 3b08 e9bf
00000430: 9b1c b8f1 40a0 d83f 0463 bedb 6159 debf
00000440: 096d 98c4 012c ea3f 97c6 d6c7 f76d 0540
00000450: ffec c96c 7740 03c0 bf9d be07 2bae 01c0
00000460: 49bc 2b2e c313 ecbf 9dd4 e054 0d60 f03f
00000470: 866e c897 3002 0140 0165 2e08 7470 ee3f
00000480: d02d f112 84a1 0fc0 522d 73eb 0ab0 dfbf
00000490: 5ca2 cbf3 5bee f43f a66a cf7d 44f8 c13f
000004a0: 068a 2200 2744 c53f 5d67 a38c 7cdd ec3f
000004b0: c7a7 7d2d 0f6e 01c0 744e 713f 61d0 de3f
000004c0: 2913 4707 7c17 bcbf 492f e125 7080 11c0
000004d0: 367b 5147 b3d0 ef3f 7007 e84b 8f3f 13c0
000004e0: 2887 37a9 8e14 eabf 2384 4a8a 00a4 e33f
000004f0: a43a d4ab f9b0 00c0 14d3 5660 2e42 ea3f
00000500: d7e0 32a2 0b8f f4bf d99e 0486 c42b 0240
00000510: ebb7 b824 2b7e 0ac0 5075 3496 40dd edbf
00000520: ac17 9d3a e852 d9bf 4a64 91c0 2f73 d8bf
00000530: e8dc 192d 174e e3bf a402 60c2 d8ba 9d3f
00000540: 2188 a188 4858 f7bf ef89 ccc8 0f5b f3bf
00000550: 87d4 5eb5 f548 f43f dc47 4702 40fc d7bf
00000560: 3423 236a 91e9 c5bf e682 32a8 9774 f4bf
00000570: a62d fa26 3ae1 f3bf 4f11 dc5d 66c2 d63f
00000580: c787 bfaf 45f7 d93f 151d 578b 8dfb f3bf
00000590: f9fc 3f19 ea0b f13f 039d a5bc 8aae f5bf
000005a0: 5e33 177d b308 f2bf e16f 51a5 9b2a f0bf
000005b0: 2042 e2ac 18cd f8bf e6b5 261d 30d9 d7bf
000005c0: c85a 68fb a467 e23f 8e76 b083 77b9 f8bf
000005d0: 881f c4b8 74de f7bf a907 7c60 39c8 f13f
000005e0: 2629 c137 72c4 f23f 18f7 6246 3ca9 02c0
000005f0: 81bf 9b53 b79d de3f 10ad 706c 652e 0840
00000600: 7136 fa09 a516 eabf 8177 845a 5e38 d4bf
00000610: 7456 e3b2 816a d63f b351 5957 bb9d dcbf
00000620: e9c1 3c11 cf13 d83f ca37 87b8 b347 e3bf
00000630: 81b9 26aa d1b1 efbf 3fb4 9357 694c 02c0
00000640: 4ab4 4412 b131 f93f 964a 5bf5 7e26 f6bf
00000650: 14ec 40f5 3406 f73f a6e5 09c0 da97 f33f
00000660: 527b 4a40 4998 ffbf fc53 a781 543b f53f
00000670: cfe1 14b8 53bd 01c0 a5a2 fb18 32d0 0540
00000680: 23ac 1eee 0f4c f3bf f6b1 6182 a798 ec3f
00000690: 1bf9 2d77 bd34 0840 9b30 eba4 5586 f43f
000006a0: fdd7 d007 7daf cd3f 6ec0 2b46 25ef e13f
000006b0: c417 fd10 66ad fd3f 2a1e 90a4 2255 e5bf
000006c0: baae cb75 a7bb e63f e37f 0ac2 eee8 d1bf
000006d0: ad8a 90ee cd8c 0ec0 4717 056e 00a9 ec3f
000006e0: 142f 7d3f 6d98 db3f cc75 7557 fb3a 11c0
000006f0: ebc4 84d6 af3f e4bf 3364 c2de 40a0 fc3f
00000700: 2873 7043 ebe8 0340 3e0a b63d d1c2 e63f
00000710: de12 6850 c4b8 dcbf 645c b483 3902 e0bf
00000720: a169 980e bbee 06c0 c3a0 cb2c 8b29 e73f
00000730: eea0 42e1 8ae1 e9bf 25b2 5fe0 ded9 f13f
00000740: 7d2a ebe2 0a4a 0640 61ab ee99 60ea f73f
00000750: 9ab2 690c cec7 dd3f fb8e 6f6d d32c fb3f
00000760: 48b6 0159 8286 cebf 43c8 d816 85ed f93f
00000770: b7c5 6be8 ad3e f5bf 4d0a 4382 0017 c7bf
00000780: 67c7 2098 659c e6bf e9d7 2834 d557 03c0
00000790: b076 ca96 123b d33f f0ab c6eb 927a fd3f
000007a0: 5ed1 8119 2556 ef3f e6bd 5693 6852 04c0
000007b0: a5ed 4002 f8d1 d3bf 496e 17e7 9c4a e1bf
000007c0: a673 8741 6883 eb3f fc94 f5cc e3fe f1bf
000007d0: 6616 27e0 6111 f03f 23b4 def4 a249 bebf
000007e0: 0f13 2707 c4c7 f43f 8d11 3049 3d6b 0540
000007f0: 5a15 af91 2c53 fb3f 2048 c54f 3464 01c0
-1.387787534757143 -2.156358106981528 0.8705847474293963 -0.13117200774003196 -1.6941517327655766 -3.0190124022937757 -0.8931436497720332 1.468026220267388
-0.5656423621587502 -2.66846862601862 0.8722609195457245 -4.40519355572216 -0.9196494486223543 2.6009107658155544 1.1461776077275485 -2.699895826861376
-0.40110635829350555 -3.85547244026815 -0.9495739676007121 -0.07699909168245979 -1.572838879534476 0.706029590635617 -0.6642467051003849 -0.03811084251837223
1.0973275013828896 0.4016292388179439 1.1396279563848335 0.2686169193058153 1.8135534595967742 -1.0380922926144938 -1.6633599406405233 1.5719614797778096
0.5403811334264478 -1.009635859999646 -2.976361681946955 -4.5677245806744455 -3.47066402360422 -1.6312589990280133 0.5505050727819475 0.4675359550670361
0.57926542894783 -2.5229759591903926 3.0140300300519702 2.3290437264252764 -0.10728427399731191 -2.909538982158839 0.18832493803229508 -0.11769118853300946
0.29267916795224114 0.5374895276552493 0.6514176543877981 2.7731682648154057 -2.8076763147278547 0.295238312571084 -0.008638207661554763 1.5434473798000352
-0.485323727416013 -3.947163894506179 0.08822148584162878 -2.762624981435246 -0.4179946935458883 1.3398926894503127 2.6790372075289364 -1.3193940683126457
-1.6750893791829715 1.47008052335791 -0.2142078322169406 -1.4884012671601934 2.1738525075996864 0.5106845199866524 1.742033093680344 0.028412647002901168
0.22738083899799913 -1.856123797453851 1.947761850583712 -2.427593657885085 -4.745414302085388 -1.45970379340749 1.1189990643958139 -1.956859489793081
1.7664074572281283 -0.43167458502644607 2.122655388619402 0.5848287945414394 -1.678297699854106 0.39919495692569046 1.2604083925205756 -1.1814560084477543
-1.1832927745304702 1.4306451795474395 1.1201297137395483 0.589801545275478 1.3843959016480838 1.605411625221811 1.0881948102473564 -1.5579584139911327
-1.1229190136270635 -1.9208921117403928 2.529960812490025 0.7537794587851898 2.2350394898116424 2.368271333194889 0.6987509813645021 -4.136748608259382
-0.5989901530713689 0.44883704254866974 -0.6462779184850455 -0.1553088598558551 -1.822189908129256 2.806946487318943 -6.92470565463962 1.12080911402805
0.7990500052315496 -0.5378730079071925 -0.7189162989908368 3.747241205148213 1.028536204281915 0.02449922423370332 -1.8773594042214594 -1.2519884308888176
0.3402767633351692 0.10732308564499433 -1.0243686379097556 -0.30848206805453376 -4.033033983426336 1.6021628168419542 -5.147220649723072 -0.02610330860039692
0.6847055139203436 -2.647665904348962 1.5135416691920471 -1.990129184038137 -5.494592628482222 -0.7822547937664834 0.3847811089075976 -0.47420546016068976
0.817871936774652 2.6786952602786402 -2.4064777850268224 -2.2100430111929366 -0.877412405183244 1.023450213962213 2.1260692461053763 0.9512272033490775
-3.9538651923992134 -0.49511979096560765 1.3081931613216033 0.14038902419163896 0.16614234453761884 0.9020369288293569 -2.178739886662672 0.48146849818770154
-0.10973334481884635 -4.375427810544189 0.9942261116919784 -4.812070070301942 -0.8150094323175141 0.613769788837207 -2.086413710035531 0.8205787545799432
-1.2849232040298852 2.2713709325943054 -3.3116057270881263 -0.9332583364190814 -0.39568525051105996 -0.3820304279848342 -0.6032825356368479 0.029033076156340556
-1.4590535485408582 -1.209731850024237 1.2678124508650244 -0.3747711202860253 -0.17119043047412108 -1.278464943905584 -1.2424870989369565 0.3556152264211691
0.40571729815394203 -1.2489142840366345 1.065408800728447 -1.3551127785702313 -1.127124298701538 -1.010402341627007 -1.5500723603510167 -0.37263110014722967
0.5751519117646575 -1.5452799934495576 -1.4918105332780858 1.1113828438687767 1.1729604890738954 -2.3326344965888772 0.47837622799760743 3.0226543876539225
-0.8152642435904466 -0.3159404643973787 0.35025064916167215 -0.4471271851555471 0.37620903666814215 -0.6025026897493657 -0.9904564212099985 -2.287310299105712
1.5746317590340078 -1.3843984207384543 1.4390153484553183 1.224573850775735 -1.9746792327275284 1.3269848885149704 -2.2174448377011013 2.726658053569127
-1.2060698796801794 0.8936345621601152 3.025752001848685 1.2827965204369665 0.23191798097258234 0.5604425783658493 1.8548336661929037 -0.6666424955482786
0.7104069996543878 -0.2798420805866028 -3.818752158914626 0.8956300877405078 0.43117839050386064 -4.307599417251776 -0.6327742757622706 1.7891243649994635
2.4887299793903317 0.7112814145369339 -0.4487772736759278 -0.5002715656618304 -2.866567720438255 0.7238212466154653 -0.8087820434202777 1.1156910671808273
2.7861535766617735 1.4947210324268883 0.4653201218814417 1.6984438204607943 -0.23847989412336035 1.6204882519200658 -1.3278025702423812 -0.18038946495478783
-0.7065914126635392 -2.4178871226276795 0.3004805061881184 1.8424252710344682 0.9792657373605314 -2.5402385245176786 -0.3096904775627201 -0.5403580201631907
0.859790924059429 -1.1247289663527331 1.0042437320675162 -0.11831110456724096 1.2987709311866558 2.6773629873079643 1.707806176259814 -2.1739279014664277
