kaggle_playground_smoking_prob/fold_4_cls_model_3.pt.pt (torch, 950621 bytes, 62 tensors)

model.0.weight f8 [100, 21]
00000000: dd0a 279a f52a f93f 7ae1 6c25 6a67 f03f
00000010: 4b38 9e35 1ca5 e83f 5a05 3592 2f4b f5bf
00000020: 75bd a11e 4f03 d93f e339 d834 4df4 de3f
00000030: f540 0d01 7830 0bc0 d38e 728b 8b62 05c0
00000040: 280a fbf7 948b fa3f 2153 9cf6 eae1 00c0
00000050: e3ff a1ff f7c9 b2bf e980 1e1d 13bc 01c0
00000060: 171c 3ce6 da68 e7bf 5dbe 9869 09f3 0140
00000070: f447 8683 66a7 f13f 80d0 0c00 b7a1 fc3f
00000080: 3a07 4c6e e456 ff3f 53c2 7dc8 9464 0640
00000090: 89b6 85b0 bd49 d9bf 7d8b b2e1 6efc f93f
000000a0: 2c85 cf9e a90f f03f d3f9 3c08 fcf3 0340
000000b0: fe2d 72ce 091c ebbf b685 5a7b 865e 03c0
000000c0: 167f 5408 1c5b e73f f548 9403 a7db f1bf
000000d0: 32d1 6e21 d8ae f0bf d412 5c34 0ec1 fa3f
000000e0: 77e5 282a a0df f1bf 0ef4 1225 41e5 0140
000000f0: 3e9a 67e6 4587 bbbf be4d 27ac dd88 e7bf
00000100: 7a73 1c84 16f8 cabf 1c9c bca3 282a c9bf
00000110: 9c7c a995 2e49 0bc0 f3b5 c28a e269 ea3f
00000120: da04 2871 b2de f63f 10f8 a445 a7d4 16c0
00000130: 101f 9907 f76c 09c0 223f d90a c9a7 e13f
00000140: 5271 438b 778f 05c0 4af0 af1f 9ad8 ffbf
00000150: 28ed a319 e000 ebbf 125c 6630 00b3 fb3f
00000160: c13d 9061 86dd f13f 033e 11db 5c64 0140
00000170: a1c0 f5bf 14b5 ef3f 3fe5 9c28 0c18 f23f
00000180: ef4d f9b8 9b1d 0440 f4e0 a80e c6d6 0940
00000190: 4234 0a81 a294 e9bf 7ce0 dba5 d022 f8bf
000001a0: cc63 2ad4 212f f73f ab9f 5b4e 7f58 09c0
000001b0: 70ca de58 b2fc f3bf c5ef e21b fd43 f33f
000001c0: 6d34 7893 0d85 e23f 31e6 81ac b280 e8bf
000001d0: 6359 79b5 f377 f4bf e2e0 8f43 0ef1 e23f
000001e0: 4654 5c31 c92e 0cc0 df9a aa88 43fe d53f
000001f0: d17d 0c9f 33c6 fc3f f015 235e d6cc 0340
00000200: f4d6 8d89 d37d f1bf 6a95 0125 f654 babf
00000210: b481 bc72 c1ca c8bf 1a6e 549c 9789 c13f
00000220: dbc6 c8df ed36 b43f 1757 694f 8d30 dcbf
00000230: 7d1f a8c8 fb56 f23f 6973 45be e540 03c0
00000240: 8909 7a44 d48c f53f a49c 1062 a353 cebf
00000250: 7600 0b84 a4b8 f13f 6aff 3f75 afe4 d93f
00000260: 362d 7b52 c199 19c0 090c 0801 51f6 d93f
00000270: 2df3 f949 e8b7 14c0 7b5e bd98 97cb bfbf
00000280: 7eeb 538f f6cd bebf 4271 0006 fa73 f4bf
00000290: 61d2 b106 2066 e3bf bda0 649c d985 0740
000002a0: cca4 9a56 aab7 febf 537b 139e c3d1 d9bf
000002b0: 8ef1 8563 839c 1440 b3eb bdef d266 d63f
000002c0: 0d59 7069 bddb 07c0 293b 8e33 485b 05c0
000002d0: d265 e881 5c4b e43f 7bec fd63 750a ed3f
000002e0: 863d 694c cf1f f63f 4e88 bc26 9857 f43f
000002f0: 3d33 7b8d e8ff e93f 3b94 ba9c 59a4 f9bf
00000300: af2b 1bcc 55f6 0340 c2e5 fbc3 4f4e e63f
00000310: cdde a126 8fa7 0ec0 edeb 1eef 1057 d1bf
00000320: 3306 fa6f 11a8 f9bf 3267 73bb 5785 703f
00000330: 3484 c899 a0ac f53f ca7b 1b94 73ee 1140
00000340: 3e47 dfb3 aebc f3bf 320b db65 cd89 06c0
00000350: 07df 8587 3b80 0440 dae9 daa7 6e50 efbf
00000360: b871 6d12 4933 ce3f 2493 7131 6c7e f3bf
00000370: 3dab 43ab 0911 d43f c96e 370a a613 f7bf
00000380: 24a8 ef89 fa8a efbf 06e0 fff1 5d7b dd3f
00000390: 9ca4 c310 3841 febf 63d3 6bf5 ffc8 d2bf
000003a0: 2a1d 81b4 1599 f8bf f2e9 ac4c 3cbb d13f
000003b0: a1ea 710a ec81 1240 7106 279d ed3a f33f
000003c0: f4bf 07c0 9d1b f6bf fb56 a5d8 e57b 03c0
000003d0: 677e 080f 8988 f3bf 29d0 b09f 140b ed3f
000003e0: 4f0b 3f0d b8a7 0040 1ed3 2300 b0bb 0f40
000003f0: be93 1c20 c675 f33f 2999 cbf0 8852 f0bf
00000400: b4da c442 4ac4 f03f 5c51 3b94 729a ddbf
00000410: 6133 5d58 150d 07c0 0aee f689 6df2 06c0
00000420: 343e 7d39 b0ad ef3f 469d 5b14 4dc7 f03f
00000430: e431 ddb8 236a d1bf 6752 bde3 f12b d0bf
00000440: 97d8 823f 36c5 fabf 0817 5d90 3cbf 0340
00000450: be85 e4fa a854 f0bf c181 223d ddc3 13c0
00000460: 91ee 5542 9769 e6bf a866 53c4 4119 e83f
00000470: 7991 9ee5 50bd ff3f 9977 657f ce6f e73f
00000480: 9d82 2153 e433 c7bf dfe9 e738 a410 02c0
00000490: 2b6e ebe0 e702 f3bf d975 046b e77f e8bf
000004a0: 5667 e2da 6771 91bf 9276 ca75 3c80 0640
000004b0: 1739 c99e fa49 d83f c509 a301 27f3 0ec0
000004c0: 2b0b 9464 f0e6 0fc0 9c34 3bc9 10bc ecbf
000004d0: f11b bd63 e700 d5bf 7aae 9e0a 0086 c0bf
000004e0: 5739 cd79 0bfa f93f 3653 9502 9e0f d63f
000004f0: 8b1d fd0a 2a41 0c40 a668 9cbb 5d10 cebf
00000500: 2a27 6004 713d ebbf a8de 5a90 086e fd3f
00000510: 7878 e117 9068 c4bf 9b8f 687e 056e fcbf
00000520: 9e56 cda3 f545 f23f e7fc fff6 1438 f43f
00000530: e3ff 59b4 aa93 1240 91d2 c2e0 784b f33f
00000540: 6bfb c973 e015 fdbf 8f58 7b81 5ede 02c0
00000550: 1c8a 1c0c 89dd e8bf 60d1 39e8 0c97 e5bf
00000560: f10f 4fed 9a06 06c0 bdb0 e767 4582 ffbf
00000570: 3ec5 1a21 7ae7 e23f 0acd 3d2d ceb3 b0bf
00000580: b7f0 6642 33a4 debf ae23 96fc 4dd7 e5bf
00000590: 1185 f5a6 9d40 19c0 38ae 6e60 e173 f23f
000005a0: 5c6d 9f94 76a2 e33f 50a5 2d7c 70a7 c1bf
000005b0: 240b 8254 6a6f ed3f 065a a39c 19c0 e33f
000005c0: 9833 efae 40bc efbf 53a3 3cd8 60c1 e1bf
000005d0: 50a4 e586 2d15 0440 93d7 570a 214d 10c0
000005e0: a3fe 1e50 39e0 d1bf 1c43 c58b a687 d13f
000005f0: d69e e654 ec5c 0140 4a3a 8cf1 559d e8bf
00000600: 3aa9 948b 5d37 f7bf 8538 7deb c186 02c0
00000610: b120 d50e 0af1 01c0 69ee c52b 5ee2 0240
00000620: 935e f0c5 3004 e53f 946e 130b ce38 f4bf
00000630: 669d dcab 8f61 cebf f9ae c73e 682e fcbf
00000640: 7adb 9768 f54c f4bf 651e 8517 5b7c fc3f
00000650: 1d54 705c e00e e1bf bb32 10c5 4533 fabf
00000660: 10e5 50a7 396a 0240 e980 fe0a 751b 02c0
00000670: 93f9 c8b1 243d f1bf 7a01 0471 f0d9 f6bf
00000680: 5216 e93a 301b 05c0 0bca f54e ec2f ea3f
00000690: 0ec2 8dde 3da1 1940 8e3e 250f 7283 10c0
000006a0: 474a ecbb 665e 84bf 4f29 f362 0303 d43f
000006b0: fa63 f948 134e 7b3f 72b7 8d4b 99b6 e5bf
000006c0: bf4c 2073 6a1a eb3f 90b1 cfd1 0bac 01c0
000006d0: 65f1 9049 ef41 d9bf 49b1 363a 78e5 d63f
000006e0: df8d 6b5c 7357 dfbf 5532 a828 fb7c e23f
000006f0: 1b08 77f8 b68e f33f d378 d6d3 22c4 fabf
00000700: d3ed e8b8 0326 ecbf e7c9 f0dc 48f5 08c0
00000710: dda7 0978 e534 eb3f 7574 08ba 549f f03f
00000720: fc0d 517f 64c8 de3f e91f 19ee 617c da3f
00000730: 4445 bc9b 01f4 f43f 12a5 d387 7a76 f6bf
00000740: 1d69 31c4 5f00 f4bf 773b 86d9 9bd3 e43f
00000750: b1f1 70af 3f77 ef3f 26e1 163d 4069 dcbf
00000760: d642 395a 3df5 adbf 3e73 c7de 1ba0 f5bf
00000770: 0872 a7bb de49 f73f 2ba7 d282 381c f8bf
00000780: 226e 8578 a529 ccbf 78fa 369a f849 f13f
00000790: 21f0 0a3b 80a4 0540 7bcc 2038 6489 08c0
000007a0: 9bbb 41d0 1a8c 0740 fdbf 2c4e 7d4c cbbf
000007b0: de3a 7e79 4432 febf 7feb 196c 8c92 0240
000007c0: e993 5908 c5ef 13c0 6a99 be9f bdfb d43f
000007d0: 1811 530a 1dcd 0940 eee4 b25d 084b e53f
000007e0: 962b 1a98 fcad f4bf 4b2f 990d c115 dbbf
000007f0: 2fa9 60b7 f0f6 d0bf 7c2e 4fad 9d83 e6bf
1.5729881307203677 1.0252477132727038 0.7701550528743238 -1.3308559142318104 0.3908269690645832 0.48366098557099074 -3.3986663896722527 -2.673117722924738
1.6590776144736399 -2.110311438222553 -0.07339429846797389 -2.216833331578631 -0.7315496918462284 2.243670296644082 1.1033692491223492 1.7894811632113772
1.9587139423824298 2.7991119063738465 -0.3951257919169185 1.6241291824632917 1.0038238719501562 2.494133056984745 -0.8471726448200909 -2.421154941272756
0.7298717653938833 -1.1161260738195413 -1.0426865869495257 1.6721326871203717 -1.1170961043229377 2.2369406601342297 -0.10753285288920097 -0.7354572641729005
-0.21069604349841226 -0.1965990828987011 -3.410733384356332 0.8254254064719916 1.4293693943184764 -5.707669342225941 -3.1782055467227863 0.5517316066634275
-2.6950522308308473 -1.9903813588889698 -0.8438568592822877 1.7312013521784633 1.1165832339355435 2.1740052332531845 0.990854620858972 1.1308709703865387
2.5144571734506296 3.229869951752443 -0.799393894225098 -1.5084997633803416 1.449006871005838 -3.1682115670882545 -1.249193522595899 1.204098805362251
0.5787418251289985 -0.7657101983342668 -1.2792851532772935 0.5919257468767933 -3.5228446823407777 0.3436440310128272 1.798389073643069 2.475018248983126
-1.0932193158345713 -0.10285890964003888 -0.19368761160241166 0.13701148160258542 0.07896315301402572 -0.4404633784773621 1.1462362135079893 -2.4066882004685124
1.346882121550694 -0.23692743576359476 1.1075787694863073 0.4045828480739063 -6.400151528137306 0.40565896130300466 -5.1795970495993915 -0.12420032004353658
-0.12033024787153399 -1.2783146128122813 -0.6062164431337572 2.9403564661225503 -1.9198401816341173 -0.40342798649901573 5.152844958353297 0.35002587711613414
-2.982294868222317 -2.6695713069706426 0.634199384428195 0.907526679321918 1.382766054612007 1.2713853371756332 0.8124888194375682 -1.6026245233745289
2.4952808328430005 0.6970595195590976 -3.831816007437601 -0.27093909598960303 -1.6035322546089332 0.004033415512106052 1.3546453482779386 4.482862772157157
-1.2335650469071449 -2.8172862966033785 2.5626135432938812 -0.9785683897419475 0.23594010734349324 -1.218364899768127 0.3135399029258002 -1.4422970198710792
-0.9857151693406689 0.4606547225262151 -1.890922608838344 -0.2935180565539694 -1.537374215216753 0.2770529507430687 4.626876986697114 1.201886762501456
-1.3817422391111878 -2.4354969907243436 -1.2208338343843026 0.9076026076277276 2.081894019590812 3.9666442881520103 1.2162534002647898 -1.0201501279894478
1.047922383133181 -0.46255173183205556 -2.881388368934879 -2.8683729914171225 0.9899521944843799 1.0486574931363335 -0.2721032433808246 -0.2526821826952869
-1.6731474381354354 2.4683772352608493 -1.02066896443317 -4.941273646575099 -0.7003895087832054 0.7530831179130546 1.9837197274692626 0.7323982704362947
-0.18127111491323414 -2.2581257291578676 -1.188209417908079 -0.7656132784065292 -0.017034170851366902 2.8126153185283522 0.3795153189320372 -3.8687267425422953
-3.9877632005385713 -0.897957222966983 -0.3281801675806824 -0.12908936041400293 1.6235461004140086 0.34470319988513454 3.531818471765012 -0.23487445507709487
-0.8512501798115626 1.8393636359086631 -0.15944100538303352 -1.7768607080297218 1.1420799635429044 1.2636918686328558 4.644205873482835 1.2059258250930365
-1.8178410075194857 -2.3585786929862205 -0.7770428883125677 -0.6746887717877534 -2.7532251872780695 -1.9693044718542716 0.5907564779828716 -0.06524361233259782
-0.4787719868143187 -0.682532304127667 -6.313101395354594 1.153291107834674 0.6135819342411355 -0.13792234481233345 0.9198505068346532 0.6171997126901381
-0.9917300621688012 -0.5548557494522391 2.510340741999734 -4.07532135163446 -0.27931053947757273 0.27390445374935424 2.1703726418380525 -0.769206020138719
-1.4510169460650801 -2.3157995603169774 -2.242694965247289 2.3605311794070087 0.6567615381236059 -1.263868373170145 -0.23735233203590694 -1.761329884752682
-1.2687887273475256 1.7803603094816023 -0.5330659680790891 -1.6375177095207352 2.301867777973378 -2.2634068354528734 -1.0774275727013432 -1.4282078184770328
-2.6382755854017796 0.8183499853315096 6.407462575342391 -4.128364788673606 -0.009945681199984636 0.3126839128787155 0.006666255314109465 -0.6785398936897151
0.8469745873029736 -2.209006919050985 -0.3946493357105026 0.35775571522642174 -0.4897125628033034 0.5777564806063064 1.2223424630797186 -1.6728847765839887
-0.8796404468079636 -3.1197678814871668 0.850207075546901 1.0388991610446088 0.48098099168075215 0.41384170772334855 1.30957184633401 -1.4039254480106291
-1.250091329935976 0.6508311508676873 0.9833067347131444 -0.44392400708922464 -0.05851165510524019 -1.3515890791233711 1.4555346803891798 -1.5068898306148621
-0.2200209463579635 1.0805593513502156 2.705322705527593 -3.067085684300364 2.9434105176982945 -0.21327177350167395 -1.8872723337005293 2.321556896725667
-4.98415005728473 0.3278650341038857 3.225153046283719 0.6654092626623915 -1.292477220677687 -0.4232027657314929 -0.26507203968016574 -0.7035663971850705

model.0.bias f8 [100]
00000000: 4394 9fe2 d09a dd3f 5406 5e30 f40e 03c0
00000010: 1eff 11e0 15f3 ec3f b570 91cb fd65 e0bf
00000020: 84ce d5fd 626b 04c0 5f73 eb86 7756 ab3f
00000030: 3324 dc89 f938 0cc0 5ff2 9e97 cc22 0dc0
00000040: cabf 4e60 4321 06c0 a826 0232 e575 04c0
00000050: 66e2 2ca2 c9f4 f9bf 100c 4869 bd50 f33f
00000060: 3967 2d0a 5b95 ec3f 0702 3e39 04f6 00c0
00000070: 5484 6b5b 8429 f3bf 3ac8 6f68 781d d8bf
00000080: 0e02 58e5 1a29 e93f 2d49 40e5 0254 c33f
00000090: c1d2 137a 628f d8bf 4c36 237b d1c5 e23f
000000a0: fcd6 af6b 0d8d b7bf e95d 63aa 9d07 01c0
000000b0: aad6 9bb2 59da 04c0 fa1f 5340 50af f83f
000000c0: ca57 cf63 2160 d6bf cc2e 8a08 3baa e0bf
000000d0: 9e53 43b7 4045 03c0 7284 ac03 e48d febf
000000e0: a5d5 4930 27ba e0bf 544e 2ed0 29bf f4bf
000000f0: 9635 066d e251 01c0 2f6f 840a 952c 0ac0
00000100: 85a9 9951 1d3e f6bf 18fc 7626 942e dfbf
00000110: f804 90b0 e532 d3bf 4131 f5fa 580b e43f
00000120: 2491 8efa 7adb febf b480 cac2 ea78 ed3f
00000130: d00f 8a02 3573 0ac0 d882 32da a2b3 f5bf
00000140: f770 4b44 f596 f5bf 72d3 1686 ed21 f2bf
00000150: 0b6d 5acf be3b 08c0 2715 65e7 a11b d03f
00000160: d656 278a dedd 01c0 8ac0 d6b6 4194 03c0
00000170: 5bf7 278d 579f f5bf 7231 25c8 f2c4 cfbf
00000180: 30cd 70a2 413b f63f 2ef7 5428 f446 0bc0
00000190: 5e3b af9a 556e 00c0 423e fa5c 7740 f9bf
000001a0: 9e00 c020 4174 fdbf 6ed2 0402 549e e6bf
000001b0: 2cfc 531e d9f5 0bc0 237d 87e8 e708 01c0
000001c0: 430b 263c 2e1a d0bf 7285 24ee e64e f6bf
000001d0: a137 29c8 b3dc e2bf 35c5 84c4 0d27 d6bf
000001e0: 7a04 d43f 3cec f6bf b6af eadc 381f 0440
000001f0: 08ad 0556 cd21 e2bf 3905 b490 241b c1bf
00000200: 8224 6d31 2dd2 0dc0 67bc 1ef6 d7fe de3f
00000210: 7d3d c5c8 50f8 04c0 5c82 d820 54a5 c8bf
00000220: 6bc4 13be 28a9 ed3f 6422 f3c5 725e ccbf
00000230: 1139 386a 03fa 0540 f8b5 f9ff c1b3 bd3f
00000240: 71a3 3600 6c98 02c0 4eba e9da b27d eb3f
00000250: 0af0 30c2 9490 f3bf bbb2 9ef8 0cf6 d03f
00000260: d6ff 7d55 c564 e9bf f916 fc56 8754 0ac0
00000270: 1045 df08 8e5f 1040 6b24 c5d4 9f15 eebf
00000280: 9238 63ac 7382 06c0 d015 c6bb 67b2 e0bf
00000290: 8a49 989e 5e04 ffbf c703 0e5f 2ac8 a7bf
000002a0: d0ef c652 15ff cf3f a5ea 1a64 1d1d e73f
000002b0: 2d6a 47d3 9a8c f9bf 1763 a0e5 c54b f3bf
000002c0: 35b8 bce5 3c66 ba3f 5b77 576a da24 0a40
000002d0: a6d7 b5da 01cd ffbf a8ab e561 9751 fe3f
000002e0: 46b1 91ef 3a4c 0ac0 f4b5 43c9 73f4 e73f
000002f0: d045 9a1e 4a7d d13f 7eee e55b 299c ffbf
00000300: 25a8 22b7 ed8d ecbf 176a 937e 7df4 f43f
00000310: d596 e20a a4b5 e9bf e6d9 e925 a057 b3bf
0.46257421618640054 -2.3823016909307544 0.9046735168812778 -0.5124501205387079 -2.5524349051355006 0.05339406511277533 -3.52781970694607 -3.6419917912847235
-2.7662417911560384 -2.5575660616785463 -1.6222626051877795 1.2072118866497057 0.8932318877006998 -2.1201252433822932 -1.1976359912007597 -0.376798727024951
0.7862677077646951 0.15100132173444916 -0.38375150605797265 0.5866477398901195 -0.0919960391909988 -2.1287186919760086 -2.6066163972671648 1.5428011429485182
-0.3496173357683544 -0.5207801024239074 -2.408814841978212 -1.9096412795554696 -0.5227237647183541 -1.2966707355561953 -2.1649826543350157 -3.2717686483064408
-1.390164679289769 -0.48721793896032883 -0.29998152010382695 0.6263852025527187 -1.9285840785387984 0.9210103802215799 -3.3062534521468265 -1.3563564799625762
-1.3493549983750748 -1.1332831609590497 -3.0291725348921594 0.25168655011323654 -2.2333346169715282 -2.4473909649169103 -1.3514018548880447 -0.2481978871604827
1.3894668908440728 -3.409645381062453 -2.0538742146231206 -1.5782388336118776 -1.8408824233338588 -0.706827167456664 -3.4950430268650248 -2.1293485800121217
-0.2515979373348964 -1.394263200993319 -0.5894411954302435 -0.34613365355751863 -1.4326746457375337 2.515245176231441 -0.5666262321587121 -0.1336408335264794
-3.727625261443394 0.4843044188991769 -2.6212478337471894 -0.19254542926593643 0.9268993103452322 -0.22163233438029117 2.747076825943744 0.11602413653755395
-2.3244247452425317 0.8590940738338959 -1.2227981172172826 0.2650177410057883 -0.7935511274117697 -3.291273765152138 4.09331525671702 -0.9401396899858246
-2.8136971919803466 -0.5217779796081974 -1.9385667986976807 -0.04644901666961903 0.249972024363045 0.7223040538004467 -1.596827340420201 -1.2059992761407494
0.10312252625291836 3.267994719309099 -1.9875505965587563 1.8949197601420824 -3.287221786149675 0.7485903674075289 0.2732720660070216 -1.9756253804943351
-0.892325265585218 1.3096899933212904 -0.8034229481315501 -0.07555581021902177

model.2.weight f8 [100]
00000000: 1109 9a61 3737 e43f a220 0d34 4f3f 0340
00000010: 7fe7 cc8e 6458 c8bf aa33 75e9 2175 1040
00000020: 28d3 4890 b764 0040 508b 5135 dda0 0240
00000030: 1507 e57d b912 0140 c316 5966 265e f23f
00000040: 79bd 0109 e600 f83f 95de 5b26 729f d63f
00000050: 0ebb 44bc 8dff 0340 25db 1df7 eb3f fe3f
00000060: ca27 3973 e195 e73f f067 9b5a 3273 e03f
00000070: bb62 bd33 add3 0340 dc04 8ee8 054b 1540
00000080: 3f48 2826 2fc4 c13f 1956 c08b e322 d1bf
00000090: 8319 a072 73cb 1940 62ef 2963 ef5a fb3f
000000a0: 3772 4613 ff23 0b40 5eb2 8d9d 2757 fc3f
000000b0: 2080 a018 310d e93f c201 e58a 6bc3 d63f
000000c0: 94f2 6db5 0fd9 1940 6d4f f207 2906 d5bf
000000d0: e702 df83 94ac e13f a2be 6ead 7436 fd3f
000000e0: f76d 9987 7e84 0240 f446 7eb9 7a2a e43f
000000f0: 65b5 5dc2 a244 fd3f b940 eecb f51d fa3f
00000100: 227b 54e9 c3c1 0440 3a89 1600 c051 f83f
00000110: eb2a a26f 9356 e63f 2cb0 bad2 7cba bfbf
00000120: 0e89 fcb4 babb fb3f 8b44 4f14 e095 debf
00000130: cc6c 4d1a 9b7c f93f d0a6 f22f 02de 0c40
00000140: 3fb4 6355 5f77 f43f bd58 a310 ce65 a93f
00000150: 491d 2a11 899d fb3f 6664 5d43 dc7b e7bf
00000160: aeb3 ff60 9424 0a40 ecbd 52bf 8c8c f5bf
00000170: 8db5 415e 2cfd f63f 2b6a 4cbe edca 0440
00000180: 4927 7025 951e c1bf 6b25 a840 0cd3 e63f
00000190: 9368 2cbe 6711 0040 dce5 7e82 faa4 da3f
000001a0: c4bb 7963 d592 cd3f f4a1 7d4b 7885 1240
000001b0: 490a 4cc1 dc14 00c0 ffa2 f03c a4ae 1140
000001c0: e668 fe70 6181 f83f 2603 6f55 2ea9 fbbf
000001d0: a271 dc25 699b ff3f 2e15 5164 1e25 c93f
000001e0: e292 306a e907 0040 d609 497b 44f5 0740
000001f0: ed31 fc9a 331a 1040 ac72 aa89 0db4 9e3f
00000200: b849 0802 d57d f4bf fdc8 941e b24f d6bf
00000210: eddd bc47 7c2b 0a40 3f37 bc60 084c b6bf
00000220: d3ca 0099 497c ad3f b9e6 bee4 2bf2 0040
00000230: 0b11 d700 d484 fe3f 0722 976c f18e a6bf
00000240: f9cb 2afc 8118 b3bf e72e cc32 b467 f2bf
00000250: e940 69d2 cb4f fe3f 1681 4d68 aade bdbf
00000260: eaaa d698 237c f73f 3e86 67b2 7e07 ff3f
00000270: 8ef7 4088 6646 0b40 59ad aef7 3a77 d13f
00000280: 8f08 7270 68ba ef3f 832a d0bf b12a 1440
00000290: abe5 8c05 4c67 b7bf 0622 bf98 a49d e03f
000002a0: 871d f9ef 368d 0c40 0a1f fa97 c8cf f23f
000002b0: 72c0 9ccd 3a63 0040 114f 7411 4e6e 0040
000002c0: e021 2c22 5284 cb3f defd eb3d 3ed8 0740
000002d0: 1a09 0c9c e1d3 c03f 82e8 bf94 4230 d2bf
000002e0: 61a5 281c a27c fb3f ea7d 45f7 6cef c53f
000002f0: 11b9 7ea4 38bb c33f 00c6 1116 bc07 1a40
00000300: a426 21a7 cfa1 f13f 780c 9000 7735 d93f
00000310: 5d5c f549 bc72 0e40 5599 eb77 c235 f33f
0.6317402750285358 2.405912787104243 -0.1901975343005766 4.114387176302367 2.049178244802892 2.3285469213018715 2.1341428599852272 1.1479858396500482
1.5002193786457083 0.35348180528624457 2.499782057616705 1.8906058934205217 0.7370459795431483 0.5140620965642011 2.4783577005549353 5.323264726322318
0.13879956591751072 -0.2677544464835094 6.448682585736949 1.7097009538255965 3.3925763612626514 1.7712780146058758 0.7828603249545303 0.3556774956123513
6.461973986468951 -0.32850099350002077 0.5523169112785496 1.8257948660574717 2.3146944612215026 0.6301854727664407 1.829256781809215 1.632314488033485
2.594611952677398 1.5199584964216926 0.6980683498707924 -0.12393932480580422 1.7333323545249786 -0.4778976629577946 1.5929213550032726 3.608402609436645
1.2791436515356194 0.049604835062994714 1.7259607954491278 -0.7338696780890472 3.2678611352952975 -1.3468139146387967 1.4368098909284044 2.599086271960251
-0.13374580696136665 0.7132626784161124 2.0084986550619504 0.4163194918033619 0.23104350430682363 4.630341701071746 -2.0101866818743344 4.420548393428134
1.531587067968354 -1.7288039529086716 1.9754420737218443 0.1964452733829289 2.003863172156671 2.9947595245041425 4.025587484019053 0.02998372223611294
-1.2807207183255809 -0.3486142443317844 3.2712331394684413 -0.08709766732883127 0.05758886330331383 2.118247782779545 1.9074287445847087 -0.04405931902471499
-0.07459270864892166 -1.1503183349877248 1.894481489103834 -0.11667885824636345 1.4678073854690248 1.9393298119470184 3.409375252230297 0.27290224254348555
0.9915048786354123 5.041693684654663 -0.09141993651873885 0.5192435248691829 3.568952441015145 1.1757284103968595 2.0484520019018015 2.0538598407382627
0.21497561138700316 2.9805874669689123 0.1314661037395773 -0.28419556166011983 1.7179280376388635 0.1713691909198894 0.1541510394285486 6.507553429446034
1.1020046738143856 0.3938882356162092 3.8060231950762913 1.2006249126803443

model.2.bias f8 [100]
00000000: 6ae3 97e2 ce3b d7bf c359 82db 189c ed3f
00000010: ac00 179c 3cf8 c3bf a7fb 9670 486b 0940
00000020: 3f48 d499 7a79 c43f b09b 66d5 ba09 ee3f
00000030: d342 e482 cb9c f33f e336 ad34 f6ed d9bf
00000040: 456d f0f9 1011 da3f edea 00cc 016e bbbf
00000050: 834e f4b5 a053 0240 04eb 45cd e07d d63f
00000060: a649 6994 ea4c e33f 016c f793 cb1b b83f
00000070: eb97 9b4c 2195 ef3f ef36 7588 59a8 0c40
00000080: 575b 18b6 0a2a d23f a1e5 f759 1afc e3bf
00000090: 8172 117e b2cb f73f 65c5 5e8e a27d f93f
000000a0: 3936 3ef6 10eb 0340 b466 5608 d2d6 983f
000000b0: db5e 8362 a3e5 bb3f 2eb4 8b5e c321 d03f
000000c0: a1a8 80a4 f5a6 0740 554e 4786 83e7 8f3f
000000d0: 28f0 546e 1611 da3f 69a7 d478 4b7a f43f
000000e0: e43c c61c 141e e03f 02d6 4e70 81a9 fc3f
000000f0: 9d9d b5be 6e02 ea3f 2e38 d67a d1a7 f13f
00000100: aac5 d75f a3f5 e13f 2bf9 d3b8 79b0 f23f
00000110: 58a1 2c47 e296 e83f 6be7 bbf9 6fcb a1bf
00000120: 619b 971e 3202 e83f 7bcb 1238 cabe e23f
00000130: d15f 13de 7144 0240 73dc 21aa aef9 ee3f
00000140: 0af2 3212 e681 f83f d2e0 267c 3d57 d03f
00000150: 693d b29c df46 cabf bb9c 5caa d76f cf3f
00000160: db29 f35b 6835 0440 a831 ee67 109b c8bf
00000170: ce33 104e f756 d6bf 7f16 c14d 19a8 0240
00000180: a2f4 0ff0 c391 d03f 2943 a76a 843b ec3f
00000190: a7a8 cc62 1b68 f33f d081 f58f dd16 d5bf
000001a0: 13f0 6007 2d4b e3bf c108 a8e0 d527 0c40
000001b0: 8e62 63b8 e441 eebf 1357 e340 d337 f13f
000001c0: dbec 5564 e2d3 b63f b97c f8c2 1d42 d2bf
000001d0: fd5c c9cd f28f c3bf 2bbf 47b0 fa2f cbbf
000001e0: cb12 22db e13f f63f 33b3 dc4a cae1 b43f
000001f0: 27e8 cea6 f784 0340 6aa2 ebc9 181f de3f
00000200: add1 72d7 b5ba f3bf eaf4 cc12 a5e9 c73f
00000210: d14a c932 ec64 0440 04e8 63c1 1de0 b53f
00000220: da39 f6f2 b60e d43f fcd3 9e6c d21e de3f
00000230: 2860 275c d2b3 e1bf 6429 bbc6 f79c b43f
00000240: 349a 2d5f a96d 87bf 6b2d cb91 07ea d23f
00000250: 9b34 4241 7999 f73f cd65 4e79 167e 74bf
00000260: 27aa 51b4 27ab f83f d3b1 4db5 8702 eb3f
00000270: 69a6 b100 b10b aa3f 7102 039e 990f a9bf
00000280: e4ee a04f e168 c9bf 4c8d c8fe 4321 0d40
00000290: 4c21 dd80 ab05 c63f 0612 3296 9df4 e43f
000002a0: e62b 3a4c 4878 0740 ff6a fafc 64bf e83f
000002b0: d41f 4877 60f1 f03f d2a7 dbc5 cc5f df3f
000002c0: a056 0a04 7faf e23f 8d85 a0ae cc2d 0340
000002d0: 5ccd 24d1 05d8 e43f 268a bfbe 2e2c cc3f
000002e0: 201c 214a 68b8 e53f 5a08 de82 ac1d d03f
000002f0: 1af1 fed2 9a46 713f b6c0 5ccf 1a77 ec3f
00000300: e45e 4a60 8251 f33f 8a38 735d ffcd d3bf
00000310: 6c1b e865 23d0 ecbf fd9b ce5d 6bbf d03f
-0.36302539947751333 0.9253048217095102 -0.1560130846173754 3.1773842617107735 0.15995724211876625 0.9386877220139151 1.2257800209956045 -0.4051490320606332
0.40729164512750443 -0.1071473238998057 2.2908338751965984 0.35143299146845686 0.6031392000825704 0.09417412149871042 0.9869543548818432 3.582202020718675
0.2838160303376091 -0.6245242840952195 1.4872307705437893 1.5931726037345808 2.4897784459815537 0.0242569749440011 0.10897275118929477 0.2520607398317364
2.956523213554718 0.015578296218257718 0.4072929456194765 1.2798571319530885 0.5036716997145985 1.7913832079915442 0.8127969479364087 1.1034712599098486
0.5612351295405251 1.1680848331303177 0.7684184446452873 -0.034755229220492755 0.7502680394653504 0.5857897849258359 2.283420309988266 0.9679787943740749
1.531713553514353 0.25532471775251253 -0.2052878871076971 0.24560066050000792 2.526077955587636 -0.1922321803543927 -0.34905798552864276 2.332079513030123
0.25889681285463884 0.8822652895997624 1.2129167422631697 -0.32952059801575917 -0.6029267448534504 3.5194509078292815 -0.9455436326343987 1.0761292013825752
0.08917059850311963 -0.2852854160318646 -0.15283045814678778 -0.21240171058115584 1.3905962524306001 0.08157028510750024 2.4399254829304655 0.470647999942719
-1.2330835739095207 0.1868177739906181 2.549278637664749 0.08545099231187697 0.31339811064472445 0.4706312237497625 -0.5532008933905717 0.08052013971169952
-0.011439631669145724 0.29553403127348216 1.4749691533245712 -0.005003059185491887 1.5417859119139707 0.8440588513454322 0.05087044843169226 -0.048947144068283495
-0.19851318729512635 3.6412429718926997 0.1720480326860162 0.6548602994449204 2.9337316470387007 0.7733635846119283 1.0589298877184676 0.49022216150353615
0.583922870532394 2.3973630564439135 0.6513699612463983 0.2200983458888725 0.6787606666411001 0.25181114940654015 0.004217724592248362 0.8895391511960244
1.207399726996237 -0.30944809080109137 -0.9004075041164987 0.26168331299635367

model.2.running_mean f8 [100]
00000000: 3011 8ad3 02b7 1140 2c5c fc58 6794 fc3f
00000010: b750 d13a f5f9 1940 e21b e450 1deb 1140
00000020: 9425 7c15 bbd3 e53f 8682 3a36 445c 1040
00000030: 6ffa 5697 b6c4 d43f 9023 ac40 7595 643f
00000040: afdb 3e8c b92c de3f 06af 6382 2fdd d23f
00000050: a7eb 9809 cfaa 0640 26d5 fbd9 8121 0840
00000060: 8e6e 4536 b87d 1340 3c00 e3b0 19a1 df3f
00000070: 4bf2 5284 067b fc3f 8cfe 4ddd 437e 0f40
00000080: c9a7 46f0 b07e 1540 f6be 0b58 f27d 1140
00000090: 66a6 7ee7 f358 0840 ed08 4101 5b13 1340
000000a0: add4 6ebc bda9 1040 cae3 6c3d baf7 db3f
000000b0: 10d8 6f04 26a4 dd3f 4928 d01e 6859 1940
000000c0: 7aac 8fee f78a 0e40 5600 8d5f b164 fb3f
000000d0: 4742 fdb2 8d90 e43f 6e57 80ff d357 f93f
000000e0: 282c e2d6 55eb 0340 9672 e105 c938 ed3f
000000f0: 2a4c 32ca ed02 f03f 9e51 8298 f82d b73f
00000100: 0897 afc2 2bed 0840 c7b1 6f18 92bb 0a40
00000110: 8986 5ede 0c37 0340 4921 8ca2 4ed7 0c40
00000120: e1b9 bffc 975b e83f ee83 793a d7aa 1240
00000130: df12 ae60 ace2 c13f e332 cd0b 72bf 0540
00000140: e793 68b5 df13 0240 aaec 72e8 f171 0340
00000150: 1e65 4f26 e841 f43f aa9f c645 2349 0b40
00000160: e387 006b bf08 e73f c9ca 0b33 f58a e53f
00000170: ed6d 143d 5492 0140 7032 7dd5 b02a 1440
00000180: 8f8c 6730 22ea 1a40 b86d 552a 849a c73f
00000190: 9b8f ad40 545f e73f f419 a4bf abf3 eb3f
000001a0: 4fd4 1f72 ad0c fe3f 854c 50aa 8938 0c40
000001b0: 0442 4893 4596 e23f 07e5 e40b df36 0440
000001c0: 5b4a b0f5 dc82 0340 da91 fef1 63e6 1040
000001d0: a27e 6dfb 54ae 0240 ceb1 154f 20cb 0a40
000001e0: 243c 8c5d 215d ec3f 4484 6311 7508 2040
000001f0: 55c8 4283 d3e8 1040 aee7 6d49 3676 0b40
00000200: 9fac 510c f8ef ca3f b228 44be cec2 1440
00000210: 3f01 ab85 43aa f23f 2ab8 e27b c1b6 1240
00000220: 2d99 c32d 66ab 1540 13fb ec6e 75e5 1140
00000230: 912e aaeb 39da 1440 9ba2 d913 4ef9 1340
00000240: 6a02 3e98 5dab f33f 72bd c9e0 2d67 0c40
00000250: fe70 4a59 55c6 0240 2425 90a1 05a8 0840
00000260: f89e 4187 c734 f23f b759 20e4 12a4 ed3f
00000270: 6334 dfe0 52d6 2340 9a01 5295 84e9 fa3f
00000280: c296 291d d531 e63f 74ac bb42 6f12 1240
00000290: 9a96 4e29 1914 f33f 685f 9d46 1dfb 0d40
000002a0: 886b e64e e9c6 1440 c381 ca57 7e4b 1240
000002b0: a0da cc49 182b f83f c236 72b1 91d4 0240
000002c0: 9057 d5e8 5f0f 1440 39f7 b024 79ba 2740
000002d0: dd6a 79fb a027 fc3f 7772 5dc3 13df 1a40
000002e0: f5d4 6f02 93d0 eb3f 64b1 6095 5dc1 1240
000002f0: a1bd 167c 04ad 0e40 f3fd 9cb2 c629 0940
00000300: ee4c 8f60 7f67 fa3f aadc 1975 1417 1940
00000310: 3879 f9c6 0311 0840 64e1 bb5b 0fdc 0640
4.428721719076108 1.786231372452458 6.494099539781181 4.479604019091285 0.6820960445049189 4.090103957482489 0.3245064237525303 0.002512673386608495
0.4714797849259708 0.2947500966390496 2.8334027051727904 3.016360953328916 4.872773025501045 0.4942077853593252 1.7800355118662476 3.936652878706644
5.373721842110123 4.37299478122417 3.0434339604878913 4.7689018436378605 4.165762848152707 0.43699508665627873 0.46314382966318224 6.337311250166814
3.817855705031943 1.7120832188084214 0.6426456924328442 1.5839424114724028 2.4899098193905225 0.9131817927223718 1.0007150553035538 0.0905452129684989
3.1158061227641873 3.341587248715061 2.401880013713541 3.6051304530157364 0.7611808716299572 4.666836656252583 0.13973002167417456 2.7184792444225976
2.259704034093818 2.4306371841499486 1.2660905357827867 3.4107118083229198 0.7198178377041099 0.6732126233094614 2.1964497348651464 5.04169019295351
6.728646045990117 0.18440296237063847 0.7303868544809008 0.8734949820507709 1.87809509830301 3.5276063256984025 0.5808437229734982 2.5267926148632145
2.4388980097221924 4.224990636027053 2.3351230280676 3.3491827181335116 0.886368448935063 8.016518157384901 4.227369357062419 3.432720731417212
0.21044827081218373 5.19024178782472 1.1665683003812573 4.678472457611898 5.4173819685586695 4.474080785001905 5.2131115744229115 4.993461904676816
1.2293373057329071 3.5503804742399376 2.3468424774019914 3.082041990481814 1.137885597558066 0.9262785392373222 9.918601062056217 1.6820112068963682
0.6935830659465057 4.518002550797167 1.1924068082384225 3.747614432981141 5.1942493751656755 4.5737241475439445 1.5105212099858036 2.3537935126285854
5.0150143032277725 11.864205500223408 1.7596750090803461 6.717848827913818 0.8692107246012301 4.68883355524699 3.834481210178368 3.1453985170517114
1.650267960726349 6.272538976386537 3.0083079857714914 2.8574511687003668

model.2.running_var f8 [100]
00000000: bd65 6388 37cb 3e40 6a07 bde0 65c1 2c40
00000010: 1a25 9c19 b253 4a40 0ce9 4d9e 1304 4c40
00000020: 8efc d5a3 b609 1440 c192 da0f d9c3 3e40
00000030: a410 7b41 7871 0740 7016 48e6 3377 e53f
00000040: 345f 0253 ba81 0840 fca2 95dc 958f fe3f
00000050: 320c 8928 d5d0 3940 4a7d 5bb1 2c78 3240
00000060: 1dd4 99a2 66eb 3c40 6d99 2b74 544a 0a40
00000070: f748 607b 93d9 2840 0212 dd21 232b 4940
00000080: b2cf 58d1 914c 5040 5b82 33f0 1805 4540
00000090: 22ae 2871 c97a 3d40 e0d1 1891 a24c 4340
000000a0: 945b 28f1 0e0a 4940 713e 7caa de08 0540
000000b0: 2023 6c59 d65d 0f40 645d 1bca 25cf 4740
000000c0: 7fa4 1a38 7283 4640 82b6 1c83 e07a 3240
000000d0: 6775 bf5f ffeb 1540 791e 3633 8f22 3140
000000e0: c163 a15f efd3 3640 521f 6de2 4fbc 1640
000000f0: b965 29d0 ce3e 2140 27f9 0c09 7f3b f63f
00000100: 16a5 82ea 616b 4140 41ab 0bad a5b6 4240
00000110: bb98 bc5f 76b1 3640 7927 f765 301d 3740
00000120: 5b40 b420 16c8 2040 c886 2f42 55fc 4140
00000130: ec19 a8bb eed2 f63f 10d1 4274 c113 2a40
00000140: 2440 f66e 8875 3840 7568 6f76 66b1 3140
00000150: a747 0fab c488 2740 f730 75d0 28ba 3740
00000160: d165 5855 8df7 1340 7cd4 4a19 5113 1740
00000170: 350a 022b 4403 3440 0036 7ad4 96f3 3640
00000180: 14d1 e1f3 c746 4640 ec9f 810f 34aa 0a40
00000190: 5e86 755f e700 1340 477a d88d b185 2340
000001a0: 01e5 d67e 0437 3240 3803 9c79 4345 4640
000001b0: d495 9359 98db 1340 d019 3bc8 b762 3140
000001c0: caba 3195 34e9 3240 79d5 8c8d 3d58 4740
000001d0: d947 e64a d89d 2e40 28c1 3ec1 9d12 3740
000001e0: da3a ef4a b070 1b40 54ff 393d 1d49 4c40
000001f0: 0faa 24c6 bfd6 4540 2be0 400b 6c9c 4040
00000200: 4004 69b2 4c4f 0140 822d 399d a9ba 3f40
00000210: 81fb 3b3d e090 2740 7509 c859 e951 4a40
00000220: 851a 1b49 8549 4640 580a 97c7 d125 4040
00000230: d7d8 a65f c0d6 4040 cf83 251c 81e2 4b40
00000240: 9a6e 04c4 1c6c 2740 edf0 8f84 5a12 3540
00000250: 8827 71b2 5e04 3240 c864 728f eaad 4140
00000260: a59c 3cef 8cd2 2140 e044 cc00 3d63 2240
00000270: ae7c 07d3 492f 5240 943f a686 0b86 2940
00000280: 8fca a8be f268 1440 f030 30d3 3263 5040
00000290: 408f bbeb 1871 2540 faaa 23de e5dc 4140
000002a0: 789c 4068 fe75 5240 877f 9918 a840 3f40
000002b0: 0dd2 d1f5 7be7 2240 06f9 7ff3 4428 3440
000002c0: 3ecb 65ac bb78 4140 8e72 9b16 1a47 3d40
000002d0: 18bb 0171 80c9 2f40 9786 74fc f754 4b40
000002e0: 5698 1f38 3dbd 1a40 c8b2 3069 b060 4240
000002f0: 85fb a42e a68d 3840 5d18 bed3 cbb3 4140
00000300: 8990 acf1 4705 2840 2e89 e1ed 9b6e 3c40
00000310: 86a4 c3a2 2e2e 3a40 9f80 8a06 eecd 3140
30.79381611277289 14.377730391573738 52.65387268184914 56.03184870533195 5.009485778747274 30.765030852186786 2.9304051509553393 0.6708011148154593
3.0633436665629237 1.9100550285895102 25.815752538164993 18.469431958042414 28.919534838252833 3.2862938953214127 12.424953322890799 50.33700965208483
65.19640000985126 42.03982355609033 29.47963626139802 38.598711144560866 50.07858099432556 2.6293309516111596 3.920818995106302 47.618340743409846
45.026923192032875 18.479988283643713 5.480466362057405 17.13499755927339 22.82787130060365 5.683898485098171 8.62267160897578 1.389525447229582
34.83892566088814 37.4269310290315 22.693212493461697 23.11401974948919 8.390793821338027 35.97135188408498 1.4264972048127857 13.03858531299241
24.4591130591581 17.692969705771663 11.767125459304067 23.727185276614332 4.991750081558579 5.768864054863226 20.01275891113092 22.95152023299852
44.552977071058336 3.3331071101601903 4.750882617519521 9.761120255160803 18.214912345375527 44.541121674707426 4.964448356278314 17.385616793087877
18.910958599701907 46.689378446356336 15.308290806398803 23.07271964819043 6.860047503329691 56.57120480853942 43.67772747793435 33.22204723994977
2.1637205065058254 31.729150606593528 11.78296080929954 52.639933798479355 44.574380052789856 32.295464466810415 33.67774577757671 55.76956512290746
11.71115696481802 21.071693692342638 18.01706996214446 35.35872071347836 8.911231495045579 9.193824791846453 72.73888087969928 12.761806686204899
5.102488497783852 65.54997710901421 10.720893255849319 35.725765006462055 73.8436527853936 31.25256494281305 9.452117616522651 20.157302111380908
34.94322733850866 29.277741826010747 15.893558055363926 54.66381793679937 6.684803845337305 36.755383633402346 24.553316989211016 35.40465781003943
12.010314514460577 28.43206679111716 26.180399105800937 17.804413231672353

model.3.weight f8 [150, 100]
00000000: 0328 a65b 08d4 e5bf 839f bb9c 8ebc af3f
00000010: c905 6259 bcfa be3f 5b44 c8da 5520 fc3f
00000020: 1255 4a1a 1aa3 01c0 46e9 0824 6c5f ffbf
00000030: 67e7 546f 7163 03c0 a253 4c8d 1a88 f9bf
00000040: 2de5 4ae5 eed7 f0bf c550 b940 92a4 fc3f
00000050: 9fac 23da c444 fe3f 5652 7e3f 9ad3 01c0
00000060: 7f56 04be 1ba1 fd3f 1f27 4341 be07 ef3f
00000070: 8f59 8e83 01d0 e73f feef 063b eac8 0540
00000080: c9f7 71a0 8281 cb3f 33d2 13bb c681 c7bf
00000090: de6e c87e 3006 f63f 4cc4 822c 1fb2 b03f
000000a0: 7538 45ec 6ec3 ff3f 5649 9f66 0efa ebbf
000000b0: 725a c78b f424 e53f d676 c060 03a9 b03f
000000c0: 4a86 18a0 4ad7 0a40 05de 212e 9e56 f2bf
000000d0: 75ff 8ca7 6742 d9bf 53c5 0ed4 4a2b f43f
000000e0: 0396 3e80 47af fa3f a59c df31 4f1b edbf
000000f0: 41e6 200c 890f e43f 48be 26bc f5b9 f13f
00000100: ef80 d9c4 4cd4 f5bf a6c5 971e acbd 0240
00000110: 7470 aa91 7fbb e9bf df10 1b0f b7b6 b33f
00000120: d30a 7b60 361e f5bf cfa9 9e17 4135 ffbf
00000130: 4d32 985d 2640 b3bf 0765 0416 cc57 fd3f
00000140: 0a4b ea67 f790 b3bf 9afe f2d1 e869 de3f
00000150: 848a 7fe1 41bf fdbf 4a9c 84b0 5115 f0bf
00000160: 4895 cf2e c23a e63f ef31 d0c2 50e1 eebf
00000170: 00cc 2389 2514 edbf 01ba 1beb 22ae f93f
00000180: 8a20 c4bc 707d fc3f 34fd 8818 102d e63f
00000190: 9f4b 1181 6441 f23f 7338 4690 c47f a83f
000001a0: c460 14fd ad20 f93f 1b09 6760 5c1e 0540
000001b0: 48e1 0486 8f73 cf3f 9e38 02d9 0a09 0340
000001c0: bbcc 4793 24ba c13f 44f8 20c3 6f64 f63f
000001d0: 08dd 5430 eeea 0940 515e 07e3 1328 febf
000001e0: a6e9 74c7 9710 e63f fac5 0cbd 490d 0ac0
000001f0: dd26 c548 57f0 fa3f e61c 3c2d 2f64 963f
00000200: 2f4c 52ed 478a dc3f 0c71 052d 934d c73f
00000210: 327d 7594 ef8c cbbf 7190 9c32 b2e7 db3f
00000220: 4e4c be3d 4790 dabf 7539 4738 2bd7 fd3f
00000230: 46d8 3623 9dd1 0ec0 b317 df6e 068c e4bf
00000240: 962c e42a ec76 eb3f 844d 746e b43e ee3f
00000250: 09f6 da87 eb64 fe3f 09e2 ec03 6974 e1bf
00000260: 29fc a01c f041 f6bf bcfd afba 484b f33f
00000270: ddfe 34ef 28bb c6bf ed63 5c69 5cbc e8bf
00000280: fd06 9f87 4a58 f43f e76e 6d9d 8e85 0d40
00000290: d146 0eb7 004c a2bf 26f2 f0f5 a2b9 a53f
000002a0: 2a94 c22a 243d 0640 1402 a97d b669 f23f
000002b0: f55e 972a 531b 0540 d41e cece 2f37 d3bf
000002c0: 40d1 a8fb 0a95 e0bf beb8 6707 2ef0 e53f
000002d0: 1f4c 0de2 ecaa d7bf 33b5 8385 66a0 fb3f
000002e0: fddc 5314 bc93 03c0 7259 b438 43c9 ef3f
000002f0: 679b 6de7 6d01 03c0 7363 1336 7e46 d83f
00000300: 4b7e ada6 fda1 efbf 0514 7c1d 19cd f8bf
00000310: f381 b3d3 1359 0240 db91 fe84 3291 de3f
00000320: a23e 4f96 4eda e8bf 8512 e284 e60c 08c0
00000330: 86ba 0717 5c54 d83f 1964 b09d c2a9 0240
00000340: 3430 af3c 37ce ffbf 1dad 061d d7eb c63f
00000350: adc9 ac16 0022 01c0 132e 689d 4118 dbbf
00000360: 45f4 885c dec3 e5bf 94d0 e1e3 0741 ff3f
00000370: cdaa 012c 3885 e63f db99 718d 9f38 f8bf
00000380: cf8e 4eb0 f504 0940 155d 6e3c 6df3 fcbf
00000390: 74bf 56b3 d98f aabf 5bf8 21e1 e9a9 e63f
000003a0: ffc8 0e1f c11d e1bf 0e05 550a 3f1f da3f
000003b0: 3a19 df56 047c fb3f 3f5f 1423 8412 e93f
000003c0: 2169 fe1f 6f91 0540 a987 5d20 e264 0cc0
000003d0: 2bdc f588 8780 d83f 57b0 b9fd 6fd5 e5bf
000003e0: 3c6c 27e3 0fa7 f73f 0152 e71a 092c 0b40
000003f0: a27f 210e 7072 fabf 5810 c2e0 1554 0140
00000400: d24d cae2 6494 d23f b824 3bca 7b15 e3bf
00000410: f971 ed31 1cbe fcbf 0502 1157 4fb6 f0bf
00000420: 6532 89fe 9a8f 04c0 e085 492a 1783 f03f
00000430: 8484 778a 2889 d73f c45d 6c91 302a 0140
00000440: 67eb 4a6c 9be4 17c0 f164 08aa fdf3 c63f
00000450: 21db c372 5eaa 0bc0 3564 f4b1 bcaf 0440
00000460: 66bf 0634 5259 0140 9482 0932 903c f43f
00000470: be68 468a 0411 03c0 1c09 0a1c 4c1b b9bf
00000480: 83ca a7ec e800 edbf 82f4 2514 c8c7 f13f
00000490: 9229 b0d4 531c dcbf 8675 2849 e903 0440
000004a0: 585e 22bd e60d edbf 3d2f 872f 1f7e cb3f
000004b0: 96c6 9fc6 9419 0140 a1eb bb49 fea5 f1bf
000004c0: 1b99 d8a2 01fa f83f 131f 3b2c ad5e ff3f
000004d0: 165c 4c32 f965 e43f ebbb 4250 da90 f13f
000004e0: bea2 47ed 1d06 02c0 7ba4 356b f477 e93f
000004f0: 9477 ee48 0d2a e73f 2d96 5875 b31a f43f
00000500: 80c1 a864 4136 05c0 45e5 8929 ec7d eabf
00000510: ab75 8ebc cd9e fb3f 5e34 580a bd49 d3bf
00000520: c560 7acf 0abb e4bf 0f58 750b 446c f93f
00000530: 1aaa 2511 a4da e7bf 4315 33f5 422d 06c0
00000540: 14f8 01b1 7107 debf 45cd 0371 6a9f eabf
00000550: 024e 970e 014e 01c0 cb20 cc86 a0f0 f13f
00000560: 0173 6e5b bda8 f9bf 113e 73fb a687 f23f
00000570: 74b6 3de5 c54f 0440 b863 fa1e def3 e3bf
00000580: 8808 bc45 9b60 e03f e18a 8cee 47a3 04c0
00000590: b09f 07e8 b4c0 d0bf ff87 a16d 2073 f7bf
000005a0: 8ba1 6ecf 805e 04c0 1c6f 9145 8abd f23f
000005b0: 79ae 0fea 48bd b3bf a680 9a7b 9a26 bd3f
000005c0: f088 9aaf e1fd f33f 06d2 1e20 6b9d b63f
000005d0: 495f 3c30 2e4f d93f 2cc9 8d91 016d 09c0
000005e0: 303a 771c f07a f03f 0a70 51fd 9e11 0340
000005f0: a0bd 84bd f136 eebf 5d8c 0427 2191 e43f
00000600: d70b 5744 93e8 f2bf 083e 5355 16e4 fc3f
00000610: c060 dd27 8e3d e5bf 13a2 64d9 7a71 eb3f
00000620: 208d 4cd7 51be eebf 2dfe e0e7 1c52 da3f
00000630: 2939 a2c7 7b3e 0540 32be a7d7 da0f efbf
00000640: b4a9 2b45 6ec6 00c0 fab4 3c49 204d f0bf
00000650: 9504 d797 0ea7 c73f 6edd 0ba7 84b0 fc3f
00000660: a432 1822 d7c1 01c0 0b57 50d6 e9fc f7bf
00000670: c0f9 8f0a 2f63 09c0 e267 5fda 9301 01c0
00000680: a641 cd61 1580 fb3f e0dc c4b3 7ace fa3f
00000690: a590 32c5 ab1b 0440 1aa9 77bf 2a54 06c0
000006a0: 560f 6132 3b0e 0a40 e80c 2dce d5d9 fd3f
000006b0: 069e fa54 65ab d23f b628 7478 dff3 fd3f
000006c0: 2552 0ece c78f 07c0 c08c d6ab b151 e53f
000006d0: 7f5c 0f96 386b 0140 d408 b0f0 4a03 fa3f
000006e0: 438d 98c8 9b20 e73f 5479 d24c 779f 05c0
000006f0: 9fd1 a3e1 d388 fe3f dc2f 59fd 5726 f4bf
00000700: c697 ffad cf91 f63f de60 d868 fcb1 e83f
00000710: 808e b490 2db2 e0bf 090e b406 1fc1 f13f
00000720: fdb4 b0b9 a645 ed3f 799f 9de1 e3f4 bdbf
00000730: d931 3825 eb88 eabf 5e4f 540d 8625 dcbf
00000740: d3d9 8c17 2685 f8bf 018e 1803 6410 f43f
00000750: 38fb 45b7 2a47 f6bf 949f 916c 6251 f93f
00000760: 92fb b995 e7f2 fbbf eb5f 10a3 cc04 e1bf
00000770: 27d0 8ea4 c344 0540 b421 04a3 6d36 0540
00000780: ab4d 696f c553 c73f 4934 b485 4b30 e23f
00000790: c420 aea0 be0e febf 002e f676 fb84 d93f
000007a0: 2122 5a4b ea21 a3bf 0adf 4fb6 5271 febf
000007b0: 4e42 e656 f09f 02c0 8dec 55c0 a3f4 0240
000007c0: 1f46 4d76 feb9 f13f e6cd ad8e 0dea 07c0
000007d0: 72a4 e6b4 4734 fb3f 1c67 1d1f 526e ffbf
000007e0: 984c 5f85 3442 a2bf df87 f36e 8e50 fb3f
000007f0: acf1 1eb3 49a2 dbbf 0d4c 6871 7eee 0e40
-0.6821328916569204 0.06198545134776536 0.12101342374992109 1.7578943773444482 -2.2046396306929035 -1.960796490441298 -2.4235562036309832 -1.5957284469088582
-1.052718063043652 1.79017854006547 1.89178929529843 -2.228321548502474 1.851833097699824 0.9696952128080943 0.7441413468794041 2.7231030093662403
0.214889839498879 -0.18364795813217114 1.3765110924204502 0.06521792256059306 1.9852132062256065 -0.8742744449939817 0.6607611398747635 0.06507893669228379
3.3551228053554825 -1.1461469461481795 -0.3946780334699647 1.2605694087509007 1.667792797999369 -0.909583661469601 0.6268964039692905 1.1079003667508847
-1.36433102507004 2.34261344814941 -0.8041379780802473 0.07700676077644485 -1.3198760765814554 -1.9505015299460984 -0.07519759926817322 1.8339348659558838
-0.07643076216690417 0.47521420004702863 -1.8591936882518505 -1.0052048583254583 0.6946726717257343 -0.9650043301531336 -0.9087093046676955 1.6050137695234528
1.7806250928570386 0.6930008391572415 1.1409649888707702 0.04784979115639567 1.5704784284517226 2.6398246318286858 0.24571413082026994 2.379415221576962
0.138493129648486 1.3995206472605028 3.239712121572328 -1.8847845905601341 0.6895254989279251 -3.2564883012316814 1.6836769907553653 0.02186654771415144
0.4459400003044633 0.1820548982458451 -0.21523852108928448 0.43601660673653614 -0.4150560477220936 1.8650314520233142 -3.8523504973518667 -0.6420929112871278
0.8582669103356177 0.9451543958006572 1.8996386820648488 -0.5454602314630971 -1.391098129111706 1.205879906890785 -0.17758666687040306 -0.7729932840185235
1.2715554521277561 3.6902134226819387 -0.03573610529487115 0.04243191959583141 2.7798541393881537 1.150808802471265 2.6383422210163823 -0.3002433318692799
-0.5181937136863226 0.6855688233024677 -0.3698074538744453 1.726660272160484 -2.447136076745322 0.9933181865224425 -2.375697906525079 0.3793025520404207
-0.9885242705749503 -1.5500727798219043 2.2934948481708886 0.4776121424459043 -0.776648801396693 -3.006299055241757 0.38014890908281307 2.3328907317595733
-1.9878456469041454 0.17907227437294973 -2.14160173144156 -0.42335548755429037 -0.6801597411464476 1.9533766652721498 0.7037621364118763 -1.5138240361353528
3.1274217390035584 -1.809430347498908 -0.05187874139971785 0.7082414052126852 -0.5348821264836089 0.4081571198367592 1.7177775758187424 0.7835102734706892
2.6960127353205654 -3.5492594269316737 0.38284481406248244 -0.6823043780873473 1.478286635704321 3.3965017415850984 -1.65293889541497 2.166057353899344
0.29030725619778963 -0.5963725042176042 -1.7964136076253665 -1.0445092583687494 -2.5701198468798787 1.0320045139163696 0.367746482106732 2.145600448722435
-5.973249141762472 0.17932101061231934 -3.4581879583378314 2.5858091261584613 2.168613821464464 1.2647859530044672 -2.3833094408738296 -0.09807277378607576
-0.906361067025799 1.1112747942964067 -0.43922897119832627 2.501909801051343 -0.9079469388988839 0.2147864324637058 2.1374907987127 -1.103025711082161
1.5610367165732615 1.9606143691798408 0.6374479277027401 1.0978644499953087 -2.2529867684828266 0.7958929151474331 0.7238832878535839 1.2565188011007067
-2.6514919151306344 -0.8278714000036095 1.7262704244125 -0.30137563715181226 -0.6478323032670451 1.5889320800392885 -0.7454395613579579 -2.7721003681387244
-0.46920435224444756 -0.8319599349328334 -2.163087953560308 1.1212468400499798 -1.6036962100544658 1.1581182310363867 2.538951674409697 -0.6235190014877992
0.5117927896501593 -2.5797270428314367 -0.26176188143881074 -1.4656070978603564 -2.5461441236149702 1.1712744443420382 -0.07710700716386922 0.11387029187835881
1.2494828090207726 0.08833951505841506 0.39545778952150507 -3.17822564805933 1.0300141441290513 2.383604029701023 -0.944207067635876 0.6427160036149747
-1.1817810697109417 1.8056853611959713 -0.6637640741928621 0.8576025243720004 -0.9607323842105053 0.4112617744867489 2.6555095287686936 -0.970685406877186
-2.0968900112104283 -1.018829618532719 0.18478567518289837 1.7930952573059034 -2.219648615230044 -1.4992464419969476 -3.173429567831789 -2.1257702885022676
1.7187703915006778 1.6754099867082957 2.5135112196022242 -2.7910971601860526 3.256948846423181 1.8656824163197658 0.2917111711380759 1.8720392899727307
-2.945205316364325 0.6662224155628778 2.1773540233076 1.6258038904057246 0.7227305333985118 -2.702864265607028 1.9084051908549566 -1.2593612572118138
1.4105984494030834 0.7717268035658227 -0.5217502428317431 1.109648729500693 0.9147523524058269 -0.11701797731586606 -0.8292136885589186 -0.4397902612847612
-1.5325070304803503 1.2540016289648295 -1.392374721442776 1.5823692551584587 -1.7468028877917487 -0.5318358597605742 2.6585762840350244 2.651576303065861
0.18224399509436515 0.5683953868298285 -1.8785997654504607 0.3987415944800148 -0.037368127535106994 -1.9026667710840592 -2.3280951298732253 2.3694529558393413
1.1079086896101058 -2.989283671073042 1.7002636972850067 -1.9644337859558112 -0.03566135528640152 1.7071670850787013 -0.431780266688089 3.866452108378786
