kaggle_playground_smoking_prob/model.pth (torch, 94337 bytes, 72 tensors)

model.0.weight f8 [20, 22]
0	0xbfcdb0d73b5b9a40	-0.23195925138789342
1	0xbfab5628c03e8dd1	-0.05339171740277105
2	0xbf7ad9b41ac0671c	-0.006555274518200507
3	0x3f600a0c2a27669e	0.0019579160300338813
4	0xbfb048c8239ecf98	-0.06361056203496529
5	0xbf91c849cc7e65d1	-0.01736560164099449
6	0x3fae6f8b1ecb7b6e	0.05944475890077326
7	0x3fc71cca7958edd7	0.18056612897076604
8	0x3f9cbd096701656b	0.028064867889360395
9	0xbfa9ff5a996f65d0	-0.05077632067668569
10	0xbf69a5e3b7c9045c	-0.003130860101265882
11	0x3fb1f432811960e9	0.07013240482172346
12	0x3fbc0413ceb2341c	0.10943721576968851
13	0x3f9d1a3ad59c0fc2	0.028420371329971557
14	0x3fa1174f070017ad	0.03338095627263669
15	0xbf882e58758f4e76	-0.01180714710964213
16	0x3f6ddcbbebb0589c	0.0036452932668096915
17	0xbf920634eddcf2a6	-0.01760180188942919
18	0xbfa91be29f42130d	-0.049040872517286706
19	0xbfb21af4f61d5d0e	-0.07072382935199448
20	0xbfedecad6e1c9b6e	-0.93514129167748
21	0xbf91e6569fba2f11	-0.017480233668307813
22	0xbfc926ab96f05657	-0.19649262304362722
23	0xbfd32d9f96c5c9f4	-0.2996596310032651
24	0xbfc0432688259aa7	-0.12704927108571448
25	0xbfc77074bc3e09e8	-0.18311938468475764
26	0x3fbdec3d8e223bcc	0.11688599319516796
27	0xbfc361981fc3b6fb	-0.1514158396816397
28	0xbfbcfa90e81fb469	-0.11319833438001727
29	0xbfc83ae4d9d05cc7	-0.18929730067677594
30	0xbf95e109eb8f0efb	-0.021366267206544425
31	0xbfb6906b5a1648f9	-0.08814116429701703
32	0xbfc541fe2665a42f	-0.16607643961768434
33	0x3f9bc86cb08850ed	0.027131746554076953
34	0x3f93139fea221887	0.01862954966102184
35	0xbfaa46687b9d3127	-0.05131842144928305
36	0x3fd015334eba6c19	0.2512939709501452
37	0xbfd57af36d4a7371	-0.33562932656223327
38	0x3f62601d9be45919	0.0022430971431602995
39	0xbfd2bca0b64203a9	-0.29276292608852345
40	0xbfab414c96ab3364	-0.053232568161184074
41	0xbfbcddbc5f8f9ce3	-0.11275842030555654
42	0xbfc96ff61dd622cf	-0.1987292905507929
43	0xbfc5109af7b60de4	-0.16456925483008356
44	0x3fda335c8b7e4ca3	0.4093848573913396
45	0x3fc7a6235859b857	0.18475763143527743
46	0xbf9b410013a2cbb1	-0.026615143965226632
47	0xbfc3e3c7c28d2d02	-0.15538880347808265
48	0x3fd02766d274174a	0.2524048857888955
49	0xbfac69fcc7da891a	-0.05549611987705046
50	0x3fa880fcb7c4ae8e	0.047859094078686146
51	0xbfbdc5cad8fd8c17	-0.11629932210557602
52	0xbfa712c6842fb825	-0.04506512034991798
53	0x3fab38b3996be5b8	0.053166973570067666
54	0xbfb719af7250691e	-0.0902356771552246
55	0x3fd8399ac7ecc34d	0.3785159065619624
56	0xbfcebf054d93d3dc	-0.24020448959313867
57	0x3faffa8c8a4b85c8	0.062458412057604884
58	0x3fd3999eb678ead5	0.30625121898235125
59	0xbf47904d32bef11a	-0.0007191063827956285
60	0x3fa6df81bc73e44a	0.044673971418838734
61	0xbf93ee65b21e96d6	-0.01946410083441815
62	0xbfb9d6207f2c2822	-0.1009235678176599
63	0x3f46da4153a70988	0.0006974047640187367
64	0xbfe27c6cc7bea07a	-0.5776885892164636
65	0xbfa805a8689ae68c	-0.04691816594045148
66	0x3fce149742ef4902	0.23500338333412435
67	0x3fbd35e68cea457b	0.11410370769796956
68	0x3fb8eafe5f1e168f	0.09733571836667408
69	0xbfc2f66098328c7a	-0.14814383918301016
70	0xbf68b062d6d29c6c	-0.0030137949421092294
71	0x3fb86941d8b8eecb	0.09535609761308732
72	0xbfb9021df8c8aa34	-0.09768855403732674
73	0xbfbe6ee15e4d4f5b	-0.11887939979834299
74	0x3fa17aed257a419c	0.034140978646181014
75	0xbfc2a95b27296948	-0.14579333698459096
76	0x3f80bed03c65fb80	0.008176447718822422
77	0x3f92eeb62951d433	0.018488737365675866
78	0xbfd99f6800057330	-0.40035438539580337
79	0x3fb21edb991dfd1c	0.07078335273944386
80	0xbf8febe383269945	-0.015586640777496394
81	0x3fa35be2e37fa410	0.03781041171152577
82	0x3f7dd53a10fec729	0.0072834270685449365
83	0x3f728009cc3a0754	0.004516638062001938
84	0x3fb4aabdfbc97394	0.08073031804219816
85	0x3faa0740a79d2aeb	0.05083658262318188
86	0xbfe3d02790e1c73a	-0.6191594915128242
87	0xbf7d7c8b66bb492b	-0.00719885305052718
88	0xbfc6e7a511f38d54	-0.17894423843891138
89	0xbfa57035cd86d9cd	-0.04187172063705056
90	0x3fd1adc6a9873c8b	0.2762314467954147
91	0x3f9acb9b9f525a3c	0.026167327498649792
92	0xbfaf33e53ddb4d2b	-0.06094280605398191
93	0x3fabb858db397da0	0.05414083171921935
94	0x3fab8885915357a7	0.05377595328324896
95	0xbfaa21a688761e97	-0.0510379830912459
96	0x3f499be9bb090bbf	0.0007815257323006071
97	0xbfb3de2acabe8f2e	-0.07760875177205825
98	0xbf9c821f09de640e	-0.02784012315496303
99	0x3fc338de93b53c14	0.15017301761915347
100	0x3fb865bd48524bf4	0.0953024198118298
101	0xbf9032b25637d761	-0.01581839228852944
102	0x3fadc0ba3797e779	0.05811101845388484
103	0x3fd167e729cf18b9	0.27196673472316096
104	0x3fbe007cabe75463	0.11719493100038529
105	0xbfc4b472acd4148c	-0.16175683440102195
106	0xbfc68e8d33392026	-0.17622532845621314
107	0xbfbc6dd1c32047d4	-0.11105071080990508
108	0x3fcecb7d73db7b1d	0.24058502347085034
109	0x3fae996575a38085	0.059764071092787176
110	0x3fc4e066e6bdf455	0.16309820429515534
111	0xbfcf8bf4cd1ab754	-0.24645862593518564
112	0xbf8cca91fa170988	-0.014058247036591323
113	0xbfbaded5246b08b5	-0.1049626554404622
114	0xbfa2d9124669cec4	-0.03681237325227252
115	0x3f91586d853e4b50	0.01693888784172809
116	0x3fc64f73395f6f0d	0.17429962445645977
117	0xbfaaeae0aa253e55	-0.05257322384806843
118	0x3f903cbf71d05531	0.015856734582560598
119	0xbfb37618f68376af	-0.0760207750167534
120	0x3fb4340545f92602	0.0789187713463875
121	0xbfbcbddf230d0d46	-0.11227221112954053
122	0xbfe4b4f9a73bae3b	-0.6470917001983659
123	0x3fc06b484d8a9a2e	0.12827400003625783
124	0x3fcb1f23fbaff411	0.21188783444804973
125	0xbf44d77d4801f7d5	-0.0006360398983955526
126	0xbfa1ac02517a0bbb	-0.03451544994916086
127	0x3fcc125c28bda936	0.21931030263233148
128	0xbf671d71f812f142	-0.002821657748965618
129	0xbf8821460c5ea835	-0.011782214405531824
130	0x3fb45dbe410cf59f	0.07955540741109822
131	0xbfac7cebfdc5cd1e	-0.05564057801066212
132	0xbfa553ab025d5f51	-0.04165396121851351
133	0xbfc222bba80008b5	-0.14168496802455413
134	0xbfc06df6c608ce73	-0.1283558337178082
135	0x3fc7420baa7b8504	0.18170305084553473
136	0xbf8a1b53c38c4a3b	-0.012747435002471543
137	0x3fa6a9a12d50dd16	0.04426292112514767
138	0xbf8d0af7545fc011	-0.014181072485342868
139	0xbf8a804bd0ca4ec5	-0.012940017995141226
140	0xbfb7e0a61d9f4410	-0.09327162001797284
141	0x3fb8d2127f9505aa	0.09695544829175753
142	0xbfa428c513e5c6ff	-0.03937354915514212
143	0xbfb1df0bb40ad761	-0.06980965753140601
144	0xbfdbb3339c6ee650	-0.4328125980060564
145	0x3f90f0504068cf7f	0.016541723185766962
146	0x3faa0512225e1af9	0.050819937415374335
147	0xbfb0966d4dea9d45	-0.06479533340699557
148	0x3f7523bbcd2087b1	0.005161031340351772
149	0x3fb4175aed407c8e	0.07848137180598
150	0xbfb28034192debc4	-0.07226873030405928
151	0xbfa8461fedaea9a7	-0.047410009159040194
152	0x3fca3b72f5fbb868	0.2049392415132758
153	0xbfc260e805a39942	-0.14358234668106645
154	0x3fb127a0a4a55008	0.06701091785117808
155	0x3fbed3ec53c72f4a	0.12042119069445537
156	0xbf9942e1298dca0b	-0.0246691876995531
157	0x3fbbe5513af9b089	0.108967854402808
158	0x3fb9b0d2851a8abe	0.10035434484101821
159	0xbfabe0465ad90d60	-0.05444545611365004
160	0xbfbfe7db8807ead0	-0.12463161536281153
161	0x3fb76669a18441c8	0.09140644257809705
162	0x3fae0edc2709627c	0.058707122578828014
163	0x3fc4300bae140859	0.15771623611368815
164	0x3f7842bade92fceb	0.005923013647758805
165	0x3fa65805acdfe81b	0.043640305855618254
166	0x3f96e1aea4e7ee92	0.022345284285604956
167	0x3faf784aee725b17	0.06146463547445629
168	0x3f946f7fddba6ee8	0.019956586750239064
169	0xbfc5eb11e21b48e1	-0.17123626270637884
170	0xbf8e7ce138da45a9	-0.01488662676573223
171	0x3fc88a32690ac2de	0.19171743515973722
172	0x3fb0555d3c2773a9	0.06380255430799643
173	0x3fb37320a454ca96	0.07597545635216316
174	0xbfea3a3bee0c57f9	-0.8196086549166913
175	0xbfb69c9b92b453d8	-0.08832714397097108
176	0xbfb1f5035989ed41	-0.07014485298161778
177	0x3f8080b4cb426750	0.00805798764513424
178	0xbfa4d03b8fb076ba	-0.04065118912715833
179	0xbf925d97e73e89dc	-0.01793515538123268
180	0xbfa94c7370a41f0a	-0.04941139936459933
181	0xbf88d28c12f341fa	-0.012120336845698344
182	0x3fb24351074c1ef6	0.0713396685424604
183	0x3fc418fa9a14785b	0.1570122959464609
184	0xbfb01f0b4f6bde3a	-0.06297369660375632
185	0x3fa7b31f890d9aae	0.04628847644817334
186	0x3fbbe9dc96bd0ee4	0.10903719596995703
187	0xbfc86be619c8bafb	-0.19079281100263032
188	0x3fbb7377d006a970	0.10723065212974858
189	0xbfc324c13c11aab1	-0.1495591681771962
190	0x3fc29061bdaf554c	0.14503118287999894
191	0x3fc69e912dbaa818	0.1767140839850192
192	0xbfb7a2c5bb91e8e4	-0.09232745961518024
193	0xbfb42fe14bce5f37	-0.07885559178100442
194	0xbfa6fd2fd59a080e	-0.04490041239206742
195	0xbfd71cdeb340c16d	-0.3611370802418808
196	0x3fc201944ff05010	0.14067319777734655
197	0xbfa4d0efacc95b81	-0.040656556932552775
198	0x3fdfbf47013df155	0.496049643719535
199	0xbfca6b3d48157a17	-0.20639768619271656
200	0x3fd20fc305590a58	0.2822120239472148
201	0xbfc2639ed8e7545a	-0.143665176305748
202	0xbfb1de1147e45aac	-0.0697947311894988
203	0x3f744492213525ee	0.004948206729133526
204	0x3fc33186d240c892	0.1499489332796356
205	0x3fb0c23c542646aa	0.06546380094939744
206	0x3f826c4914ac2f30	0.008995600646379026
207	0x3fc918039a2cc1c1	0.19604535129611914
208	0x3fad8c34a082a3cf	0.05771030864099879
209	0x3fb7835148cd7af2	0.09184749629410385
210	0x3f70967a1dfe8374	0.004049756069350308
211	0x3f8750a0641d9ada	0.01138425164726924
212	0xbf91d3e8291b7fdc	-0.017409923085210596
213	0x3fa7df43e1ee9910	0.0466252530380179
214	0xbf8fc211b1b0ece3	-0.015506876216127846
215	0x3fc13e330694d0c6	0.13471067258217867
216	0x3fbd421a1f2d7c8d	0.11428988705800887
217	0x3fba869842acf3b5	0.10361625316450225
218	0xbfc58bf0c561c15f	-0.16833314550195674
219	0xbf9787497f831322	-0.022977016837802407
220	0x3faa0c76a5b07738	0.05087633869719216
221	0x3fc7b7ab9909dd27	0.18529267284950743
222	0xbfa2dabdff4c4226	-0.03682512036732914
223	0xbfc45462f99636c7	-0.15882527529577414
224	0xbfc652031d1c0e7f	-0.1743778125893307
225	0x3fa368496d6bce0b	0.03790502033907835
226	0x3fc6266e1880246e	0.17304779239956097
227	0xbfc6f8331c565719	-0.1794494522443351
228	0xbfa532b80f1eff0c	-0.04140258011420714
229	0xbf7c547c1f4a3717	-0.006916508533903152
230	0x3fc7d172c970b3e0	0.18607935749005744
231	0xbfaba1835df9bc06	-0.053966622563955055
232	0x3fba09bea234348f	0.10171119175011455
233	0x3fca928b77fe99b9	0.20759719237430632
234	0x3fb8990fbf4591c8	0.09608553333016012
235	0x3fc1afb9397d387a	0.13817515666091024
236	0xbf93bcbc801e0159	-0.019274659461644948
237	0xbfc0975cc03317fb	-0.12961921105141969
238	0x3fd106d3e6481459	0.2660417317241062
239	0x3fb26542872a479c	0.07185760307245775
240	0xbfa3a84212d2a237	-0.038393082425788476
241	0x3f9d22d590c33bc8	0.028453194580659674
242	0x3f8b20c997ed517f	0.013246130894608353
243	0xbfe2b46960f91107	-0.584522904777743
244	0x3fc2d8f37a666533	0.14724582172929387
245	0xbfb080e6a0fbae27	-0.06446687155010321
246	0x3fc0b9a7ff678888	0.13066577883643427
247	0xbfbe80a819c7442c	-0.11915064458232
248	0xbf9915849292e560	-0.02449614662757449
249	0x3fc1e4ce216294e9	0.13979508047228897
250	0xbfb1e26ae781b53d	-0.06986110832231858
251	0x3f8a9bcb01a76ad1	0.012992464054084081
252	0xbfb10e7e068da5ad	-0.06662738475792791
253	0xbf89b647bcfc45c3	-0.012554703192594446
254	0xbfad3c412d78c42f	-0.05710033111643786
255	0xbf8e60bacebd7424	-0.014832934793668491

model.0.bias f8 [20]
0	0xbfa5acb087044db5	-0.042333141786140706
1	0xbfa25202f0edf10b	-0.035781948004087814
2	0x3fa24338fba4b0bf	0.03566911765878577
3	0xbfd104dbdb016548	-0.26592155825854435
4	0x3fbfb7d2744b9762	0.12389865245094492
5	0x3fb92a002e0a713f	0.09829712986033189
6	0xbfba8cfe3f743281	-0.10371388482253431
7	0x3fd2f3dc982f0a38	0.2961341367883139
8	0x3fca5f1c4a00e360	0.20602754224253328
9	0xbfa62d567de0474f	-0.043314650407536896
10	0xbfb3ba11aca61863	-0.07705793824251965
11	0xbfa1e2b168268444	-0.03493265529983394
12	0x3fbf626318b21feb	0.12259501793789666
13	0xbfc11b7da42c99d0	-0.1336514522201484
14	0x3fccdd6c2501898a	0.22550727660116038
15	0x3fce5c9aaa1a7090	0.2372010546286032
16	0x3fadf87a5c80f029	0.05853636149592518
17	0x3fbd8cc525b877d2	0.11542923136627728
18	0x3fb4e5bd7e94b28c	0.08163055744507569
19	0x3fc619e89c430be9	0.17266566877341852

model.2.weight f8 [20, 20]
0	0x3fd49897be252178	0.32181352204181435
1	0x3fb4031dfabbf5c7	0.07817256328049559
2	0x3fd01db23549da23	0.2518125076670989
3	0x3fd0c2ed9125d29f	0.2618974606951187
4	0xbfd1877a5b6345d8	-0.2738939182719071
5	0x3f34d7894c9b8dce	0.00031802274734912545
6	0xbfce2eb431357630	-0.23580028918051843
7	0x3fd4425b63b90987	0.3165501092772946
8	0xbf984925d1a46f65	-0.02371653644614415
9	0x3fb8c4fe2cfe0418	0.09675587271159747
10	0x3fc73b2bbf3b85ea	0.18149325215840345
11	0xbfa61e35a803f4f5	-0.04319923091859749
12	0x3fbf8b083b07f335	0.12321521226108419
13	0xbfab24190962db8b	-0.053009779353877816
14	0x3fae7acbbd96513d	0.05953060807510944
15	0x3fc0a8c043e99951	0.1301498729328139
16	0xbfb5e907321cb767	-0.08558697675172554
17	0xbfc378ee2dd6d73f	-0.15212800253146416
18	0xbfa25c6b4f8915e9	-0.035861352404520215
19	0xbfa9a76edd1f9deb	-0.05010553788434521
20	0xbfc81ad854cca622	-0.18831924572559539
21	0x3fd258048f8b1db6	0.28662218110954585
22	0x3fd3bed5265e19a7	0.308522498577441
23	0xbfbafb5ae3f2c3f6	-0.1053978735460673
24	0x3fc3b0648067b764	0.15382057447225883
25	0x3fac12fcdeca913b	0.05483236522312259
26	0xbfd1cef0344b2654	-0.27825551134865134
27	0x3f8fb947c3488cd5	0.015490112921787627
28	0xbf91ea5e75cd4468	-0.01749560922627716
29	0xbfb08b839127052c	-0.06462881368408507
30	0xbfb0131d8825cc5a	-0.06279167722623083
31	0xbfcec422d3edd0d0	-0.24036059711546054
32	0xbfd14d47f988d0af	-0.270341867147418
33	0xbfbaf211b5f54a57	-0.105256182597523
34	0x3fb91b7f9a963d76	0.09807584308713566
35	0x3fc1f55274894ecf	0.140299136068839
36	0x3f958be63dec2334	0.02104148629135523
37	0xbfc7ea852ddebe65	-0.18684448947668666
38	0x3fb0fc9833b7fff1	0.0663542867914655
39	0x3fb3f7236fe5f99e	0.07798978311436719
40	0x3fcf2ee1eddbafef	0.24361824144523278
41	0x3fcaf4e44b883dbf	0.21059850395293542
42	0x3fd2e01a2c7911bd	0.29492811530169744
43	0x3fc79eaa9e311341	0.18452961658672432
44	0xbfbb372ae7c8bbdd	-0.10631054075996312
45	0xbfc3d6a33f430bf7	-0.15498772229156518
46	0x3fbb5414803ea31c	0.10675171023343605
47	0x3fc368aa8b738e5e	0.15163165864133793
48	0xbfc64dafe9ab1c9d	-0.17424582395162683
49	0xbfa8286df8c7ce90	-0.04718345319625172
50	0x3f83b2ead00ca7f5	0.00961860129753587
51	0x3fb602f48baa695a	0.08598259362989805
52	0xbfa724578593accf	-0.04519914155556536
53	0x3fc7750583d3aedc	0.1832587140737506
54	0xbfa0ad28012cd376	-0.03257107748360159
55	0x3fd86c19cb218e97	0.3815979465200398
56	0x3fd447a3aa3e7b83	0.31687251687429113
57	0xbfc58a5b5baec58e	-0.16828481651968413
58	0x3fd33bd3ef56cd34	0.30052660344081805
59	0xbfcc4d0ab0fcf0af	-0.22110112802500256
60	0x3faaaf71b47d1cda	0.05211978271705116
61	0xbfcf7df42852ef42	-0.24603130310958404
62	0x3fbb862cd107e95d	0.10751609900754518
63	0x3fb65ae507fb1d2b	0.08732444233747987
64	0x3fc31b3dd0155444	0.14926884327238288
65	0x3fd4a147a49943d1	0.32234374116984293
66	0x3fc6695a8b35351c	0.1750901393628873
67	0x3fd3f929f36b780c	0.3120827557703485
68	0xbfaed2cee4cbf028	-0.06020208876540806
69	0x3fd12ee84e7effea	0.26848800340303447
70	0x3fcafa08c4e44894	0.210755439890424
71	0xbf9dbc207b66277a	-0.029037959605865173
72	0xbfc4b07af1af7c5f	-0.1616357498269023
73	0x3f9d555f5c51b32d	0.028645982751572752
74	0x3fb0cc80a35eba28	0.06562046040083003
75	0x3fce51610ee1e2b2	0.23685849405935283
76	0xbfc1533d48b5173a	-0.1353527646080524
77	0x3fafb9713ad18ff8	0.06196168749809766
78	0x3fcab7134e625683	0.20871201827383254
79	0xbfb4bed079461f1b	-0.0810365959242713
80	0x3fcbde849b69fe00	0.2177282103402689
81	0xbfa6480f4199d848	-0.04351852107804227
82	0xbf69579a83ca2473	-0.003093530451512333
83	0x3fc32785a6766cce	0.1496436178975728
84	0x3fc2ebfba99d31c0	0.14782663137374463
85	0x3fbeaab6bd1b62d3	0.11979238621587322
86	0x3fcc521b4ff0d1d3	0.22125569728235792
87	0x3fa88f7fa5ebe003	0.04796980762870364
88	0xbf5b12e729a0cdb5	-0.0016524560401308512
89	0x3fc125b4562e250f	0.13396314819355168
90	0xbfc210f8faad6e4d	-0.14114296188459932
91	0xbfa7c54610b41fbe	-0.046426953829779447
92	0xbfb6f98752fc83e8	-0.08974500442538125
93	0x3fc559f644d400e1	0.16680792198895403
94	0xbfc8dc0d464bf37e	-0.1942154496427086
95	0x3f8bad0dbda2daa5	0.013513667440162644
96	0x3faca9bd20f82927	0.05598250415285327
97	0x3fceae388ff573d3	0.2396918013500043
98	0x3fc0b3dd8d0a0768	0.13048905741384975
99	0xbfc00728eb6cc87f	-0.12521850104673501
100	0x3fc6741ea28c802e	0.17541869103388436
101	0xbfd05785fde0abe7	-0.255342004706732
102	0xbfba663f02992bf2	-0.10312265218196595
103	0x3fcaf19ab08d233e	0.2104981767718303
104	0xbfda556bad334b9b	-0.4114636603746306
105	0xbfb6611ff67272fa	-0.08741950766347975
106	0x3fa6872110219a86	0.043999703616283845
107	0x3fcab283434a87c8	0.2085727766580574
108	0x3fc4d2dd4f5d3f18	0.16268507361609674
109	0xbfa8699f16bda9e4	-0.04768082764242701
110	0x3fc1d359fa039c6a	0.1392624350330352
111	0x3fca1f6168ebce05	0.20408265708066167
112	0xbfccc88bd6052520	-0.22487018537712178
113	0xbfd7c51e8eaad081	-0.37140621120784806
114	0xbfb158c0ca2d8873	-0.06776051460249892
115	0xbf9d34b8f2b4264e	-0.028521432698687392
116	0xbfc7530555bf8610	-0.18222109496041172
117	0x3fbce6d1ec233254	0.11289703383517607
118	0x3fae7567f0778c7f	0.05948948679340393
119	0x3fce2820fa08f559	0.23559963425388267
120	0xbfc94581a1f547e9	-0.19743366630660766
121	0xbfb8c30ccb92d7e0	-0.09672622652109863
122	0x3fd0809ca24279bb	0.2578498444144334
123	0x3f956663054e60a5	0.02089838714491123
124	0xbfa7cafcca630426	-0.046470546441476565
125	0x3fc447a710a14c78	0.15843666374221121
126	0xbfb549c80e5ae2d3	-0.08315706587280695
127	0x3fc9fb6e1d8a5c3a	0.20298553888707876
128	0xbfc769e0f62aa820	-0.1829186632142532
129	0xbfbc0291a60ee51f	-0.1094141989150512
130	0x3f9aed72c805ec86	0.02629641862720835
131	0xbf901ece25afcc77	-0.01574251275083013
132	0x3fc1f0abb73afa30	0.14015718886180784
133	0x3fc30e16a05371eb	0.14886744335571164
134	0x3fc22530fb5aa02b	0.14175998948235366
135	0xbf949122d0bf4b7e	-0.02008489989368511
136	0xbfc27213a3100286	-0.14410634481466306
137	0x3fd21c87e3eb2979	0.28299138314891753
138	0x3fc3297c85f153fb	0.14970356502695367
139	0x3fc92d3c5b18fcc8	0.19669298599362706
140	0x3fd84599d7d9e39c	0.379248104850882
141	0xbf9dcb04957149a2	-0.02909476434826675
142	0x3fc1269537e1ddad	0.13398995617511159
143	0x3fcad2e435dbd37a	0.20956089620417712
144	0xbfce148c5e94cbdb	-0.23500208490585703
145	0xbf7e7893846fb374	-0.0074392092128449
146	0xbfa1a8d3c8dd0a55	-0.03449117495485569
147	0xbf9c93c96b2e3fa8	-0.027907511870182283
148	0x3fb32a07b34f86cc	0.07486007812215262
149	0x3fd19e2a06fb1c78	0.27527857476929496
150	0xbfb9267b64201d12	-0.09824343866795385
151	0xbfc1c8a3f73fa15c	-0.1389355618732776
152	0x3fd54db9ef4275c0	0.33286903729625905
153	0x3fb17526e1db6fee	0.06819384588328578
154	0xbfd22a7e9b87cd70	-0.28384366215251244
155	0x3fd0ba6a0a7d3c15	0.2613778212007117
156	0xbfc35bbaa9451dd5	-0.15123685135971124
157	0xbfd400ab9eafa887	-0.31254091736503437
158	0xbfc407092d08f4dd	-0.15646471690153066
159	0xbf9d2c23b46dee33	-0.028488691222703543
160	0x3fceb933d98622a2	0.2400269329193821
161	0x3fbf330291e32d55	0.12187210141853673
162	0x3fcb3abe7ee5686b	0.21273022838687736
163	0x3fa30d45aa0f2c3b	0.03721063328665549
164	0xbfc4efb217908db7	-0.16356493139856607
165	0x3fac996a7b8a6ad9	0.055857970791483864
166	0xbf8b67e07d7d4a60	-0.01338172324145609
167	0x3fd069b1ca3110ed	0.25645107980041254
168	0xbfd582a60879a4ca	-0.3360991556897487
169	0x3fd3405b1fa78e51	0.30080297557126295
170	0x3fd111e06dd00af8	0.26671610568898485
171	0x3f88ea41419e6071	0.012165555777571254
172	0x3fd0fe920413daa6	0.2655377425975679
173	0x3fc70c56a1be40b9	0.1800640382539365
174	0xbfb2e756585470fc	-0.07384242683878378
175	0xbfa7cd2f9d9c9e8c	-0.04648731993648622
176	0x3fcb2d2bc4356192	0.2123160083817877
177	0x3fb5655e24ca3f16	0.08357799909776661
178	0x3fb015be80d08f68	0.06283178944482659
179	0x3fa208e014b31ace	0.03522396328621867
180	0xbfb1e55f2574cf1f	-0.0699061838575372
181	0x3fba252284fb3ec9	0.10212913271538605
182	0xbfb008c7b168d127	-0.06263397294316474
183	0x3fc40c92ea087aad	0.15663372447393922
184	0xbfbe79417fc7fd2d	-0.11903771752985355
185	0x3fcd19396bce1107	0.22733228458321994
186	0x3fcda42fed9ee86f	0.23157309629988584
187	0x3fcc035896c7c378	0.21885211336441635
188	0xbfc4c039da1220e2	-0.16211627147664048
189	0x3fca52ff389d9d2e	0.2056578661388157
190	0xbfb63723ed7463a4	-0.08677887484772256
191	0x3fd4efc685e2c0db	0.3271347339132384
192	0x3fc4d0747b9127c9	0.16261154206796238
193	0x3fc5de8fd0f530ee	0.1708545465757036
194	0xbfca75c5c5a37e4b	-0.20671913290333274
195	0xbf8bce9ae6a1df02	-0.013577661670054923
196	0xbfb1866b3e41248d	-0.06845731992611288
197	0x3fbe277564c8a72c	0.11778958998243344
198	0x3fcdf2de85e97368	0.23397428072612603
199	0x3fc18cdce8a3c17e	0.13711129531248994
200	0x3fa84fd67c8eac49	0.04748411436533979
201	0x3fa236ba01cb8bff	0.03557378074562933
202	0x3fc68a9d3266da0e	0.17610516510986013
203	0x3fd2353aebd606a6	0.28449891119826487
204	0xbfc080212d0c106d	-0.1289102048832577
205	0xbfcf85cfa3cce18d	-0.24627109048902832
206	0x3fc00d724be5ab2d	0.1254103537169952
207	0xbfb2c0908414b379	-0.07325080132132013
208	0xbfcca92bf631ac0a	-0.22391271134560525
209	0x3fcdbf95855f480e	0.23240918171228525
210	0xbfca64e2bd38bf40	-0.2062037872251441
211	0x3fc5a26a3a1c925e	0.16901901090126875
212	0xbfa516a96d92dbf8	-0.041188521028224956
213	0x3f8431bda5219338	0.0098604980486897
214	0xbfaed02e1bfd2cc3	-0.060182038227674116
215	0x3fd106ba2a3d1524	0.26603559613097816
216	0x3fab8164126a07e6	0.05372154927046306
217	0x3fc96f4654e59454	0.1987083353552942
218	0xbfba95f5c17722da	-0.10385070775295038
219	0x3f98db9ae94590c3	0.024275227058198078
220	0xbfb17c1240127277	-0.06829942764529472
221	0xbfc2b32eebcc65a6	-0.14609323991389295
222	0x3fd3e80e87113cfd	0.31103861990136733
223	0x3f9ef832a787b783	0.030243674731472502
224	0xbf9e5b0ea7b2ee70	-0.02964423082879225
225	0x3f79cd8f7bd19b4a	0.00629955337817629
226	0x3fb0f68c588fb847	0.06626202737945262
227	0x3facf6192774e5df	0.05656508070610377
228	0x3fcf8b5d27106ed3	0.2464405480139847
229	0xbfd0301c864c0093	-0.2529364882939344
230	0x3fc4c6192c9e3e20	0.16229548147792716
231	0xbfa9620f026c5536	-0.04957625298099304
232	0x3fc55a46bcd78c01	0.16681751461791808
233	0xbfb26aa89ce73270	-0.07193998175280014
234	0xbf93d00f1a527f08	-0.01934836958082456
235	0xbfc4d646bd61bc44	-0.16278919455678154
236	0xbfceaa6eceb785dc	-0.23957619756315196
237	0x3fb7b5d7c0fda46f	0.09261845075310914
238	0xbfd128411cb55be7	-0.26808193019445387
239	0x3fb889b8ea8e26a4	0.09585147596785731
240	0x3fb053714054e19d	0.06377322979540741
241	0xbfb8250d954399e2	-0.09431538480894333
242	0xbfac059af278f4b8	-0.05473026475781623
243	0xbfc454e01a765ff1	-0.1588401917658753
244	0x3fcc9549f849d3c3	0.22330593703705234
245	0xbf6db1d4c89b55ff	-0.0036248355798800254
246	0xbfc5c89a548becbc	-0.17018441322566058
247	0xbf8c3688c9bf7fc6	-0.013775890976773907
248	0x3fb016fb69f46f77	0.06285067879474392
249	0x3fb2eda43805b934	0.07393862121327716
250	0x3fd05657b9c3913c	0.2552699388600279
251	0x3fc3055f01fe8ec9	0.14860141370183147
252	0x3fbea7f90287ab21	0.11975055991903762
253	0xbf993955f20175a2	-0.024632780929427896
254	0x3fb649240175578c	0.08705353770832697
255	0x3fb9e8c0f67b9101	0.10120779054301822

model.2.bias f8 [20]
0	0xbfc4b29607cd1349	-0.16170001393234149
1	0xbfa11a5fb79d3025	-0.03340434185392408
2	0x3fd1b27316ca124f	0.2765166971733252
3	0x3fc3bb5be3da4366	0.15415524125685492
4	0x3fc409b8459d1b5c	0.1565466251288069
5	0xbfb49cdc847c1ec9	-0.08051851496213226
6	0x3fcde75903d88c04	0.23362267196452546
7	0xbf8c32360a3388b2	-0.013767645059889897
8	0x3fcf21eba0af8ef6	0.24322266908631435
9	0x3fc09b672b62958e	0.1297425233689577
10	0xbf9145d52af7a4fd	-0.01686795305969201
11	0x3fc1999fca544ca5	0.1375007379470833
12	0x3fcca6ee7dbd8764	0.223844348332075
13	0xbfcf83c864bd2055	-0.24620919150243262
14	0x3fc8d2e553126ea5	0.19393602901697196
15	0x3fd340bc6e389d71	0.3008261753443185
16	0xbfa326a8ad825e5d	-0.03740431898148409
17	0x3f90aad0fe04e38b	0.016276612762542036
18	0xbfaa490b3fcd6e45	-0.051338531053911875
19	0xbfb491852e51ad63	-0.0803454626163123

model.4.weight f8 [20, 20]
0	0xbfba4c530dbd9d9f	-0.1027271183535192
1	0xbf8e0e8e6484fb17	-0.014676201288805353
2	0xbfa3cdd80a0d0c87	-0.03867983935062918
3	0xbfb60cd1a8f5bf20	-0.0861331021785614
4	0xbfb472f024ac1fe3	-0.07987881560632064
5	0x3fc92a228df27f6d	0.1965983574964371
6	0x3fcada50717ea1ac	0.20978742162448094
7	0x3fc3275e003bee82	0.14963889132910785
8	0x3fbeddf0a4b37b81	0.12057403584502248
9	0xbfc12a566720dfa7	-0.13410453830306077
10	0xbfb77aab203624cd	-0.09171552215970565
11	0x3fc01e76da70356d	0.12592969575818405
12	0xbf6e70010994b3fd	-0.0037155170690739135
13	0xbfc1fcbee0792b8b	-0.14052568398105011
14	0xbfad930a062d4f4d	-0.057762444738414055
15	0x3fd0f2db4d4f8caf	0.26482279348256105
16	0xbfa27f4e40c8c8fc	-0.03612751522850208
17	0x3fd03fe7428188d8	0.2539003514740563
18	0x3fc7e73df25139ee	0.18674444515131888
19	0xbfb03529163cf418	-0.06331116478845933
20	0x3fd2c3f8a0fcad50	0.2932111332072127
21	0xbfd8b0f77edd73e1	-0.38580119504132254
22	0x3fc65b051a675125	0.1746527079509487
23	0xbfc5858e67ae5f63	-0.16813831389003572
24	0xbfacc6b8adcf9a83	-0.05620362397876468
25	0xbfb583161b960442	-0.08403146909223927
26	0xbfc754d8da5f6562	-0.18227682745672796
27	0x3faa306a59c01f8c	0.05115063043200427
28	0xbfa0a8afc51325b1	-0.0325369766301934
29	0x3fbbaccd0dbe2971	0.10810548387067855
30	0x3fd1fadf6643a249	0.28093705164659305
31	0xbfa0689085138916	-0.032047764057795344
32	0xbfca846e61be03da	-0.2071664788491308
33	0x3fd13d9c49f5cada	0.2693854067103253
34	0x3fc343bf12aeea57	0.1505049554087516
35	0xbfe434826e2fbb08	-0.6314098503188186
36	0xbfb0ccf69bd58b5e	-0.06562749199433202
37	0xbf929db01bc027c6	-0.01817965669037116
38	0x3fcfe4e3a4034352	0.24917264469561445
39	0x3fd4cc8d7abdd9e9	0.3249849032066821
40	0x3fac075cbf8c36f7	0.05474366987446715
41	0xbfbb94b8628b10a2	-0.1077380409797706
42	0xbfca2999ac053b9b	-0.20439453982768616
43	0xbfc6b14f712e290e	-0.1772860815656902
44	0x3fc34e45cb644535	0.150826191246361
45	0xbfcba3e862a2d825	-0.21593956772056902
46	0xbfbc7b2dac9cf8fb	-0.11125455345333883
47	0xbfbab0de72431ce8	-0.10426130570987235
48	0xbfaf4775c1328eb2	-0.06109207137458607
49	0xbfc3ceb01a662e0c	-0.1547451142217685
50	0xbfa69d05af88b44a	-0.044166734387865406
51	0x3fc905bc9c3d1d0a	0.19548757199138606
52	0xbfc96f6876d1a990	-0.19871240426739378
53	0x3fa9fc9436e26c96	0.050755149554981546
54	0x3fa6b53caef6dc20	0.04435147891802438
55	0x3fb539f6523eab38	0.08291568286828699
56	0x3fb2c97c7b498982	0.07338693628256546
57	0xbf7d6394595257e1	-0.00717504452508952
58	0xbfc3cb3b574f5ec9	-0.15463964236436414
59	0x3fb78dd46d792bf7	0.0920079009312501
60	0x3fa994e674530089	0.04996414346669648
61	0xbfcb95d32dea55d0	-0.2155097936817314
62	0xbfb6484b7efd2aab	-0.087040632727773
63	0xbfb4d3a435ae573d	-0.08135439215251679
64	0x3fc85f274bd5394c	0.1904038543966159
65	0x3fbcf32bf917d02f	0.1130855067384011
66	0xbfbeb3d184707721	-0.11993131144887716
67	0x3fc830fbcbcfbe7e	0.1889948601888029
68	0x3fc0e8fc1310bb0b	0.1321101277439641
69	0x3fa93b6b3caac292	0.04928145518841122
70	0x3fcb060ce97aa1ff	0.2111221447023723
71	0xbfb5ef839129015d	-0.08568594259214053
72	0xbfc7f1edca243cd0	-0.1870705830592443
73	0x3fcf06b955a5a4a8	0.24239269906982952
74	0x3fc49c2b292c6cc3	0.1610158873598718
75	0xbfd486e7189b1e12	-0.3207338085453283
76	0x3fc55370b2128bba	0.16660889334624845
77	0xbfd1cdfdf255381d	-0.27819775262185137
78	0x3faa493a480eb1da	0.0513399327240653
79	0x3fbcdc728554fb6b	0.11273875956702077
80	0x3fc3e5078bcd71ba	0.1554269249562717
81	0xbfdb9f36269f2b70	-0.43159250041633523
82	0x3fb2c9a62eefb875	0.07338942190082938
83	0xbfa2704f85913919	-0.03601311212024622
84	0xbfa62ee1e5b2364e	-0.04332643441112492
85	0xbfc7277849a64e27	-0.18089202495740261
86	0x3fb403be8b7c3a86	0.07818213372613955
87	0x3fc755c020aedc63	0.18230439754345004
88	0x3fd002636c140d2b	0.2501457744076158
89	0x3fd1c6e1fa4e0144	0.27776383823222184
90	0xbfb2a6219a20f7be	-0.0728474618235557
91	0xbfd2a95ec76e0450	-0.29158753848611685
92	0xbfc76a39eaaf2ad0	-0.18292926749412297
93	0x3f713bddcee38922	0.0042074837094523716
94	0x3fce45e4d7213818	0.23650799278624457
95	0xbfd91711901b7474	-0.3920329959199258
96	0x3fd142a73be24a4d	0.26969319198648095
97	0xbfcf6c7a4dd228b1	-0.24549797820902122
98	0xbf89c4bdfb4cdc3e	-0.01258228705556352
99	0xbfa3cedb35544ad2	-0.03868756319038415
100	0x3fc74ca11a9010c6	0.1820260410023648
101	0xbfa7d190f605e318	-0.046520738632301384
102	0xbf6ea6c40969d7f1	-0.0037416294902028403
103	0x3fcf074bffadc01e	0.2424101828032698
104	0x3f8cbeb5cfcf9bde	0.014035625843417717
105	0x3fa19c9163977b84	0.034397643477624334
106	0x3fcc714e64a71e27	0.22220783152282417
107	0x3fce0cbd259e397f	0.2347637590105016
108	0x3fc278a50f094593	0.14430678590956045
109	0x3fb320f4d6002903	0.07472162460922864
110	0xbf98857278883e22	-0.023946560484601538
111	0x3f9da7ff5d31cb6c	0.028961172164098256
112	0xbfb7525349c792f7	-0.09109993506678991
113	0x3fd261ab1c2f86c3	0.28721120598320854
114	0xbf90d00f3e81f7e6	-0.016418684187094267
115	0xbfa61a851ff610c5	-0.04317108168746268
116	0x3fc38186bcf0a335	0.15239032960496393
117	0xbfcf5a86da0ad32a	-0.24495015760990074
118	0xbfccad7ddf65470a	-0.2240445462035086
119	0x3fa1b8475bf68bcb	0.03460906026454998
120	0xbfc705be6efd69eb	-0.17986278933933816
121	0x3fdd76a7f0f835a2	0.4603671887606088
122	0x3fbdf0d74ee0b85e	0.11695619273879873
123	0x3faf2a1a7b061fac	0.06086809875256391
124	0x3fc756eafa8585bc	0.18234002335070254
125	0xbfb0bcac2ca97269	-0.06537891474131076
126	0x3fc43b7d54e364aa	0.15806547779974284
127	0xbfce20e956cc46c8	-0.2353793786829128
128	0xbfa689c7f1b4ad51	-0.04401993585119136
129	0xbfaded5fc81acdf3	-0.05845164601978672
130	0xbfcacccca276fd79	-0.20937498028613868
131	0x3fd5bb6e7b7ee43a	0.3395649152767565
132	0x3f9b40c6bbea324e	0.026614289492999092
133	0xbfb94ecc2dcd76f8	-0.09885860555865722
134	0xbfc87bd22268d15a	-0.19127871208332686
135	0x3fd47e41d35b0dac	0.3202061237354552
136	0x3fa85f3138c219b7	0.047601259401790434
137	0xbf5629b790065341	-0.0013527195552331536
138	0x3fd4524fcbc75d7a	0.31752390766401783
139	0x3fa6521247b8547f	0.043594905142676936
140	0x3fa0440e16badf7c	0.0317692187067555
141	0xbfc441e49c6ceb9a	-0.1582608951374283
142	0xbfa93540ba5ba1d8	-0.049234411953708423
143	0x3fc797515ce53722	0.18430535350710736
144	0x3fc9faa87084dc05	0.20296197408762864
145	0xbfcc91fcac78ba13	-0.22320516988243408
146	0x3fb3939f210ba317	0.07647127682470188
147	0x3fc314c97bd6eca8	0.14907187029698332
148	0x3fb0f110c127711c	0.06617836681056527
149	0x3fc45060b29aa577	0.15870293351080608
150	0x3fcdbd847bb1f604	0.2323461154918932
151	0xbfdcaf8d760b5baf	-0.4482148793007878
152	0xbfd117c73b77c7ef	-0.2670763092747838
153	0x3fd718b83f766907	0.3608837718726509
154	0x3fb79d88ac8ed76a	0.09224752629128621
155	0x3fb4cc9e12ba487a	0.0812472148629996
156	0xbf876a438379ac01	-0.011433150720412401
157	0xbfcd79a34a0d4b8a	-0.23027459255044064
158	0x3fc38ee0d9f8818b	0.15279780047513855
159	0x3fc1faa1c9ecfa21	0.1404611812558452
160	0x3fd57831cd1b14fb	0.33546109228002735
161	0xbfc8fc65f79fa249	-0.19520258513445501
162	0x3fd06827ea4c668d	0.25635717278201114
163	0x3fcc84e9cb345e3e	0.22280619070146374
164	0x3fa6f8bd3a1cfeee	0.04486647924795571
165	0xbfca7006e632f846	-0.20654379120054694
166	0xbfb9190a54496fc7	-0.09803833539757455
167	0x3fd494313aa9166f	0.3215449402672225
168	0x3fd2e369961df722	0.2951301542269552
169	0x3fab635cd73ac8f6	0.053492451928279935
170	0x3faa512347c89493	0.05140028239501606
171	0xbfcf1c7630c8e5bd	-0.24305608160083905
172	0xbfcbb7b6bb498cb1	-0.21654400010001987
173	0x3fd3aa49705a45ed	0.30726848575531457
174	0x3fc9d0dd7b91110f	0.20168655904320373
175	0xbfc91ff910ba4ccc	-0.19628823582443145
176	0xbf8f2d7429d40113	-0.015223414923184941
177	0xbfce8b510667c280	-0.23862660229453425
178	0x3fb80dfdfd5e95d7	0.09396350322511836
179	0xbfc3573d14fdf33a	-0.1510998108386959
180	0xbf853809bd28f4ab	-0.010360790333942957
181	0xbfd2b7008d0c7acf	-0.292419564955634
182	0x3fb380013d39b330	0.07617194885979184
183	0x3fb97c7d17c5dae7	0.09955579595939988
184	0x3fd3960d6de7881f	0.30603347523549645
185	0x3fb145f95dccbd5e	0.06747396984132112
186	0xbfc6a4a608924a5c	-0.17689967554595654
187	0xbfab2d847c7b2633	-0.05308164615196311
188	0xbfba70656a440f59	-0.10327752918607071
189	0xbfa33b8bf1968840	-0.03756367992470233
190	0x3fc8d7d4b402015d	0.19408663548893915
191	0xbfcc043e30b99a51	-0.21887948397780346
192	0xbfc9a47e6b2be6b7	-0.200332453088597
193	0x3fb2da16990a36ff	0.07364026295018887
194	0x3fd34aa5db299962	0.30143114473903243
195	0xbfd508dcf9acad22	-0.32866596586491614
196	0xbf81f9994565fabe	-0.008776853018159666
197	0x3f8f2ce225316d74	0.015222327003519644
198	0x3fd37344b156952c	0.30391042059121065
199	0x3fa6a3ed7a6c7c83	0.04421941871100279
200	0x3fb6af26c4c1d517	0.08861009887353465
201	0xbfd270fa01194d1e	-0.28814554316814334
202	0xbf6aec5fcdb390b5	-0.003286540142299977
203	0x3f7365870155a0a1	0.004735495914566596
204	0x3fcb9a45429543fd	0.21564546347738647
205	0xbfcb3d5090f68aa8	-0.21280867651247104
206	0xbfb264c23084e12e	-0.07184995350406062
207	0xbfc4000a210d4874	-0.15625120748387966
208	0x3fd1ed307502045b	0.28010188509512596
209	0xbf90e4d6efc7bb1c	-0.01649795378210249
210	0x3fd282cbf0220450	0.2892331929252281
211	0xbfbaef82862f1494	-0.10521713043188391
212	0xbf9821a9f3f183a7	-0.023565917505382974
213	0x3fd52b54b80a7bc2	0.33076971028088675
214	0x3fb1912de0ad383c	0.06862150893468394
215	0xbfb1292a4a340d00	-0.0670343810234506
216	0x3f98cc7664c0a283	0.02421746244377455
217	0x3fa506872c472db5	0.04106542983535225
218	0x3f83d3cf9ac084db	0.009681341085583764
219	0xbfc675c56b2c4fb5	-0.17546909077702613
220	0x3fc68ba9cae4aeaa	0.17613718420885977
221	0xbfcae2eb54b10b17	-0.2100500262768825
222	0x3fd42146508332df	0.3145309244398912
223	0xbfc2eb8c173db567	-0.147813330982369
224	0x3fb788260282dcac	0.09192121087368105
225	0xbfd26e47a1b74873	-0.2879809455163304
226	0x3f855bacfe46eeef	0.010428763875885731
227	0x3fd644589492961a	0.34792150982897996
228	0x3f93a1163ecf645d	0.019169185241342358
229	0xbfbf8982a5ddd823	-0.1231919913242057
230	0x3fca5b605cfde35c	0.2059135870038301
231	0xbfb28921f6f37708	-0.07240497855260852
232	0xbfb5413f5845cc5e	-0.08302684693426118
233	0x3fce22c3c526c093	0.23543593527347592
234	0x3f9aa4211f93908a	0.026016728927871692
235	0xbfd7490689d6d8b0	-0.3638321252905241
236	0x3fbb649b691657f7	0.10700389209372917
237	0xbfcc848d21b86769	-0.22279514452457796
238	0x3fc6a746e7702fa6	0.1769798879689663
239	0xbfba8a126e6ab502	-0.10366931148265127
240	0xbf8173d1dec9cde4	-0.008521689998111044
241	0xbfd0e15b9e6b70d3	-0.2637547537867821
242	0x3fc70217703b3261	0.17975132923165218
243	0x3fd0358f3e3c716c	0.2532690150999517
244	0x3fd30e5a43cd5537	0.29775101300522827
245	0xbfd04e78da8a5c04	-0.25478955594866215
246	0xbfb9c2882a71f372	-0.10062457119233928
247	0x3fc3b2462abf7af7	0.15387799346259332
248	0xbf9c3468f1a62307	-0.02754367804439808
249	0x3fceb6ab038ef054	0.23994958566425117
250	0x3fbf20f28b45011e	0.12159648800025422
251	0xbfb8728ef93f515b	-0.09549802384510057
252	0x3fc1e16f5d2108fa	0.1396922306758553
253	0x3fd64aa9e857187a	0.34830711068605746
254	0xbf93bb5b5956e604	-0.019269397094580767
255	0x3fb917c3ed2496e8	0.09801888026830918

model.4.bias f8 [20]
0	0x3fd19e1dd931118c	0.27527567110180295
1	0x3fb30d4728c3a3e0	0.07442135567875097
2	0xbfc36f2ed51e3e7d	-0.15183053404006222
3	0xbfc633c07b011bf0	-0.1734543419463246
4	0xbf79e785cf495ddd	-0.006324312872116403
5	0xbfa85b3f725f49a6	-0.04757116576333269
6	0x3fce76e55c507784	0.23800341613326392
7	0xbfc4f0d9150e9346	-0.16360009697123185
8	0x3fd2a28956a434ac	0.29117043934895537
9	0x3fc96bfe92fe1ada	0.19860822846768295
10	0x3fc9ebed4a0e226e	0.20251241794564429
11	0x3fc14010e55b9173	0.13476763915162912
12	0xbfa53eba837b9560	-0.04149420599950804
13	0xbfc6075a58e610d6	-0.17209939327961504
14	0x3fc00d2132a8a8fe	0.12540068601203552
15	0x3fca5c607a23321c	0.2059441181539946
16	0xbfc99b9158dbb005	-0.20006005133416252
17	0xbfc329048db90ec3	-0.14968926353514264
18	0xbf922772e642ffa7	-0.01772861032873121
19	0x3fcac17a21d0d25d	0.2090294518581172

model.6.weight f8 [20, 20]
0	0x3fb592458bf17627	0.08426317850668195
1	0xbfaf71b00f14ead3	-0.06141424354651339
2	0xbf9cc45804513509	-0.028092742217542575
3	0x3fa126b93625ef67	0.03349856172550752
4	0xbfc3b1fbfec8798a	-0.1538691515024307
5	0x3fbc056ac9a6204e	0.10945765898770896
6	0xbf96e18347f24b0c	-0.02234463812471703
7	0x3fc922f0e13cae08	0.19637881276990776
8	0xbfc1843a37573a9c	-0.13684776022133327
9	0x3fbdfa1bb40999f2	0.11709759850928217
10	0xbfc8512aad359390	-0.18997701127514377
11	0x3fa359e261ed914b	0.0377951378384603
12	0xbf8c3a91ca4f4895	-0.013783587442876924
13	0x3fc2a6db2ad5cc70	0.14571704474983305
14	0xbfb16b4203a0eec6	-0.06804287518110205
15	0xbfc9eca2afeeb6a9	-0.20253404226734986
16	0xbfc8767fa01d4e41	-0.19111628835763564
17	0xbfb76e581385d927	-0.09152746655113174
18	0xbfc26bcadc342b8a	-0.14391456367624428
19	0x3fa724651400e420	0.045199545566397825
20	0xbfd2e0b2e8437ad1	-0.2949645298194073
21	0x3fd49db0fc558937	0.3221247162056388
22	0xbfa3fae0614bc67c	-0.03902341067977219
23	0x3fd256ff8faa74e8	0.2865599539744168
24	0x3fc1de2cf66b3167	0.1395927623001498
25	0x3fd3446dc0ee68b7	0.30105155793138344
26	0x3fbeed1abd18ef77	0.12080542675624693
27	0xbf58a62f8a5a9d45	-0.0015044655096206488
28	0xbfb97116e7cd2639	-0.09938185843670845
29	0x3f9431944879ab4f	0.019720379756488268
30	0x3f9a9fd0a5bdebcf	0.02600027095420981
31	0x3fd337de3188534a	0.30028490864906543
32	0x3fd005e3d72ba1f8	0.2503594971917944
33	0x3fbe0c20eae9efda	0.11737256751251782
34	0xbfc1ec955280dafc	-0.14003244904025525
35	0x3fd081eb72ab805a	0.25792967031703073
36	0x3fda2431cf580269	0.4084591412393253
37	0xbfd5b1094589a569	-0.3389304331854733
38	0x3fceaf89988abdf9	0.2397319788774295
39	0x3fbcf9bfa74317db	0.11318586190745299
40	0x3f824fe1c2029555	0.008941425069063294
41	0x3fc51cd4b39ecf45	0.16494234819912826
42	0xbfbfd12134ec6c31	-0.12428481618955868
43	0xbfa6582479be0c76	-0.04364122377503403
44	0xbfba65b0e53c1d4f	-0.10311418148568417
45	0x3f9f967f178d81b8	0.03084753590826647
46	0xbfbca30a600cd5ff	-0.11186280102705125
47	0x3fd3519a544e8ede	0.3018556426343205
48	0x3fc7cae2c7935581	0.18587908501528363
49	0xbfaa6c5e6b1b0f6f	-0.05160803849642447
50	0x3fc51c26c2a2f81c	0.16492161277523187
51	0xbfb7db2077a78a0e	-0.09318736001254299
52	0xbf9ec82ac3b3da37	-0.03006045169328272
53	0x3f9898c7aed06734	0.024020309490970962
54	0x3f9ea1ca53e621f2	0.029914056177888733
55	0x3fc8eb6166cbc144	0.19468324202854081
56	0x3fd98a99f707e34a	0.3990845596704743
57	0xbfb9d202bcb77a9c	-0.10086075885144868
58	0x3fd082bf25441d51	0.25798014296784283
59	0xbfc8bcc630471bdc	-0.19326093060791905
60	0xbfc2974740ff9ebc	-0.14524164842372567
61	0x3fc627b86ac895fb	0.17308716978111235
62	0x3fc3356c9829ece0	0.15006787710067382
63	0x3fb0f091ae90b262	0.06617079269262541
64	0x3fb30fd35e22bf11	0.07446023033366723
65	0x3fb58824c5357ff6	0.08410863699600654
66	0xbfd9ce41820f653a	-0.4032138605230845
67	0x3fc3a04427995b2a	0.1533284371714328
68	0x3fd468b37e6c45ae	0.3188904509161955
69	0x3fb2396102f6e39f	0.07118803331731137
70	0x3fa1b27aa85eae69	0.03456481271072393
71	0x3fc8048191b9e080	0.18763751616984692
72	0x3fce87580c503aaa	0.2385053691982269
73	0xbf90488b16a1aeea	-0.015901730781862
74	0x3fb14960456fa6e8	0.06752587981432223
75	0x3f88baa67986138d	0.012074757178888418
76	0x3fe1c34d41313bac	0.5550905488288342
77	0xbfe243a09f897a73	-0.5707553020436776
78	0x3fc7d4ff92f70899	0.18618769336723487
79	0xbfcc4462c7c2c44e	-0.22083697084375092
80	0x3fcfd0b662ef3679	0.24855689841062992
81	0x3fb2706d0be7a416	0.07202798405309382
82	0xbfb06f7de2373019	-0.06420122883645298
83	0x3fbf78a52eeeb4d3	0.1229346503811997
84	0x3fcdcd791644ae19	0.23283303820913728
85	0x3fd2040e8ba9a00d	0.28149760855603817
86	0xbfb7da0ef8c6737c	-0.09317105840314172
87	0xbfd22a72804240d4	-0.283840775730835
88	0xbfc605b251dfc7c3	-0.17204884526978334
89	0xbfce2015affa7055	-0.23535414784135136
90	0xbfb661fb2a5dff1a	-0.08743257316927747
91	0xbfb4eea86497150b	-0.08176662879767009
92	0x3fb3f4642c1d1610	0.07794786526672959
93	0xbf9bc3286cc0d2ef	-0.0271116558435151
94	0x3fa9c0672a7659fd	0.05029604333246949
95	0x3f8e17095703f9ee	0.014692376106265361
96	0xbfb113e956ed0bb3	-0.06671007511344733
97	0x3fbd98d30e8a2153	0.11561316590280528
98	0x3fca1ab10a472abc	0.20393956186156526
99	0x3fae172074f9613a	0.05877019336611729
100	0xbf43004775deb74d	-0.0005798672607306516
101	0xbfd086289aac145e	-0.25818839173036234
102	0xbfc6b882fe577593	-0.17750585001969607
103	0xbfe436de36c44972	-0.6316977567351343
104	0xbfc43a0ed9a2f832	-0.15802178980624287
105	0xbfcf6f7bb5399f81	-0.2455896983039985
106	0x3fd6dd4101ef212a	0.3572542685401624
107	0xbfc7c431d2f9cb36	-0.18567488481093058
108	0x3fc1466e79f9549f	0.13496190028914598
109	0xbfc05cee24474c03	-0.12783600589190777
110	0x3fb0e8917138465d	0.06604870809703685
111	0xbfd639b1cf7507e6	-0.3472713972042797
112	0xbf9cfbae00060112	-0.028303831817084797
113	0x3fb93cb727e5bce5	0.09858269428308437
114	0x3fd8f36bc1e984fb	0.3898572343515096
115	0xbfb892c9909c9bb8	-0.09598979740677194
116	0xbfb8eeeccb115506	-0.09739570577342613
117	0xbfc268fc49146690	-0.1438289028963493
118	0xbfd41a68ebc530f6	-0.3141119291729092
119	0x3fc7b157ed3fa03a	0.18509959301377582
120	0xbfc0dffb289307c6	-0.13183536034745041
121	0x3fd631de5d81d413	0.346793738666123
122	0xbfc489cb6a72f14b	-0.16045515725807954
123	0x3fcbc41ce88273b1	0.21692239144331674
124	0x3fc80b7ac75aa874	0.18785032972420235
125	0x3fc4326075fc4ee5	0.1577873779393634
126	0xbfd374dcc0561c3f	-0.30400770933960425
127	0xbf8daa5c3bd29757	-0.014485092712060483
128	0x3fd47870dc4a0e13	0.31985112679123623
129	0x3fb3215f16fdaf59	0.07472795783331544
130	0x3f70c81782650e58	0.004097072442451465
131	0x3fd5e2e50eaa80ae	0.34197355682591535
132	0xbf8cadadde68cca4	-0.014003141736884502
133	0x3fd0a084d59921e6	0.2597972951812423
134	0xbfb037167d4ab1a4	-0.06334057387238673
135	0x3fb49fb1a898dc27	0.08056173673763621
136	0x3fd9ef0d8387eef2	0.40521562428305835
137	0xbfe3b94700ced747	-0.6163668647556982
138	0x3fb2f205665542c9	0.07400544880261885
139	0xbfcedfd7ab9f28a9	-0.24120612983671677
140	0xbfbac45156aad88e	-0.10455807081129562
141	0x3fbdfbaafd016858	0.11712139775173236
142	0xbf73e50e9ef60812	-0.004857117760709089
143	0x3fcbf46bc00a30ca	0.21839663388198566
144	0x3fd470a7b4e120ff	0.3193759218597875
145	0x3fcd6166f827e6dc	0.22953497998223937
146	0xbfa8892d5f2b4647	-0.047921579234423244
147	0x3fb517a720954214	0.08239216371044505
148	0x3fc2200eeb70311d	0.141603341064532
149	0x3f92773c7d529b8d	0.01803297533902142
150	0xbf91e6da832e60bd	-0.0174821989599827
151	0x3fa6399d14d70112	0.043408306878975136
152	0x3fb75f8a7d2201a9	0.09130158953667568
153	0x3fc5448a652de136	0.16615419330970277
154	0x3f93fa354a55e196	0.019509155904843554
155	0x3fc29e4b9583a668	0.14545578766346812
156	0x3fc7f84ba76ebdbe	0.18726487803858832
157	0xbfc4a663868d56cf	-0.16132778234412234
158	0x3fc60dffcdf5aec0	0.17230222279191842
159	0xbf7905d0e4ebac05	-0.006109062188197183
160	0xbfc13085d6e48d12	-0.1342932986527577
161	0x3fd335871dccb90d	0.3001420775425608
162	0xbfb69b7bedb50a51	-0.08830999902151261
163	0xbf8e68c376d2d151	-0.014848258079248085
164	0x3fcd553b0322700c	0.22916352894833414
165	0x3fcf1df9bd7f66ee	0.24310228112044946
166	0xbfd5689842e05b9b	-0.3345089581575224
167	0xbf9259b9e77e18a3	-0.017920403246102123
168	0xbf88b3ce680c951f	-0.012061703253105236
169	0xbfa7a3c4031659a2	-0.046171307923191365
170	0xbfb644956511fb8b	-0.08698400228057161
171	0x3f939f6ae56996f3	0.019162817241883578
172	0xbf9e711678e34034	-0.029728270653152047
173	0x3fc83ce121b39048	0.1893578924710957
174	0x3fc0729638597252	0.12849691153941706
175	0xbfa089312e6a875c	-0.03229669276812672
176	0x3fd4eb7884456e4b	0.32687199513540993
177	0xbfe532d6ab0274fd	-0.6624558773070529
178	0x3fd0f92531a6d6eb	0.26520662163544156
179	0xbfd79472d8d8d402	-0.36843558479750993
180	0x3fba5c7e6a5e52bb	0.10297384354482635
181	0x3fb10816652a3a27	0.06652965516898544
182	0xbfc61d5967726496	-0.1727706675635871
183	0x3fcbe6d3979ac3af	0.21798176672521438
184	0x3fcc589422649628	0.22145320586530315
185	0x3fb38b46e493cd5f	0.07634394722463388
186	0xbfc36ebd20e0559e	-0.15181697945869826
187	0x3f9412e416ae184e	0.019603313335686594
188	0x3fce06e32a18eeb9	0.23458518558060407
189	0x3fd437ea54d9ca1a	0.31591280256466947
190	0x3fb4ed6d6675eb20	0.08174785377006488
191	0x3fb08d408a94d025	0.06465533622105164
192	0x3fa43499d5217320	0.03946381308262503
193	0x3fd3ad2b963574bc	0.30744447392300933
194	0x3fabf19e2b89c163	0.054577772917471255
195	0x3fb70d10ccd76ce3	0.09004311562550842
196	0x3fdc2bd8bda0a378	0.4401761867362022
197	0xbfd47d3490eca562	-0.32014192726872726
198	0x3fcae746df34c5bd	0.2101830091356031
199	0xbfc7563679711413	-0.18231850557108994
200	0xbfcd00b987c9abe9	-0.22658461694967905
201	0x3fc290ab0f43ed76	0.14503992314699204
202	0x3f7b61cecfe204b0	0.006685073718586995
203	0x3fcf5782f35fef02	0.24485813983471166
204	0x3fc6d5941f650bcc	0.17839290173478017
205	0x3fcbe07f76949c10	0.21778863229812417
206	0xbfc62769d2e8395d	-0.1730778007335613
207	0x3fce21d1d8e9bb0c	0.23540709582763275
208	0x3fd53f06bf23da77	0.3319718233682702
209	0x3fb9da50a2f07e44	0.10098747232449862
210	0x3fd4b34733ecb503	0.32344226904645285
211	0x3fca3f76343dacf9	0.20506169844461633
212	0x3fd0c0c1382b78ca	0.2617648170979804
213	0x3faadd126bccbe22	0.05246789518275487
214	0x3fd6e0fdefe4eac2	0.3574824183194033
215	0x3fbac0f16d96b16e	0.10450657773498559
216	0x3fc03ea1c821866a	0.12691137573260686
217	0xbfd3174a2d895187	-0.29829649397768104
218	0x3fc362a9f7ec3527	0.15144848447418122
219	0x3fb627ade5a34f7c	0.08654295784373106
220	0xbfc106514964798e	-0.13300529559724023
221	0x3fd2947f0556622f	0.2903134872554202
222	0xbfc590b427f991fc	-0.168478507536875
223	0x3fc614a852bba721	0.17250541724870863
224	0xbfb7f94d8d58c9d7	-0.09364781094408357
225	0x3fd0c4eab517363a	0.2620188492263399
226	0xbfc068fedf278667	-0.12820421119890854
227	0x3f98968702709575	0.024011716388618837
228	0x3fc2d8726c3eec6a	0.14723043713988498
229	0xbfa1e1563a7dbe0f	-0.03492230857852629
230	0x3fbc7852b1fcd475	0.11121098370934297
231	0x3fd2b4cb2567727c	0.2922847619318316
232	0x3fc45a9a92bdf87e	0.1590150085939434
233	0x3fa024947f2b94ce	0.03152908375140272
234	0x3fc27b93ceb3923e	0.14439628212780237
235	0x3fc26592c1159e23	0.14372476985885027
236	0x3fe202302c485e82	0.5627671112915353
237	0x3fa539a82f3ad904	0.04145551277672335
238	0x3fbbfedaae0c2dcb	0.10935751675804466
239	0x3f77403b5da93991	0.005676490686325046
240	0xbfce060d46083e60	-0.2345596878007994
241	0x3fd862f9f83adfe3	0.3810410427208792
242	0x3fc458898e0c336e	0.15895194469376456
243	0x3fb4e2a88ec7872b	0.08158353315186832
244	0xbfbb7d65f4000d62	-0.10738217551265941
245	0x3f5bd9a29f10bed2	0.0016998375033487234
246	0x3f97145897ead81c	0.02253855159025174
247	0x3fd20362cdc9fa28	0.2814566621454184
248	0x3fd17bbf1e49baad	0.2731778903752609
249	0x3fc9fd11eff23a0c	0.2030355855572029
250	0x3fb396452045aaef	0.07651168859380751
251	0xbfbbb058b9776c9d	-0.10815958526602505
252	0x3fc693d8b99a707d	0.17638691961917977
253	0x3fd05248f58f17b0	0.2550222776447937
254	0xbfc0f556c77aec3b	-0.13248715152971777
255	0xbf90542d9bda4b50	-0.015946114194388017

model.6.bias f8 [20]
0	0xbfcc6779c054e72f	-0.22190782443231558
1	0x3fc058221fc69be2	0.12768961478761215
2	0x3fad1d04d79e1997	0.05686202175188553
3	0x3f96cf6adfde5be7	0.022275609887937888
4	0xbfca4fe9e2e01c5f	-0.20556377008344648
5	0x3fc16e5910b19a35	0.13618005099415745
6	0xbf9efbc90f35801a	-0.030257360032351334
7	0x3fab868187d767f4	0.0537605741807993
8	0x3fc256a62f040203	0.14326932235418618
9	0x3fb41a73334a48d7	0.07852859499169838
10	0x3f88299a568775d2	0.011798101201686704
11	0x3fb4b2c4f88a7f84	0.0808528048314639
12	0x3fd1398bcd840819	0.2691373354902012
13	0x3fb570c45f993965	0.08375193914364372
14	0xbfc4b6199c7a0625	-0.16180725231610996
15	0x3fb819537cfd19d8	0.09413644601327265
16	0x3f8511fed0d56679	0.01028822970208697
17	0x3f9117ee517c2e33	0.016692851756529414
18	0x3f9603c941da4ff2	0.021498818058333265
19	0x3fc9a039ba80d1f7	0.20020219427682637
