dnn/ionosphere/fold_0_model.pt.pt (torch, 53050 bytes, 48 tensors)

model.0.weight f8 [20, 33]
000000 c0 66 4e 92 64 83 94 bf a9 f1 02 70 74 ad c0 bf
       -0.02003247397406116 -0.13029342145263215
000010 90 10 70 f8 c9 c7 cf bf 37 33 6b 2f 1e 28 d2 bf
       -0.24828457480191846 -0.2836986029695256
000020 3f 15 79 ed c3 5a c0 3f ae 73 bf c7 fa 79 c5 bf
       0.12776993842468617 -0.1677850222903578
000030 b2 64 30 e3 b0 0a d0 3f 45 12 4c 78 f9 2c 95 3f
       0.25065252481870026 0.020679376571040704
000040 4f 12 8a 1d eb 64 bb bf f4 c9 55 ba 5a 68 c8 bf
       -0.1070086428754362 -0.19068464373010807
000050 06 06 c3 6f 8f c2 ae bf 79 ce 05 97 5f ca c2 bf
       -0.060078127281951096 -0.14680094598917373
000060 4e 25 82 f7 0b 19 cb 3f 4a 4e 43 c4 b5 30 9f 3f
       0.2117018660103817 0.030459251502931196
000070 65 9f 32 ae b2 53 83 3f ef e3 05 66 03 4b c4 bf
       0.009436984959691317 -0.15853922349540947
000080 46 ad 5f 5d 8d 71 b6 3f fb 25 59 0b 50 42 b5 bf
       0.08767016915924328 -0.08304310109192407
000090 76 5c e5 f1 33 fc cf 3f 2a ff 98 f3 3f ec 61 3f
       0.24988412200284288 0.002187848000886468
0000a0 db 5a 88 5e 84 f4 a3 3f 9b ae 88 27 7d de b8 3f
       0.03897489217722746 0.09714491095717863
0000b0 8b 12 f4 73 9b 67 bd bf 78 54 68 60 c3 1b c8 bf
       -0.11486217099088429 -0.18834726531409607
0000c0 2c 69 f9 db 8c 43 b2 bf 1f 0c 0d 1f ad 02 b3 bf
       -0.07134323473420484 -0.07425958641128759
0000d0 32 9e bb 66 14 5a c5 3f c2 8e c6 43 26 5d d3 bf
       0.16681151405576738 -0.3025603925582169
0000e0 7c 50 5a bb 9b 5a d1 bf ca 96 96 29 75 ee c2 bf
       -0.27115529342814404 -0.14790215044666005
0000f0 72 5e 34 37 b5 7b 83 3f 8b a3 19 12 2f 6d 8e 3f
       0.009513297793588314 0.014856689205048365
000100 1d f7 19 aa 22 5d c1 3f 29 23 ac 94 dc 37 c0 3f
       0.13565476709111915 0.1267047620715627
000110 e0 3a d4 82 ed b2 c7 bf d8 6d cd 5a 4e aa d3 3f
       -0.18514794242988497 0.30726965777804827
000120 ae e1 5b 44 b8 d2 a7 3f 08 6b 92 58 ee 89 d0 bf
       0.04652953943690662 -0.25841864251712865
000130 09 5f 07 f9 4f b3 c9 bf cf 71 75 3a f3 3f b4 3f
       -0.20078467998131824 0.07910080125061046
000140 43 e8 9a c6 76 09 c6 bf 3c 9c 64 cd 03 27 c2 bf
       -0.17216381738200157 -0.1418156388183166
000150 b5 c6 28 c1 e8 e3 b7 bf a6 0a 4c 19 03 ed 84 3f
       -0.09332136836817535 0.010217689713959043
000160 1e 80 d3 7f e7 81 b3 3f 8d cb 7c c3 0d 50 c3 3f
       0.0762009322238559 0.1508805470017162
000170 b3 7c 78 6d 5b b2 b4 bf 00 cc d5 7c c4 c1 b7 bf
       -0.0808465139639221 -0.09280040786488541
000180 6a 8e 52 ef ea 2e a4 3f 1a 9e 74 ee e6 fa c7 bf
       0.0394204537526804 -0.1873444237073592
000190 aa 26 01 b9 6b df b9 bf 0f a8 52 78 a3 06 b1 bf
       -0.1010653807326444 -0.06650754630632626
0001a0 34 3a f4 9e 6b 34 d1 bf 1e 69 16 86 3a c9 7d 3f
       -0.2688244869504246 0.0072719846806655036
0001b0 36 3c f7 68 ba 1f ad bf 4b bc 45 72 92 b1 be 3f
       -0.05688269168205588 0.11989703454831717
0001c0 86 2e 90 17 31 c7 c2 bf 9c ec bb 04 5f 3d c6 bf
       -0.14670385027453764 -0.1737478993526097
0001d0 48 ff 6a 33 d0 89 c5 3f 7f dc 81 20 29 a3 c9 bf
       0.16826822767870397 -0.20029176795262413
0001e0 71 ce 44 5c d8 d3 ca bf e2 0d 14 d1 76 e1 c3 3f
       -0.20959000115691453 0.15531811913397947
0001f0 03 63 d4 6d 48 b6 b5 3f 86 6f d6 7e 97 5e 90 bf
       0.08481266671550362 -0.015985839001231315
000200 a5 fc bc 23 d5 a1 66 3f 7b 88 68 3a 35 c5 c3 3f
       0.0027627146609173364 0.1544558081814705
000210 50 35 ad 7b 2a 33 ca bf 9e 0e f3 07 3b 85 bc 3f
       -0.20468646086593845 0.1114079374702279
000220 55 92 85 14 ae 35 c3 3f ec 5b e3 9c e3 72 b2 bf
       0.15007568361319792 -0.0720655687358513
000230 a3 f7 c3 9c ad 97 cb 3f cc 37 18 bc c8 ab c6 3f
       0.2155663505035906 0.17711743530565938
000240 26 aa 53 d7 d3 20 c6 bf db 3b a0 b0 82 68 be bf
       -0.17287681592945708 -0.11878220379024589
000250 a2 a3 11 f0 5d 6f 75 bf 3b dd c6 12 72 09 bb bf
       -0.005233160919581177 -0.1056128784028844
000260 37 c8 de f9 c4 d6 c3 bf f5 14 8e 0a fe e9 c7 3f
       -0.15499174309440075 0.18682837977772918
000270 42 f7 53 23 03 72 d0 bf 9f cb 34 98 e7 5a a3 3f
       -0.2569587559699934 0.03780292256342154
000280 29 60 3c 7a b9 ce c4 3f 88 ee 2b 0f 28 80 b3 3f
       0.16255873173281657 0.07617426271820638
000290 0e 19 b5 83 b8 6c c0 3f 2e 3e ea 71 a4 cd 94 bf
       0.1283178942778211 -0.020315713360615266
0002a0 d0 02 9a 63 b9 81 d0 3f 80 9e 24 1c dd 11 d2 3f
       0.2579177353546074 0.2823403143724832
0002b0 11 e1 ef e5 30 29 a3 bf 48 b7 3d 3a 6f ce b4 3f
       -0.03742363745544897 0.08127494022275272
0002c0 0b f4 03 5f fb 5c d2 bf 6f 32 c1 02 b3 bf b3 bf
       -0.2869251659283811 -0.07714384858372524
0002d0 85 c3 19 b7 56 99 bf 3f f5 97 cc 42 1f 48 c2 3f
       0.12343351335745296 0.1428259922187746
0002e0 12 49 51 67 83 97 c9 bf 3d 76 f4 f9 78 4d b5 bf
       -0.19993631882477608 -0.08321338751235259
0002f0 c4 2b ee 9a 6a 8d c5 3f e0 99 c5 9e 16 55 bd bf
       0.16837818684538608 -0.11457959533945639
000300 29 03 79 4e 76 31 c5 3f 88 19 59 0e 26 99 c3 3f
       0.16557196456599257 0.15311122608745742
000310 4b 94 3e 32 33 3f 80 3f 91 bb d0 f5 b8 82 93 bf
       0.007933044405783593 -0.01905335426652816
000320 1c 34 29 49 d2 2b 93 bf ed af 7d 2b 75 b4 c4 bf
       -0.018721852984800433 -0.1617571318014365
000330 74 ba 0b 44 0f 01 c9 3f 97 63 f0 9f 83 a5 9d 3f
       0.1953448374037695 0.02895169891062074
000340 0f 5e 2d 0c 71 08 c9 3f d8 69 a5 24 11 ad 77 bf
       0.19557011694517754 -0.0057802838949449695
000350 47 88 4f 40 df 0a af bf be 00 28 3a 76 5e c1 bf
       -0.06062982234995267 -0.1356952461210365
000360 60 07 00 39 be 00 a3 3f c3 5e a2 cd b2 ec 84 bf
       0.03711504407694011 -0.010217091465434596
000370 12 aa 8d 12 86 1b 9a bf 6b bc f9 92 25 9b d0 bf
       -0.025495619661720488 -0.25946940758780696
000380 1f 88 ee a1 66 bf c7 bf 93 85 36 d5 59 1f d3 bf
       -0.1855285921747631 -0.2987885076673475
000390 12 60 d8 31 31 60 be bf 69 ef 32 9f 23 39 c3 3f
       -0.1186552759830877 0.15018124841105454
0003a0 20 5f cc e8 08 f9 c2 3f 90 d1 93 82 a3 aa d7 bf
       0.1482249390326098 -0.3697899604005892
0003b0 5a 58 f8 90 19 7b c5 3f 82 45 21 df 23 69 ad bf
       0.1678192098485763 -0.05744278048281172
0003c0 fb da ac ea 4f 89 a5 3f 16 5c da c0 48 e5 c4 bf
       0.04206323375404072 -0.16324719826363382
0003d0 50 14 17 24 53 ef ac 3f 1e 93 06 da 66 d1 a0 bf
       0.056513403087173786 -0.03284760867544477
0003e0 21 c1 35 a8 8a a3 b8 3f ad da b8 92 c3 73 cd 3f
       0.09624544722260399 0.23009533561863318
0003f0 4b c5 d8 3b 38 05 9b 3f 36 dd b8 1d 86 00 3a 3f
       0.02638709893489492 0.0003967597419633652
000400 9d b4 4b 76 39 f6 dd bf d3 d8 d2 92 fc 05 b0 bf
       -0.4681533484679877 -0.06259134850083407
000410 f3 4c b9 2f 25 3b 90 3f 46 4b 2b 95 fd 98 c1 3f
       0.015850621259528585 0.13748140128753955
000420 72 79 ac 19 3c 2c b6 bf 8f c8 5d 90 1d 8a b2 bf
       -0.08661246897506716 -0.07241997503823171
000430 d4 13 6e 7c 6a ba d2 bf 08 c5 d6 7e fb 1e a0 3f
       -0.29262792731634346 0.03148637698485329
000440 ff 3b 88 f7 be b1 b0 bf c5 0f 42 95 5b 65 c5 3f
       -0.06521218817964324 0.16715569293967128
000450 5c c1 62 ed 95 31 97 3f b4 e9 71 22 45 c8 b9 bf
       0.022650091756703503 -0.10071212855283457
000460 01 08 83 f2 1f 79 c7 bf 43 43 c8 ef 61 c1 b5 3f
       -0.18338393536947709 0.08498203376826745
000470 10 e1 5a 32 3f 69 a9 bf 86 65 ef 31 03 78 bd bf
       -0.04963109483418482 -0.11511249512786578
000480 cd a6 9d df 01 ee b3 bf 1f e0 74 50 aa 28 b0 bf
       -0.07785045346613657 -0.06312050308486093
000490 f6 47 94 7d ed 13 91 bf ae f6 eb d7 24 60 ae 3f
       -0.01667758063292265 0.05932726989520397
0004a0 5e f1 ed 5a 75 10 cc 3f 1a d1 a6 13 0f 1d 9f 3f
       0.2192522710792088 0.03038428838199634
0004b0 8c 8e e8 ad 7e 64 a2 bf 6c 26 55 20 73 49 b0 3f
       -0.035922964791351125 0.06362075366373582
0004c0 e3 0d a4 bc 77 ae c7 3f 77 4b 0e 36 22 48 cf bf
       0.1850118323419415 -0.2443888439125563
0004d0 c8 f3 88 5b f6 75 a6 3f 98 31 25 0f dc 08 ad bf
       0.04386873118753659 -0.05670821843031887
0004e0 10 a2 4a 13 c5 b2 af 3f 86 af cc 59 5f f6 bd bf
       0.061910780529903175 -0.11704059545871645
0004f0 64 18 29 31 6d 5a bf 3f ac a4 02 2b cb 2e cc bf
       0.12247354936798299 -0.2201780281077722
000500 a6 39 36 23 e3 5c c2 bf 1d 9b 50 f0 2a 2f b2 bf
       -0.14345969409300813 -0.07103222243368319
000510 2c f0 fa 8a a0 f1 af 3f c9 cd 12 ec c3 ea c0 bf
       0.06239034363304116 -0.1321644690229802
000520 54 a0 54 ea 16 be c7 3f b8 57 f4 72 b9 66 c6 3f
       0.18548857156679566 0.17500990021716034
000530 d1 33 15 5f a4 a5 d1 3f d9 9e 10 0b 74 c0 cc 3f
       0.27573498998100116 0.22462320843009456
000540 96 a5 76 f2 f3 f3 d3 3f 50 37 58 42 1a c3 aa bf
       0.31176470449516935 -0.05226976451750309
000550 5b ba 90 f6 5d f0 c9 3f af 17 9a 9a d5 cf d1 3f
       0.2026479200298635 0.2783102044853604
000560 cd f6 48 c7 36 77 b9 3f fd 77 e8 4d 7c 88 be 3f
       0.09947531094891389 0.11927010442784076
000570 5e 97 6c ec 69 bc c1 bf e6 3c d4 a8 28 5b bc 3f
       -0.13856243175649302 0.11076597329905588
000580 53 2b 3f a6 4d cd b4 bf 76 56 09 bf fc 57 9a bf
       -0.08125768002279914 -0.025726269874516615
000590 68 2c e3 07 12 fd b1 bf e6 b4 2e 1c 5c 1a 7e bf
       -0.07026779835284602 -0.007349357419042612
0005a0 fb 4b 8d ce ff 03 a7 bf e5 c3 e7 df 38 e9 a0 bf
       -0.044952386821613254 -0.033029343921846345
0005b0 c3 1f 3c f7 a1 f6 be bf 16 7f 5f 13 7b 91 92 3f
       -0.12095081602103534 0.0181330900740014
0005c0 35 26 e1 24 2a b7 c7 bf c8 fc dc 6c 5b 87 c2 bf
       -0.18527724076038657 -0.14475577178561694
0005d0 4e 58 c1 86 52 c1 b7 bf 65 ef cc e2 9d 22 d1 bf
       -0.09279361524508653 -0.2677378382538705
0005e0 9c ee 38 75 74 e9 b2 3f f6 8f 95 40 ab c1 be bf
       0.07387473928332117 -0.12014265372050645
0005f0 d0 ec 17 b9 bb e5 c3 bf cf 99 a7 07 3c 39 a4 bf
       -0.15544840371862856 -0.03949916451874779
000600 31 25 f6 ee 00 16 bd bf e8 b0 ba 2c 84 d8 91 bf
       -0.11361699899693602 -0.017427506666238296
000610 46 91 d7 b7 48 83 cc bf 40 f5 1a ba f0 36 c4 bf
       -0.22275647141135319 -0.15792664611027796
000620 05 38 f3 d4 f4 79 a6 bf b8 44 53 0f 45 22 cd bf
       -0.04389920329559519 -0.2276083302336127
000630 a4 49 dc db ba 3c d4 3f e3 83 0d bf f5 45 b4 bf
       0.31620665999175857 -0.0791925040662274
000640 a5 20 fb b8 da 89 ca 3f 96 0c c0 77 f9 b3 c5 bf
       0.20733198196672223 -0.16955488536050173
000650 1b 0f c0 e7 3f f9 a7 bf 0f bf 5f b7 28 0b c8 bf
       -0.04682349876386934 -0.18784054712113415
000660 37 6c e1 a5 33 4f bc 3f 3d f6 8d b6 78 0e 97 3f
       0.11058352279489801 0.02251614202713469
000670 88 e9 25 90 b2 0e bd 3f 8e 99 c0 db 46 9a d3 3f
       0.11350551623573868 0.306291308023355
000680 6d a4 56 62 76 03 7a bf e4 71 a9 4a b2 b9 c5 bf
       -0.0063509582882171735 -0.16972950597381875
000690 99 5e 51 8d 06 65 d7 3f 17 0b 69 5d 14 b6 c6 bf
       0.3655411129052282 -0.17743162690211342
0006a0 f4 c7 50 ef ca 79 b7 bf d4 60 7b ee 10 bf cf bf
       -0.09170215933480091 -0.2480183758223179
0006b0 17 7f 07 7a 5b 53 c7 3f 96 64 1c 31 60 64 bb 3f
       0.18223136385403713 0.10700036238667318
0006c0 26 9d 61 a3 4c 00 c7 3f b0 58 95 ef a4 0c 8f 3f
       0.17969663598635427 0.015160835801605849
0006d0 32 3f cd 5b 77 b0 ad 3f 7d 3d 33 d1 c1 bf c7 bf
       0.057986955600993886 -0.1855394622311727
0006e0 1b 3e c0 cf a0 30 c3 3f 3e 77 3b c5 44 57 b7 3f
       0.14992151397790185 0.09117536368600285
0006f0 77 4d ac 1d f0 12 9b 3f fe a0 02 a7 de ab ba bf
       0.026439430056667015 -0.10418502404593608
000700 a9 e0 a8 84 ca 48 c2 bf e8 15 cd a8 79 13 ab 3f
       -0.1428464076759657 0.05288295922813885
000710 e3 5e ce eb 60 3c 9e 3f af 9b d7 ee bb db 9a 3f
       0.029527201073135678 0.026228844120762037
000720 6a 44 ca e9 0a 15 b1 3f c8 8c ed c5 a9 96 a0 3f
       0.06672733505026121 0.03239946881401462
000730 6d 46 b5 5a bf 5a ca bf 9d ef 19 7d 6b 9f bb bf
       -0.20589439324480754 -0.10790130428534757
000740 68 bb 6b aa b5 35 a2 bf a9 63 89 1a 7d 0b 9e bf
       -0.035566021970104 -0.029340700859709
000750 15 11 87 72 e4 4d c0 bf 23 d3 20 d4 ce 35 cd 3f
       -0.12737708656471428 0.22820458753417325
000760 28 15 0a fa 15 c9 d0 bf b4 06 80 df c5 86 ba 3f
       -0.2622733060637352 0.10361897188706842
000770 22 25 f4 1f 57 06 c0 3f b5 b0 63 31 35 86 a9 3f
       0.12519349155653808 0.0498520491399587
000780 81 b1 81 1f 1e 45 c3 bf 93 56 b8 df fd 14 9e 3f
       -0.1505468038407223 0.029376951961316577
000790 e9 e1 b3 f4 0c 2d b6 bf 38 8c e1 af 6f 49 be bf
       -0.086624917737829 -0.11830804866762967
0007a0 0d 4e 2b fd a8 90 a3 3f ce 4b 67 46 be 20 b2 bf
       0.03821304407543034 -0.07081212252459965
0007b0 99 0b 46 e5 01 40 c0 3f d6 14 df 6d 7b 5b c7 3f
       0.126953350973136 0.18247931351485275
0007c0 e4 a9 70 b4 27 43 66 3f 85 e9 03 7e a5 30 d3 3f
       0.002717568920634893 0.2998441439264286
0007d0 36 c3 0c 1d 21 02 ad bf ec 18 67 32 93 b0 b0 3f
       -0.05665687064754936 0.06519432049308066
0007e0 ec 5b c9 90 fb 92 ca bf 9b cf cc 07 34 67 c8 bf
       -0.20761055535942263 -0.19064951306210962
0007f0 74 08 3d 04 9d b0 cd bf 8e b9 af 00 b2 8b ba bf
       -0.23195231158212304 -0.10369408146627832

model.0.bias f8 [20]
000000 05 b9 21 5b 3d 59 b9 bf 39 61 83 36 19 1b 6c bf
       -0.09901793932815302 -0.003430890316035964
000010 4d 4a e4 3b 0d 82 c3 3f 07 9f db a4 f3 a5 b6 3f
       0.15240636276628763 0.0884697225079628
000020 d6 72 4b 7b fc 77 b3 bf 02 67 9b d3 be 08 a9 bf
       -0.07604959497571015 -0.048894847231805386
000030 96 fd 03 4f e9 d1 b5 bf c4 1b ff d0 7e 7c c0 bf
       -0.08523424319354542 -0.12879929737957074
000040 7f b5 d9 b0 9f 75 d3 bf b8 7d a7 f8 6b d1 c8 3f
       -0.3040541865401209 0.1938910450107707
000050 e2 ab 3d 0b 13 31 91 bf aa b9 ef 68 a9 6a ad bf
       -0.016788766442385035 -0.05745438962900391
000060 fc 2b 83 8e 98 21 b1 bf 09 17 c6 91 7e b2 c8 bf
       -0.06691888312631983 -0.19294721715794363
000070 47 12 5e c5 5f f8 b3 bf 8d f8 c0 69 21 2e c9 3f
       -0.0780086380819479 0.19672029174575237
000080 7f 7d 94 51 26 c1 c2 3f ab 19 b4 7d cf 28 b4 3f
       0.14651946051979434 0.0787477189915992
000090 50 d1 4d 90 80 fc b0 3f de 53 55 eb 72 1c aa bf
       0.06635287783666866 -0.05099829790803033

model.2.weight f8 [20]
000000 31 98 8b ad c8 a9 ef 3f 83 9d 60 8c d7 09 f0 3f
       0.9894755734974351 1.0024028285496065
000010 c2 0f fd 16 cb 6a eb 3f b6 5c ad ae 12 98 f2 3f
       0.8567862938875737 1.1621271918609586
000020 11 ae 23 bd dc 04 ef 3f 7e 27 f4 ad bb fc f3 3f
       0.9693435377243437 1.2492024226253018
000030 b6 5c b7 62 a5 e5 f0 3f a2 49 ef fd 69 12 ef 3f
       1.0560659271339268 0.9709978065168807
000040 d7 de c5 75 1f 0b ef 3f 4c 50 54 de ef c6 f3 3f
       0.9701077747585839 1.2360686001529926
000050 6a 20 eb e8 0a 53 f0 3f 3b b9 fa 5c 5c 05 f1 3f
       1.020274076307056 1.0638087875373248
000060 7f 08 3a 99 0e d7 eb 3f b6 d6 aa 56 c0 71 ed 3f
       0.8700020783146697 0.9201356594773731
000070 c5 be 60 80 c4 5e f1 3f 7f bb 14 da df 84 ea 3f
       1.0856366171610017 0.8287200221437699
000080 3f 44 b4 af 6f 96 ee 3f 26 62 d0 47 41 2d ed 3f
       0.9558638030740737 0.9117742922417775
000090 b4 44 a6 9f ba 73 f0 3f 3f b9 ac d8 73 b5 ed 3f
       1.0282541500385323 0.9283999664237753

model.2.bias f8 [20]
000000 96 29 72 32 56 28 d1 3f 33 a6 53 39 ad b0 a9 3f
       0.268086957229252 0.050176060912985675
000010 52 f5 8c 4e 3f 24 9d 3f 05 a2 ef c9 22 8f 86 3f
       0.028458584946965466 0.01101519755134551
000020 fe 88 7c b3 32 07 c3 bf 20 77 d5 40 76 38 b5 3f
       -0.14865716709125104 0.08289279063089028
000030 d8 b5 6f bd 73 08 b6 bf 1d 1a 4e ae a2 ee 86 3f
       -0.08606646895324077 0.011197348541611746
000040 01 a7 b7 44 09 7e be bf d9 c0 17 38 bd b2 b3 3f
       -0.1191106598631926 0.0769460927911071
000050 df af 14 fc 92 63 a4 bf 45 c7 73 75 d8 14 9b bf
       -0.03982219054373081 -0.026446706932751658
000060 ba 12 a6 7a 3a ab a5 3f 72 8d a1 cd 71 ee b5 3f
       0.042321994277732825 0.08566962499894773
000070 f1 0c b9 f4 7d 5a 97 bf e3 5c ec 38 f2 31 cf bf
       -0.022806137143800368 -0.24371173648316988
000080 8c 0e 77 49 58 f8 94 3f c5 b5 e4 72 30 05 ac 3f
       0.020478610500289693 0.05472709085948283
000090 68 f3 fe 37 ab 98 b8 bf ce fa 87 6c 92 14 b4 bf
       -0.0960795413693184 -0.07843890332876954

model.2.running_mean f8 [20]
000000 14 70 4e 32 28 8b df 3f e5 12 b2 36 4e f7 db 3f
       0.49286847031339787 0.4369693311821677
000010 5a 0b 6d 15 ef b1 dc 3f c7 0f 2c d2 b7 57 d5 3f
       0.44836022465113035 0.33347888493176153
000020 3b 25 67 22 37 7f d0 3f 92 15 be 1d a1 9f df 3f
       0.257764609905809 0.4941180029348625
000030 41 a7 69 2b 3d ab d5 3f f6 23 57 7a e7 99 d5 3f
       0.3385765956833105 0.33751856753639176
000040 99 83 85 f4 22 c0 bc 3f 5e 04 f9 43 ae eb dc 3f
       0.11230677099002974 0.45188480985604496
000050 38 5f 16 65 f9 7f d5 3f 05 35 68 bd c9 6b d7 3f
       0.335935925214915 0.36595386025221927
000060 34 c9 a8 45 a7 23 e2 3f ce eb a6 1d cd 69 de 3f
       0.5668522224935146 0.47520759483057595
000070 bb 23 73 e1 59 af d3 3f 52 18 d4 a1 ce 8d ea 3f
       0.30757758156374465 0.8298104439461531
000080 e8 e8 3e 01 b0 b3 df 3f ee 65 29 98 e2 a8 da 3f
       0.49534225579885893 0.41655793056051393
000090 c6 6c 06 7e b5 0b d3 3f cd 8b e9 91 18 df ce 3f
       0.2975896578515854 0.24118334889052875

model.2.running_var f8 [20]
000000 de 44 1c 74 f2 a6 e3 3f 0a 66 e7 d7 50 3f e1 3f
       0.6141292827398066 0.5389789788125097
000010 a8 2b f2 62 8b a1 d8 3f cb 50 ca fe b0 55 d0 3f
       0.3848598924893687 0.2552301872431257
000020 74 79 b9 a6 74 fb ca 3f 22 27 49 52 26 35 ec 3f
       0.2107988180241126 0.8814879996436711
000030 60 e2 70 ca f2 d2 d4 3f 75 c9 d8 34 42 c2 d5 3f
       0.32537526864647326 0.3399816051561609
000040 66 d2 f8 82 2c 1a bf 3f 9e a4 54 c9 c7 7f dd 3f
       0.12149313161428096 0.4609240976447583
000050 8c 28 07 6a b8 fd d7 3f 42 86 4d 87 b4 51 d5 3f
       0.37486086229603965 0.33311188901106814
000060 9b 64 b3 9e d8 1a ec 3f 7b 84 8b f5 17 60 d6 3f
       0.8782771205543612 0.34961508730891183
000070 74 c0 23 39 39 84 d9 3f 9e a4 7c d7 38 9a e9 3f
       0.3986952836994597 0.8000759323814639
000080 2a 38 f6 45 f6 a7 e4 3f 23 cc 76 05 bc 47 d4 3f
       0.6455031744424151 0.3168783238754164
000090 d1 e7 1b d4 06 8d d3 3f 23 e7 b4 c8 64 3a ca 3f
       0.30548258508463016 0.20490703392152296

model.3.weight f8 [20, 20]
000000 83 02 fd af fd 4c 9e bf 7b 5f 4f cd 90 3b c7 bf
       -0.029590572229837974 -0.1815052988520128
000010 13 2e c5 39 6f 8a c9 3f f3 72 b9 26 c7 41 ba 3f
       0.1995371849137518 0.10256619162960216
000020 d2 05 cf 19 ba 20 bf bf b1 c7 e3 46 89 b7 d4 bf
       -0.1215931237229804 -0.3237021629603261
000030 87 b9 c5 fb f5 e8 ba 3f 95 9b 04 9e 58 29 a8 3f
       0.10511720082079111 0.047190446175867574
000040 c3 9c 3d cc 49 74 cb 3f ca 41 33 82 c7 8a c0 bf
       0.21448633644761203 -0.12923520905907387
000050 1c 88 84 9d 43 31 ca 3f 08 9f 44 a2 cb de c0 bf
       0.20462842170042073 -0.13179917739147862
000060 e1 b1 0c 9b 9b 3e b1 3f a6 01 8e 35 77 21 be bf
       0.06736156974211084 -0.11769814546096899
000070 bf 96 ab df 38 e0 c9 bf d7 27 49 33 a0 b8 af 3f
       -0.20215521737480022 0.06195545793578077
000080 1d c9 fe 16 64 7c d5 bf c3 4f d9 92 0b 7e b1 3f
       -0.3357172226489114 0.06832954726388522
000090 d0 de 90 d2 dd 5c d1 bf 48 57 4b c4 67 e0 69 3f
       -0.2712931209857574 0.0031587626166168815
0000a0 25 f3 48 1c 2d 06 cb 3f 32 ba 47 80 7f c7 93 bf
       0.2111259830579907 -0.019315712170220496
0000b0 8c 51 89 39 ad 9b bd bf 48 2e 17 23 ad 97 81 bf
       -0.11565668730447082 -0.008590080865267372
0000c0 48 30 92 df 14 bb bd 3f 99 81 5f ac 95 02 88 3f
       0.1161358877017743 0.011723679850491208
0000d0 4b e9 16 7e b2 8a cc bf c0 65 74 0b 4d 74 c2 3f
       -0.22298270374978765 0.14417422351179532
0000e0 83 b7 36 4f a6 ce bb 3f 5a c2 ba fc 62 a6 c9 3f
       0.10862197336129324 0.20039021816548336
0000f0 52 27 eb b6 29 26 ca 3f 1a c6 22 69 8f 29 d3 3f
       0.20428964072771777 0.29941163317843833
000100 3f f4 6c 0a aa 3c c5 3f 68 f2 ac 72 42 3b b9 bf
       0.16591382512152283 -0.09856047916123034
000110 04 98 c2 80 a2 57 c9 3f 37 e7 a7 35 dc cb 9f bf
       0.19798690116039108 -0.031051102423567314
000120 b9 fb 47 ef 5d b4 c2 bf f3 66 13 cf 2b aa be bf
       -0.14612936195041273 -0.11978410535393973
000130 c4 bb 0f 0e 8f 3b bc 3f 15 bd 65 82 f8 d8 c4 3f
       0.11028379529282889 0.16287142149983738
000140 87 e0 f0 e2 e9 df ce 3f ba 18 5c 0d 44 a9 c9 bf
       0.24120830136394408 -0.2004780831559339
000150 32 22 a3 f6 fe 0d b1 bf 74 a5 2e ff 83 68 c0 3f
       -0.06661981126229291 0.12818956337040854
000160 6e 33 4d 66 5f 12 68 bf 6c a5 67 2a 1e e1 cb bf
       -0.0029384482644786913 -0.2178075511031169
000170 ee c4 4a 39 76 fc 8f bf 27 41 f2 0d 07 31 c9 3f
       -0.015618251441397803 0.19680870228740696
000180 1d dd 70 2b ae 40 d3 3f e9 45 08 e0 b6 3d b7 bf
       0.3008227752902302 -0.09078543633975013
000190 79 a0 6f 21 27 91 a9 3f 46 a1 c6 cf 5c 70 c2 bf
       0.049935553390072 -0.14405403275783096
0001a0 e3 b4 ad 17 2e 71 ac 3f db 7d 7d 6e e7 c2 ca bf
       0.0555509952454061 -0.20907299895314577
0001b0 72 fa d5 21 0b b2 c1 bf b4 c7 62 31 e2 a3 ac bf
       -0.1382459559644818 -0.05593783238272412
0001c0 58 86 19 22 cd c8 b1 bf 27 11 ac 40 1e 50 ab 3f
       -0.06947023470413549 0.05334562816099924
0001d0 e6 28 22 17 c7 48 9b bf ce a3 9d 28 19 cc d0 3f
       -0.026644812380745807 0.262457170165871
0001e0 91 ad e2 14 d2 45 65 bf 7b d6 0c a7 f2 49 d6 bf
       -0.0025967696338590825 -0.34826341927996624
0001f0 48 83 c0 7c ae 20 ca bf 69 e3 d2 82 dd 60 bf bf
       -0.20412236300856024 -0.12257179683628085
000200 cb 0b f0 3b ef 9a 9f bf df c9 ae eb 9d a9 c2 3f
       -0.03086446574526373 0.14580129630992553
000210 42 4e 39 cb 94 c4 d1 bf 29 19 b4 18 25 22 c0 bf
       -0.2776233658416666 -0.12604201990343114
000220 2f 0d 94 44 fe 1a a8 3f 1a 07 6c bc 84 5c d9 bf
       0.047080942031266886 -0.39627188110908806
000230 bc f8 22 91 0b 78 bf bf 63 e5 35 01 19 99 cc 3f
       -0.12292549413084236 0.22342217024906139
000240 44 aa d4 a2 9c 6c 2d bf 3b e9 e4 77 2f c3 cf 3f
       -0.00022448932706116604 0.24814408640106386
000250 86 08 4c 88 f5 c9 c0 bf 81 fe 4a 05 43 cc 99 3f
       -0.13116330294730377 0.02519325942807749
000260 66 bd 1f 08 d8 67 c6 3f 84 0d 2c 61 07 9d c3 bf
       0.1750440635364427 -0.1532296394799283
000270 2e 19 b4 7b 46 66 a1 3f 0a db dc 07 db ca d1 bf
       0.033983423805738475 -0.27800632255404933
000280 5f be ac c4 5c 66 c6 3f 29 4f 54 53 1e b2 a1 bf
       0.17499885180721983 -0.03456206099704524
000290 e6 7b 19 01 4c 0a c9 3f 08 75 05 ee 75 a8 b2 bf
       0.19562673619927223 -0.07288300572459516
0002a0 61 84 60 7c 9c 67 b3 3f dd 75 0f cf 3f 58 d4 bf
       0.07579973255680407 -0.31788630696050096
0002b0 1c 86 fb 9d b4 d0 ba 3f 62 59 f5 8f c3 a9 b1 3f
       0.10474709374423025 0.0689966417752195
0002c0 c9 51 c2 ff 55 24 b4 3f 4b af 02 c6 5d 57 d6 3f
       0.07867944234960257 0.34908241593324324
0002d0 1b 85 42 6c 94 e0 bd 3f e4 bf 49 b2 28 47 bc 3f
       0.11670806544363581 0.11046079972015793
0002e0 51 22 39 3d 96 f8 c2 bf de cf d4 d3 29 0c aa 3f
       -0.14821126927769737 0.050874049290001486
0002f0 f6 44 39 57 92 04 96 3f 27 7c fb 81 4e 38 d1 bf
       0.02150181443568485 -0.26906168645467904
000300 8d 74 b4 ec af 00 c1 bf aa 2e 2a 82 e2 6f a9 bf
       -0.13283347184998143 -0.04968173827100249
000310 54 e2 3e 01 f9 b3 8c bf f4 58 e6 77 11 bd c7 bf
       -0.014015145636094996 -0.18545740465624017
000320 f5 a9 bf 67 8f b4 87 3f 3e 79 59 31 15 9f c6 bf
       0.01157485995641581 -0.17672982129711018
000330 5a 72 2c bd da b6 a7 3f 0a c5 ba 2b 09 a4 d5 3f
       0.046316943733675855 0.3381369521185468
000340 7c 74 f2 c0 b7 22 d6 3f 6d 91 21 68 d9 1f bb bf
       0.3458690056084561 -0.10595473091377068
000350 91 1f fe 6b 75 e1 c2 3f 83 3b 49 d2 82 73 d6 3f
       0.14750545285300778 0.35080023322819204
000360 27 5a d4 13 81 8f b0 3f a8 57 f5 f5 dd 14 c4 bf
       0.06468970045202892 -0.15688681134878135
000370 d0 3b d1 55 a3 6a a1 bf e3 a7 c6 83 93 e5 a8 3f
       -0.034016708589312494 0.0486265276297926
000380 de bc 76 7c fd dc cf bf ec fa 60 a3 5b 68 cb bf
       -0.2489315850957387 -0.21412225224954484
000390 ef 56 91 cd 8f eb c3 bf fd e2 76 50 dd 02 c6 bf
       -0.15562627351271582 -0.1719624178783973
0003a0 1a 06 07 af b5 2e b3 3f 7a a8 71 ef 3d 1b c1 3f
       0.07493148348933013 0.13364385787582816
0003b0 aa 14 2b 13 45 a3 98 bf 3e 66 d8 ff 23 4c b5 bf
       -0.02406032495016023 -0.08319306369994536
0003c0 8f 0f 5f 23 60 e0 a9 bf 08 5e 51 69 25 52 d1 3f
       -0.05053997451571412 0.27063880238480964
0003d0 6e f2 dd 9d 95 5a a1 3f dd cb cb 2b 8e 4d c8 bf
       0.0338942294319836 -0.18986680162887995
0003e0 38 96 16 61 34 17 b1 bf 93 f6 21 f6 70 bf b7 bf
       -0.06676032419508082 -0.09276491173838002
0003f0 1f fb 4f 52 00 a8 b0 3f 2c a0 4e be 9f 60 b3 3f
       0.06506349572735502 0.07569311519785121
000400 04 05 01 80 07 26 c6 3f 31 f3 3e 02 02 37 c5 3f
       0.17303556204027626 0.165741206261282
000410 90 81 ce cf 2c fc d7 3f 47 ad 8c 73 8e dc c3 3f
       0.37476654332751824 0.15516834871355398
000420 fa bd c9 1c be 3b 95 bf 02 1f ce 32 b7 e7 c7 3f
       -0.020735712534984053 0.1867588995048593
000430 da c8 f5 36 a1 82 ca 3f 3f 9a 57 c0 4a e4 b5 bf
       0.20711150344465673 -0.08551470943312099
000440 4e d6 38 32 99 30 cd 3f 39 41 6f d4 7a 69 c3 bf
       0.22804560615775177 -0.15165648815901436
000450 ed 8e 81 9b 10 c2 b4 bf 38 ac 7c c2 1b 89 b4 3f
       -0.08108619495902376 0.08021710870950549
000460 fe 1d e6 be 05 df bf bf d1 92 ef 46 12 5d b5 3f
       -0.124496802431274 0.08345140678245434
000470 c5 c7 a4 35 87 b0 c5 bf f2 1b 4e 1a ca 8b c2 bf
       -0.1694497119838713 -0.14489103588513746
000480 c2 1b 80 77 63 86 b7 3f 6b 3d 83 8e 87 53 d1 3f
       0.0918943564175683 0.27072323720218233
000490 9c 21 f8 31 d3 2b b0 bf d8 72 d1 e0 d4 af ac 3f
       -0.06316871614411074 0.05602898830759323
0004a0 e3 16 bd 09 dd 28 a3 bf 76 81 a3 ed 2d 46 b1 bf
       -0.03742113822822348 -0.06747710277296001
0004b0 57 43 18 69 4c a2 c3 3f 2b 50 b3 2c d5 eb b0 3f
       0.15339045650082525 0.06609852162665734
0004c0 97 2f 51 5e d1 c7 9c bf fe 53 07 54 f9 a1 ab bf
       -0.02810599458852855 -0.05397013808002525
0004d0 e0 fa 86 09 68 3e c3 3f 29 40 a2 a7 7a 58 c2 3f
       0.15034199204634202 0.14332516846889234
0004e0 28 70 7d 7f 11 34 ba 3f 38 7f 7e 56 89 9f b5 bf
       0.10235699999378822 -0.08446558343575539
0004f0 e7 3a f3 79 08 5f d0 bf f2 ec b1 02 d1 e2 d3 3f
       -0.25580036076728024 0.3107187773054668
000500 10 f4 02 13 58 ed c2 3f 28 ce f7 14 2e 1d b5 3f
       0.14786816528604207 0.08247650157846265
000510 3e 5b 43 19 cf 64 b1 bf 5d 24 27 77 b1 22 c8 bf
       -0.0679444729497449 -0.18855875318539264
000520 2a 40 38 ed 76 47 89 3f dc 31 1b 20 34 d8 d4 bf
       0.0123433390754429 -0.32569602141736964
000530 50 29 3e 18 6d a8 d0 3f 8c 39 fb 22 32 1d a6 3f
       0.26027991645300563 0.043191496629890386
000540 8a 07 c7 af f0 68 c7 3f b7 02 7f f9 44 cc bd bf
       0.18289002020724993 -0.11639815417494047
000550 dd d7 6c 27 bf 71 a2 3f 71 4d 19 83 8a 07 cb 3f
       0.036024068415301015 0.21116763497648663
000560 75 a1 63 09 f0 94 c0 3f 6d 84 89 c3 4e b3 cc bf
       0.12954521616417095 -0.22422203586305348
000570 81 ca 1d bb 17 de d9 bf ce de ec 7b d4 02 c1 3f
       -0.40418046258051993 0.13289886523283773
000580 0f f6 c2 92 03 b5 b4 3f ba dd d2 df dc e7 d1 3f
       0.08088705380483695 0.27977678163321296
000590 68 50 a0 c7 9a 88 c4 3f 2f 4a d7 4c e9 29 82 3f
       0.16041884181379662 0.008869002015591125
0005a0 24 90 10 c3 ad b9 cd bf 13 a2 3f 88 a3 1c cb bf
       -0.23222896599429632 -0.2118114867473798
0005b0 bc 70 ba 7c 30 42 c3 3f 81 28 df d6 6a 7e c9 3f
       0.15045744028328112 0.1991704510858803
0005c0 21 e4 e1 3b 6d 19 cf 3f 03 62 b4 0b 92 c7 c9 3f
       0.24296346115059556 0.20140290805353808
0005d0 57 13 58 c0 22 6c c1 3f 0e ed d7 73 6e 37 a2 bf
       0.13611254112052038 -0.03557915844063518
0005e0 a8 3f 25 a7 2e fe ba 3f c0 b7 c6 cb 01 d4 ce bf
       0.10544101315212961 -0.2408449406624964
0005f0 f9 21 7a 3d 5b bb a9 3f 5d ec fb 1e 5e 36 c0 bf
       0.050257540945555186 -0.1266591693200522
000600 10 ab 7a e7 87 a2 c6 3f a4 7e 39 f1 b3 ae c9 bf
       0.1768350487012289 -0.20064400938553206
000610 97 45 44 2b f8 52 c9 3f 22 72 cf 98 fc 3f cb 3f
       0.1978445254576797 0.21289021932069924
000620 41 b7 0f 33 c7 f6 d0 3f 59 24 bb 74 5f 0e cc bf
       0.2650621412893664 -0.21918862533337594
000630 32 1f 17 9c 9f e2 ab 3f 5d 8a 8a f1 72 de 7c 3f
       0.05446337490462695 0.007048081396222897
000640 04 05 35 82 7a dc a2 3f 3e 1d 19 ff e2 e8 b0 bf
       0.036838367838308655 -0.06605356910687463
000650 ac 29 c2 f1 b7 af 76 bf e4 81 b6 06 1a eb c6 bf
       -0.005538672001544159 -0.17904973342685004
000660 52 fb 69 c2 d5 b5 cf bf c2 1b f3 ee b2 b7 d5 3f
       -0.24773666375036868 0.33933709464002615
000670 21 8e 19 6f 70 48 96 3f b5 d9 fa c2 ef c6 bd 3f
       0.02176070860003965 0.11631678114176831
000680 a8 c7 fd 12 ca b4 bb bf b2 a1 f6 1f 84 46 d4 bf
       -0.1082273765912577 -0.31680396195818183
000690 c1 d9 98 a8 9a c6 b6 bf 29 f9 7b e6 d4 5a d3 3f
       -0.08896795860423536 0.30241892345647386
0006a0 79 d0 b5 c9 09 87 ac 3f ff 23 88 55 be ea bd 3f
       0.05571775996477952 0.1168631514375562
0006b0 52 9c e6 ff 98 81 c1 bf 08 60 ef 1d d3 6d c2 3f
       -0.13676750655324327 0.14397658311531836
0006c0 71 9b 6f 7f cb a1 b5 3f 48 da 4e af 7b 3c 91 bf
       0.0845000444529498 -0.016832287383034022
0006d0 44 c3 48 d1 b0 2f 98 3f 3d 21 7f a7 40 45 b4 bf
       0.02361942555779996 -0.07918171014091953
0006e0 49 ee 0c 57 a8 6d bc 3f f2 23 ee 16 da a5 c3 3f
       0.11104824185616126 0.15349889869347028
0006f0 f7 b4 b9 29 3e ca 9c 3f 2a c6 ed 10 fc 2b b6 bf
       0.028115245148389225 -0.08660865224171546
000700 3a 2d b3 7a 73 08 85 3f 20 c6 56 50 a6 01 d0 bf
       0.01027002542686849 -0.25010068746186853
000710 2e dc 79 24 e5 08 a8 bf c3 a2 a4 12 83 45 d2 bf
       -0.046942864134443915 -0.28549267597786016
000720 ee ab 2d c4 9c 38 bc bf b1 ce 00 1a 04 bd d0 3f
       -0.1102388361884292 0.2615366224228906
000730 35 3e d6 cc c0 d6 d1 3f 83 57 0a 0d da 83 c7 3f
       0.2787324905739042 0.1837112964319055
000740 b8 6a c8 cd d1 b3 ae bf 1e 47 ae cd c1 10 b1 bf
       -0.059965664262752794 -0.06666194221022834
000750 95 85 fd 9a 50 e6 d1 3f 49 d3 86 2c 76 24 d0 bf
       0.27968230376981157 -0.25222544048601897
000760 79 b7 79 c2 d3 89 b7 bf b0 d9 2d cf ed 06 c4 bf
       -0.09194682596145566 -0.1564614545456613
000770 5d e3 f2 bb 9c 1b ad 3f 92 06 80 d7 2f 00 d4 3f
       0.05685128969475415 0.312511406373326
000780 29 b1 d2 c9 f3 18 cc bf a2 4c 3f b4 94 11 b1 bf
       -0.21951148371352616 -0.06667451286857554
000790 3d 23 5d b6 5b 5a ba bf ae 9b 1b 9d 3d 4b d5 bf
       -0.1029412574981849 -0.3327173265701572
0007a0 f7 0f 3c 44 71 e8 a8 3f 5b 65 d1 14 1a 66 b4 bf
       0.048648395137234894 -0.07968295105219651
0007b0 8e 1c b7 d3 71 d3 d2 bf f4 d0 3f 21 e0 fd d0 bf
       -0.29415555644340763 -0.2654953312587758
0007c0 ae 9d 96 76 ca 49 ce bf 33 53 06 2b bc 1f ba bf
       -0.23662691870161495 -0.1020467381516255
0007d0 23 ad d1 8a 38 1b d2 bf 31 b1 89 54 1d 18 b7 3f
       -0.282911429944493 0.09021170915520284
0007e0 37 08 8c 26 2b 6a d2 bf 80 83 8f a2 61 11 c5 3f
       -0.287730014461093 0.16459293782738982
0007f0 54 c0 05 5f 86 14 ca bf ba 85 a3 9f 46 bc c1 3f
       -0.20375136985558362 0.1385582236753587

model.3.bias f8 [20]
000000 55 fe 91 09 5d ac b0 bf 37 56 5a e4 5a 77 c7 bf
       -0.0651300571789702 -0.18332992696802972
000010 0e ea d9 bb fe 29 c6 bf 0c a7 3f 60 7d 64 a1 bf
       -0.17315658733771538 -0.033969800948240175
000020 93 62 d0 92 2c ad d2 3f 7f 12 d3 9c fe 72 d2 bf
       0.2918197091799268 -0.2882687121857898
000030 54 21 7e e3 27 db c9 bf 4b a4 1e 8c 49 b2 d1 bf
       -0.20200060470620917 -0.27650679286540897
000040 3e a4 cf bd 17 1c c5 3f b4 de 50 4a 05 92 cc bf
       0.1649198223888408 -0.22320619705873457
000050 ed f2 4b 60 9d e5 95 3f df ef 57 22 0d 52 94 bf
       0.021383723261339794 -0.0198442508899318
000060 9a b6 fa ac 29 6b 94 3f b4 aa d9 0d 89 9c c0 3f
       0.0199400436237541 0.1297770803096988
000070 24 a7 b6 e7 70 60 ac bf 45 c0 cb ea 74 de bb 3f
       -0.05542328671010768 0.10886316997835006
000080 8f a2 19 5f 12 92 b3 bf 50 80 90 90 e0 f4 93 3f
       -0.076447628228957 0.019488819907678867
000090 bd 9d 08 bf 3f e9 ca 3f 1a 51 be e7 1b db c8 bf
       0.2102431948453453 -0.1941866761741345

model.5.weight f8 [20]
000000 dc df ef 8f ef 97 ee 3f 99 51 ce 1b 6c 13 e7 3f
       0.9560468493718832 0.7211208861431714
000010 36 c6 f3 0f 74 f4 e7 3f 06 63 62 99 e3 ed f4 3f
       0.74859049907372 1.3080783835959564
000020 59 82 1e 20 44 72 ee 3f fd 0d 06 ba d6 36 f0 3f
       0.951448500378386 1.013388373045813
000030 c5 11 95 e2 0b 71 f0 3f 3a 3a fb 1c 9d ad e9 3f
       1.0275992251273334 0.8024430814783223
000040 2b 50 fd 08 c7 aa f2 3f 15 b3 b9 0a 75 41 ee 3f
       1.1666937209274788 0.9454903802376032
000050 59 ff bb 54 d3 9c f0 3f 7f b2 2f 89 f1 8f ee 3f
       1.0382874784408698 0.9550712279720556
000060 d3 6c fb 25 c0 fa f2 3f 88 1f 24 c5 42 ce ef 3f
       1.1862184032132077 0.9939283228313665
000070 b8 93 7d bf 82 48 ea 3f 6e b7 9e c8 11 43 ec 3f
       0.821351408009483 0.883187190853034
000080 04 6b 07 29 0c 77 e7 3f 67 bb 2d 1b 89 d2 eb 3f
       0.7332821656558228 0.8694501429398372
000090 2b 55 f4 4d 46 c8 ed 3f c1 53 f6 9f cb 2e f1 3f
       0.930697586302505 1.07392466054192

model.5.bias f8 [20]
000000 df 79 1e f1 7a 30 da 3f e4 3a 0a 83 c0 ae 93 bf
       0.40920899912626213 -0.01922131347469759
000010 dd 67 e5 4b 5f 15 96 3f c0 fb 85 4d a8 fa e0 bf
       0.02156590367062693 -0.5305978311661121
000020 40 f9 fe 5b 1d 98 dd 3f 95 78 c7 1a f0 48 d7 bf
       0.4624093435667369 -0.36382677664904267
000030 bc 68 97 4d 93 8e c5 3f bd 70 7d 50 72 66 a5 bf
       0.16841355599064467 -0.041797230077209126
000040 d0 c7 03 4d b8 ca dc 3f 5d ed cd e1 15 42 d0 bf
       0.4498730423066464 -0.2540335373993992
000050 e7 e9 a0 f1 b0 e3 d0 bf f6 64 2e 63 61 ad c7 3f
       -0.2638971671728129 0.18497865050156975
000060 22 3f 0c 59 7f 28 dd bf f5 31 c0 19 8f 02 cb 3f
       -0.45559676834180796 0.21101559407578888
000070 ff ae cb 86 52 91 b4 bf 8b a7 6f 4a 1d 6e d0 3f
       -0.08034244337948947 0.25672085065036104
000080 7f 9d ae 1f 3d c1 c5 3f e5 3e 7d 93 20 73 c3 3f
       0.16995967909791074 0.15195090486167043
000090 c0 e5 72 af f9 01 bd 3f 7f 1e 07 6e d2 f4 d6 3f
       0.11331139119547284 0.35869274849799376

model.5.running_mean f8 [20]
000000 bc a9 32 a4 1c 56 d4 3f 61 27 d0 49 08 94 ce 3f
       0.3177558520789281 0.23889258960871998
000010 9b 87 75 b3 bc d6 c8 3f 92 a9 b2 87 36 c0 d3 3f
       0.19405325663234127 0.308606750981789
000020 c6 4f 8b 7e 3e 27 de 3f a8 43 04 b7 5f d2 cc 3f
       0.4711452708991114 0.22517010151252959
000030 51 59 91 78 ef 54 d3 3f f0 21 4b 81 2f ff c6 3f
       0.3020590474528904 0.1796626454654553
000040 56 57 7a 77 6f 77 d5 3f 92 b8 a4 71 c9 bb c5 3f
       0.3354147593284912 0.16979330109592589
000050 54 07 73 aa ae 84 d8 3f a4 35 19 c8 7f f1 d3 3f
       0.38309828420107306 0.31161493817202257
000060 9d 04 1f a7 46 80 e3 3f 30 db c0 dc fc 39 dc 3f
       0.6094086898884999 0.4410392909807568
000070 39 67 c3 5c 60 ec d5 3f dd 14 30 0f c3 39 da 3f
       0.34255227145114336 0.4097755096739329
000080 c2 35 51 62 f3 48 c3 3f df b6 66 d2 bd 3e d1 3f
       0.1506637792648871 0.26945443675036346
000090 f7 46 fa 28 e4 4d e2 3f 12 d1 f6 d8 53 1d d6 3f
       0.5720082092613826 0.3455400103369054

model.5.running_var f8 [20]
000000 a1 88 be 67 45 69 c2 3f 68 87 f1 7e 74 22 d2 3f
       0.1438376194537954 0.2833529700929973
000010 3a 64 64 7a 6e b2 c8 3f 2a 65 56 6b 00 67 c2 3f
       0.19294529892138873 0.14376836052978464
000020 e3 8e d7 2e 37 9a cc 3f ad c3 30 ee 4f 4e d3 3f
       0.2234562853546925 0.3016547990874255
000030 f8 66 ea aa a8 27 de 3f 71 04 3f 84 f1 86 ca 3f
       0.47117058459262706 0.20724314648944955
000040 ae 7a 27 7b 4c 63 d2 3f 8a c9 21 ed 7c c0 c5 3f
       0.28731071497706295 0.16993676737508806
000050 c1 ce eb 23 cc d9 e1 3f be b8 9e 02 aa 5e e1 3f
       0.55783659950108 0.5428056765720368
000060 cb e1 32 6f d6 94 df 3f 8f b0 ba 5a f7 99 e2 3f
       0.49345932826284117 0.5812947055869858
000070 de 65 6d 0e 0b e3 d9 3f 5f 5e ed 20 40 ad db 3f
       0.40448261650962347 0.43244937148617696
000080 96 cf e9 97 6b d4 c7 3f f9 58 21 f7 4f d0 d3 3f
       0.18617005269663583 0.30958937772574263
000090 66 78 e0 a8 13 d0 dc 3f da ed f5 8c 19 90 d7 3f
       0.4501999997318137 0.36817015424432287

model.6.weight f8 [10, 20]
000000 95 f4 6c bb 83 b3 a3 3f c1 43 40 29 49 01 aa 3f
       0.0384789625445389 0.05079105976631793
000010 99 66 5a aa 7d 2e a3 3f d1 04 24 3e 27 05 e6 bf
       0.037464072270450184 -0.6881290639577405
000020 66 ee 85 a5 33 48 8c 3f 18 cb ca 02 3e 5e cc bf
       0.013809588898531188 -0.22162604461990365
000030 38 f0 cc 77 ac 20 94 bf 35 22 2f 84 d0 80 af 3f
       -0.019655890285534577 0.06152965177131301
000040 28 57 23 db fd 06 c6 3f 5d 6f 0a df b0 4f af bf
       0.17208836746311218 -0.061154868342071046
000050 a1 23 a8 35 c6 ef c2 3f ae fa 11 44 e8 b0 cd 3f
       0.14794232959709766 0.23196128200284732
000060 37 11 a8 6d 99 a6 ae bf d5 0c 3a 83 1e ba c2 3f
       -0.05986480201321103 0.14630490691715772
000070 fe 9f 68 fd ae ea c0 bf 90 8b 10 85 95 14 c9 bf
       -0.13216197370024924 -0.19594067570968976
000080 80 6e cf 43 87 32 c7 3f e9 c9 8e 00 a4 2c b5 bf
       0.18122950373696156 -0.08271241201035874
000090 a5 17 22 6c 30 4b c6 3f 83 2f 7b 5a 07 5b c3 bf
       0.1741695907587061 -0.151215476207991
0000a0 35 5d 51 09 e7 0a d1 bf 44 51 cf 09 06 9d cc bf
       -0.26629043493217647 -0.22354197958942212
0000b0 52 8e e7 cb cb 2d 9f bf 71 56 2d cc f2 42 b6 3f
       -0.030448135681480366 0.08695905194084631
0000c0 35 8e a0 9c 8e 02 7b 3f 2f e0 c7 a8 78 29 d1 bf
       0.006594235494080493 -0.26815620882507835
0000d0 d3 d6 18 1a ee 51 dc bf 33 c1 ad 6e 0f eb ac 3f
       -0.44250061558282744 0.05648086763437945
0000e0 6c 1a 13 d4 63 5c d4 bf 5d 8b 99 6b f9 57 cb 3f
       -0.31813903532421395 0.2136222625150265
0000f0 3a 17 11 52 01 fb c0 3f 18 67 8a b8 ea 94 b8 3f
       0.13266006953397796 0.0960222912348424
000100 f6 e1 29 9b 76 bf d1 3f b7 a4 24 df 96 b9 c2 3f
       0.2773109927434513 0.14628873725567867
000110 ce 8c 26 78 97 20 d2 bf 8e 9f 65 f7 61 27 c2 3f
       -0.28323923810439744 0.14182686405115102
000120 b2 77 fd ad 87 3b a9 bf 02 f5 17 60 96 93 8a bf
       -0.049282302845980466 -0.012976813132804303
000130 8e 8b 6a fd 0c 97 d6 bf 33 0a b5 0c 9d d4 d4 bf
       -0.35296940562891954 -0.32547689667640894
000140 80 e8 56 4d 4f 4d d1 3f 25 8e e7 77 d8 0c b0 bf
       0.27034361412700747 -0.06269600798946635
000150 d7 08 4f 48 42 0c 7a 3f 16 fe 9f 1a d3 eb e0 bf
       0.006359347263187063 -0.5287871856707536
000160 6f 65 33 3f 4f ab c5 3f a6 cc d7 40 cc c1 c0 bf
       0.1692904528233998 -0.13091424146805258
000170 29 82 01 e3 d3 08 bb bf 44 f3 b2 21 b0 0e 9a bf
       -0.10560344974647563 -0.025446655327630255
000180 43 99 56 33 83 3e c4 3f b0 74 aa 03 8e b5 c0 bf
       0.15815773016692888 -0.13054061106678239
000190 7c a6 f7 51 5b dc c1 bf 3a 3e 79 0a 0b f9 a7 3f
       -0.13953725340188672 0.0468219232831157
0001a0 1d 8a a8 70 7a f6 b0 bf 86 bc 7b 1f 7f 68 d2 3f
       -0.06626096010635547 0.2876279647306962
0001b0 4e b8 6f 2c 21 10 ad 3f d1 01 78 b0 36 ad a2 3f
       0.0567636839622173 0.036477765122984736
0001c0 7a 55 fb 4b 07 34 c4 3f 9a e9 ad 9f 8e a2 c1 bf
       0.1578377839092971 -0.1377733497318559
0001d0 f8 41 00 06 57 17 c2 3f b7 58 4f 1e 43 b6 ce 3f
       0.14133727829950238 0.23993720035531904
0001e0 84 ae d2 3c b0 02 cd bf 80 58 15 50 52 b4 b1 3f
       -0.22664454431411596 0.06915773825798688
0001f0 98 f1 13 71 24 62 c4 bf 88 4d d6 ae ab 65 b9 3f
       -0.15924506684667672 0.0992076207970084
000200 0c 6d 90 f2 d4 ba cb bf 4c 2a 32 4d b6 90 ce bf
       -0.2166391548533756 -0.23879126328786737
000210 3c b4 e2 eb c8 1a ba bf e0 44 eb 05 cd 1e b1 bf
       -0.10197120436596746 -0.06687623400218312
000220 dc de b1 b2 3e 5d de bf 86 af f2 6c 93 03 c7 3f
       -0.47444121790566185 0.1797966272328006
000230 5e a0 e9 a6 ce 36 af 3f e4 7b cb bc e9 19 c8 bf
       0.06096502101428379 -0.1882908031320475
000240 ca a8 2c 8a 44 d1 cf 3f dd 93 df 67 98 dc d2 bf
       0.24857384440230695 -0.29471407073861916
000250 75 1d 5a 0b f1 88 bf bf df f7 b3 3e 32 f7 bb 3f
       -0.12318331267498712 0.10924066572985634
000260 fb f1 95 5f 1c 2f bc bf 56 00 55 61 94 ec b3 bf
       -0.11009385427127676 -0.07782866836805744
000270 d0 cc d5 76 0d b3 9c bf 8a 41 20 52 1c 22 b6 3f
       -0.028026781442758886 0.08645798687962816
000280 ce ce 9e 5b 09 04 90 bf d8 b9 6a a1 61 59 c1 bf
       -0.015640398232519108 -0.13554020291981206
000290 54 f6 3d d5 f9 0d a4 bf ea 0f af 72 0f 1e c4 bf
       -0.03916912773182149 -0.15716736888691624
0002a0 2c 33 2d 5e 18 c4 d0 3f 06 a3 15 d2 01 ba c0 bf
       0.2619687003796567 -0.13067648656876701
0002b0 17 27 2f 9a e6 2f c1 3f b7 67 52 18 ad 9a 86 3f
       0.13427431610608018 0.011037208847756703
0002c0 80 1a 1f 1c 94 33 d2 3f 36 42 fe 9e 52 06 ce bf
       0.28439810510864305 -0.23456795466747032
0002d0 70 cc ee 4a fd e3 c3 bf 83 ad af 58 14 1c 69 bf
       -0.1553951850779387 -0.003065147151110005
0002e0 83 1a c6 86 74 f5 c8 bf c5 a2 0b df 82 30 d2 3f
       -0.19499069767717367 0.2842108896425482
0002f0 cd 3c e8 1b 7b e7 b2 3f 52 d6 cd 81 99 70 c8 3f
       0.07384461814239103 0.190936268216023
000300 ec e8 1c 66 c2 fe c0 3f d2 e7 79 8d 41 35 7c 3f
       0.13277463899596087 0.006886726441388507
000310 92 42 4d 42 ac 15 ca bf 25 43 2f 17 62 9c b6 bf
       -0.2037864040126079 -0.08832371774702759
000320 14 eb 5d 93 59 ab c4 3f ae 90 ad 7d 95 de b8 3f
       0.1614791841091906 0.09714636152563358
000330 1d eb 1a 1f 15 da b5 bf cb f3 7b fd cc 57 96 3f
       -0.08535892495539739 0.021819308253714625
000340 db dc d6 fe ce 39 b8 3f d5 9d e5 5e a0 57 b3 3f
       0.09463208886778622 0.07555582348651708
000350 02 bf 5c 47 51 bd c0 3f 0a 16 80 64 8c 18 be bf
       0.13077751144873423 -0.11756207898732654
000360 64 5d f7 08 e6 dc c2 3f 73 d5 f1 83 ad 91 c7 bf
       0.14736628949934094 -0.18413323347673902
000370 a2 15 53 59 d8 66 b7 3f c5 71 88 15 9f 3c 9a bf
       0.09141304188513869 -0.02562187737395207
000380 0c 01 82 3f 35 a8 da bf 88 c0 29 66 16 17 4d bf
       -0.4165166015809667 -0.0008877620096665742
000390 09 9c 1b d1 fa cb c4 3f f0 76 64 71 4b 68 c3 bf
       0.16247496805519315 -0.15162032162418582
0003a0 70 b0 ca 2a 45 cd aa 3f ce bb 62 76 c8 33 ce 3f
       0.0523473372207669 0.23595529346991245
0003b0 67 10 cd 3e 62 9f b0 bf 03 53 e1 20 ae 00 9f 3f
       -0.06493200333813008 0.030276032215925685
0003c0 65 74 35 a6 d7 56 be 3f a5 aa c0 d0 e0 7d b0 bf
       0.11851260955650529 -0.0644207486772453
0003d0 c7 0a c3 23 cc 2d b8 3f 3f 60 fc f3 0f b0 d2 bf
       0.09444881318180896 -0.29199599100821055
0003e0 26 c0 33 88 c7 1a c5 3f 26 a8 ae b2 d7 e6 b0 bf
       0.16487974310393944 -0.06602237808570574
0003f0 a8 1b 25 ac 6b 27 bb bf 4b 98 c0 bd f1 19 b0 bf
       -0.10607026055104873 -0.06289587862610906
000400 40 00 aa 09 45 d0 b5 3f 0f 7e d4 1b ee 27 b5 bf
       0.08520919309558028 -0.08264053515858215
000410 69 38 3c c3 dc 29 d7 bf 30 88 2f ff 2c 0c ce 3f
       -0.36193007532063476 0.23474657497632867
000420 54 0b ce b0 9d 96 ba bf 5f 36 9f 21 44 83 c8 3f
       -0.10386071745419417 0.19150592462249258
000430 1e 69 3b 10 55 cc b4 bf cc 40 7c d7 34 ef a3 3f
       -0.08124286314287985 0.03893437509953088
000440 8b 5e fd 1d 4b 75 bf bf 16 df 06 8f 1f 16 b2 bf
       -0.12288350565119736 -0.07065007440439461
000450 8d cd 69 0a 9d 30 c7 3f 58 fc f0 c3 e1 78 c5 3f
       0.18117106445752676 0.16775152270745042
000460 cf 35 80 23 3b 82 d5 3f 20 98 ad 40 09 bb bc bf
       0.33607367007138306 -0.11222894505553471
000470 dc ae de e0 fc 36 60 3f 41 86 80 49 20 86 d3 bf
       0.0019793452292641133 -0.30506140878614835
000480 e1 5c 3d 95 27 8c cc 3f 29 6a c9 c0 83 58 cd bf
       0.2230271795949426 -0.2292637530652695
000490 af 1d 25 af 63 41 bc 3f a7 39 fa f8 06 be c6 bf
       0.11037276292801466 -0.17767417103864355
0004a0 9c fe 8e 95 c4 73 c5 3f 92 be c0 d4 dd 7d cb bf
       0.16759545614876437 -0.21477864158940868
0004b0 74 72 c8 9d e7 41 c7 bf fa 30 81 c5 45 1f 71 3f
       -0.18169875339744446 0.004180214447910164
0004c0 f4 f7 04 4c 51 b7 cc bf f4 e7 af 56 59 74 c3 3f
       -0.22434440814862422 0.151988189056112
0004d0 60 3e b9 66 60 79 c3 bf ed 7e 57 b1 7c d2 c8 bf
       -0.15214161887932942 -0.1939235559393561
0004e0 1c 52 20 6c e3 6a a8 3f 26 51 82 a6 4b 88 91 bf
       0.047690493535047035 -0.017121488607316902
0004f0 c4 57 d4 5a eb 13 ac bf dc ac 9a b6 c4 ed d2 3f
       -0.054839472615796164 0.2957622321361677
000500 47 cf f5 23 08 95 c3 3f ac 82 e1 85 42 00 8e 3f
       0.15298558956021166 0.014648933134766416
000510 c7 f8 ac 58 95 f5 a2 bf ca a2 52 b5 65 f1 bb bf
       -0.0370299025293988 -0.10915218045068822
000520 40 38 67 44 b8 06 51 3f e4 af 1b d2 59 52 c5 bf
       0.001039199779927738 -0.16657564887225285
000530 47 3b 96 06 ef 11 cf 3f 04 cf a8 6a c3 d2 b6 3f
       0.24273479291556496 0.089153493442435
000540 db 07 3a 48 6e 6d d4 3f 6e 5d 76 fd df 08 c6 bf
       0.31917912534129095 -0.17214584232418012
000550 56 dc 1c c7 bd 4c d0 bf 5c 98 a2 02 69 48 c0 bf
       -0.2546839184246371 -0.12720978382748427
000560 df 9a 58 bf 67 46 dc bf 32 17 8d 07 42 38 89 bf
       -0.4417971962561022 -0.012314334731523855
000570 34 7e ba c4 25 a7 91 3f ca 47 0f d6 bd 69 d1 3f
       0.01723917973742868 0.27207895187632103
000580 25 23 af cf f4 40 90 3f 8b 5d 6f 29 cc 5a c7 3f
       0.015872788597138716 0.18245842002100363
000590 6a 46 a5 62 35 c0 ab 3f 83 d2 a0 4e 87 75 bc 3f
       0.05420080975694648 0.11116834325441442
0005a0 d5 3d 6b 12 65 80 77 3f 58 13 fe e4 60 06 d3 3f
       0.005737681209850594 0.29726431238696227
0005b0 34 45 cc 63 e9 a7 d1 bf 5a 21 99 ed c7 4e d5 bf
       -0.27587351556674666 -0.3329334087652761
0005c0 d4 fa d7 e7 dd 80 9b 3f 6c 7f 9c bb b8 4a c4 bf
       0.02685877540170163 -0.1585303226538558
0005d0 91 2e cf ff 76 b4 d1 3f e6 27 a1 a3 49 a2 d0 bf
       0.2766396997583139 -0.25990525226063566
0005e0 2e e3 8b 88 83 47 d8 3f 23 90 8f 7a 13 ee b8 bf
       0.3793648560963899 -0.09738275282103408
0005f0 6e 5e 7e b4 41 50 c3 3f 6b 95 33 10 5e bb c0 3f
       0.15088673890271614 0.1307180003270035
000600 e4 b4 9c f7 78 97 d9 bf f1 bb 15 01 92 db d0 bf
       -0.3998701494300134 -0.26340150934168977
000610 c1 14 64 d1 20 6f be 3f d1 71 1e 78 9f 54 ab bf
       0.11888318168719804 -0.05337999669356786
000620 54 e7 c2 84 05 e3 bb bf dc d7 0e b0 54 09 a0 bf
       -0.10893282405132015 -0.031321188441708364
000630 76 1c cf 56 c8 02 ac bf 4d 45 31 78 02 05 da 3f
       -0.054708729359440975 0.40655576455636294

model.6.bias f8 [10]
000000 3b 25 2e c5 91 54 ca 3f 68 7a e1 26 28 1b cb 3f
       0.2057058537286965 0.2117662610862283
000010 56 6d e0 9f 2e cc d7 3f 15 d3 25 b1 f3 80 a2 3f
       0.37183728802638905 0.03614007508705278
000020 3f dd e8 3b 11 94 c3 bf e1 8f 2d aa 55 33 d5 3f
       -0.1529561560180159 0.331258217038565
000030 ce 7e 64 84 aa eb c4 3f bf 2c 15 fe aa 0d e1 3f
       0.1634419580886885 0.5329184496453293
000040 ff 50 b3 0f bd d3 d8 3f 1f a8 09 0b f3 7c e3 3f
       0.38792349370238804 0.6090026107388019

model.8.weight f8 [10]
000000 e5 b1 ff 2d 90 10 f2 3f 03 85 c5 0c 0c 70 f4 3f
       1.1290437504604764 1.2773552416695686
000010 60 41 88 ce 74 61 f4 3f 37 21 22 08 66 8e f5 3f
       1.2737930362382812 1.347265273829249
000020 47 54 df ec af 4c eb 3f 5e c2 ca 60 48 22 f0 3f
       0.8531112314618746 1.0083698063791853
000030 51 a7 c8 99 fc cd f0 3f f5 02 65 d6 4a 77 f3 3f
       1.050289726942044 1.2166241049564495
000040 0f 31 fd 86 01 02 f2 3f dd 1c 02 40 3f 02 f6 3f
       1.1254897377976396 1.3755486011812572

model.8.bias f8 [10]
000000 9a 3d 96 68 e5 61 d9 bf fc f2 97 0e db 3f e3 3f
       -0.39660010541498425 0.6015448842077542
000010 0f a7 68 91 a7 30 de bf 53 5e 63 3a 34 3b e1 3f
       -0.4717196388252071 0.5384770527261459
000020 c0 df 6a 90 06 7c dc bf b2 d8 30 80 bb 8a d8 bf
       -0.4450699243857308 -0.38346755522378395
000030 1d e7 29 45 c9 65 d6 bf 50 31 36 b0 5f a1 da bf
       -0.3499625373293485 -0.4160994740311894
000040 d1 9a 20 98 f8 81 db bf 47 fb 1e 6b 02 36 d5 bf
       -0.4298078046435139 -0.3314214750388839

model.8.running_mean f8 [10]
000000 42 85 52 2e 6b ab ee 3f a2 32 61 77 5b ea da 3f
       0.9584251312955205 0.4205540338341881
000010 05 f2 e8 4a c4 ff f5 3f 17 6d 05 fd b7 ea cc 3f
       1.3749430586022993 0.22591304640341356
000020 d1 bf 70 a0 dc 4c e4 3f 09 58 f5 67 20 e3 e7 3f
       0.6343825467683876 0.7464754133641246
000030 31 4e 6b e6 9d 30 f0 3f 06 b4 09 c0 42 d3 f8 3f
       1.011869335245944 1.5515773297768205
000040 0f 12 61 f5 37 6d f3 3f 21 4d d7 1b 6e 76 f5 3f
       1.2141646943210878 1.3414136016406888

model.8.running_var f8 [10]
000000 29 11 21 6e cd ef ea 3f c8 e7 53 3b dc 0f d2 3f
       0.8417727614364924 0.2822180346844303
000010 f4 3c 67 8d 21 89 f4 3f 71 85 0c b6 fa ee be 3f
       1.2834792636456855 0.12083403534463401
000020 31 a8 52 04 40 1b e3 3f 47 93 89 c8 53 29 e1 3f
       0.5970764240676144 0.5362948338266528
000030 b2 4a 4c 2c 79 9c e7 3f 02 d8 cc 7f f5 60 f3 3f
       0.7378507485576249 1.2111716263002568
000040 32 a4 20 c5 54 8b ed 3f 45 46 33 2e 2d 8e f4 3f
       0.9232581949373808 1.284711056203734

model.10.weight f8 [1, 10]
000000 a7 20 a1 23 af 23 e0 bf a8 82 c9 ba bc 41 e1 3f
       -0.504355973805123 0.5392745636164209
000010 43 e4 a4 48 60 3a da bf 3b e5 6c b0 87 dd e6 3f
       -0.40981299490119144 0.7145422406967222
000020 08 6b 87 8a 5f ad c7 bf d7 c2 e1 54 2e 44 da bf
       -0.18497843040571404 -0.410411436932049
000030 bd 6d ba 01 bd c2 da bf 90 44 ac ae 7d fb dc bf
       -0.4181358830334963 -0.45284978921797236
000040 9b 13 65 d4 de 30 de bf cd ff cc e7 03 fe d4 bf
       -0.47173281423266084 -0.32800386082453487

model.10.bias f8 [1]
000000 f2 ba a3 66 6c fd c4 3f
       0.1639838696641714
