dnn/ionosphere/fold_3_model.pt (torch, 51083 bytes, 34 tensors)

model.0.weight f8 [30, 33]
0	0xbfdb806ad618d8f4	-0.4297129717628103
1	0xbfab8fab815ee27c	-0.05383048967582213
2	0xbfe0449bf343c48e	-0.5083751441253683
3	0xbfd685450e699f2d	-0.35188414008597385
4	0x3fcff5f75c271ccc	0.24969379424712768
5	0x3f91ed222998e0ad	0.017506154812708164
6	0xbf9e63fa5a9f386d	-0.02967826059448735
7	0x3fd656a039ea61a2	0.3490372243482175
8	0xbfbdc8f04e2bd6aa	-0.11634733112790721
9	0xbf9a164b167af4de	-0.025475667235458903
10	0xbfc27aa1be9ba1bd	-0.14436742598560484
11	0x3fafd039b07e5752	0.06213550834142602
12	0x3fc16f67fd6691a8	0.1362123477275763
13	0x3fc40bbc7d84a3d0	0.15660816315474202
14	0xbfaca1f077253dd7	-0.055922998947263096
15	0xbfbbe244024ea943	-0.10892128998117294
16	0x3fb085565e6882dc	0.06453456692589604
17	0xbf9867b4b15c1f04	-0.023833106351076175
18	0xbf9dd0694a8c3998	-0.02911533849242573
19	0x3fc3ba911296d6e5	0.15413106353451336
20	0xbfd662a6275f3af9	-0.3497710594646573
21	0x3fb0fd0789a4e2fe	0.06636092291308768
22	0xbfc5a65083fb715b	-0.16913801617091448
23	0xbfb7bf545215df8b	-0.09276320461310499
24	0xbfd1e071c744ee28	-0.2793240018833978
25	0xbfd4a195c267d242	-0.32236236557881537
26	0xbfb123f56e3739dd	-0.06695493641675605
27	0x3fc35f38aa4547fb	0.1513434249305304
28	0xbfdbf849370939f5	-0.43702917456258145
29	0x3fbd77d2468732e6	0.115109579294948
30	0xbfcaaf521ba56d02	-0.20847536420738072
31	0x3f48da1871947a22	0.0007584208825937614
32	0xbfc4fe4fcdc8af46	-0.16401097820323168
33	0x3f835e30dd952bbc	0.009456998598258319
34	0xbfa80b955b85092a	-0.04696337454017148
35	0x3fdaaa762127f67e	0.416654140833863
36	0x3fae05a2d21fef88	0.0586367494106233
37	0xbfc8cd9446388c0b	-0.1937737791896271
38	0xbfcb59031d15b24a	-0.21365393562463658
39	0xbfd98f39496686b6	-0.39936668556229493
40	0x3f9c32435a4fdd0a	0.027535488497929562
41	0xbfcf44b029ab7723	-0.24428369555146742
42	0x3f90e4301b0b94d5	0.01649546780653995
43	0x3fc653417ddf116c	0.17441576620161514
44	0x3fb08100abec04eb	0.06446842381776079
45	0x3fb2d4750002757f	0.07355433702692514
46	0xbfc261fecaf15717	-0.1436155787402462
47	0xbfc4eba845f3a9be	-0.16344169059386887
48	0x3fc12cbeeea929f3	0.1341780343376083
49	0xbfd1ceef0c555867	-0.27825523571426064
50	0x3fc5a17eb8179a24	0.16899093617321725
51	0xbfc39397e9c1de96	-0.15294169343882363
52	0xbfc1913b877b6545	-0.13724464526493754
53	0xbf81f09b286845c1	-0.00875970093787515
54	0x3fb77c62666027d7	0.09174170493511667
55	0x3fc760d41148b134	0.182642467917853
56	0xbf8f337985de01b8	-0.015234898946574357
57	0xbfa35892bde7830e	-0.03778513496559387
58	0x3fdc2557e2ef7e61	0.4397792545478066
59	0xbfb4dc95d2a62d72	-0.08149086373139428
60	0xbfb257a4f79ecfd8	-0.07164984746378822
61	0x3fc5be44262be648	0.16986896385042116
62	0xbfb631021885901d	-0.08668530558276229
63	0xbfa5f19f497ad1f8	-0.04285905620546154
64	0x3fafde0bcc525dfa	0.062240952197665636
65	0x3fc979128ff6df14	0.19900733975895746
66	0xbfd0492dcf78edb8	-0.25446648846601816
67	0x3f9fe8828097c2ba	0.031160391901667174
68	0x3fb99dfd3153b3b9	0.10006697134276878
69	0xbfd59b742eec9e31	-0.33761314947557525
70	0xbfc704dfa851f234	-0.1798362323642252
71	0xbfc2a0edde0596d2	-0.1455361684885959
72	0xbfd38af044c7e73d	-0.3053551360786633
73	0xbfcdc20a4ad736bd	-0.23248413709955243
74	0x3fc5733776d83b6a	0.16757863333665607
75	0xbfcd7dfa390dae2c	-0.2304070261555905
76	0x3fc57ebc129a2164	0.16793013485245034
77	0x3fa7530856e7c6f8	0.045555363281790606
78	0x3fbdbfadbbf90671	0.11620603408030107
79	0x3f18f1b9c3fce5e2	9.515472720247152e-05
80	0xbf8968685433272e	-0.012406172818731766
81	0xbf9a2dc1ea1902ca	-0.02556517592734301
82	0x3f8fcde5a46ccd8b	0.01552943618808091
83	0xbfc764053758f0a2	-0.18273987963209942
84	0x3fc6457c52a8ae99	0.17399553333358567
85	0x3fb20942aca1f11a	0.0704538032022736
86	0x3f96db050ff94965	0.02231986913677399
87	0xbfad1bb3c87bbdac	-0.05685197660738636
88	0xbfccf4451eb8c7ed	-0.22620452880943223
89	0xbfce2825cc3f791d	-0.23560020897907288
90	0x3fb5e73ceccb9693	0.0855596616853183
91	0x3fd03fc959c26284	0.25389322057302643
92	0xbfd4a6b95d1eb944	-0.3226760300994054
93	0xbf7904377e04df9f	-0.006107537047050387
94	0x3fc46bfc43332ad8	0.15954545289272093
95	0x3fc2200a40c86367	0.14160278475972207
96	0xbfc45703645cdbc6	-0.158905433659781
97	0x3fc9d63959c3c078	0.20185009844817947
98	0xbfc43c0444c6a27b	-0.15808156355094014
99	0x3fc2c1cf05bc0936	0.1465395715714039
100	0xbfcb1eab60c45dbd	-0.21187345719293474
101	0xbfccd794ab8dc3aa	-0.22532900215767643
102	0xbf83811f89f79032	-0.009523626707000774
103	0x3fbbddb4674f96e2	0.10885169527281449
104	0xbfbec0d22bbdf868	-0.12012971465989752
105	0x3f84595828f04f6b	0.00993603587088617
106	0xbfc2160ef4c9bdc0	-0.14129816963712294
107	0xbfc211757aada232	-0.14115780344151713
108	0x3f9bb0a373d59b24	0.027041009850473988
109	0xbfaea56e2fe41fa2	-0.05985588392837761
110	0xbfcba6aca2ad2244	-0.21602399771860992
111	0xbfbb4bc726ec96bc	-0.10662502956673853
112	0xbfd007a82450a8f4	-0.250467334236091
113	0xbfa3f6d2cdb26f80	-0.03899248848867298
114	0xbfd13abcab399346	-0.269210021220989
115	0x3fcdd74dc845611b	0.23313305167062812
116	0x3f9f9d49b0b0628a	0.030873443040123884
117	0xbfb98a3946396004	-0.09976537670570457
118	0x3fb5a6e03af3a43a	0.08457757415057268
119	0x3faae403c0fb1278	0.052520863826008346
120	0xbf9034fe0c50b9d2	-0.015827149869602604
121	0xbfa7b42d8ccf91fd	-0.04629652351266953
122	0xbfd124e73e22deaa	-0.2678773981856276
123	0xbfc2ed484efc597d	-0.14786628586507425
124	0x3fc034625883acfa	0.12659863779058594
125	0x3fb308033e0ffc31	0.07434101357647262
126	0xbfc3a0153f939583	-0.15332284550019545
127	0x3f9ef666204bdf0f	0.030236812325681813
128	0xbfc422ec8caef88f	-0.15731579655943448
129	0xbfad146443022b03	-0.05679620092367623
130	0x3fcad0535398c37c	0.20948258954879495
131	0x3fdb7433c65d51d1	0.42896742221389866
132	0xbfb8735bdf5e2a81	-0.0955102367717391
133	0xbfb7d272fd142a3a	-0.09305494955712215
134	0x3fb2c78ba4089e42	0.07335732226112504
135	0x3fb1d25770b3d70f	0.06961580754781614
136	0xbfc7cb5ac56b07f0	-0.18589338912539644
137	0x3fd05949ff7e4e95	0.255449771409283
138	0x3fa0dc13b36ba58f	0.03292905392829503
139	0xbfcd666d63a30870	-0.2296883331783337
140	0xbfc94380d174fec0	-0.19737253405945943
141	0x3fc1ef90a4a598c3	0.14012344397924012
142	0x3f935aabb49c8b83	0.018900568865443567
143	0xbfc790bfd919a9be	-0.18410490131948437
144	0xbfcaa619ae3595c6	-0.2081939793235234
145	0x3fb043154eb57ddd	0.06352360889058369
146	0x3fd00420f5de0c25	0.2502519990013659
147	0x3fa659fb71613da3	0.04365525969535191
148	0x3fa09baa45d893cb	0.032437630678294825
149	0x3fbccabb87bf903a	0.11246845306556078
150	0xbfd761ae30416a09	-0.3653369399304727
151	0x3fad9aba2644ecb1	0.05782109944490211
152	0x3fb90277d8c32aff	0.09769391099977652
153	0xbf9299bb83e53f86	-0.018164567876112446
154	0xbf95b666832508a0	-0.02120361495440959
155	0x3fbcc5deb71e1b7b	0.1123942563118429
156	0xbf9a12b5f5a8cdfb	-0.025462000960215985
157	0x3fd61c3d301abd62	0.3454735727090875
158	0x3fc0b9d775fd69f0	0.13067143689370608
159	0xbfc24684779ad597	-0.1427770217903059
160	0xbfc6b9c91e855886	-0.1775447272327179
161	0x3fcec55698e9d5f9	0.24039728609538694
162	0xbf6b9ea7e72afc27	-0.0033715514522039305
163	0x3f77dbb0ed84b84f	0.005824748157733663
164	0x3fd0373009f88689	0.25336838697158065
165	0xbfb53aed4259450a	-0.08293040151444955
166	0x3face6d36ef22de1	0.05644856194802706
167	0x3fc6f58f1fa5e6d8	0.17936886830630416
168	0x3fa6773d7d920ceb	0.04387848050921569
169	0xbfd7bbe7a4ced4f2	-0.37084380239987447
170	0x3fbd26e694101c8e	0.11387482752626196
171	0x3fccfe2ebccc1b2b	0.22650703638665823
172	0x3fb11b50f3e823ea	0.0668230624652463
173	0x3fb5f9e199dd83c0	0.08584413534619184
174	0x3f852719bd0173bd	0.010328484611983652
175	0xbfc8121a94412fd7	-0.18805248488422308
176	0xbfc48968407a50d0	-0.16044333599405158
177	0xbfd07890f6ef7a44	-0.2573587810019584
178	0x3fb4331b8ca930b3	0.07890484031776417
179	0x3fb80f8a9117a643	0.09398714105886889
180	0x3f7391a6a8e22537	0.004777575506645085
181	0x3fba1c1a5a7e1609	0.1019913168839467
182	0x3fc39a7af0aa8c1e	0.15315186263350794
183	0x3fce10cee6c6baf3	0.2348879458272318
184	0xbfc6255951b06ce7	-0.17301479805687522
185	0x3fdb869b9bc6e4b9	0.43009081089582996
186	0x3fa821d3e5e81fe5	0.047133085074221794
187	0xbf96c21ee853c4e5	-0.02222488682759129
188	0x3fba7fc73fe4c10c	0.10351224241162899
189	0xbf878a5fc9fbaf30	-0.01149439654496795
190	0x3fbabab51d2766f9	0.10441142999425414
191	0x3fa6db1d627effc6	0.04464046313614704
192	0xbfcd0ff072f9d0c3	-0.22704892744116564
193	0x3f9eb230e947d719	0.029976619947738124
194	0xbf2f08c73933f12a	-0.00023677284170976173
195	0xbfbfdf56e32f267b	-0.12450163885582725
196	0x3fc4c5fc567f1a5f	0.16229204390966154
197	0xbfc08eee8d7dc401	-0.12936193379167096
198	0xbfc6c591ce401bad	-0.17790434428044702
199	0x3f8f4cc2b4807ae0	0.015283127912025518
200	0x3fd543642e2dc7c7	0.33223824033404664
201	0x3fb606e34ed941dd	0.08604260134712356
202	0xbfdbc7ca49562602	-0.43406922494668276
203	0xbfb8f847f8845518	-0.0975384694796343
204	0x3fd5c3227312c32f	0.3400350688707929
205	0x3fc17cd6081f08bd	0.13662219425720493
206	0x3fca1c47a95d9efb	0.2039880349141113
207	0x3fbfe774ba7eb863	0.12462548783398257
208	0x3f780ab48f248942	0.005869584378418504
209	0xbf92fdc2c7d19543	-0.018546145864452922
210	0x3fc7559a95da4aee	0.18229992215181973
211	0xbfc42323669c79cd	-0.15732233534158838
212	0x3fb77de48fb75da1	0.0917647219533735
213	0x3fa62d0e9366714d	0.04331250714605748
214	0xbfb2da76b66c195f	-0.0736459918372012
215	0x3fba0fdd71d44ac1	0.10180458096537405
216	0xbfa0230a9227291a	-0.03151734384626277
217	0x3fb59ed33dcefe39	0.08445472964285096
218	0xbfa1a6954b975952	-0.03447405383819792
219	0xbfb797bb7ff78450	-0.0921590030116175
220	0x3fc8852fa805486d	0.19156451896793972
221	0x3fd6b6ce6cf1fd86	0.35490761412798866
222	0x3fa99bd0445ce39c	0.05001688799388335
223	0xbfc2eb34e4a646a5	-0.14780293621565935
224	0x3fc1163a22877daa	0.13349081693648418
225	0x3fc0601bdecffacf	0.12793300990593656
226	0x3faad2de4bdaad4e	0.05239004779772448
227	0xbfcb8921b9233d01	-0.21512242832111642
228	0x3fa48c8e971b1da1	0.04013486475519846
229	0xbfc410365cac32b0	-0.1567447617057005
230	0x3fb073fa8ea83f11	0.06426969511835191
231	0xbfd86c5aa7359539	-0.38161341027292256
232	0xbfb80315ca852897	-0.0937970752176248
233	0x3f9a95a905a77f81	0.02596153351794284
234	0x3fd10a617f4db9d6	0.2662585967254051
235	0x3fc6556c1d6045eb	0.1744818824231936
236	0xbfd435d86914cc6f	-0.315786459558871
237	0x3fc9c7cd5c4c645c	0.20140997893102763
238	0x3fd4ae29ade14cdf	0.3231300542876862
239	0xbfc1aaf8ac227b1c	-0.1380301323415204
240	0xbf96deddf6c9812e	-0.02233454531449402
241	0xbfa25b2295ff6c22	-0.03585155564334054
242	0x3fba3944603db350	0.10243632650026524
243	0xbfc4b7100c10ccec	-0.16183662976400315
244	0x3fafe1e36b741b5d	0.06227026640595199
245	0x3fcddbab0be1b443	0.2332662399307158
246	0x3fceed956a7b5483	0.2416254777842007
247	0x3fd6bff6a61efb6c	0.35546652052646865
248	0x3f846a0c2eff1a95	0.009967894729823438
249	0x3fd1e18d16911285	0.27939154819277007
250	0xbfc72e8d27f36248	-0.18110813570707962
251	0x3fb73bf362b8ab9d	0.09075852546872772
252	0xbfb6a218f7e4206e	-0.0884109120562486
253	0xbfd2de57a41001e6	-0.2948206998990187
254	0xbfc29a2721dbf01c	-0.14532937196042972
255	0x3f580100de3c094b	0.0014650829770635639

model.0.bias f8 [30]
0	0xbfdc8802c292b538	-0.44580143929745786
1	0x3fce10584cbde329	0.23487380740314137
2	0xbfbd3f06aca4a26a	-0.114242951535411
3	0x3fc7c7a4c37a9153	0.18578013939726165
4	0x3fb813553decdc75	0.09404499780508664
5	0xbfc1d78a3b3747c8	-0.1393902577534034
6	0xbf9f30f88fd9074b	-0.03046024682976815
7	0xbfd5228fcd21f871	-0.3302344802140232
8	0xbfa37b5bb8649677	-0.03805052400484226
9	0xbfd795fe56a91e74	-0.3685298773093344
10	0xbfcdd89f43ed082f	-0.23317328278250346
11	0xbfd02f351ec60b7e	-0.25288131718860274
12	0x3fd3172ca205bb04	0.2982894499063351
13	0xbfbc3779906640ea	-0.11022147918106709
14	0x3fdfe4b69518d605	0.498334546663813
15	0xbfd36f1ff14c3906	-0.30365751804573937
16	0x3fcc8e6f0c634bf7	0.2230967340934453
17	0xbfd4ca6641cee0b7	-0.32485348154615273
18	0xbfd9c4406efebecd	-0.40260325278630377
19	0x3fc0275fd7426555	0.1262016106673324
20	0xbfd917d99ced17a5	-0.39208069157427367
21	0xbf92630b1bf184f6	-0.017955945568592
22	0xbfd3e05fb1df6f07	-0.3105696904219574
23	0x3fc9b3ba99262e73	0.20079739072786004
24	0xbfbcae3b95f0d43a	-0.11203358088171536
25	0x3fcba0d8a1bf1b74	0.21584613702563227
26	0x3fe00563d3c82063	0.5006579529154006
27	0xbfdd27469306def8	-0.455522197323702
28	0x3fccdfdd40524213	0.22558179512681473
29	0xbfc15ed3db8bd907	-0.13570640773804873

model.2.weight f8 [30]
0	0x3ff098e845a81556	1.0373308869323714
1	0x3ff32daca680726e	1.1986509803747611
2	0x3ff2275e13c53f05	1.1346112034115674
3	0x3ff09bdead31b4f0	1.0380541577717928
4	0x3ff039debeebd293	1.0141284425600687
5	0x3feec25f4307c6bf	0.9612270650088347
6	0x3fef07c80a9d296d	0.9696998793890949
7	0x3ff23844e43f3b88	1.1387375751398583
8	0x3fe74e9bdd50dd05	0.7283458063674578
9	0x3feda54b8050bdda	0.9264276033554169
10	0x3fee8109369f12c2	0.9532514635871723
11	0x3ff1b67b3892c0e6	1.1070511064427193
12	0x3ff0dfa58366d25f	1.0546012051464897
13	0x3feb7d75d098469e	0.8590649675481534
14	0x3ff2dd0d85a321f2	1.1789679737286147
15	0x3fef97588d528af0	0.9872248420909653
16	0x3fe896c862d48016	0.7684060983920087
17	0x3ff0e35206b08a04	1.0554981480896695
18	0x3ff056e3e72954a4	1.021213438963323
19	0x3fe759a2c989b357	0.7296918808257072
20	0x3ff0f314fe2822c2	1.0593461921691163
21	0x3feabf087a45a829	0.8358194721342943
22	0x3ff0b1132efef5f7	1.0432311855105334
23	0x3feb631dd436f1e2	0.855849184495636
24	0x3ff070cd9f270570	1.0275398461238545
25	0x3fe8b8ee7ea6f994	0.7725746606518435
26	0x3ff1c8a9416c1fda	1.1114895396767595
27	0x3ff0ca7062227a22	1.0494235833535943
28	0x3ff15bdead3a7647	1.0849291578991982
29	0x3ff164e8b65a0f3d	1.0871359942547791

model.2.bias f8 [30]
0	0x3fa3fffdbb1cf791	0.03906243237587071
1	0x3fbfb1b0314d2bbb	0.12380505756043096
2	0x3fcb89f252108bf5	0.21514729506552013
3	0x3fd60cc6e76a8db9	0.3445298442768166
4	0x3fda0d83e14f8a0c	0.4070748997020537
5	0x3fd200635279919c	0.28127368025004684
6	0xbfc946375aa3fee8	-0.19745532918749764
7	0xbfc35c5ec7894bf0	-0.15125641577705506
8	0x3fde18a3014f2825	0.47025370719768694
9	0x3fad0e53c62173d8	0.05674993318164184
10	0x3fdbdba3999cc05e	0.43528070450975587
11	0x3fb4294ba8b4deb0	0.07875511997996898
12	0x3f7ca4c5f2797a04	0.006993077498548054
13	0x3fcdc08c132d4c22	0.23243857323049705
14	0xbfc2248c58f78516	-0.1417403635414664
15	0x3fd2270f18995a61	0.28363397028207343
16	0xbfd3fe025a0ee654	-0.3123784903978948
17	0x3fc890afe012f1d9	0.19191549721825998
18	0x3fcbb8590755b1ac	0.21656334741727556
19	0x3fc3a0e69915738b	0.1533478019217934
20	0x3f7a7e3bde9f9082	0.006468042245590168
21	0x3fbc807ce79e8b9c	0.11133556990402699
22	0x3fd631f92eba08e4	0.3468001324000751
23	0xbfbfdd8d866b9190	-0.12447437793486515
24	0x3fcd36c37114ec9c	0.22823374768799887
25	0xbfc26fa4884cac5f	-0.14403206496476437
26	0xbfc64a4e5e19b8fd	-0.17414264292478512
27	0x3fadd630a7a874ae	0.058274765459125674
28	0x3fb9b5f88292a1d7	0.10043290317356167
29	0xbfd222161687f150	-0.28333046150489327

model.2.running_mean f8 [30]
0	0x3fd22a262a5ca1e0	0.2838225759210484
1	0x3fe162d154266abf	0.5433127063327773
2	0x3fd8491e171b33c8	0.37946274048300355
3	0x3fe0855a832d05f6	0.5162785112408403
4	0x3fda36a2ae665f65	0.4095846846698719
5	0x3fcbcddd48846ba6	0.2172199825370999
6	0x3fd3d975af2d9565	0.3101476870272875
7	0x3fd2c0f749d58306	0.2930277081523375
8	0x3fe4cd3642e131b8	0.6500502878421264
9	0x3fc883a7064cc931	0.19151771361937045
10	0x3fc7c080ca0c1630	0.18556222787462806
11	0x3fe01dcc4e122de1	0.5036374592613663
12	0x3fe39cbd18ae3184	0.6128831369438079
13	0x3fd490d55e1fdb5a	0.32133993331756516
14	0x3fea6da7af8504bd	0.8258856227986581
15	0x3fcd3b41f7a0a676	0.22837090102375485
16	0x3fe0589dcd82531d	0.5108174337243302
17	0x3fccda3f43893b84	0.22541037366542238
18	0x3fdc0d0153db2e84	0.4382937735469812
19	0x3fea0390423bb907	0.8129349988574014
20	0x3fc14f8efc99ddc3	0.1352404340175167
21	0x3fd2aee011cec228	0.2919235395338853
22	0x3fda0ad5ef6c541c	0.40691135770004094
23	0x3fe6b583989edc51	0.7096574765081504
24	0x3fdaa5c18ef6b135	0.41636694871228325
25	0x3fe26c61fee5f531	0.5757303217393767
26	0x3fea3cbd236802ee	0.8199144069222635
27	0x3fc6d35d05714bed	0.17832529798269495
28	0x3fe2af09894ab2c6	0.5838668519478112
29	0x3fe0744de8bf934b	0.5141973062387505

model.2.running_var f8 [30]
0	0x3fde0dd04c21764f	0.46959311899795336
1	0x3fe042264ed49e73	0.5080749072703398
2	0x3fde79c98b3e3dbd	0.4761833057209193
3	0x3fe00018d642807a	0.5000118431817235
4	0x3fd38f1e72bcc29a	0.305610286758602
5	0x3fca205e57ea51a3	0.20411280911197335
6	0x3fd7ddadfcdc1521	0.37290525143937897
7	0x3fdeb9b50a5c0783	0.4800846673170939
8	0x3fe2de1fa923df77	0.5896147063749443
9	0x3fc7a7a2bafa025c	0.18480333451954578
10	0x3fcf6c68f7474911	0.24549591135161866
11	0x3fe5b036380da5f9	0.677760228613976
12	0x3fe24f6e81412334	0.5721962475300644
13	0x3fcde78867bc263c	0.23362832131560818
14	0x3fed2955bf530d3e	0.9112957703404516
15	0x3fd0c53264053b77	0.2620359398614975
16	0x3fda809ff64a7f5e	0.41410063793045093
17	0x3fd3f9cc49c33fd1	0.3121214599932474
18	0x3fea64fcbfd68022	0.8248275515397874
19	0x3ff14d1722e4fe3f	1.0813208926264364
20	0x3fc7f28c40cf056d	0.18708947338567886
21	0x3fd3e3632135260a	0.31075361483507946
22	0x3fe1cd66b2719e08	0.556323383830148
23	0x3fe09a9436c18a19	0.5188695020154369
24	0x3fdc36340f456c31	0.44080831042600993
25	0x3fe2fe7460ebc633	0.5935613530147691
26	0x3fdba2caca800daf	0.43181104445849433
27	0x3fc95a4db80524dd	0.19806834683757915
28	0x3fe1664bea7d2e92	0.5437373714316485
29	0x3fd7c9433a07f595	0.3716590944967149

model.3.weight f8 [15, 30]
0	0xbfca3439a5cdf644	-0.20471878620075945
1	0x3fd4a923ef7b8c8c	0.3228235090920826
2	0x3f9fba8542c74b49	0.03098495693286488
3	0x3fd2b6fe2c953e92	0.2924189982777331
4	0x3fd4f645ee9dd383	0.3275313215483992
5	0xbfc2113160ad1cc6	-0.14114968510168618
6	0xbfbe268677b93a21	-0.11777534888208453
7	0x3f62e954c8158574	0.0023085266008570585
8	0xbfb5893ab5b75082	-0.08412520348002953
9	0x3f7dc1ff4713ecf4	0.007265088251411134
10	0x3fc6a744343d2a66	0.176979566104211
11	0x3fd2d7cd180c168b	0.2944214567981837
12	0xbfc80b5148eb9041	-0.1878453832679288
13	0x3fc47bc6851785ef	0.16002732752444568
14	0xbfaecbb6e6d31085	-0.060147967984023366
15	0x3fcf9db5a440a732	0.24700041313308813
16	0xbfcb85b3010dc3bb	-0.2150176768441535
17	0xbfc7e51629c88634	-0.18667866745185935
18	0xbf9a9a8a11585cad	-0.025980145748772433
19	0x3fc6a4b3f4810155	0.1769013351313428
20	0x3f94faf0ac8af880	0.02048851063840873
21	0xbfc46613f1c46025	-0.15936517052682678
22	0x3fd676db2d48cdb3	0.35100440428069674
23	0x3fbc861d7ff3a839	0.11142143606017009
24	0xbf9dfb3359ada729	-0.029278566692858696
25	0x3fc4983952a88b65	0.16089550529531063
26	0xbfdc24abae254a00	-0.43973819738781117
27	0x3fb26af1b87a7653	0.07194433931223303
28	0x3fc65b215f9cca62	0.17465607803895283
29	0xbfc70b8dc1ef9a57	-0.18004009217766523
30	0x3fd24c455de37abd	0.28590521019752285
31	0xbfc7ae5e8ebe8a76	-0.18500883073746238
32	0x3fceb9b0726c955f	0.2400417860709849
33	0x3fcd2959c1516a48	0.22782442035061679
34	0x3fb325686fa038dc	0.07478955006829174
35	0xbfbf859a0200a7e8	-0.12313234852686572
36	0x3fc6b383f5d07e50	0.17735337736756884
37	0xbfa070657836fcaf	-0.03210751621690499
38	0x3fc96cc77eece82c	0.19863218019037399
39	0xbfc8b9cc9c9997ba	-0.19317014357073764
40	0x3fb668c89b153e68	0.08753637109952594
41	0x3fc7333f98de9475	0.18125147785500287
42	0xbfbea8598f2e7049	-0.11975631471290273
43	0xbfc3a1702bf5e9f3	-0.15336420198930475
44	0xbfb53ecdf049d111	-0.0829895698205443
45	0x3fcb3f3d06858040	0.21286738222534218
46	0xbfd9a2a127487b7e	-0.40055111728900517
47	0xbfcac7ee81d92198	-0.20922643032305355
48	0xbfabc06523d904d0	-0.054202232957786145
49	0x3f9b81223fb040ce	0.02685979379390418
50	0x3fc3eb73895fa0ff	0.15562290389721764
51	0x3fb41cfd4d45d543	0.07856734406035053
52	0x3fc6ac6de7483d1d	0.17713712494921988
53	0x3fa04f907c52613d	0.0318570281753545
54	0x3fd42889a44a0be1	0.3149742226016184
55	0xbfad8d2e163b98df	-0.05771774312397481
56	0xbfca189c51baf660	-0.20387605658281682
57	0x3fafa97cc9a62b78	0.06183996163880229
58	0xbf8ad9d53d2e8003	-0.013110795907607558
59	0xbfd0add0d8897f41	-0.2606088747615907
60	0x3f9b3e67dd24c072	0.026605246422321156
61	0xbfc38eceaac33fc8	-0.15279563272497243
62	0x3fbb6d42bec8e9ca	0.1071359363349195
63	0x3fbf6540ea38e5a7	0.12263875692669633
64	0x3fb361863e3ffe98	0.07570685405516497
65	0xbfb8f33944ed345b	-0.09746129925515971
66	0x3fb13f4fdb53a33f	0.06737231354385374
67	0xbf9cb93d84e3cf88	-0.02805038570018284
68	0x3fce4c9911eaddd3	0.23671258330226283
69	0xbfb9c9a8525a1132	-0.10073329935591316
70	0x3fc84612b3be572a	0.18963845993555967
71	0x3fc4dbcbebe2a8de	0.1629576589378478
72	0xbfc68fce112b734a	-0.17626357878080007
73	0x3fc261bc3f535236	0.1436076459127819
74	0x3f92d037bfda61b4	0.018372412762433135
75	0x3fbf1f41fd451d90	0.1215707057318609
76	0xbf82370bd9fb373e	-0.008894054975282392
77	0x3fd2ef20e64e47af	0.29584524622725444
78	0xbfb15fe3e45398ec	-0.06786941837671961
79	0x3fb1ca3248f13684	0.06949152260605201
80	0x3f9900540c12f06c	0.024415314900338478
81	0x3f98b118042612cd	0.02411305928537182
82	0x3fdaf1e9f7fb6d62	0.4210152551365437
83	0xbfd010f95b8d68af	-0.25103601399099323
84	0x3fc7cec9cc698a2a	0.18599817734782792
85	0x3f79260961efb6bb	0.006139790201798052
86	0xbfa360e170950081	-0.037848515503811526
87	0x3fc291ea67a3a0dd	0.14507799206263075
88	0xbfc730e5cc095a14	-0.1811797376892207
89	0xbfd1e257940df6fe	-0.2794398256154266
90	0xbfc1f038983eefd2	-0.14014346536521188
91	0xbfc19455dd43b549	-0.1373393373864167
92	0xbfd61f0c11ed6430	-0.3456449675628077
93	0xbfbe226a692090d3	-0.11771264139730712
94	0xbfcd543030e5dcda	-0.22913172137825805
95	0xbfd7131067df62c1	-0.36053857940491346
96	0xbfd31a4586555b26	-0.2984784900522065
97	0xbfd40cfa2d6e953e	-0.3132920688315898
98	0xbfb1ec6a36e0a5c9	-0.07001365508826675
99	0xbfcd65faafa39d69	-0.2296746595013517
100	0xbfd196892ad5cbe8	-0.2748129766761722
101	0xbfe1b90bc2f52026	-0.5538386161579225
102	0x3fbfaedfca3c9f72	0.12376211821958608
103	0x3fa26985f32e3c80	0.035961328444607865
104	0x3f977c2d4e9095f7	0.02293463508626378
105	0x3fb9db35c64110d0	0.10100113001050492
106	0x3fbcb634a5cccd5b	0.11215523765422601
107	0xbfbb6d34d41f220a	-0.10713510683775254
108	0xbfaf185c1bcfe747	-0.06073272552016689
109	0x3fb1fb252effa5c6	0.07023842236926389
110	0xbfb5c7de3efc181b	-0.08508099591935585
111	0x3fb348e814ea3a38	0.07533121595972936
112	0xbfc5b91937a8042f	-0.16971125810235452
113	0x3fd160409a3c0816	0.2714997774311326
114	0xbfddf11a0aceeac9	-0.4678406816052925
115	0xbf81bee6a9c38940	-0.0086648960645489
116	0xbf9f15c188ecf914	-0.030356430036811835
117	0xbfc39989c8d4f627	-0.1531231146454257
118	0xbf75f61baa12943e	-0.005361660064555683
119	0x3f91994bf3a84302	0.017186342951450058
120	0xbfb9682fa07e1dad	-0.09924600284840919
121	0xbfd1d4017c287391	-0.2785648071747398
122	0xbfab4497e2d3e59d	-0.05325770038502784
123	0x3f7aaadff828459a	0.0065106152346897875
124	0x3f71ab297daf749c	0.0043136234989706
125	0xbfb6d2260409fec5	-0.08914411162003961
126	0xbfb9f7067d443de9	-0.1014255576922022
127	0xbf787deb69ea5534	-0.005979461274042298
128	0x3fb9754ff46e581a	0.09944629399828422
129	0xbfd3bd94a8a308d3	-0.3084460875362655
130	0x3faa0649d0d3ef97	0.05082922624748603
131	0xbfcc8e14c27a0f48	-0.22308597083985604
132	0xbfc38e688d2d0908	-0.15278345960002349
133	0xbfc29d6031cccd58	-0.14542772704735785
134	0x3fd3e852d0b2471d	0.31105490093715266
135	0xbf9ccb714b1f3150	-0.02811982174880373
136	0x3fa1c435f2c4bb79	0.03470009411318293
137	0xbfd969de812c5108	-0.39708674063264526
138	0x3fbe589abef857f0	0.11853949701648481
139	0x3fb8740fc7d791f1	0.09552096013027957
140	0xbfd5ed1024f4016d	-0.3425941811438154
141	0x3fb06a7698de5a6d	0.06412450058119541
142	0xbfc4d07669c7e5a4	-0.16261177220421275
143	0x3fb590b2d2ab50fa	0.08423917430201647
144	0xbfb472599ae5605c	-0.07986984283104576
145	0xbfab5bb6618e0a8f	-0.05343408528189741
146	0xbfab1464729b6dcc	-0.052889956464891336
147	0xbfd3286d0180a521	-0.29934239527445256
148	0xbfd6d2ee0dcb9bfd	-0.35662413928224607
149	0x3fc2ab1fc7849df4	0.14584729425517617
150	0x3fc8c5c27e778f86	0.1935351483835996
151	0x3fc2ee8395234cd4	0.1479038694584235
152	0x3fbc488cc949b0f0	0.11048202432874965
153	0xbfb9f0dada3967ab	-0.10133140399685085
154	0x3fca4fb0f98ebc96	0.20555698571613296
155	0x3fa48a36329162b1	0.040116971657601204
156	0xbfc9d01a1ae921ab	-0.20166326822278555
157	0xbfd34b469c325728	-0.30146947148874625
158	0x3f97adb592963567	0.023123585769601187
159	0x3fb01c2c69efccdb	0.06292989336343473
160	0xbfc4cd18562693ce	-0.16250900465561674
161	0x3fc7962b0766d130	0.18427026616485298
162	0xbf8f2f9262bfe903	-0.015227454794502387
163	0x3fd4c26d3ae64f7a	0.32436686279219595
164	0xbfb8d1226645d513	-0.09694113728422264
165	0xbfcb0a519ef7afa3	-0.21125240575872536
166	0x3fc679ab09cad921	0.17558801630156842
167	0x3fa5c740df61c536	0.04253580786542914
168	0xbfd68a3cf90eae69	-0.3521873886299774
169	0x3fa06dcf64c38b44	0.032087784815095804
170	0x3f5127f828f69f76	0.00104712709785734
171	0xbfb1c5f590f3bb1a	-0.06942686833256709
172	0x3fbd6d9da2c5c312	0.11495385383547
173	0x3f8499ea88a00e6c	0.010059196752997233
174	0x3fc7f03f209da4b3	0.1870192441231545
175	0x3fcbfbbcbbb0bd33	0.21861991085595775
176	0xbfd354d2233095ed	-0.302052053799655
177	0xbfc29081b8825389	-0.1450349951670911
178	0x3fd2f577a8068f9d	0.29623214157822436
179	0xbfb26e6cec7517dc	-0.07199745915303829
180	0x3fdc8811b5986127	0.44580500348958413
181	0x3f822cec0792b17a	0.008874744397268531
182	0xbf946b33b0a12194	-0.019940192847828067
183	0x3fcb3cd8f46d9695	0.21279441771473687
184	0xbfb700422ed929dc	-0.08984769481427385
185	0x3fcae22316539e52	0.21002615537803365
186	0x3fc44948ec548b20	0.1584864763218201
187	0xbfb53271bb505648	-0.08280096839038109
188	0x3fca6f67216d456e	0.20652474529428438
189	0xbfbc30ca33803c9c	-0.1101194740042381
190	0x3fc6210d9cabd128	0.1728837027545833
191	0x3fc5d880cc77468d	0.17066965087592614
192	0xbfc87cdaafac05e5	-0.1913102491162554
193	0x3fd0bc4918fb0f0f	0.2614920371963629
194	0x3fa230a58c0f50b8	0.03552739462580362
195	0xbfda2568f2bd4fb4	-0.40853332238225026
196	0xbfaafb73262f8839	-0.05269965973981567
197	0xbfb93f14a99d877b	-0.09861878529548378
198	0xbfd02d883bdeeb80	-0.25277906271701767
199	0x3f863c829e5336c0	0.010857601601311884
200	0xbfb18e418cf37588	-0.06857690516650028
201	0xbfd091ae89ef6dd4	-0.2588917109512441
202	0x3fabfe45e11e238d	0.05467432377833523
203	0x3f94447ea965a307	0.019792536820577158
204	0x3fafb697ad269e26	0.061939945112780045
205	0x3fbedc838770ba72	0.12055227333687826
206	0xbfc89d8257f4ec70	-0.192306797931312
207	0x3fa1487854196528	0.03375602747537193
208	0xbf98c08c9d9f1d63	-0.024172017212348417
209	0xbfcdaa066db9bbcc	-0.23175125463191504
210	0xbfd3dcaaddc369d4	-0.31034347206664603
211	0x3fdf010d605311ae	0.48443922430694897
212	0x3fc0949b1ae19766	0.1295350915199222
213	0x3fcecf890d77352d	0.24070847661497777
214	0x3fcf045b171e3d2b	0.24232042912306304
215	0x3fc64331ad8d756f	0.17392559980627761
216	0xbfc59eaaaddc9711	-0.1689046238836274
217	0xbfbabc2592d4920f	-0.10443339190221244
218	0xbfb69aab33828ab4	-0.0882975579029715
219	0x3fcbdb168fde5d19	0.21762353920778635
220	0x3fc4ac842a543d7d	0.16151477877472678
221	0x3fabe731f3714302	0.05449825379094443
222	0x3fb7d582cf296ca6	0.09310166890775182
223	0xbf905b0373d46b11	-0.015972188896834775
224	0xbfd75d0236856aa9	-0.36505179714519415
225	0x3fca64b06d6ca77d	0.20619778960218219
226	0xbfb100c1e3353976	-0.06641780659740512
227	0xbfa40fb5f71d415a	-0.039182363906209175
228	0x3fbbdfcf4968d811	0.10888381521439806
229	0x3fae003d5fb2b40f	0.0585955790823861
230	0xbf5ce4904153802b	-0.001763478159141139
231	0xbfc8879fbf17b01d	-0.19163891630830757
232	0x3fb8e0e3af001ec2	0.09718153974983593
233	0x3fb5d90a906c3e28	0.08534303689906919
234	0xbfb635a647c1e14a	-0.08675612689865378
235	0x3fa6edb5b78b2c01	0.044782332091550366
236	0xbfd40213a28b3ba8	-0.31262675164628684
237	0x3fb5e64469ecb5be	0.08554484926272374
238	0x3fc4b33025e06860	0.16171838616793632
239	0xbf8d880bc9869117	-0.014419643485617457
240	0xbfc16034c323aa12	-0.13574847725188072
241	0xbfd3169c18fc9575	-0.2982549900064762
242	0xbfcd39cc7b64017b	-0.22832637810644116
243	0xbfd3febc567f4e32	-0.31242283293724704
244	0x3f9effeff2f8e2ee	0.03027319832310387
245	0xbfce9b49e28e7619	-0.23911403238609877
246	0x3fb884df385cfc5a	0.095777465115121
247	0x3fd581a20cc9ae3e	0.3360371708756452
248	0xbfa4ea4c92ebe014	-0.04085006040071462
249	0xbf9be5550189face	-0.027242019862110216
250	0xbfdbe36e24d6ffa5	-0.43575624082222425
251	0xbfa80b22140fc87a	-0.046959938954288696
252	0xbfc3f79d31e554bb	-0.15599408088988817
253	0xbfb7f6ded3a0d370	-0.09361069361405128
254	0x3fd3fc1a50152338	0.31226213284076065
255	0xbfb29e7b89829e56	-0.07273075205977739

model.3.bias f8 [15]
0	0x3fc6de6459df2f8b	0.1786618651225321
1	0x3fce981f8142d128	0.23901742755482158
2	0x3fcf7eb46dda380a	0.24605422366988733
3	0x3fc22a7588030602	0.14192074910356217
4	0x3fac0f6dbd08aab2	0.05480521137754603
5	0x3faffc8c91c6f92e	0.06247367171771355
6	0x3fc20e4ef2269991	0.14106165717857924
7	0x3fc18bd1da8e0fbc	0.13707945987346004
8	0x3fc58a4aacf3dfea	0.1682828278060236
9	0xbfb7e817a7b7c1d9	-0.09338519901917354
10	0x3fcf6f0bca91a45f	0.24557635680256149
11	0x3fd6caf11435e7ea	0.35613657926262354
12	0x3fc7d7e7faca8737	0.18627643342647968
13	0x3fb7af47321fa6bc	0.09251828168603543
14	0x3fd5546e5bbf719a	0.3332782646155238

model.5.weight f8 [15]
0	0x3ff26f11a01dea51	1.1521164183201515
1	0x3ff34c3637a70783	1.2061063932346492
2	0x3ff228961b9e4eba	1.1349087790339767
3	0x3ff772e63b6e16d4	1.4655515977369094
4	0x3ff5ae1f52f13c1d	1.3550103416380417
5	0x3ff1834d01f6c6f5	1.0945558621137341
6	0x3ff2680ee5db5278	1.1504048327234653
7	0x3ff2eae26fd00dad	1.1823448531803067
8	0x3ff7cf6881e652ed	1.488136775418009
9	0x3ff61022735e3713	1.3789391047061528
10	0x3ff75718d1c6cc74	1.4587639040371672
11	0x3ff77c886d129986	1.467903543534335
12	0x3ff32b9d996eba98	1.1981483453234087
13	0x3ff635ca8ead5475	1.3881326268504186
14	0x3ff30656e52c50aa	1.1890477134775588

model.5.bias f8 [15]
0	0xbfd833fc9a0fb260	-0.37817301793146463
1	0xbfdb78e6da1ee569	-0.4292542581639141
2	0xbfdd7d97fda504e7	-0.4607906319616419
3	0x3fdf091580902517	0.4849294429300967
4	0x3fe10d70f0a8086d	0.5328907680816549
5	0xbfdc11ee21e67673	-0.4385943728501395
6	0xbfdaec41841d0a3c	-0.4206699171228683
7	0xbfdb64be3b2c8813	-0.428023870265066
8	0x3fe14aa2791e15e2	0.5403606763435926
9	0x3fe0b5d8863afd8f	0.522197973412334
10	0x3fe449313d4fc563	0.6339346120350168
11	0x3fe16c11b503fc67	0.544442037149463
12	0xbfdcb18d3927acfb	-0.44833689290562945
13	0x3fdeec2d0698b9aa	0.48316503185460624
14	0xbfdb1705eef681da	-0.42328022323820635

model.5.running_mean f8 [15]
0	0x3feec59ce81dc30e	0.9616226705094009
1	0x3fedecb86b7720d9	0.9351465319569129
2	0x3ff09b7d2c7538dc	1.03796117178313
3	0x3fe2d976edd2b600	0.5890459675771922
4	0x3fdcd5d30a0ae852	0.45055080395434743
5	0x3fe47675534bd138	0.6394602419737003
6	0x3fe32fa412043797	0.5995655395397418
7	0x3fee73a2f2667538	0.9516157850627343
8	0x3fd77a40313d4ecf	0.3668365937094053
9	0x3fe07f3f435dfbc5	0.5155330959095116
10	0x3fe57f15b230f4c1	0.6717632751748611
11	0x3fe95a97540b247e	0.7923084870791539
12	0x3ff0f6fbf563e01e	1.0602988801529203
13	0x3fe0d92feda51d0d	0.5265121118071946
14	0x3fef637ad3cd766a	0.9808935295838641

model.5.running_var f8 [15]
0	0x3fe85b4c67c8532e	0.7611448313715294
1	0x3ff3051b8024c95e	1.1887469297040165
2	0x3ff2c5caf9dd3382	1.1732892761530995
3	0x3fe05f605db972ad	0.5116426306299978
4	0x3fdd3ea8daa81dae	0.45694943764871254
5	0x3fe22bc430778928	0.5678425737972121
6	0x3fe1247ccc94254a	0.5357040401151292
7	0x3ff26803a8feb080	1.1503941155779387
8	0x3fdb140ead78c380	0.4230992025432485
9	0x3fdca91d9d3a7a58	0.44782200197542954
10	0x3fef134bd13c9e23	0.9711054884582534
11	0x3fef09a6448dde42	0.9699279154728588
12	0x3fec58a07189a0a3	0.8858186929255861
13	0x3fe9e68897187cb2	0.8093913031661002
14	0x3fe64d3dbdcc4fe3	0.6969288546556495

model.7.weight f8 [1, 15]
0	0xbfd1d1227eef22be	-0.2783895721045545
1	0xbfd8db07ee180926	-0.38836858989101797
2	0xbfd7b69470fd3e85	-0.3705187896166325
3	0x3fe52159245fb07a	0.6603208265710372
4	0x3fe61ef977bb7fd9	0.6912810648464031
5	0xbfcf590fce04f34d	-0.24490544852769816
6	0xbfd3e26b9feb7ea1	-0.31069460503747776
7	0xbfd59a6a2393cedb	-0.33754971956589735
8	0x3ff022b2f439fb4a	1.0084714450928964
9	0x3fe4fb893ce408e6	0.655705088546054
10	0x3fe6592a25b06ee1	0.698384355174735
11	0x3fe8fdb26575e45c	0.7809688550615976
12	0xbfdbac675f0366cd	-0.4323976924766669
13	0x3fe5a3ca472ac682	0.6762439146024948
14	0xbfe0a332d97ab3b3	-0.5199217078821817

model.7.bias f8 [1]
0	0x3fc85ee4463c4d7e	0.19039586476774767

exp_avg f8 [30, 33]
0	0x3f6c77b953bc33c1	0.003475057570432289
1	0x3f589d94bf56eba7	0.0015024139987491554
2	0xbf6721cb26297e83	-0.002823731208351722
3	0x3f4450ad3600641b	0.000619968963294973
4	0xbf71ec4b38ad25f2	-0.0043757379851938494
5	0x3f76276d7ff9644a	0.00540869496725189
6	0xbf670c7bdbb6c0b8	-0.0028135699373806576
7	0x3f792995bdee9dde	0.0061431741041028925
8	0xbf8023df32f932fa	-0.007880920165143735
9	0x3f711f19a5ceed5c	0.004180050073894517
10	0xbf8156c90219b9f3	-0.008466310860254267
11	0x3f7b58e762b5853e	0.006676582193308632
12	0xbf58c8bef0805066	-0.0015127052920478556
13	0x3f7e42815cba66f7	0.007387643166703254
14	0xbf7dda0cfbd26d9d	-0.007288027493952323
15	0x3f826dc47284abbe	0.008998427147693163
16	0x3f485a09f5c714bd	0.0007431553490781156
17	0x3f840f7c94a0528d	0.009795163427079668
18	0x3f69ac42bc88db36	0.003133898110060508
19	0x3f859f04e76febc7	0.010557211220648356
20	0xbf498b33509e1f5b	-0.0007795334397408914
21	0x3f820259d479632f	0.008793546482750962
22	0x3f5f78f178923f75	0.001920924960618434
23	0x3f7af354c3a65773	0.006579714880350684
24	0x3f6589aa571cdb8a	0.0026291205366776914
25	0x3f74585e9831ea83	0.00496708823186032
26	0x3f69c100bcb6cbba	0.003143788757108604
27	0x3f76491a6ad16ec7	0.0054408103870533025
28	0x3f554c2e75d375c1	0.0012999013627486985
29	0x3f719adf4f39bc6a	0.004298088362346334
30	0xbf492b2823d27af2	-0.0007680841441873572
31	0x3f7e7d32faf156ea	0.007443617955763074
32	0x3eea8c6df22b534a	1.2659336396417292e-05
33	0xbf675f85f8ad41a6	-0.002853166258695877
34	0xbf733dd00405fcef	-0.004697620927230902
35	0x3f60b026bfd61d6f	0.0020371205161528387
36	0xbf838cc37695ec35	-0.00954582887310638
37	0xbf60a95bc265b47b	-0.0020338813948713153
38	0xbf8584681ed0faf7	-0.010506452026786557
39	0x3f6d65ac6211dab8	0.0035885207039954813
40	0xbf8a8d827091de8f	-0.012965220508916601
41	0xbf7b7bd482e5f22e	-0.00670989048228114
42	0xbf8720f3222cd282	-0.011293315391960993
43	0x3f63140fbcf625f6	0.0023289019952172875
44	0xbf82ee0d6bbee524	-0.009243111467969252
45	0xbf704fec59f0cf96	-0.0039824707483155
46	0xbf8325029eba4837	-0.00934793517015829
47	0x3f41cf1fee3a0641	0.0005434900198936847
48	0xbf7a3a30e27dd127	-0.006403151470170599
49	0xbf70af03a3fced1a	-0.00407315656758136
50	0xbf8485dd93cd564f	-0.01002095324808319
51	0x3f707bb93ab451ec	0.004024241973884273
52	0xbf7dfc0fc86bec5d	-0.007320462848606627
53	0xbf79a107cfed42ff	-0.006257086292706714
54	0xbf7f510eed57458a	-0.007645662602457812
55	0xbf7125416cb314e2	-0.004185920300362885
56	0xbf725c4a998e3afe	-0.0044825471931193555
57	0xbf73998ab562f01f	-0.004785100774991973
58	0xbf7b2eb27f34550c	-0.00663633084629579
59	0xbf6b19da769e8376	-0.003308226286165834
60	0xbf7dbdc217e24e7f	-0.007261045624676775
61	0x3f55ae520777934f	0.001323299509629911
62	0xbf7833427b179ecb	-0.005908260050524648
63	0xbf4d5220213bda3d	-0.0008947998889812858
64	0xbf80070b84da1921	-0.007825937263316764
65	0x3f5becc40fcda20f	0.0017043986001344968
66	0x3f5f49c0cde40f62	0.0019096739629853245
67	0xbf738495be626748	-0.004765114723477577
68	0xbf086dfb58980b63	-4.659579560597237e-05
69	0xbf772bc5af6814cd	-0.005656978805295765
70	0x3ef5f464a0eabc78	2.093759581594772e-05
71	0xbf7ce6c6a3db1620	-0.007056022584668337
72	0x3f6fae8d85df1526	0.003867412960036137
73	0xbf8235151c8ea022	-0.008890309270853495
74	0xbf57c2ad7f692985	-0.0014502233804188646
75	0xbf73371402bfc03f	-0.004691198508211924
76	0xbf605cc48eb4adff	-0.001997360135325143
77	0xbf76e31856a9ef87	-0.005587668487915815
78	0xbf51bb2624047b7b	-0.0010822174518307626
79	0xbf752b1ea6ecbc87	-0.005168075308389259
80	0xbf60cb9b162cbeb4	-0.00205021181445616
81	0xbf69c051b3775e3d	-0.0031434627269211466
82	0xbf50bbbeca629374	-0.0010213244618537372
83	0xbf6c97d9ba9fce51	-0.0034903767127561288
84	0xbf4aea820ccd3f46	-0.0008214125642584745
85	0xbf4877cdf13f08e1	-0.0007467036798447757
86	0xbf6b250fe82273b7	-0.0033135710410321056
87	0xbf5d59989144e37f	-0.0017913808743072743
88	0x3f539bbd5b546a8e	0.0011967992007330427
89	0xbf5bfa4f17f380a8	-0.0017076275251426774
90	0x3f6207cb25e07d2f	0.0022009818776635086
91	0xbf799300876401e4	-0.006243707719705036
92	0x3f64f910bacac15d	0.002560169863805735
93	0xbf6ecf7120e5f751	-0.0037610253850165827
94	0x3f6c17be10e0194e	0.00342929003000162
95	0xbf76a7c0a7b6df29	-0.005531075057142045
96	0x3f6403ad99c71a5a	0.002443160117965787
97	0xbf782d6ede6e7d63	-0.00590270336297691
98	0xbf5a649cc29f8ea9	-0.00161090191476713
99	0x3f51a41b5c84c6f6	0.0010767237855130985
100	0xbf71960b2ca61f13	-0.004293483400381398
101	0x3f442d6db1b01123	0.000615767060822257
102	0xbf7642038270fc1f	-0.005434049328925133
103	0xbf69d64698c7e0a4	-0.0031539324611423326
104	0xbf72feb6c0545645	-0.004637445327963234
105	0xbf4f801262056a49	-0.0009613122711401102
106	0xbf65eac76acf51bd	-0.002675427901048104
107	0xbf54564091255d44	-0.0012412672554854157
108	0xbf5c1cd3b19dbff1	-0.0017158572504420955
109	0x3f38b5035a1ef7c9	0.00037700015866081994
110	0xbf6007349f008223	-0.0019565608745468906
111	0xbf45d5f8b6908846	-0.0006663765353816041
112	0x3f44e20fa47b1a4f	0.0006373001460467461
113	0xbf71918e6c918d42	-0.004289203971981794
114	0x3f5bca79d23b8264	0.0016962232265812721
115	0x3f3561602308b1f1	0.00032623860446070937
116	0x3f56f0b7d9ea2fa5	0.0014001651212849156
117	0x3f61898b9fbb3d07	0.002140782073048467
118	0xbf5940d818ef0345	-0.001541338951696684
119	0x3f60109f7558c06f	0.0019610514089194934
120	0xbf31b74d540611a1	-0.0002703250684350737
121	0x3f7a580a4a57ca70	0.006431617924578789
122	0xbf69bbc891f26520	-0.0031412999520169654
123	0x3f706e0d3bf58bb6	0.004011203476099226
124	0xbf6df16df935b4d5	-0.0036551616591880922
125	0x3f6c3d35ed8baec2	0.003447156265215274
126	0xbf7b5a2f805210b7	-0.006677804519430611
127	0x3f66f281c7064f14	0.002801183196604282
128	0xbf72e91e668d8e9c	-0.004616850616773551
129	0xbf6a4270ae6d0eed	-0.0032055092628143684
130	0xbf715051ea096163	-0.004226989724508054
131	0xbf7ce75abcd7d6aa	-0.007056574291245768
132	0xbf3e3d4eec688afc	-0.00046141793100866447
133	0x3f6afe3458109821	0.003295042261487261
134	0x3f6db1fa0aa48077	0.00362490497822426
135	0xbf3d9411f0da60e5	-0.0004513305474147646
136	0xbf720ca6440bdaf1	-0.004406594730190548
137	0x3f407ff34fab8b51	0.0005035341303848228
138	0xbf243f8734b9a2de	-0.00015448117698048982
139	0x3f4ec20cb55dcbff	0.0009386598637618481
140	0xbf78cea66ed66a20	-0.006056451920267963
141	0x3f69a3c4bff2cb0d	0.00312984874434486
142	0x3f6157a3219d6190	0.0021169840010026378
143	0x3f5bad3a4ceaea78	0.001689249929468643
144	0xbf60aa3d82e1c3a6	-0.00203430189053973
145	0x3f6519ba40bf78fc	0.002575744414556101
146	0xbf65427f4ab24377	-0.0025951849143627764
147	0x3f78f31f61b445fc	0.006091234764669103
148	0xbf418b36d20cbae3	-0.0005353944471603002
149	0x3f6ddd8ebe82e9a3	0.0036456859562267892
150	0x3f81d235bbe83fdd	0.008701724812482265
151	0x3f2a30a52c173ad8	0.00019981399786535878
152	0xbf21b42e1f377456	-0.00013506949436151394
153	0x3f68c8dcbafad0c7	0.0030254660740301783
154	0x3f64db14f49dab66	0.0025458726203643643
155	0x3f652c8ab31c626e	0.00258471574569468
156	0xbf5fb3da9d7dd4bd	-0.0019349703706812848
157	0x3f679b3a29cc9404	0.0028816352845688637
158	0x3f35d8059d196887	0.0003333104806181393
159	0x3f3f5ea26febd992	0.00047866311790247765
160	0x3f63118568e20d70	0.002327690664118691
161	0x3f67da7faad543fd	0.0029118054868964003
162	0xbf70544d4f186dee	-0.003986646640921061
163	0x3f62b53021afe867	0.002283662802708131
164	0xbf6cf469ef1ca9be	-0.0035345143341107546
165	0xbf6d6a487cfd3a60	-0.0035907188211361935
166	0xbf62357d59913f50	-0.002222771476716824
167	0xbf76996dcd002ce1	-0.0055174149602052755
168	0xbf862fa132bad2ab	-0.010833033905649122
169	0xbf7bba674fadf33d	-0.006769565162241528
170	0xbf78855f78061dc2	-0.005986569333237881
171	0xbf611afac0a4eb71	-0.0020880601415717505
172	0xbf7b5336dee23b8b	-0.00667115625232285
173	0xbf92c4f6d6cf766b	-0.01832948385332715
174	0xbf659b8e0d39553f	-0.002637650913849626
175	0xbf701a0655f0c67b	-0.00393106913456764
176	0xbf60d82c7ee4c98a	-0.0020562047058316256
177	0xbf85b48f138e98a2	-0.010598295006115702
178	0x3f398b51027957d9	0.00038977363371850215
179	0xbf80959f70405675	-0.008097882855547337
180	0x3f67efecc0129504	0.002922022250077762
181	0xbf8d8e52352d7c7f	-0.014431612251142532
182	0x3f481d42039b32e2	0.0007359096846016567
183	0x3f7e0d9c8d4fc2fc	0.007337199717753814
184	0x3f6c8b5571717839	0.00348440826523613
185	0xbf881e866784f763	-0.011776971849595424
186	0x3f6fe41bdf180a9b	0.003892950474211188
187	0xbf750b5dd94a854f	-0.005137793156479844
188	0x3f80249a4e0f1038	0.007882314212004457
189	0xbf767d91dfb4d972	-0.005490846462001252
190	0x3f82a01d4b067942	0.009094456531610565
191	0xbf5163bda73c1e49	-0.0010613777239444502
192	0x3f783a3f83e6c236	0.00591492472305837
193	0x3f52bcf029b07b17	0.0011436791744540758
194	0x3f6b2404e89de37f	0.0033130737182855414
195	0x3f675f20ef84ea5f	0.002852978064905628
196	0x3f702cec8d713a53	0.003949092896688616
197	0x3f81b63f88325141	0.00864839205159085
198	0x3f549d43bf132399	0.001258197935657379
199	0xbf516481c41bfbb6	-0.0010615603682137937
200	0x3f4e6a6133578009	0.0009282087909774371
201	0xbf59be0b6372e224	-0.0015711890426201103
202	0xbf49b3561cc44fd1	-0.0007843180151518807
203	0x3f53e0df54fc1b1f	0.00121328172457575
204	0x3f53f5f412979fd8	0.0012183078309764197
205	0x3f555b870c88c086	0.0013035601460949244
206	0xbf616fa9e8b0ce2c	-0.002128440717138044
207	0x3f474c1e6fed029c	0.0007109783763113611
208	0xbf3a3818826edf89	-0.0004000720822960815
209	0x3f37a399fa44613e	0.0003607035562409772
210	0x3f51ca40b1cd3ed7	0.0010858184607122534
211	0x3f4340d11a9d39c3	0.0005875607505261771
212	0x3f3dccc5c7a8b740	0.00045471027957232416
213	0x3f47796ef681daec	0.0007163802920463181
214	0x3f59fcd3c625096a	0.0015861576180929656
215	0x3f3be473373b2994	0.000425603989452705
216	0x3f5ab9d94391b9b7	0.0016312238424479439
217	0x3f34956872dab0f3	0.00031408119216781645
218	0xbf4e91b701a8df2c	-0.0009328979097693361
219	0xbf51e4d88fe8a089	-0.0010921587814980724
220	0x3f2bd2ad0f66119d	0.00021227228689836295
221	0xbf484a3b570d66d4	-0.0007412709947900117
222	0xbf1810b8be4da447	-9.180190643366766e-05
223	0xbf5755df5998727f	-0.0014242821838542916
224	0xbf4ec3ec47604b70	-0.0009388831811086695
225	0xbf38086011881d72	-0.0003667101423449815
226	0xbf45ac5fa0d2b3de	-0.0006614176687854652
227	0xbf00da53cd9f1edb	-3.2144243689522746e-05
228	0xbf6105e6b34c02bb	-0.0020780092112321047
229	0x3f5e8fdb2468b8ed	0.0018653526364107956
230	0xbf671b566dccc587	-0.002820652777153657
231	0x3f4ea4a0dfc299b9	0.0009351525800596539
232	0x3f528a938c05a8b2	0.0011316719902319358
233	0x3f3d6e5966d6f3c6	0.0004490822091972015
234	0x3f50a7253f900620	0.0010164130928845896
235	0x3f42cae8d4454cdf	0.0005735051022760748
236	0x3f428d516cf99eeb	0.0005661628328654499
237	0x3f56c3e3855ff05c	0.0013894769558637976
238	0xbf3734bbc03d5ff8	-0.0003540953041372137
239	0xbf34d4d31207ea08	-0.00031786110960721524
240	0x3f1d0c852915ec5d	0.00011081278559814515
241	0x3f43f5df0a7953e7	0.0006091441218339905
242	0xbf3a3451ea3ae4bb	-0.00039984702946644816
243	0x3f48a0d57dd54145	0.0007515947760712646
244	0x3f1195d6fe64387b	6.708264081487114e-05
245	0x3f5363c3650cd866	0.001183453383601507
246	0xbf38d1a8d064d6d2	-0.00037870761333934106
247	0x3f3eb599914f53e5	0.00046858786782638515
248	0xbf349eaa637ece48	-0.000314632986824413
249	0x3f50ce8add14ee64	0.0010258060541009856
250	0x3f2dc68bd55546fc	0.00022716957998141624
251	0xbf26af4633f0147c	-0.00017307025879645724
252	0x3f2413bfcfd58577	0.0001531764645888269
253	0x3f05d63783f13236	4.165036124756766e-05
254	0x3f1392e2b13643b9	7.466801280588035e-05
255	0x3f363e57661dccad	0.00033940919649140083
