dnn/ionosphere/fold_3_model.pt.pt (torch, 53050 bytes, 48 tensors)

model.0.weight f8 [20, 33]
000000 1c 76 c5 71 5e 96 e2 bf eb 53 90 68 de cc ce bf
       -0.5808555814834935 -0.2406270990910849
000010 e2 e0 0f 07 d4 53 da bf 49 b6 e9 6e 98 8c d1 bf
       -0.411366469284543 -0.27420626479474614
000020 a9 f3 5f c7 f2 0b ac 3f 06 10 d9 9e c7 a2 d2 3f
       0.05477865871214444 0.2911852885483771
000030 11 a7 4b 53 f6 a1 a7 3f 85 57 58 a0 b9 32 cb 3f
       0.046157548587713156 0.2124855072913158
000040 df 81 b0 02 9c 49 a9 bf 17 c2 60 55 26 92 aa bf
       -0.049389720276170605 -0.051896284029116106
000050 eb f2 cf f4 64 55 c5 bf 94 4d 57 16 22 0c c9 3f
       -0.16666852906919102 0.19568277445669635
000060 df b0 9e dd 3c 3f b9 bf 30 0e 0a 0b 16 26 c9 3f
       -0.0986211815895248 0.19647479571368498
000070 e4 00 24 47 5e db c2 bf c3 29 89 a8 42 a3 7b 3f
       -0.14731958841003412 0.006747494110252497
000080 08 c0 77 c5 a1 51 cd bf 23 58 52 b3 57 13 bf 3f
       -0.22905370847684048 0.12138889434785986
000090 ab ea ed 11 99 12 9e bf 8e 2f b1 a0 10 73 c8 3f
       -0.029367820472070132 0.1910115036611128
0000a0 0b 1d 08 1f ab 73 ca bf 57 de 9b 5b eb 5b c2 3f
       -0.20665492072314637 0.14343015645111976
0000b0 59 fa ba c6 3f 46 bb bf f8 0c 2b a5 07 7c ba bf
       -0.10654066659751872 -0.10345504553247398
0000c0 7f 8e ff 9e 7e ca d2 bf b3 d2 aa 6b 3f 79 c4 bf
       -0.2936092903821432 -0.15995018727484975
0000d0 de 05 f3 73 2e 61 ba bf d1 99 d8 eb 19 ad c0 3f
       -0.10304537134927425 0.13028263107226093
0000e0 d2 ca 68 0e 85 1f df bf 03 eb 57 28 ac 0f 86 bf
       -0.4862988129345186 -0.010772080403503198
0000f0 59 02 53 61 f7 fb ba bf 37 2d c0 d8 0c d6 94 bf
       -0.10540720106201586 -0.020347786645328738
000100 61 fb 76 63 3f c2 a4 bf 51 32 a8 e5 3d 7c 98 bf
       -0.04054449166459651 -0.02391144479956814
000110 77 02 a8 c7 34 cf b7 3f 92 7d b2 2b e0 2d d3 3f
       0.09300546526356777 0.29967502848918415
000120 32 13 05 42 7c 5b c8 3f 45 3c ce 5b 52 b4 c1 bf
       0.1902919123041556 -0.13831548197456037
000130 30 27 33 b5 6e d0 a4 bf 8f c6 9d 96 5c e9 dd bf
       -0.04065271341239762 -0.4673682661878979
000140 18 a6 25 15 9f 4b b1 3f f3 dd 09 f5 30 0a be bf
       0.06756014124189169 -0.11734300596605589
000150 05 d7 39 d0 85 3a bd 3f 4a 35 80 c9 33 92 9e bf
       0.11417423566475911 -0.02985459248889314
000160 57 cc 3c 8f 7b 94 c9 3f e1 d0 4c 92 4e b2 ce 3f
       0.19984383100527012 0.23981649535711028
000170 ed bd e8 2b 6b bc a5 bf a4 66 ec 63 cf da a0 3f
       -0.04245314513206808 0.032919388721166315
000180 96 d7 e8 76 06 f7 b7 3f ff 84 6d c5 53 b8 bf bf
       0.09361305621209079 -0.12390636034026058
000190 d9 71 53 d0 66 f7 c6 3f 82 90 41 1c aa f5 c9 bf
       0.179425098153742 -0.20280958537762578
0001a0 7b e3 4d f6 b6 05 d5 bf ab 12 b4 c6 a0 92 ce 3f
       -0.3284737973513569 0.23884973242106375
0001b0 33 ba 20 7b 8a 95 b8 3f 3d 39 92 69 32 c0 c8 3f
       0.09603181367922602 0.19336538462489186
0001c0 72 c4 62 87 71 83 ad bf 20 88 0c 07 b5 e0 a1 3f
       -0.057643459107006204 0.0349175044159582
0001d0 9e 9c ab c5 d9 94 d3 3f c7 3d 32 46 49 b3 bc bf
       0.3059601240515323 -0.11211069072509537
0001e0 83 d6 6c 4a 35 0c c0 bf e6 73 29 f6 bd a3 bb 3f
       -0.1253725636867565 0.10796725520908942
0001f0 3c a4 0e 3a cd 66 bf bf 08 54 e5 a7 cd 0e b1 bf
       -0.12266237895404769 -0.06663213109034427
000200 09 ff 68 1f 5a 79 b7 3f 68 c8 44 77 5c e6 c3 3f
       0.09169543520783575 0.1554675657621971
000210 ba f4 6b 62 f0 20 b4 3f ae 17 69 5e fd f8 bd 3f
       0.07862760928033455 0.11708053164428975
000220 bc bc 0a cd 2e bc b6 3f 31 5b 6c 21 d9 1b d1 bf
       0.08880894189745708 -0.2673247171782576
000230 c6 13 51 7e a0 63 bc bf 1e a6 b6 6c 1e 27 86 3f
       -0.11089518627075198 0.01081680077807606
000240 d7 d8 be 42 cc 89 d1 bf 3d c1 6d 46 87 94 cb bf
       -0.2740355159579741 -0.21547022761252235
000250 5e df d2 43 83 60 99 3f 93 98 69 59 ce 8e af bf
       0.024782229437476537 -0.061636398710832506
000260 bf f8 90 e7 6a 40 8e 3f 38 dc a9 74 9d 43 c4 3f
       0.01477130431350948 0.15831344791851776
000270 a3 44 11 23 71 ae c4 bf dc d4 d1 ee a2 35 a6 3f
       -0.1615735455730248 0.04337796368864996
000280 1f b7 1c 0a 44 85 c4 3f b1 bd af e0 08 e6 ca 3f
       0.16031694883116018 0.21014510127086575
000290 36 de ab 55 53 08 97 bf 15 d7 06 59 cf b1 8d 3f
       -0.02249269686123353 0.014499301819209923
0002a0 5a 64 8c 05 b4 7f cf 3f 7d d0 7b 74 7e f1 c0 3f
       0.24608469267767213 0.13236981094053482
0002b0 d8 3e bc 15 7f 87 8a 3f ca 6d 91 a0 0a 46 b7 3f
       0.01295375142174697 0.09091249866599252
0002c0 ae 7d 7e 69 e7 b1 bd bf a3 ca 74 50 d6 9c ad bf
       -0.11599584889926604 -0.05783719761020236
0002d0 22 7d 7c 57 6f 41 d8 3f a4 ca d6 60 36 32 d4 3f
       0.3789938310964819 0.3155647226041458
0002e0 13 6f a1 9c 2d f5 b7 bf b5 f5 22 02 76 0c ad bf
       -0.09358487199773106 -0.056735694657145265
0002f0 11 56 d2 48 f1 7f d0 3f 0e f0 3d 06 b8 97 a7 bf
       0.2578089915417375 -0.04607939792819603
000300 7d f7 80 21 76 65 cb bf 0b bb 5c 1d 3d 31 93 3f
       -0.21403385768820363 0.018742518345955122
000310 4e 9f e1 4b 0e 60 d2 bf a0 0a 09 c4 34 f2 a4 3f
       -0.2871127835301096 0.04091038601884134
000320 a3 64 6c 83 77 6e bc bf 66 a6 64 99 71 9b a0 3f
       -0.11106059034900055 0.03243594167208812
000330 11 c3 79 f5 3b 7a b2 bf 9c 59 2c ce 00 fc b0 3f
       -0.07217764609391632 0.06634526284719872
000340 4e d0 0b 20 9a ec a9 bf 7a fe d0 e4 14 c2 cc bf
       -0.05063325539768525 -0.22467290089297248
000350 82 79 04 fb e4 75 a5 bf 99 71 e2 58 82 f4 b8 bf
       -0.041915088311941254 -0.09748091383011682
000360 79 77 33 70 1c e0 86 bf dc b2 79 23 72 d4 af 3f
       -0.01116964547548681 0.06216770823525561
000370 80 70 79 59 8d 01 c4 bf 17 ef d0 f1 06 8d 94 3f
       -0.1562973677527033 0.020069225796972647
000380 53 0e cc a0 74 07 cf bf cb 01 c8 8d 87 31 af bf
       -0.24241502620144448 -0.06092475515106662
000390 9a 37 1b 5b 2d ce d4 bf 64 86 90 db 4b 51 d1 3f
       -0.32508405587292943 0.2705869335351052
0003a0 49 28 70 ae 11 eb a5 3f fb 53 47 ba eb 4c ac bf
       0.0428090596615936 -0.05527435921582221
0003b0 d0 ac c9 2c a2 b0 87 3f ad 7a 4d d3 65 d6 be 3f
       0.01156737040692804 0.12045895012623005
0003c0 3d 11 24 01 6d 3d c1 bf 73 21 e9 d7 12 97 70 bf
       -0.13468706660945343 -0.004050325018916434
0003d0 83 77 9d 1b b1 29 d2 bf ef bb ae fc 1b 72 a5 bf
       -0.2837946672133215 -0.041886210055387944
0003e0 e6 9c 3c 46 ea c8 d9 3f ad 67 9a 31 86 ea bd 3f
       0.4028878866105984 0.11685980521215696
0003f0 d6 23 12 99 e8 79 b3 bf 22 0f db 84 46 46 95 bf
       -0.07607892739373709 -0.020775892123096835
000400 38 4c e4 89 24 d9 bd bf 31 27 b1 f2 2a 81 d3 bf
       -0.11659458509920817 -0.3047587747611145
000410 18 85 47 71 0a 3d c4 3f f3 41 dc 99 9d 19 b2 3f
       0.1581128171083399 0.07070336347920385
000420 24 49 a1 d8 67 fd ce bf 54 f6 a8 5a 23 e9 ca bf
       -0.24210832669866378 -0.21023981024511562
000430 b1 ea 0b 79 8e 9d b2 3f 91 20 fc 44 05 d9 8f 3f
       0.07271662192571672 0.015550652663947314
000440 21 24 1d c6 33 6b a6 3f 38 d9 da 68 99 40 d2 3f
       0.043786638196771095 0.28519282569631654
000450 74 1d 4e 3a 82 ce c3 3f 53 c2 f8 a3 2f 6e c5 bf
       0.15473964545183672 -0.16742511278563885
000460 78 69 8a f9 99 3f a2 bf 81 ab 5b d9 0d 8a aa bf
       -0.03564149066115169 -0.05183451917931504
000470 1d f3 a1 9e 0d c7 ac 3f 66 ad 40 9e f6 50 c1 bf
       0.05620615540917682 -0.13528330542736028
000480 49 27 28 b6 fb d5 ae bf 39 6e 9a c1 da 21 a1 bf
       -0.06022631262392381 -0.03346141446419577
000490 f7 3d 0a 6a 97 07 bf 3f 51 6b 60 7f 83 1f b3 bf
       0.1212095865141619 -0.07469961032658758
0004a0 ef 7a 4d ca 8d 25 b6 bf af 07 7a 14 54 9f 84 3f
       -0.08651052655248369 0.010069519877337145
0004b0 8b 28 3e c4 65 18 d4 bf 37 c6 65 06 ae b9 aa 3f
       -0.3139891067918447 0.05219787433715022
0004c0 a8 bc 46 36 e7 3a ba 3f 5c 17 eb b9 eb 26 bc bf
       0.10246129107575774 -0.10996888436338054
0004d0 b2 3a 00 e3 2d 19 82 3f 85 27 4d f2 77 55 bf 3f
       0.008837088098542754 0.12239789643822803
0004e0 66 c3 68 46 23 87 c1 bf a1 b0 f2 e1 aa 88 d2 3f
       -0.13693657815886268 0.2895915228389275
0004f0 f0 12 05 d4 65 a3 cd 3f d5 c3 58 9a 00 5a b8 bf
       0.23154900410204204 -0.09512332695227539
000500 f0 e1 c2 83 23 e7 98 bf f6 52 0a 83 42 57 c7 3f
       -0.024319224278515905 0.18235045813039336
000510 a9 0b ae a0 35 bf c7 3f 19 47 ad 1b 67 67 7f bf
       0.18552275033661417 -0.007666971937241995
000520 3e 8a 73 51 1e e6 d7 3f a3 24 03 53 ff 44 a7 3f
       0.3734203143523337 0.045448283084234896
000530 f2 06 25 5c 34 17 cd 3f 03 c0 5f d5 fd 19 ac bf
       0.22727064608812203 -0.054885799690850966
000540 00 33 bd 8f f0 79 c2 3f 80 3b 34 9c f0 30 c6 bf
       0.14434630411633265 -0.17336852671766323
000550 d1 ec 0f 1c b1 76 d3 3f a9 e0 8e ac 01 4d b7 3f
       0.3041193746609681 0.09101877653927438
000560 49 66 85 7b e1 8d d3 3f ff 1a 68 00 44 55 b0 bf
       0.30553471624952927 -0.06380105028084058
000570 79 6a bc a0 4b 54 af 3f c9 77 1f 5b bf 5b ce bf
       0.061189998026937205 -0.23717491101609614
000580 50 d0 4a d1 3f ff 96 bf 22 9e d1 4a 9a 4c c3 bf
       -0.02245807375830139 -0.15077522900831847
000590 ca 34 cc 39 80 e0 b7 3f 51 a1 d9 12 73 19 87 3f
       0.0932693616016024 0.01127900983119959
0005a0 56 cb 0d 88 a4 21 bb 3f 24 c5 44 d4 12 b8 c2 bf
       0.10598209687831903 -0.14624247898749687
0005b0 6c 5d 1c f7 f0 fb d1 3f 6f 5a c2 57 c9 7f ad bf
       0.2810022748176013 -0.057615558588783304
0005c0 c0 c5 0b e5 bf 2a a4 3f 10 ac e3 48 54 ab c8 3f
       0.039388653478350744 0.19272855338144312
0005d0 83 3b 39 ab 56 fd b8 3f 68 b2 cd 8f 7f b4 c2 bf
       0.09761563949835587 -0.14613337060599751
0005e0 34 9a 50 36 70 ad c9 3f 6d 89 ec 11 26 18 b6 bf
       0.20060541774837903 -0.08630598008725139
0005f0 cf c8 c4 d1 0a 77 c7 3f bd 05 d3 59 f5 e0 bf 3f
       0.1833203815709283 0.12452634280182102
000600 c5 01 84 70 6f 23 cd bf 18 90 bb 61 c7 15 ac 3f
       -0.2276438998596985 0.054853659324891335
000610 b5 e9 4f 07 4e fe c6 bf b7 fe cb b9 22 a6 b6 bf
       -0.17963576657332472 -0.08847252880149879
000620 7b fc 10 7e 89 09 d1 3f 61 1d 73 f2 4e 2a ab bf
       0.26620709716002694 -0.053057162376314755
000630 6d d9 ca 0d d5 a6 d4 3f 9f 83 15 fc a9 1b bc bf
       0.32268263194000363 -0.10979711918254374
000640 3e 19 e7 02 69 7e cc 3f 6f a7 a6 98 c0 98 cd bf
       0.22260773317084132 -0.23122413114225135
000650 30 ac 32 fb 40 2d b3 3f 50 96 35 3a 51 46 c5 bf
       0.07490926869165615 -0.16620841352703275
000660 8a e6 b0 53 54 8f c9 3f 9a e3 47 60 78 f0 bf bf
       0.19968656622386433 -0.12476303434949756
000670 f9 4a 09 6c 43 a5 c6 3f 5a dc d7 9f a0 e5 73 3f
       0.17691843772134755 0.004857661665929569
000680 b2 46 79 2c 58 c1 b6 3f 4e 0e 46 01 e5 b3 bc bf
       0.08888770185265107 -0.11211997300238716
000690 ea 00 81 ea 2d 82 de 3f 17 ee 81 49 10 e2 d0 bf
       0.4766955175473543 -0.2637978284689963
0006a0 9c 6e b0 d2 75 b9 ca bf c9 be ee 99 ce 5d b6 bf
       -0.20878479754980084 -0.08736888177986225
0006b0 36 ef fc 25 52 88 af 3f fa 97 b1 6a af 86 bd 3f
       0.061586920869073955 0.11533638338877941
0006c0 f8 eb 3e 7c dc 3d bb 3f 1f 78 c3 0f 92 68 9d bf
       0.1064126780828899 -0.02871921750271877
0006d0 1a 20 75 db ba 58 c4 3f 4c 34 28 c2 40 6d ca bf
       0.15895782199572822 -0.20645913582157716
0006e0 32 9d 91 56 29 ee a4 bf d8 53 fa ba 1a 14 b8 3f
       -0.040879527871590673 0.09405676903618543
0006f0 cb 0b 81 9b 04 f7 d3 3f e6 28 08 6f e4 f6 d8 bf
       0.3119517820925323 -0.39006911128002597
000700 5b 3d 76 78 f2 5b b7 bf d8 eb a5 f8 af 19 93 bf
       -0.09124675217593874 -0.018652677108075583
000710 a4 e7 1b bb 07 9f a2 3f f6 51 a8 6d f6 36 d3 bf
       0.0363695541290803 -0.3002296515344648
000720 05 72 27 80 5d 62 84 bf 58 ba 40 04 63 f7 ba bf
       -0.009953241799785859 -0.10533732274846253
000730 ad 0d 5f 5f d6 4a cd bf 26 b4 1e 69 95 36 c4 bf
       -0.22884635597993733 -0.15791576035317795
000740 e2 a6 a0 44 4b 29 cc bf 4e 01 d8 6c 12 49 bd bf
       -0.22001019335703292 -0.11439623982733346
000750 a4 6a 2b 0e 35 ac a8 bf 4b 8f 3e 30 93 18 af 3f
       -0.04818883703201962 0.060734367026525314
000760 35 ab 8e a4 3e 1b d1 bf 58 29 cd bb b5 f5 a1 3f
       -0.2672878844265825 0.03507774274347025
000770 5b 8f 54 27 5f 36 d6 3f 6b 8f 84 1b 2d 22 bc bf
       0.3470685848317225 -0.1098964874441301
000780 66 3c 06 b0 5a 82 c4 bf 43 c4 9b 8f 6c 83 c0 bf
       -0.16022809596003923 -0.12901074421054845
000790 c4 89 4f 0c 1a 09 91 3f 48 8a 9e b4 a5 25 df bf
       0.016636282922158477 -0.48667280806163093
0007a0 17 65 45 b2 89 f5 78 bf f6 8c 59 8a 8e 2e b1 3f
       -0.0060935381664759735 0.06711665036850775
0007b0 e7 df 9e f5 1b 27 d7 3f 10 b6 f5 1c d3 1a c0 3f
       0.361762037147399 0.1258186236768073
0007c0 bc 9b 52 72 ae d3 c1 3f 80 bf 48 d4 f4 6d a0 3f
       0.13927250463640728 0.03208890048369906
0007d0 f0 8a 33 40 a4 a2 82 3f 6f 1c 47 d7 c1 17 bf 3f
       0.009099276742238399 0.12145625596814268
0007e0 7e e9 54 31 d7 a3 a2 bf 43 49 7c f1 cf c1 c3 bf
       -0.03640625455087142 -0.1543521813515075
0007f0 0a d3 07 ad 6b fb 99 bf 14 89 bc 6a ef 95 b2 bf
       -0.02537315600962401 -0.07260032993193405

model.0.bias f8 [20]
000000 e7 64 b4 c5 8f 6b a6 bf 1b b8 ed 62 0f 44 cd 3f
       -0.04378937996279735 0.22863952951905805
000010 36 ed cc 42 12 36 a1 3f 8f 48 c2 87 ad e4 a6 bf
       0.03361565652309155 -0.044713423559316394
000020 39 7c 26 65 dd 40 86 bf 02 de 24 05 62 6b db bf
       -0.010865907334674062 -0.428429131530237
000030 8f 1b ab 4b 4a bf 34 3f b2 51 58 24 ed be b0 bf
       0.0003165775666897291 -0.06541330468491571
000040 6d cf ad 12 d6 92 c9 bf b4 8a ff 37 87 39 b7 3f
       -0.19979358589227605 0.0907215606417065
000050 2e 98 b1 7d a3 7f b6 bf ad c1 d6 24 3d c2 bc 3f
       -0.08788511103338756 0.11233884953867941
000060 37 04 a6 50 36 18 c7 bf e7 cf b4 b8 86 19 b6 3f
       -0.18042639673152092 0.0863269997542485
000070 73 0f e5 86 76 9e b1 bf dd 64 08 ae af d2 a7 3f
       -0.06882420342759392 0.04652928351806349
000080 e4 ae 26 36 cb 36 dc bf 53 77 ea 13 6e 96 96 3f
       -0.4408443478412052 0.022058219876832052
000090 4c 7a ab 2e 1d 62 b6 bf d9 91 ea a8 6a d1 6b bf
       -0.08743460072899117 -0.003395756072978023

model.2.weight f8 [20]
000000 9b 0e 14 27 87 69 f1 3f 19 38 e6 0e 50 cf ee 3f
       1.088263657235905 0.962806729412253
000010 f6 d7 60 90 46 76 ef 3f 5c 09 7e 51 58 5e f2 3f
       0.9831879444016056 1.1480334456724313
000020 22 4d 47 7b 6e 59 e9 3f c6 55 bd 56 7e 40 ef 3f
       0.7921669395240409 0.9766227430470102
000030 9f 9b bf 80 87 1e ee 3f d9 ac 24 c6 6f 87 f0 3f
       0.9412267222040674 1.0330655803652944
000040 ba 95 07 a0 2f 64 f1 3f 88 2f fa 7a b0 c0 f3 3f
       1.0869594813496932 1.2345433048057846
000050 e8 3d 7e eb 00 7c f3 3f 9c 62 f9 45 ea 2c e7 3f
       1.2177743147802804 0.7242328039820509
000060 02 75 b1 45 ad 1f ef 3f 5f a3 64 39 90 72 ed 3f
       0.9726168023295545 0.9202347870787938
000070 9e 9a 1b 9b 83 fd ec 3f 2f 23 5c 90 ef 07 f2 3f
       0.9059465436410681 1.1269374503192002
000080 a3 a1 6f e2 0f 7e ed 3f 71 ee 1d 91 13 64 f0 3f
       0.9216384337024021 1.0244327229146644
000090 6b 18 2c 2f b2 d2 f3 3f 6f 84 a7 d4 e2 99 f0 3f
       1.2389394610086366 1.037569838219749

model.2.bias f8 [20]
000000 35 79 6f 57 99 7b c9 3f ad a3 83 26 1f 12 c0 3f
       0.19908444184597732 0.1255530298288056
000010 3a fe 63 1f 51 e8 b8 bf 83 ef 9e 47 45 33 aa 3f
       -0.09729487434741993 0.05117241381910189
000020 8e 67 47 e5 e4 01 9f 3f 86 01 57 95 a4 27 af 3f
       0.030280663007807677 0.06084932635303901
000030 e9 91 5e 75 7d 06 d7 bf ad 94 dd e1 ad a4 b5 3f
       -0.35977112256867244 0.0845440555982175
000040 9e 10 35 9f 9b a7 c6 3f a7 35 08 bf 22 cc b8 3f
       0.17698998712342456 0.09686486400479187
000050 ec 2b c7 c2 db 04 d2 3f 95 5c df d9 a8 91 d7 bf
       0.28154653569498467 -0.3682653548871227
000060 35 bc ae 38 4f 0a c0 bf 3b c6 b3 fc 3c 42 ca 3f
       -0.12531461970999805 0.20514643038727506
000070 0e 6e 40 02 f3 38 a8 3f bd 48 a7 71 3f 6e a0 bf
       0.04730948832022018 -0.03209112417575131
000080 f5 5d 33 fc 57 1d d5 bf 11 58 04 dd ef bd b2 3f
       -0.32991599682779277 0.07321070810243692
000090 1d 5d 6a de 27 47 9e bf 5c 48 e7 5c 31 51 b6 3f
       -0.02956831259743097 0.08717640417242606

model.2.running_mean f8 [20]
000000 df 97 60 e2 8a 6f e0 3f 13 88 12 a3 65 57 e1 3f
       0.5136160298759441 0.5419185814864725
000010 c0 23 cb 19 3d 40 d8 3f 74 93 12 0e 35 d2 d6 3f
       0.3789208175554073 0.3565800321032875
000020 cd 6c 49 38 d7 e9 d3 3f 1e 72 57 f8 e8 16 dc 3f
       0.3111475038219396 0.4388983178339759
000030 0a 27 7c 94 03 9a e9 3f ac ca 75 53 1c d9 d5 3f
       0.800050535211285 0.3413763823547622
000040 1b a0 de e9 77 13 e5 3f e0 e3 46 b0 5b 2d de 3f
       0.658626515175459 0.4715184422926182
000050 c6 fa 56 20 84 33 d6 3f a1 b1 e6 e9 5d f4 e5 3f
       0.3468942943399437 0.6860799377805514
000060 c5 d2 95 6d d8 ff e1 3f 1f ab 06 81 96 d0 e6 3f
       0.5624811306321013 0.712962390903474
000070 e3 4d d4 c3 4f c2 dd 3f 68 62 bc 5c 5f 78 d9 3f
       0.4649848377605094 0.39797195488202997
000080 06 b2 8c 1f 81 50 da 3f 12 e2 ed 5e e8 b0 e7 3f
       0.4111635978795508 0.7403451780401744
000090 e5 9e ef b2 ad 74 d6 3f c5 5c 19 a2 01 c7 e1 3f
       0.3508714911863378 0.555542770957708

model.2.running_var f8 [20]
000000 09 11 e6 ed 67 00 e7 3f e2 b5 12 e6 e9 e8 dc 3f
       0.7187995573481497 0.45171592205119115
000010 35 35 f4 ee ef 4d d6 3f 78 31 84 f5 cf b2 d3 3f
       0.348506911614851 0.307788839113321
000020 5d d4 c1 ab da 07 dd 3f e6 fe 73 06 63 66 d6 3f
       0.4536043813053022 0.3499991953867564
000030 30 5f c3 0d 36 17 f5 3f c0 c0 2e 01 5d 86 e0 3f
       1.318166784059894 0.5164017699335304
000040 da 0d f8 37 a4 df eb 3f fd 0d e7 5d 84 9d e0 3f
       0.8710499852317597 0.5192281564745255
000050 79 4f 61 c0 16 86 dd 3f 14 24 23 60 d1 8f e7 3f
       0.4613091353141879 0.7363058927231827
000060 5d 97 22 4d 7c de ee 3f 43 29 fd d5 7c 0b f0 3f
       0.9646588808579782 1.002804599661048
000070 8c 08 f0 8c 16 90 e4 3f dc f8 86 89 4e 32 e2 3f
       0.6425888779342741 0.5686409650877766
000080 19 c8 78 08 41 ec e5 3f a8 22 55 90 cf 98 f2 3f
       0.6850896039452464 1.1623073232641818
000090 90 b1 bd ef 47 75 d7 3f 77 cc 47 dd 0e 0c e6 3f
       0.36653326427656285 0.688971931637197

model.3.weight f8 [20, 20]
000000 c6 bf 97 f4 a9 3e bf 3f 13 bd 3a a8 bc 0d 9d bf
       0.12204992505553411 -0.028372714775000207
000010 c4 af 9a 90 47 2e e0 3f 69 41 aa 96 ff 2d 94 bf
       0.5056493591596269 -0.019706719942918314
000020 da 55 5f f8 18 c5 ac bf 35 e4 b4 be 87 00 b4 bf
       -0.05619123489274687 -0.07813309102938677
000030 06 1b d6 66 40 8a c7 3f 38 12 29 66 28 bc a1 3f
       0.1839066030626883 0.03463865515781034
000040 f7 dc 42 bf e7 b4 ca 3f 3d 20 25 bf ec 90 cb bf
       0.20864579047131546 -0.21536025365117153
000050 ac f3 93 57 87 2c d2 3f 79 01 49 10 55 ad 8a bf
       0.2839678149464884 -0.013025917586788381
000060 2c a0 03 c0 00 72 51 3f a5 7a 3b 10 35 e2 cb 3f
       0.001064778072811033 0.2178407983073686
000070 57 aa c0 ba d0 4c c6 bf 31 9c 84 23 81 c8 c6 bf
       -0.1742192184331823 -0.17799391016271351
000080 2b f9 51 64 ed 21 c7 bf 84 c9 9d 7a e1 83 b9 bf
       -0.18072287939498585 -0.09966859096110708
000090 94 1a b8 db 18 db d4 bf a4 99 73 d2 03 7d 5e bf
       -0.3258726258940581 -0.0018608605694737457
0000a0 3d 8e 17 be e2 d2 c8 3f f5 04 de 40 a2 92 d2 bf
       0.19393572122418049 -0.29019981703466097
0000b0 d9 99 d0 f5 73 fa b8 3f 73 6b 7f a1 08 38 91 3f
       0.09757160903300334 0.01681531415656985
0000c0 8b ad 9a 6e fe 62 a6 bf e9 24 05 53 03 ee 8f bf
       -0.04372401332997374 -0.01559069249255392
0000d0 73 b8 72 f3 aa 63 cd 3f 59 82 4e b5 1c 9a b6 3f
       0.22960411917796683 0.08828906465942889
0000e0 fc ed 81 98 b5 01 d0 3f 78 30 71 9b d6 07 bd 3f
       0.25010433095277995 0.1134008531091143
0000f0 04 c3 83 f6 7c 9b d2 3f 48 7f e2 d6 3f b1 ce 3f
       0.2907402427072585 0.23978422157687818
000100 e9 f2 3c 44 29 5a d3 3f 57 5d 6e b2 5f 46 c0 bf
       0.3023780027759089 -0.12714763843971852
000110 f1 f8 bb ac df f9 c3 3f 69 2d cd 20 ca 90 ae 3f
       0.1560630410603561 0.059698406700216484
000120 43 6f 33 53 f6 b3 b0 bf ec 36 06 7a 1e ea b9 bf
       -0.06524600535652518 -0.10122862319095888
000130 f1 6f b5 bf 65 9c c5 3f 94 c1 f1 34 cf 78 58 bf
       0.16883537159708298 -0.0014936469558755926
000140 9e da e9 46 42 9c d3 3f 82 c5 ef ad 5b 30 cd bf
       0.3064122860445567 -0.22803827279089367
000150 44 db b9 14 7f c7 d1 bf 29 24 fe 96 ff 25 c7 3f
       -0.2778012945558894 0.1808471190709338
000160 41 3f 78 e0 fd 28 c7 3f 93 39 0a 73 a7 cf d7 bf
       0.18093846760211288 -0.372049200385754
000170 fc 39 ea fc d4 51 c0 bf ff aa 66 6b ed b0 94 3f
       -0.1274973139702097 0.02020617454551665
000180 fc 12 ec 27 6d da cd 3f 1d 8b 92 75 29 ce d0 bf
       0.23322834443401763 -0.2625831268471062
000190 ea f9 75 56 3a f2 bb bf 2d db 4a b9 15 3e d0 bf
       -0.10916485415325608 -0.25378935904466254
0001a0 04 a8 2e 1a 9c 70 c7 bf 8a 8d 0a 55 65 34 ae 3f
       -0.18312407759123073 0.05899349845028741
0001b0 42 b2 fc ef 4e 54 ac 3f c7 65 8b 9b 97 dd 98 bf
       0.05533072165994614 -0.024282807224926175
0001c0 af e6 e0 57 8d ae a6 bf 63 78 c1 6b 6e ce ae bf
       -0.04430047700630035 -0.06016869607331967
0001d0 e4 fb 71 2a 42 49 7c bf 6d 1f de 02 6c 5b bf 3f
       -0.006905802211917032 0.122488737774004
0001e0 09 33 80 db b7 96 b4 3f 4d 9c 4b be 81 f5 c4 bf
       0.08042477711587649 -0.16374227325215643
0001f0 7b e1 98 a3 52 66 c0 bf 81 72 17 0f d5 a7 c4 bf
       -0.12812264431137152 -0.16137183415311898
000200 fa 77 13 96 36 49 8d bf 8c 30 40 4e 43 4e b1 3f
       -0.014299799399335445 0.06760044727724529
000210 d6 23 70 fa da 30 c0 bf cb a4 7f da b5 f3 b9 3f
       -0.12649094799442534 0.10137497505606345
000220 a1 e4 12 69 3e 3c cb bf 66 9b d1 b5 3a f9 d0 bf
       -0.21277599459225363 -0.2652117515157698
000230 ff 10 66 cf 10 63 e2 bf aa 04 52 b0 9a df be 3f
       -0.5745929766422079 0.12059943012902133
000240 b9 5b b0 ba 3c 79 c4 bf 3a 87 f5 71 96 76 33 bf
       -0.15994986644429135 -0.00029698536851273697
000250 03 54 f5 51 fe 1e be bf 02 fb 86 70 53 97 d8 bf
       -0.11766042233405476 -0.384236202135
000260 4c b3 55 9d d0 50 b0 3f b5 f6 ec dd 76 68 bd bf
       0.06373313752346838 -0.11487524908167297
000270 ea 55 17 d9 7f dd a1 3f da 50 07 cd 2c 23 d7 bf
       0.03489303135908613 -0.3615219118339731
000280 f9 c6 f4 cd 94 48 be 3f 5e 0e 20 79 fc 3e d0 3f
       0.11829500225283231 0.2538443739760846
000290 e7 40 5b 95 a7 bf b3 3f a6 65 a2 de af b2 af bf
       0.07714316746137549 -0.06191014855103143
0002a0 d9 f4 70 4a fe c5 c5 3f c6 70 45 54 eb ec cc bf
       0.17010477671457272 -0.22598020186240414
0002b0 de 79 5a 78 96 63 ac 3f 77 de 2e 42 7b 6d be bf
       0.055447294417934265 -0.11885805478856946
0002c0 43 56 05 41 a9 e0 b4 3f 87 ff c6 69 c4 07 cf 3f
       0.08155305707381282 0.24242453732403765
0002d0 23 2c f4 7a f3 a0 9d 3f d7 71 b9 fd f6 30 9f bf
       0.028934292201523115 -0.030460223423107138
0002e0 6f b6 d8 93 88 be 90 bf 4b 62 42 a5 56 6c d1 3f
       -0.016351827644192015 0.272237454782531
0002f0 eb a7 8e a8 85 21 b4 3f 2b 7c 23 72 3d bc db bf
       0.07863650670211057 -0.4333642592081925
000300 11 a0 a1 66 7e 2a b6 bf bb 6e f9 e9 8c 17 d6 bf
       -0.08658590322158967 -0.3451874051004144
000310 8a 0e 2f 5f f4 08 d4 bf c5 a5 66 d9 7a d4 c8 bf
       -0.313046544030137 -0.19398437133103932
000320 1c 51 08 c8 de 70 aa 3f 8a b6 3e 43 d6 ac c1 3f
       0.05164238158991649 0.13808706553884448
000330 ac 99 fe 7d 96 a4 ca 3f d7 bc 8d 48 bb d5 d7 3f
       0.20814782287670874 0.37242014012640595
000340 17 79 30 a5 bb f7 c3 3f 6d a7 dd 41 33 20 b2 3f
       0.1559977108563053 0.07080383642246853
000350 99 f0 28 a0 f8 1c c5 3f 92 52 ed 35 fd 90 dc 3f
       0.1649466306715837 0.4463494326239835
000360 24 bf 41 97 b6 5c a5 3f 97 7e e7 f7 fb 2b be bf
       0.04172297092816127 -0.11785864641523812
000370 16 c9 ff 53 16 e5 c1 bf e1 1a 30 95 c6 c2 a0 3f
       -0.13980368711015306 0.032736020766653835
000380 74 21 d5 20 5b f4 c5 bf 22 a6 36 4d 69 13 90 3f
       -0.17151965239669276 0.015699048364387853
000390 68 26 47 2f af 17 c8 bf 18 23 a1 ba 1e e1 a4 bf
       -0.18822278793804803 -0.0407800295657294
0003a0 6c 69 fb 43 8e cf c3 3f 6f f0 07 90 67 89 c7 bf
       0.15477159804761287 -0.1838807538296154
0003b0 c2 3c b2 92 90 f1 b1 3f dd 19 9c 7a 5b b4 d7 bf
       0.07009223538829004 -0.3703831384049446
0003c0 08 ab 9d 0f fc 79 c5 3f 24 bf 63 6f 21 95 c8 3f
       0.1677851749658077 0.19205110491702115
0003d0 14 ed a3 38 84 bd c6 bf 65 93 56 f0 4f 41 5a 3f
       -0.1776585842670576 0.0016024857189702254
0003e0 86 52 12 51 e4 da b2 3f 6a b8 d8 98 f4 81 b7 bf
       0.07365252475058001 -0.09182671290975156
0003f0 da 68 5f 52 8a 73 af bf 10 67 7d 30 73 a0 d4 3f
       -0.061428377681026894 0.3222930882962922
000400 2a 1d 47 2d 70 8b 98 bf 95 8b b7 71 71 57 d3 3f
       -0.02396941448548976 0.3022121058003731
000410 5f a8 02 43 ca 2f cf 3f 7a 19 e0 c6 82 40 c0 bf
       0.24364593765250483 -0.12696871481621114
000420 5c 00 c3 9f 0e 1b c1 bf 2f c1 e5 db 74 91 a5 3f
       -0.13363821793427888 0.04212536987586401
000430 83 7f cb 46 b0 3f ba 3f 28 9a c8 4f 95 06 bd bf
       0.10253431061164346 -0.113381702402514
000440 b8 87 39 a0 0f 04 c5 3f d3 63 94 4e 15 33 df bf
       0.16418643306229597 -0.4874928729419114
000450 9b 09 f8 3e b1 87 e3 bf e8 b2 f8 30 c7 9b 84 3f
       -0.6103140096532117 0.010062748128882373
000460 77 67 12 50 80 b6 b3 3f d2 dd d2 3b a0 a0 8a 3f
       0.07700349764709623 0.013001682115244249
000470 c2 d5 91 d8 99 20 ce bf 98 14 61 9a bd d1 c3 bf
       -0.23536990236941163 -0.15483827627227664
000480 bd 38 4a 84 f6 40 b6 3f f5 14 c2 66 a0 38 cc 3f
       0.08692875604376389 0.22047810571181228
000490 77 31 81 33 9d f5 b8 bf 17 3d e4 e9 6d bf d4 3f
       -0.09749777324140561 0.32418392029735926
0004a0 a9 80 62 90 fa 3b b9 bf f2 ea eb ff 75 fc b4 bf
       -0.09857145333308161 -0.0819772481735688
0004b0 ea ea 25 45 7a 3c d5 3f 6f 3c d7 0f b8 94 7a bf
       0.3318162608408516 -0.006489485732756524
0004c0 e7 eb 37 83 88 a4 a4 bf 75 d2 68 08 1c 69 cc bf
       -0.04031778909480704 -0.221957687479193
0004d0 cd 2c 48 78 1d ca b3 bf f6 29 37 0c 1e db cc 3f
       -0.07730278193064351 0.22543693157633954
0004e0 68 80 bb 75 d1 f1 b1 3f 4c 5b cc 8f ea b4 cd bf
       0.07009610294653756 -0.2320836259975415
0004f0 9b 6b 10 8b 29 f9 d2 bf 59 0f 0a 7e 73 78 b1 bf
       -0.29645765858156786 -0.06824418856745974
000500 ef 19 69 a5 36 7f d7 3f e4 47 f9 cc 51 4d b0 3f
       0.3671394934976026 0.0636798024582102
000510 40 7a a8 b0 77 fa bf 3f e3 bd 13 b2 ed f1 cb bf
       0.12491558134977598 -0.2183205718533677
000520 28 34 1d 00 dd ea bb bf b1 cf 2c 14 b2 32 d8 bf
       -0.109052479293681 -0.3780942151090541
000530 f5 f1 29 aa c9 b5 c8 3f e8 94 b3 be 0c 80 c2 3f
       0.19304772194654132 0.14453276931377634
000540 fb e4 40 bd a7 fe c2 3f b7 b8 3b 71 0b 8a ce bf
       0.1483964609231306 -0.23858778981179338
000550 f0 2a 89 7c 6b c2 a8 bf 73 ab 62 01 d0 b8 b5 3f
       -0.04835830588543455 0.08485126527618352
000560 11 74 f3 d7 0a 16 c5 3f 62 5e a4 e2 8b 27 9e bf
       0.1647351793716614 -0.029447732647069798
000570 fa b5 a9 f1 57 75 e0 bf 6d a7 d4 cd c9 ea c1 3f
       -0.5143241615275536 0.139977670195829
000580 27 20 3c 9d a2 7e bd 3f d2 a2 48 88 8d be 77 3f
       0.11521354998342358 0.005796959744238621
000590 8f 71 23 d5 87 bc cf 3f 1f 57 7f d4 d9 1b d6 bf
       0.24794099719191506 -0.34544988395406223
0005a0 54 d0 b3 24 a1 5b b3 bf 03 4f de 40 52 64 c6 bf
       -0.07561690469793919 -0.1749365631809426
0005b0 f0 56 5e be c0 5d 9e 3f ba 5f f1 57 fa 25 91 3f
       0.02965451394955826 0.016746436708075164
0005c0 34 c1 60 9f 96 15 b3 3f 47 d4 bf 66 8f d1 c1 bf
       0.07454816237509904 -0.13920776860291736
0005d0 b4 bf 8a 4b 83 d1 d5 3f a3 f3 20 05 42 f1 cc bf
       0.34091265084407074 -0.2261126065294806
0005e0 3b fd 2f 29 31 e5 d9 3f bc 12 94 81 86 e0 ce 3f
       0.40461377165043516 0.24122697188444941
0005f0 b0 5c f7 af 76 19 d2 3f d0 6d e2 49 d9 35 be 3f
       0.2828041761799325 0.11800916723080168
000600 70 a8 dd fb 5f 4b d3 3f 24 de 9b 01 f2 27 c3 bf
       0.30147552105211783 -0.14965653494412934
000610 bc bc a7 9a ce 87 d1 3f e8 b3 95 84 9c 77 bb 3f
       0.27391400435494595 0.10729387509282129
000620 38 e8 33 ef 45 d4 cd 3f 55 4c 27 66 77 40 a4 bf
       0.23304056339094514 -0.0395543396185977
000630 ed 2a f9 f6 01 18 b3 3f 29 00 fc 02 24 18 ae 3f
       0.0745850780450998 0.05877792869978322
000640 a3 f3 5a b5 f0 b0 7c bf ae 5a c2 14 9e ac 8a 3f
       -0.007004680888425793 0.01302455426075019
000650 8c 16 96 a5 c6 88 5f 3f 35 03 50 f4 2f 46 dd bf
       0.0019246997747769693 -0.45740889414450986
000660 b0 32 56 b8 4a 5e cd bf f9 cf bd 22 d7 0a d0 3f
       -0.22944005966964687 0.25066164391250784
000670 e9 0a f5 3b f0 47 b7 3f 9c 5c 48 5a 77 6e ae 3f
       0.09094144309805653 0.05943654038508692
000680 d6 87 4a c8 54 a2 ab bf 4d 1d 82 b3 4d df d3 bf
       -0.05397286362610003 -0.3105043652544353
000690 0a 29 b4 86 b0 60 d5 bf db 76 12 ff 5b 12 bc 3f
       -0.33402646212256626 0.10965514161440686
0006a0 9b 19 bc 25 c2 fc c6 bf cc f6 34 ec f0 fe a1 3f
       -0.17958857386129243 0.03514817126641176
0006b0 39 15 70 3d 92 72 cd bf da 13 fb 5c ad 23 b4 bf
       -0.23005893707174055 -0.07866939086950656
0006c0 57 e7 7c f3 e6 e0 ad 3f 07 60 be c3 24 97 bb 3f
       0.05835649225487199 0.10777501849077008
0006d0 f2 e6 64 ca 09 ca b2 bf a2 55 a0 85 bf 22 d0 bf
       -0.07339535895598795 -0.25212085771030435
0006e0 24 4a f2 fd 6d f2 cc 3f d3 3d 7e e7 20 24 71 bf
       0.22614836597183896 -0.004184845478348592
0006f0 1f 02 95 2a ba f5 bc 3f 80 91 4e 5e 63 b3 bc bf
       0.11312449969865 -0.11211224605955827
000700 9e 31 39 94 51 72 94 bf 63 68 c7 6f d5 14 ce bf
       -0.019967341110076135 -0.2350107951922978
000710 93 bb a8 7a 46 35 b6 bf a3 00 9a aa db c8 cf bf
       -0.08675041670424681 -0.24831720190195936
000720 c8 f2 f3 a5 ec 2e b6 bf 2f c0 9f 5c b3 8e c0 3f
       -0.08665350963196794 0.12935487768800288
000730 c4 1b 4b ab 78 83 d8 3f 72 da da 2c 41 ea b8 3f
       0.38302437522764543 0.09732444138612964
000740 2c 49 af d3 eb ba c6 bf d7 5d 33 db 96 b3 54 3f
       -0.17757938228766912 0.0012635205464926935
000750 37 80 17 87 0e 69 a9 bf cb 2d f0 74 90 5e 97 3f
       -0.04962964438505007 0.022821671616879684
000760 f9 e2 f9 22 db 74 d2 bf 85 94 ad df 6d 16 ba 3f
       -0.288382324367873 0.10190474234475928
000770 8e 29 42 dd 57 d1 d0 3f 61 f8 35 66 ad 93 d2 3f
       0.26277729613561795 0.29026350957417973
000780 a3 30 44 2b 4f bc b0 3f 5f 4e c8 27 6a 21 c9 bf
       0.06537337118442337 -0.19633223478796233
000790 da 0a a2 be b6 81 bb bf d0 2c 8d 67 68 69 d9 bf
       -0.10744802621961061 -0.3970585833782936
0007a0 47 24 8f 5c a8 0e 81 bf 9d 7e a4 55 97 dc c3 bf
       -0.008328738522225388 -0.1551694076706455
0007b0 b3 96 05 8f 4e ff 92 bf 55 05 b3 be 6b 51 b0 3f
       -0.018552043418273722 0.06374238401169426
0007c0 8d 4b bc 83 6d 91 d5 bf 5d 6b 0b 68 4b 88 df bf
       -0.337001207969643 -0.49269375954252387
0007d0 38 98 48 c4 2a 0c d8 bf 8a 1f 90 ce 16 13 d1 3f
       -0.3757426182586445 0.26679010555425775
0007e0 ea e7 0d ee d5 cd d1 bf 1b 1f f0 48 36 e8 73 3f
       -0.2781882118939608 0.004860126543469591
0007f0 5e 9c 8a b1 35 3c a2 bf db 4c 66 44 ba 97 d0 bf
       -0.03561561386350641 -0.259260718151564

model.3.bias f8 [20]
000000 90 0f f6 ab e9 e7 96 3f 79 88 55 0d cd dc cc bf
       0.022369052048375304 -0.22548831130103844
000010 24 cd 84 79 f5 69 b9 bf e8 05 32 ec 82 4c c6 bf
       -0.09927305428282246 -0.17420994313219684
000020 9a 5f f0 00 b5 1e ac 3f 91 5a 9a 4a 96 12 d7 bf
       0.05492177616559886 -0.3605094650787715
000030 60 f2 d3 0f 00 45 b1 bf 2a 8a 5e 1f 4f 3a d0 bf
       -0.06745911013053663 -0.2535589033451823
000040 2a 19 13 2c 2e 3b c8 3f 05 97 13 8b 64 45 d8 bf
       0.18930604126053058 -0.37923539716426574
000050 5a c9 b4 44 48 c6 b6 3f fd bc 5c dd e7 04 be 3f
       0.08896304776570699 0.1172623553691103
000060 3d e6 45 20 51 f9 b1 bf 73 2b da b7 93 1f d8 3f
       -0.07021052396694301 0.3769273086006059
000070 94 19 a5 b4 7c f4 a5 bf c7 cf 99 09 01 97 b5 3f
       -0.04288091378343775 0.08433538898844893
000080 ef c2 66 95 1e 97 d9 bf e8 17 f9 40 e6 ab c6 3f
       -0.3998486002920307 0.1771209542513923
000090 d6 13 18 c4 13 f6 d3 3f cb 56 39 a4 5a 1c 7e bf
       0.31189436101732093 -0.007351259296759681

model.5.weight f8 [20]
000000 24 9f 99 b0 3b 06 f0 3f a8 52 d9 35 97 43 e8 3f
       1.0015217684212496 0.7582508136498136
000010 b8 2c 77 8c 0e 31 e5 3f b8 e2 96 bf 1b 53 f4 3f
       0.6622383826701457 1.2702901348076647
000020 40 ad 6f 9a 3e 08 f0 3f b1 ae cc 24 47 43 e7 3f
       1.0020128281274339 0.7269626349202182
000030 6f c0 ea 33 aa da f5 3f 0f 8c 65 8d f1 20 eb 3f
       1.365884974289681 0.8477714311269454
000040 a3 3f 95 5d 7d 82 f0 3f f7 5a 67 df 3c 6e f1 3f
       1.0318578391634012 1.089413521452739
000050 14 f9 cb 48 7f ca e1 3f 37 3a 95 d0 83 e1 e0 3f
       0.5559688970386412 0.5275286744961879
000060 02 ad ec 12 49 17 f6 3f 2b 04 d2 97 56 18 ed 3f
       1.3806849230994094 0.9092209782830926
000070 6e 64 97 e5 3a a9 e7 3f 44 ce c7 4e a9 97 e5 3f
       0.7394079670149389 0.674763349407336
000080 95 18 22 ae a0 48 ef 3f d2 42 81 62 8a 33 e7 3f
       0.9776156807936497 0.7250415729450543
000090 60 64 ec db ab f2 ec 3f 84 97 3a 07 ec e6 ec 3f
       0.9046229644183192 0.9031887189091639

model.5.bias f8 [20]
000000 da 09 eb 1f 62 9d cd 3f fc f9 f9 8d b0 80 cb bf
       0.2313654571390334 -0.21486479694790706
000010 94 49 a9 da 92 88 d1 3f 7b 7c 1d 13 b8 28 d5 bf
       0.2739607940067341 -0.33061029307095396
000020 fd 03 ce b7 33 0b e1 3f 0e ca 28 9d 51 32 b3 bf
       0.5326174344955913 -0.07498655402086049
000030 d3 9e 40 b1 00 44 aa bf 21 06 eb 08 40 81 df 3f
       -0.05130006946302292 0.4922638022509052
000040 62 05 1d c4 05 a0 c5 3f c1 a8 25 f4 36 bf cb bf
       0.168945999868849 -0.21677290841336652
000050 5d 51 ff 28 11 65 cf 3f a4 fa d2 cf ca c3 d1 bf
       0.24527182103941927 -0.27757520957303883
000060 f7 89 9b b8 36 d8 dd bf 81 c3 37 0c a4 05 d5 3f
       -0.4663216402824725 0.32846928780696066
000070 6f dc 08 c1 0b 91 c4 bf 94 36 50 f7 11 7c de 3f
       -0.1606764500190567 0.47632264281933456
000080 65 cd 2d f2 f8 ed a7 3f d0 2c 4d 6d 7d 66 c0 bf
       0.046737460673194765 -0.12812774502740476
000090 6e 5a b6 84 46 9d c8 3f 17 2e e1 b0 bb d0 e4 3f
       0.1922996662148821 0.6504801230125307

model.5.running_mean f8 [20]
000000 a2 ac 82 31 9d 51 dd 3f 7c 52 bc 46 9a 8c d5 3f
       0.4581063254833656 0.33670670421387405
000010 7c c1 df 9f 81 33 da 3f 06 39 90 00 6d 08 e2 3f
       0.4093936978597623 0.5635285387996027
000020 60 9b 1a c4 de 21 df 3f 11 6d 65 7c d1 87 c5 3f
       0.48644227171683063 0.16820734571488363
000030 44 c7 79 1b e1 23 e0 3f 37 81 96 2b f8 b7 d9 3f
       0.5043798004755691 0.40185360199577097
000040 7a 50 18 56 f4 1d d7 3f 19 d0 dc 03 b0 0a e2 3f
       0.36120327384674733 0.5638046336594044
000050 64 ff 85 ca 61 23 e5 3f 7a 7b 8c a1 f1 e6 dc 3f
       0.6605690913711268 0.45159569526906973
000060 e5 5d 0f c3 70 15 e2 3f fe ba 6a dd be 61 e9 3f
       0.5651172456518309 0.7931818317937027
000070 9f b8 12 83 71 0b e1 3f be 51 10 a7 eb e9 d5 3f
       0.532646900179106 0.3424023753625781
000080 dc bb 35 73 cd ca e4 3f 9f f1 a9 fa 01 18 ea 3f
       0.6497561693375888 0.8154306312349496
000090 ac 38 8f 3d 22 3c e7 3f cf b7 28 62 97 c8 de 3f
       0.7260905458768057 0.4809931238731879

model.5.running_var f8 [20]
000000 69 0a aa 1c 26 77 d7 3f 7e be d0 fe ce 0d e0 3f
       0.3666472701953923 0.501685617147771
000010 e9 46 94 2a 56 2f d1 3f 8e 8a f9 4f 5d 6d d9 3f
       0.2685141959965294 0.39730007944141554
000020 fb 98 9f ab 96 a1 d2 3f 3a f5 a3 2a 37 bc c3 3f
       0.2911125827798881 0.15418138105443707
000030 5d 1a ba f9 fb 14 e0 3f f4 a0 40 fa 7c 17 d8 3f
       0.5025615575294285 0.3764336055633202
000040 dd e3 9f d3 0f 86 d4 3f cb e7 c9 0d 74 ba f2 3f
       0.32068248430692653 1.1705208338375879
000050 f6 7e 9c 39 e6 37 de 3f 5e 51 1b d5 47 32 df 3f
       0.47216182352165903 0.48744388400270633
000060 45 75 90 0b c0 df d7 3f 23 45 8b 28 9d f3 f0 3f
       0.37303162698102127 1.059476049780934
000070 39 d9 78 0e 74 76 e9 3f 02 77 d7 d8 6c 4d c9 3f
       0.7957096369416724 0.19767532909366287
000080 4a fe 47 e4 20 bd f6 3f 8c b9 d3 03 95 d4 f1 3f
       1.4211739461169537 1.1143999242300167
000090 fd c9 0e 45 9c b4 dd 3f 8f ed 8b a0 31 57 e3 3f
       0.4641485857383996 0.6043937812495858

model.6.weight f8 [10, 20]
000000 d0 3f 41 a3 9c ce 97 bf c2 97 68 34 ef 46 9a 3f
       -0.023249099220549685 0.025661218236699097
000010 aa 6b f1 36 fb 96 c3 3f e4 49 6d 42 ad 7c e0 bf
       0.1530450838352782 -0.5152193353081285
000020 c9 30 d1 05 0a c9 a1 3f 36 32 98 e3 59 81 b2 bf
       0.03473693200121059 -0.0722862415934252
000030 d4 7e 35 73 1a d4 a5 bf b3 94 c7 6d 13 98 bc 3f
       -0.04263384491309599 0.11169549398580862
000040 4b d8 9f 24 38 61 8b bf 5d 59 96 cd bf 42 d2 bf
       -0.013369024865806397 -0.28532404972920294
000050 95 6d ed 37 37 f7 b8 3f 6b af 31 c7 e3 b6 a8 3f
       0.0975222121755251 0.048270338121112775
000060 35 cd 41 6a d9 45 e1 bf 5b 9b 06 94 5c cf c2 3f
       -0.5397765231449855 0.146953174856402
000070 b3 99 5e 73 c5 e3 c7 bf 76 cd 8f f2 eb 2f ad bf
       -0.18663852818754165 -0.057006238326631584
000080 6c 1e 90 a5 65 d0 90 bf 4e c8 ea f6 db 0a a5 bf
       -0.01641997168556346 -0.04109847439885127
000090 6f 3a bf 60 5d a8 b3 3f 12 53 e2 ba bc e0 82 3f
       0.07678779232012699 0.009217714741944803
0000a0 32 a1 48 74 0a 88 e0 bf c8 da c5 9e b6 0b af 3f
       -0.5166065474668697 0.06063624084611302
0000b0 80 0d d8 1f 18 0d c1 3f a4 a2 b7 5c aa 18 d4 3f
       0.13321210436707176 0.3140054612581855
0000c0 c8 2f f8 30 0a 47 b7 bf c1 82 a2 95 cc b7 dc bf
       -0.09092773147148059 -0.44871821034216103
0000d0 aa 27 52 27 b1 dd e2 bf d3 c0 2e b8 27 c0 c4 3f
       -0.5895620124804186 0.16211410992901296
0000e0 55 45 b8 10 d5 cf dd bf eb 53 66 40 44 56 da 3f
       -0.4658100760726332 0.41151529587779007
0000f0 9b ab 31 2e eb e4 b0 3f 52 38 b1 95 f7 43 81 3f
       0.06599302175315673 0.008430418258424197
000100 64 70 d3 a7 58 14 c2 3f ac 1b 1e 2e 8a da bd 3f
       0.1412459201300208 0.11661590219419676
000110 6a 94 1e 6d 20 2a bf 3f 87 22 d7 44 bc 9b c9 bf
       0.12173655189561008 -0.20006516801210614
000120 9c d4 98 c1 93 6f d9 bf c5 87 8c 57 7c a3 cb bf
       -0.39743513017612897 -0.2159266879544345
000130 12 71 2e bd 82 76 c9 bf 8d d0 c7 8f a5 37 b4 bf
       -0.19892915952085183 -0.07897410164133785
000140 5b b7 39 d0 e3 49 d1 3f 4c c4 f4 3e 1c a1 cd bf
       0.270134881348772 -0.23147919725446042
000150 29 58 a5 43 7f db b7 3f d4 94 36 80 c1 33 d5 bf
       0.09319301034460693 -0.331283927162372
000160 3b 1b e2 88 60 6d cb 3f 34 1e a8 78 1a 0e c4 bf
       0.21427542384864204 -0.15668040172043762
000170 f2 92 75 2a 6f a7 ca bf 57 62 2a 76 05 21 c4 3f
       -0.20823468754965507 0.15725773114970096
000180 93 fd b8 55 6b 46 9f 3f 9e c8 08 98 af 4e d3 bf
       0.030542065722554645 -0.3016776070318289
000190 cb 3e 1a f8 3d 17 c7 bf 4f 52 41 5c d1 14 b4 bf
       -0.18039679159527675 -0.07844265463183685
0001a0 a9 4b b2 77 8a 32 d9 bf 80 40 db da 1f eb d5 3f
       -0.3937097710524378 0.3424758565206574
0001b0 15 fd 92 63 a7 28 b5 3f 4f fd 61 0a c7 25 a5 3f
       0.08265157872209657 0.04130384446852508
0001c0 e8 b9 4d c2 4b 52 c1 3f 01 2b 22 e3 3a ef c9 bf
       0.13532397258263917 -0.20261322107793237
0001d0 82 5c f6 07 91 70 af bf 5d 05 e7 6d c7 0c b8 3f
       -0.061405689451185644 0.09394499238171279
0001e0 35 79 70 e2 1c 18 da bf 8c f3 08 92 16 b8 b8 3f
       -0.4077217303582928 0.09655896249110024
0001f0 cd 5e 83 47 00 6f 97 bf e7 21 20 f0 52 32 c5 3f
       -0.02288437305909845 0.16559826588515067
000200 3d c4 83 6a 3e 8b c8 bf f4 48 9b 77 94 f8 c2 bf
       -0.19174938393510557 -0.14821105804600843
000210 da 67 97 e2 93 16 df bf 09 b4 7b 18 5e 7d c8 bf
       -0.4857530319983404 -0.1913259143397286
000220 a0 ac 27 0d c6 f1 d9 bf e0 be d7 ec 10 86 ce 3f
       -0.4053816917864399 0.2384663731058856
000230 bb d0 a9 f0 5e 0c be 3f 5c 6c 2f 4c 94 9b c9 bf
       0.11737626433915953 -0.2000604030607488
000240 62 71 de bb 03 02 d0 3f ba d8 cd aa d8 b2 a7 bf
       0.2501229605348013 -0.04628636441241114
000250 f9 1e 87 75 db fa b2 3f 71 71 7b 4a 15 6b bc 3f
       0.07414027804690794 0.11100895946896629
000260 83 cf 1c 65 7a 94 d3 3f 14 fd 7d 00 97 7e cd bf
       0.30593738436004275 -0.23042571567564407
000270 57 67 92 ea cb 64 d9 bf 56 b6 b2 75 d7 1a cc 3f
       -0.39677713305865353 0.21956914183594972
000280 d0 3d 84 16 6f 8b 9f bf f9 07 09 16 20 26 cc bf
       -0.030805335759451158 -0.2199134929269915
000290 a2 e5 47 69 8d 84 c3 3f af d9 18 6a c4 89 b2 bf
       0.15248267784754171 -0.07241466131458794
0002a0 77 1c 32 c8 eb 17 dc 3f d1 df cb 4e e7 4f b8 3f
       0.43896002340665724 0.0949692313550934
0002b0 2c e1 5e b6 ca 14 c6 3f 2b e4 bf 1b 22 6a c4 3f
       0.1725095167619285 0.1594889293189977
0002c0 f2 06 ed a9 16 8f d1 3f fd 3a 17 14 e7 4d ce bf
       0.274358430808305 -0.23675240021699287
0002d0 46 24 86 e2 8d 93 c3 3f f6 9f f7 60 6d 57 7f bf
       0.1529404979776549 -0.007651736508229581
0002e0 7b db 93 6a 2c 9a d4 bf 65 22 8f f2 8c ad 2c bf
       -0.32191000373807527 -0.00021879525709624366
0002f0 6d 12 41 5e da fa bd bf 6d 2d fd 9f 23 1c cb 3f
       -0.11710896302344916 0.21179623901330605
000300 e7 3f de b1 de 86 cf 3f 57 8a 1b ef 1f be ba bf
       0.24630340275734783 -0.10446357333743471
000310 c7 92 4a 62 c2 da c3 3f 77 20 b8 8c a9 7e cf 3f
       0.15511350440387714 0.24605292674118903
000320 b0 1c 5a 64 bc 30 c0 3f 2a 32 61 83 85 22 a5 bf
       0.12648730182647716 -0.041279003417546825
000330 a2 3c 4e 1e 1a c3 bb 3f 93 50 b4 54 d1 1a c7 bf
       0.10844577064402697 -0.18050591121630485
000340 f4 4a 09 0b cf b6 c4 3f 65 2a 29 63 45 a7 a5 bf
       0.16182888068086465 -0.04229180179080031
000350 0c 55 7e d6 a0 89 b6 bf e7 e8 1a 9e f7 a4 bd 3f
       -0.08803754078538278 0.11579845056522552
000360 83 3a a1 1a 8e bf 83 3f 5e e2 fa eb f9 ce ce bf
       0.009642706096341108 -0.24069141409360645
000370 68 bd f0 71 60 8f 95 bf c6 33 b8 24 ad 48 af bf
       -0.021054751352662576 -0.06110135148274014
000380 1d 4d 9a 66 51 b1 da bf 0a b2 36 b7 cb d0 c4 3f
       -0.4170726301174044 0.16262194105128486
000390 6b dc 96 33 8b f8 9a 3f 27 43 f0 52 cd 62 6b bf
       0.026338744186173473 -0.0033430109247166886
0003a0 1f 49 23 0d ff df b9 3f c5 c6 d0 56 be ea c3 3f
       0.10107416220424568 0.1556013034728975
0003b0 ec 30 75 03 02 3b b2 bf 17 98 65 af 47 aa b1 3f
       -0.07121288856905367 0.06900451690816599
0003c0 93 9b 48 2c a5 9f b2 bf 9f 66 b9 ae 8e ba 9f bf
       -0.07274849253791009 -0.03098509732658405
0003d0 b7 7b 37 ce 93 88 a0 3f 99 0f 8f c5 a7 9c c5 bf
       0.032292002604428154 -0.1688432421343549
0003e0 b4 8c 1f f3 47 f9 b1 3f 07 d6 34 c5 5a 0c 7b 3f
       0.07020997701288217 0.006603579112654418
0003f0 93 2c 24 1e a6 b9 7b bf 28 1b 19 7d 26 85 cb 3f
       -0.006768845460338418 0.21500092609695654
000400 ef cd 42 1d d8 31 c4 3f 77 1d 62 e5 52 21 c0 bf
       0.15777112416036185 -0.12601696205477328
000410 bb 84 d5 45 a3 90 c9 bf c0 f2 8e e1 70 0d ae 3f
       -0.19972649488321345 0.05869629624746642
000420 39 fd 51 db 42 be cb bf cb c8 72 92 53 9d d9 3f
       -0.21674380978581967 0.40022744466399435
000430 66 5c e8 4b a2 01 92 3f 95 35 14 22 dd dc c7 3f
       0.017584358103786356 0.186427728309735
000440 77 01 cf 7e 8d cb cc bf b1 a5 85 5a 23 c3 a7 bf
       -0.22496193591906508 -0.04641066055303201
000450 87 0b 1d ae b2 5a c1 3f 5e e4 75 f9 89 cc d7 3f
       0.13558038236268663 0.3718590675485468
000460 5e 30 77 a8 e4 dd ce 3f 1b e4 7c 35 b0 a6 c6 bf
       0.24114664293154225 -0.17696192371093464
000470 8e 71 77 16 a3 26 b9 3f 95 84 a8 b0 d8 56 a6 bf
       0.09824580477238085 -0.04363133579705295
000480 5e c1 87 5f 3a d7 d1 3f dd 4f 01 ef bc 73 c3 bf
       0.27876147584085753 -0.15196954412624467
000490 16 1c 61 ca 2c f1 d6 3f 1f b8 55 73 3a 11 b1 bf
       0.3584701515541736 -0.06666913333694467
0004a0 ee 37 12 6e c4 fc d3 3f 19 5d 7e e0 01 06 ba bf
       0.31230269192826554 -0.10165416460801104
0004b0 af 74 1e db de 67 aa 3f 28 04 6f 69 4b 61 a9 bf
       0.05157371926109399 -0.04957042371780346
0004c0 fd d0 5f 6e 04 a7 c6 bf b3 26 3c eb 02 a6 a4 bf
       -0.17697196378106375 -0.04032906648178649
0004d0 de 41 02 1d 84 96 d4 bf 09 ca 50 b8 9f 5d d0 3f
       -0.32168677170650806 0.2557143497425903
0004e0 23 1d d7 d0 2e 2d ca 3f 97 07 51 0e e6 b7 b8 3f
       0.20450387189178185 0.09655607080006089
0004f0 b1 8e 88 46 f6 5b bb 3f 78 08 d5 65 af 02 d0 3f
       0.10687197896964552 0.25016388840243264
000500 b2 e4 7f e8 10 28 c2 3f 9e b0 9c 83 a0 7d ac bf
       0.1418477187396881 -0.05564595800964976
000510 f4 28 d7 b8 eb 53 c3 3f c4 8b d9 ed 22 ce e1 bf
       0.15099855924047 -0.5564131398681345
000520 03 9d 50 be 32 6b b9 3f 79 3c 7c 97 d4 7b c1 bf
       0.09929196497306596 -0.13659150501959852
000530 93 3c 20 bd b9 70 74 3f ec 5a 0a e0 83 a7 b2 3f
       0.004990315954287133 0.07286857814538522
000540 63 a9 26 f6 3f ba 9f 3f 3d 33 e4 c3 8b cd c4 bf
       0.030983924292436692 -0.16252276482591724
000550 57 c3 dc f5 5e 97 ba bf c5 3d 23 08 45 47 93 3f
       -0.1038722372293369 0.01882655965965598
000560 d9 d6 b4 cd c8 39 e6 bf 79 ea 5d 59 8f fb b5 bf
       -0.6945537584021749 -0.08586975032623369
000570 f9 64 78 0b a8 17 b3 bf 7b 94 36 00 e8 bc a2 3f
       -0.07457971839939494 0.03659749033548906
000580 1c 3a 7f 27 87 41 c3 3f 58 ea 23 6f ea d1 b5 3f
       0.1504372542244291 0.08523431027780626
000590 26 b3 67 f9 0a 9a a1 3f 8e 41 bb 8c 0d e1 82 bf
       0.03437837881560872 -0.009218316895755387
0005a0 97 aa b9 03 56 4f bc 3f bd 37 e3 4c c0 1b c6 bf
       0.11058557120274269 -0.17272189859653322
0005b0 df 72 10 e3 13 e8 bd bf c2 8a 45 e6 78 ea d8 bf
       -0.11682247441826686 -0.38931105124917675
0005c0 ef 22 03 d6 10 81 df 3f 18 1b 3d a7 03 a4 bd bf
       0.49225254916795697 -0.11578390915847725
0005d0 6e fe 30 e4 53 17 d2 3f ce 3e 7d 5e 3e 7a 82 bf
       0.2826738098556011 -0.009022223719198943
0005e0 32 0b ae 9c 46 90 d9 3f 0f 7a c7 ca 04 34 cd bf
       0.39943089772002616 -0.2281499853260844
0005f0 86 c8 9f 28 1f 34 c2 3f 83 67 ef 75 4e e4 7c bf
       0.1422156284675717 -0.007053667532966548
000600 2c 34 c9 d4 9b 7f d5 bf 09 f1 88 95 01 4d be bf
       -0.3359136178958717 -0.11836252117877079
000610 3e e1 38 94 5e 0d cd bf 7f fb c8 ff a2 6f d2 3f
       -0.22697050321017714 0.2880637643719907
000620 d9 80 7b 49 60 f6 cb 3f e6 f8 0b 72 12 13 c9 bf
       0.21845630252847206 -0.19589453285875108
000630 42 e2 1b e9 05 8e c6 3f 96 da 01 75 77 e7 d3 3f
       0.17620920068999807 0.3110026018761486

model.6.bias f8 [10]
000000 72 36 fc d9 ed ca d2 3f dc 7f 4f 34 31 14 d4 3f
       0.29363580978029014 0.3137324343533672
000010 d6 73 26 63 e9 0a dc 3f 21 92 cf 24 8f 5d c2 3f
       0.4381659954322549 0.14348019883540622
000020 c6 81 f4 ee 71 ae d4 3f 30 31 fc 66 63 1a da 3f
       0.32314728103122226 0.4078606134142033
000030 4c 8b 5c 74 fb 66 d7 3f d3 60 65 cd 3c b6 e5 3f
       0.3656605373709467 0.6784957896843714
000040 0d cd ee 82 e5 39 cd 3f eb da 0c a6 60 38 e7 3f
       0.22832936185077593 0.7256320231598158

model.8.weight f8 [10]
000000 02 31 11 61 24 0b f0 3f 0a 00 10 d2 a8 5c f9 3f
       1.002720240753718 1.5851219373289518
000010 17 94 65 e5 25 2a f4 3f 10 31 0e 52 19 86 f5 3f
       1.2602900467693468 1.3452389912882303
000020 bd 45 5d d2 28 aa f3 3f 19 bc 9c 57 65 da f1 3f
       1.2290428368909112 1.1158193037370039
000030 78 77 f4 95 84 d7 f0 3f 2c 93 43 c0 6e b3 f3 3f
       1.0526166780104784 1.231306792288886
000040 be d2 f3 76 d6 6b f3 3f 99 fc 07 ad be e8 f2 3f
       1.2138275763110609 1.1818224677115607

model.8.bias f8 [10]
000000 63 24 cb 2f b7 41 e0 bf 98 ab a2 b8 20 07 e4 3f
       -0.5080219205348268 0.6258700948868521
000010 ff 56 8a a0 27 02 e2 bf c5 ad 69 86 62 48 e1 3f
       -0.5627630363039485 0.5400860429048683
000020 bb 5f ef 66 98 69 df bf 38 85 37 99 e9 82 dd bf
       -0.4908200268960134 -0.46111526453576657
000030 97 a3 bf 7a 6a f2 dc bf f7 2c 0a 52 4c e8 df bf
       -0.4522958945004176 -0.4985533524674816
000040 95 de a3 a2 82 85 de bf c9 c9 3f 95 ef db dc bf
       -0.4768988216669439 -0.4509238202582791

model.8.running_mean f8 [10]
000000 e6 6b eb a7 c3 27 f2 3f 2f 9f 3c e7 f0 98 e3 3f
       1.1347080764160125 0.61241955913008
000010 76 72 de 18 03 2b f6 3f 55 28 36 33 66 26 e6 3f
       1.385501000541948 0.6921874046540873
000020 eb c7 c4 4e 6c b7 f5 3f b2 ea 17 55 dd 21 f1 3f
       1.3572810246373546 1.070767719646636
000030 a6 e3 1b 5f 53 a3 f2 3f 8b 7f 3c ad ee 39 f7 3f
       1.164874431151682 1.4516436354678912
000040 8d ad 85 d2 4f 3e f4 3f ae 1f 13 9a 92 c3 fd 3f
       1.2652128432772287 1.8602472322981884

model.8.running_var f8 [10]
000000 15 15 40 70 ad 8e f1 3f 1d c7 d9 98 fa e5 e1 3f
       1.0973333725717727 0.5593235955586554
000010 d9 ca 41 db 19 26 f0 3f bb 4f d8 a1 e3 cc e9 3f
       1.0093020024038906 0.8062608872446541
000020 0b 4c e5 34 7f 66 ef 3f 9a bf de 11 02 1f e8 3f
       0.9812618287199951 0.7537851666474922
000030 d7 f2 14 6f 0a 95 ed 3f c3 b0 b4 a5 a3 32 f0 3f
       0.9244434518401147 1.012363097465866
000040 ef 68 7e 83 dc 62 f7 3f ad 1d 58 64 bf e5 f9 3f
       1.4616360794521446 1.6185907287307189

model.10.weight f8 [1, 10]
000000 ec 71 f0 c0 5a 64 dd bf 88 88 f0 d0 88 43 e5 3f
       -0.4592501529857873 0.6644939499713169
000010 83 b2 3e 90 96 c4 de bf de 5d d1 b5 5d d7 e6 3f
       -0.48074878775040747 0.7137898017053279
000020 3b 4a 90 6e 3f 2c db bf 90 ae f7 94 85 19 e2 bf
       -0.42457567021589043 -0.565615454628146
000030 76 48 81 56 3c 63 de bf ae c4 33 3c 35 5b df bf
       -0.4748068661475665 -0.48994189147112877
000040 5c ca 89 ff 32 de e1 bf 84 53 37 9e 37 db d3 bf
       -0.5583739272099808 -0.31025495959084304

model.10.bias f8 [1]
000000 f9 85 45 25 4a 8c ca 3f
       0.2074062997808566
