dnn/ionosphere/fold_2_model.pt (torch, 51083 bytes, 34 tensors)

model.0.weight f8 [30, 33]
0	0xbfc7a1444360c359	-0.18460896768513171
1	0xbfbcaf207c1819a6	-0.11204722432748912
2	0xbfc9f76768448216	-0.2028626689070882
3	0xbfc0e3b4460a6ed6	-0.13194898052176168
4	0x3fb237400e804981	0.0711555514720086
5	0x3fc5b415a3ed5d29	0.16955824379213283
6	0x3fbeb72663898021	0.11998214655022867
7	0x3fd2f27ac7675521	0.2960497805882643
8	0xbfc0dfc5f56209bd	-0.13182901841726205
9	0xbfa1249a3073a330	-0.03348237840129398
10	0xbfc8bc512c5d8a76	-0.1932469812992001
11	0x3fb7d747828cf9f8	0.09312865197441755
12	0xbfc4802c2657c2eb	-0.1601615130635062
13	0x3fc5f8940a8e5bf0	0.17164850726541614
14	0xbfc079638da22421	-0.12870449462596503
15	0x3fbeb8532f0f15c7	0.1200000753297764
16	0xbfb197a7ff1f34f4	-0.06872034052431159
17	0x3fc636f7ca828d04	0.17355248821431968
18	0xbfb3a6bfd741e849	-0.07676314359005788
19	0x3fbab571305d8cbb	0.104331087406126
20	0xbfd29b7459f75072	-0.2907381895613589
21	0x3fafe6880bde318a	0.06230569023964268
22	0xbfc70f26c845f18f	-0.18014988688436204
23	0x3fbe6315b449fff8	0.11869941379154614
24	0xbfc88a48e404be27	-0.19172011502949823
25	0xbfd3152745e5ed6f	-0.2981661017035639
26	0x3fb8a627b84c3541	0.09628532647567047
27	0xbf9ae3fb739d6af5	-0.0262603082004302
28	0xbfd31b7de16133ab	-0.2985529614423352
29	0xbfc1524ff6cc39cc	-0.1353244738642857
30	0xbfba6bcc13e11166	-0.10320735440570203
31	0xbfbb8e55ac23e1ee	-0.1076406045211866
32	0xbfba036579517ecb	-0.10161432468293723
33	0x3fa59554e1883fd4	0.04215493443564325
34	0x3fb17e0669511159	0.06832923957069194
35	0x3fd436be2ecc1dac	0.31584124155093707
36	0x3fd0cbf342c18905	0.2624481346048387
37	0xbfc5e6f918312726	-0.1711112373471277
38	0xbfb6bdaa7153eef2	-0.08883157030862401
39	0xbfc0121f75d9af71	-0.12555306677256398
40	0xbfb72ee8753ba5d1	-0.09055950986989748
41	0x3f77c5840e46476b	0.005803600161373139
42	0xbfa0841a92aecc08	-0.03225787201463254
43	0xbfacacd54761468a	-0.056006112063767224
44	0x3fc34b306571c2db	0.1507320876439938
45	0x3fd6fedab47550b9	0.35930507300259823
46	0xbf8566d85bbb8d06	-0.010450067805726448
47	0xbfd107fe92de9bfa	-0.26611294119578555
48	0x3f7546ea7f8ea018	0.005194583901278825
49	0x3fb26f83d1acf782	0.07201408261332001
50	0xbf91faa24dfbe1d3	-0.01755765534378091
51	0xbfc58e3b9b199b35	-0.16840310166591058
52	0xbfc521937323e8f6	-0.16508715746005692
53	0x3f8a1a0c3b9dc785	0.012744994706483723
54	0x3fc0b54381b1537d	0.1305317290558853
55	0x3fb8a59ed3836325	0.09627716697594886
56	0xbfc6319ec762b58d	-0.17338928924202116
57	0xbfc3c71cd0895ef0	-0.1545139330144063
58	0x3fae690d93c15a58	0.05939524105695132
59	0xbfb561cecc2a7f7b	-0.08352367863198921
60	0xbfd0365b59843af2	-0.25331767789695825
61	0x3fd6abda4e82c621	0.3542390600879078
62	0xbfbaeb76e5f13555	-0.10515540231536609
63	0xbfc43d6c562a70e9	-0.15812448699296702
64	0x3faa893077f2c377	0.05182792152607523
65	0x3fcad7e0a9530210	0.2097130610254827
66	0xbfb9148da66fc483	-0.09796986878770224
67	0x3fbaac97a49560c4	0.10419605034019513
68	0xbf8dcb4bea481513	-0.014547913634496845
69	0xbfd05415de297f1c	-0.25513216681973616
70	0x3fc98a59e0c9748d	0.1995346400825934
71	0x3fcb0d2dc0535c7f	0.2113396824922553
72	0xbfa7101c5d5fbf31	-0.04504479064769241
73	0xbfc2f9406e9c19ce	-0.14823155785434355
74	0x3fb727a0ff334ed2	0.09044843893507995
75	0xbfd08e580b8f4a64	-0.2586879837882974
76	0xbfb698a66b46b70b	-0.08826675528572651
77	0x3fbfea6883f61c5f	0.12467053624833245
78	0xbfda7490871efe21	-0.41336453624168895
79	0xbfa5eaccf094b008	-0.04280701100137213
80	0x3fd5475302772b83	0.3324782871319984
81	0x3fbfb5191f81344c	0.12385708827169245
82	0xbf98f1cae936e3f2	-0.02435986565044241
83	0xbfc27c443559843e	-0.14441731076206737
84	0x3fc6154fdaec1001	0.17252538861805536
85	0x3fc643ebd2e59f24	0.1739477901239691
86	0x3fa5f42d2b340cb3	0.042878543399660705
87	0xbf9b408fe5430ae8	-0.026613472335848792
88	0xbfcd27762a13c135	-0.22776677183674968
89	0xbfa9dfffdd9b6a3a	-0.05053710537113827
90	0x3fc6874c3a3ed69e	0.1760039600755378
91	0x3fc1578bf4dcfce1	0.13548421341145114
92	0x3fb976d39489f1c6	0.0994693982738176
93	0x3f889dd44d8fa249	0.012019785515762342
94	0x3fbc0c278c56c020	0.10956046272508546
95	0xbfd2cb3abfe531ab	-0.2936541437127526
96	0x3fd402413ca52dc0	0.31263762400041273
97	0x3fb730617039ca54	0.09058197965513531
98	0xbfb476c7468da4b7	-0.0799374148606543
99	0x3fc35b4caa109c43	0.15122373870801384
100	0xbfbdc75377eaed61	-0.11632272412946555
101	0xbfc3abd6f8cbe1ee	-0.1536816325021983
102	0xbf3870ae8fddfe5d	-0.0003729273010932616
103	0x3fa436cf72683af0	0.03948066970416686
104	0xbfa36af70d4cb54a	-0.03792545354222428
105	0xbfc13b863e7ab832	-0.1346290402484001
106	0xbfbdfe6df7f79790	-0.11716353706250815
107	0xbfa78f321ed05b09	-0.04601437212129695
108	0xbfa4beb7fe25b319	-0.040517568372569986
109	0x3fa7be3ddf451952	0.04637330389464246
110	0xbfaa13dae7a5d77f	-0.05093273236972972
111	0xbfb3f73477e46fa9	-0.0779907982545739
112	0xbfcd57350852dab0	-0.2292238512652225
113	0xbfc59bd43a421442	-0.16881802410731167
114	0xbfd1ea637ca9579f	-0.2799309461018939
115	0x3fc3c14c11ce7c6f	0.15433646077596871
116	0xbfa644db84f44fb9	-0.043494091014650356
117	0xbfc7d57b572670bd	-0.1862024474656944
118	0x3fc1de1e28c6b098	0.1395909976103027
119	0xbf94d5aee02306f6	-0.02034638636610616
120	0xbfb17f5ab2448968	-0.06834952213515566
121	0xbfc1ced5798a38fa	-0.13912456926886546
122	0xbfd067c2f947aa10	-0.25633310645813
123	0xbfb1e59cd48448c9	-0.0699098605003058
124	0x3fa2a4d8057240a1	0.03641390863879335
125	0x3fa7dbb96f9b017c	0.04659823882457467
126	0xbfc6891323d57263	-0.17605818986602903
127	0x3f9453742d4d9d50	0.019849601044737597
128	0xbfbe5037580c6ddf	-0.11841150188086356
129	0xbfc33748b1861d2e	-0.15012463253172242
130	0x3fc7ddb8ebeb3754	0.1864539291331605
131	0x3fc7bbecca495e06	0.18542251469874332
132	0xbfc1330c0cfcd01f	-0.13437033304364918
133	0xbfc45e0a457ae9eb	-0.15911987679085313
134	0xbfbf1587c039eaec	-0.12142227595351657
135	0x3fd1c3a2b4b5ffd1	0.2775656475787374
136	0x3fb07d1fd6010a9a	0.06440924620350544
137	0x3fbac53fae71f665	0.10457227715411362
138	0x3fa7e9d8deb03a88	0.046705987151757944
139	0xbfca24c6a6815386	-0.20424731378684785
140	0xbfc817ec620d9317	-0.18823008334870714
141	0x3fcac0ab5d9ba72f	0.20900480337814417
142	0xbfa5c4b25199a681	-0.04251630064102319
143	0xbfc1c4e0f3d5b885	-0.13882076173780802
144	0xbfb09808afd06ac4	-0.06481985370957505
145	0x3fc4089e453cff54	0.15651300793433143
146	0x3fc22c81a4e60465	0.14198322822270196
147	0x3fadd7c736717e47	0.058286881824412044
148	0xbfa452914b954433	-0.039692440487336354
149	0x3fc581057fca25a0	0.16799992313125944
150	0xbfceddb8d91d610a	-0.2411414203768419
151	0xbfa251432d3ad560	-0.035776232978075084
152	0x3fd2410614b8a863	0.2852187349659571
153	0x3fad43a034c38054	0.057156568947676206
154	0xbfb50b65cb2228ce	-0.08220516404449826
155	0x3fb5d6d34f2f16f2	0.08530922587587123
156	0xbfb80cb7dd6bf7ce	-0.09394406467251246
157	0x3fd2d7145711e0d8	0.2943774080554369
158	0x3fc6fe8a33a40c93	0.17964293977283727
159	0xbfc237f8a777e8c3	-0.14233310868423218
160	0x3fb9394e00a77d15	0.09853065029118498
161	0x3fc366628963c65c	0.15156203945621172
162	0xbfbc2cf8d3eb39bf	-0.11006121801185652
163	0x3fa0e4486d922486	0.032991660476064985
164	0x3fc069307c32d9d0	0.12821012558352018
165	0xbfbb65ed756c4247	-0.10702404133577047
166	0x3fc6f8b6b9c46178	0.17946514197025087
167	0x3fd3f27cc630ad19	0.3116752562952612
168	0xbfac0b09aa2d63b9	-0.054771711371990724
169	0xbfd892ceeaafc736	-0.38396046560875463
170	0x3fa3648499ff4295	0.03787626628730326
171	0xbf760976b4ef447b	-0.005380119036048399
172	0x3fa43d6d518a54bf	0.03953115101209325
173	0x3fce9893fd45bbbb	0.23903131357971383
174	0x3facd4109e1d916f	0.05630542688485007
175	0xbfc6054ca6b568e4	-0.17203672542638693
176	0xbfc3920a61fb5f21	-0.15289430412553265
177	0xbfd0af2236129dad	-0.2606893089345828
178	0xbfa3e512b9624d04	-0.038857064370995814
179	0xbfa8a8afb13a7326	-0.0481619743197597
180	0x3fb780b5c68339e4	0.09180770966052126
181	0xbfc08e30432cfef2	-0.12933924942080172
182	0x3fbfe046400b87b1	0.12451590598678199
183	0x3fc2820f080bf1ae	0.14459407704260968
184	0xbfae82d7c3bce09a	-0.059592001575255085
185	0x3fda50d09428e22d	0.41118254154892747
186	0x3fbe4189fdb3ef0d	0.1181875461951984
187	0xbf8db284708022ad	-0.014500651057475744
188	0x3fc4ba568367447d	0.16193658271962255
189	0xbfaed4d3159b71dd	-0.06021747244605866
190	0x3fd2f2a23e1de305	0.2960591894730416
191	0x3fade1ce5dcc1f6a	0.05836338896739231
192	0xbfbd160944fd77c4	-0.1136174958641894
193	0x3fc9445d751b55e1	0.19739883630852176
194	0xbfc2730cb7794ad8	-0.1441360374324947
195	0xbfb5256c5f487955	-0.08260228468177407
196	0x3fb1cde78bc0e63d	0.06954810296965604
197	0x3f818bceb05b22f5	0.00856744266219909
198	0x3f969f873453ea3f	0.02209292656787398
199	0xbfd2c8b968030784	-0.2935012355557023
200	0x3fbe8ac26f35352c	0.119304802084305
201	0xbfc08325dd065dd2	-0.12900231640081344
202	0xbfdfa60615835e4a	-0.49450828648466383
203	0xbfc3a282778ac877	-0.15339690053002972
204	0x3fd0a940d0dceab3	0.26033039471409863
205	0x3fcfbdfc2d4ca5df	0.2479853841007715
206	0x3fd0acbc4cdcbea0	0.26054294115145105
207	0x3fc71a09ac95f7a2	0.18048211028138633
208	0x3fb3bbca67bcb21e	0.07708420784610623
209	0x3f920ca0f6ce3120	0.01762629991894571
210	0x3fc98baaf469c62d	0.19957482275235475
211	0xbfbfbecd00c5b66e	-0.12400513905387253
212	0x3f89d13953bd6280	0.01260609423450032
213	0xbfae868ed46ff991	-0.059620345527935055
214	0x3f987d4be5d0ca1a	0.02391546812232024
215	0x3fa9a8f82b561c81	0.05011725930221989
216	0x3f964a73933f3595	0.02176838480209183
217	0x3fbc51764d3f3ee7	0.1106180132476272
218	0xbf9bf0132d38b4f8	-0.027283000598051083
219	0xbfbee12af448caa2	-0.12062328781102363
220	0x3fcfdece8d93311b	0.24898702538337933
221	0x3fbc85eb3d2a925d	0.11141844027822274
222	0xbf80cf97ed5cc858	-0.0082084531128183
223	0xbfc34362960cada1	-0.15049393011700565
224	0xbfb50f664aa3a72c	-0.08226622888801377
225	0xbfc450d898b16ae7	-0.15871722655977935
226	0xbfbc2e8755f691db	-0.11008497093877827
227	0xbfbb6fcb4da1f61e	-0.1071745934040895
228	0xbf98e29d533a4891	-0.024301965908826665
229	0x3f92b2bbdf9a9bdc	0.01825994064588686
230	0x3fb3eb74894e271d	0.07781151153735917
231	0xbfaa3ce7020044c0	-0.051245898241299326
232	0x3f9aa0f4e21800bf	0.026004625606220296
233	0x3fd3fd8c88db52af	0.31235040059008673
234	0x3f64f14592e4dd60	0.002556453596436789
235	0xbfd06c348288a396	-0.2566043162101378
236	0xbfc9a586074e1d9f	-0.20036387783714546
237	0x3fc15bb51a96353f	0.1356111888712039
238	0x3fc8baab38c06380	0.19319668074674823
239	0xbfb657dc44c77121	-0.08727814368416321
240	0xbfb0736766ff408f	-0.06426092400147553
241	0x3fcd925e44fb0526	0.23102930420103823
242	0x3fbf9b6814db7827	0.12346506604396322
243	0xbfb671311850ff0b	-0.08766466945325761
244	0x3f9e31b46e690ffd	0.029486483801761654
245	0xbfd2009cf72c2665	-0.28128742349563246
246	0x3fc0c77d03d4ef1f	0.13108790099237752
247	0x3f73ab545422aff5	0.004802064331823165
248	0xbfb0ddb958320d81	-0.0658832397767153
249	0x3fc937e177e3df3c	0.19701784471521389
250	0xbfcd1f3663edf86a	-0.22751502875684376
251	0x3fa2ccd744f5c0cc	0.036719062011685816
252	0xbfd32502082e4019	-0.2991337852372467
253	0xbf597e70e0f3e289	-0.0015560247737182195
254	0xbfb3a5b189594ef1	-0.07674703219646141
255	0xbfb905830d1026b1	-0.09774035519526582

model.0.bias f8 [30]
0	0xbfd6816afa5e3896	-0.35164904069905256
1	0xbfadc871258b4f34	-0.05816987593939729
2	0xbfc009955eb4bb37	-0.1252924644881774
3	0x3fc0b45c265e8614	0.13050414918420528
4	0x3f7c3557435b8609	0.006886807319206331
5	0xbfb13ac40e593b7e	-0.06730294561678637
6	0xbf4d49049042a6f9	-0.000893714168815423
7	0xbfd6458fc4dbf5d7	-0.3479957029774971
8	0xbfcd1cf606dd0a6f	-0.227446320868768
9	0xbfb449cc9bb8a1da	-0.07925108720576848
10	0xbfcb5e7a05fcb087	-0.21382069866502126
11	0x3fa1604b8f8e610a	0.0339377987613166
12	0xbfbcf44e33d91e54	-0.1131028057653734
13	0x3fc9c929c2c214c8	0.20145151147531792
14	0x3fd7214a3717e538	0.361406854440776
15	0xbfd8ec3015d2183a	-0.38941576128889077
16	0x3fd7da2d94cee1b3	0.3726915314869316
17	0x3fa226d18091ff24	0.03545241064511931
18	0x3fb1f6f4e0e52ae5	0.07017450800519105
19	0xbfc83c1c2cd2f4cc	-0.18933441342043122
20	0xbfcb77a122669dcf	-0.21458830051163466
21	0x3fa3d527c83dfa9b	0.03873562163697849
22	0x3fd0267053358c63	0.25234611631294096
23	0x3faf1f0b1075e0af	0.06078371597226472
24	0xbfc39d09338a906e	-0.15322985665000338
25	0x3fd6c6c85b65c07f	0.355882729773846
26	0x3fdd88f26292d9da	0.46148357034999565
27	0xbfd28e39e96e65fb	-0.2899307994462956
28	0xbfb53918c66e269b	-0.08290247768868612
29	0x3fb6ef7a7808a34c	0.08959165030013344

model.2.weight f8 [30]
0	0x3fed92e8aa7915be	0.9241832093763873
1	0x3ff25ed18bd176ee	1.148149057545591
2	0x3ff1317046fcd2f8	1.0745699665978332
3	0x3fec86b732afee89	0.8914447774872808
4	0x3ff06995ae68def9	1.0257775128247302
5	0x3ff1e3f30819dff3	1.118151694912737
6	0x3ff223cb69967161	1.133738911105944
7	0x3fee137e5293d058	0.9398795712318231
8	0x3fecd468e037e0c7	0.9009289149535328
9	0x3fef43a867fbea79	0.977009013265458
10	0x3fef194c690ffb20	0.9718381931305409
11	0x3fefb0dc97d6c401	0.9903395619968479
12	0x3ff0b5c40beb523a	1.044376417693583
13	0x3febee82c0f7e7ac	0.8728650826371811
14	0x3fe6ea97b155be99	0.7161367858479536
15	0x3fee10c983bc29a6	0.9395492146443771
16	0x3fea0b8281de7f63	0.8139050041681738
17	0x3ff25f83c3114bbd	1.1483190173937452
18	0x3ff071bf1c4da5e1	1.0277701478574885
19	0x3feda3826c9e9c83	0.9262096520877922
20	0x3fefd450997a5052	0.9946673390973138
21	0x3fe775efe1d70a71	0.7331466113030968
22	0x3fed3194542e95ea	0.9123021740130615
23	0x3fed953e75886433	0.9244682593881691
24	0x3ff264b08b2392ff	1.1495824275127118
25	0x3fed676c647ee6fe	0.9188749277884367
26	0x3ff28349fbeb7d52	1.1570529785747863
27	0x3ff21820004339dc	1.1308898935563922
28	0x3fefcf7138ffa06b	0.9940725434544339
29	0x3fecbe7a4da91501	0.8982516781622111

model.2.bias f8 [30]
0	0x3fd20ccd00965f40	0.2820312982307662
1	0x3fb2f5f4e673bd13	0.07406550050994935
2	0x3fa06cd9dd2a7adb	0.03208046746043688
3	0x3fd20bc18d75c27e	0.28196753324940704
4	0x3fc7d125db84fcee	0.18607018679356407
5	0x3f899b6287495f81	0.012503404382343099
6	0x3fa6a74961aa0d9d	0.0442450458258705
7	0x3f9948e78a2d8561	0.024692170914368265
8	0x3fc61ce4367fbbaf	0.17275669728357232
9	0xbfb0ab299e60be50	-0.0651117335953526
10	0x3fc7b4012b6878cb	0.1851808034852581
11	0x3f4a3b97d2dd33ca	0.0008005610777473912
12	0xbfc1242f666239a0	-0.1339167833252306
13	0x3fd990ddbbddac43	0.3994669279697442
14	0xbfa79a2cb92f243e	-0.0460981346182696
15	0xbfb1be4a894a2617	-0.06930986263082449
16	0xbfc8c5fc8226c7a4	-0.19354206423809928
17	0x3fb241c2e77a2a4d	0.07131593848513625
18	0x3fb077d6ac451c48	0.06432859140214575
19	0xbf950d1760a03343	-0.02055775191552135
20	0x3fc4ca174cf9bfda	0.16241732843945905
21	0x3fc96d72b8afd017	0.19865259187611237
22	0x3fce0d98ffbfb920	0.23478996742000735
23	0xbfd1b7d973bab8ff	-0.27684627820680413
24	0x3fb93ede2d6dfe49	0.09861553773043243
25	0xbfd18c72206af0a7	-0.2741971317843856
26	0xbfb1ce2c86643a15	-0.06955221444170719
27	0x3fb7d43ef5eedbff	0.09308236602997509
28	0x3fc0c3b020d9268d	0.13097192386549175
29	0xbfd23b6bceef73b5	-0.28487677773028547

model.2.running_mean f8 [30]
0	0x3fcf97befd3dd129	0.24681842198663986
1	0x3fd0c19825a55c34	0.2618160598407855
2	0x3fcca16c13c752c7	0.223676213891528
3	0x3fdbb6abaf1ad610	0.4330243310936064
4	0x3fd8a184c0b3e391	0.38485831087705785
5	0x3fd4a9434f27f45d	0.322830989170887
6	0x3fd50e52752acc97	0.32899915163143006
7	0x3fc97a622c99e3b3	0.1990473478106459
8	0x3fc986c886532b38	0.19942575987655586
9	0x3fd4df87d6fed18a	0.326143226581984
10	0x3fc86f7332560d2e	0.19090118367976444
11	0x3fd79e1fd62d76f3	0.36902614513188253
12	0x3fdadad8b35757b4	0.4196073295000773
13	0x3fd96f5afd0885c6	0.3974215956714854
14	0x3fe0032690dc593f	0.5003846005736604
15	0x3fd412e6ec71e31a	0.3136536892921399
16	0x3fea8ab9002fe69a	0.8294339183477917
17	0x3fd03a47803a23f7	0.2535570862024196
18	0x3fe1021637c398c1	0.5315047349111169
19	0x3fdbaf78a78ce05a	0.4325849186166174
20	0x3fd4d2004fe115c0	0.3253174572058377
21	0x3fd5dab2f85db9c2	0.3414733338785504
22	0x3fda58a12de0f899	0.41165952186919125
23	0x3fda9512d5d13910	0.4153487289485307
24	0x3fd1d49f0a663248	0.2786023713640913
25	0x3fe0d760544221e2	0.5262910504980562
26	0x3fe8289b6cb16f3a	0.7549569247162033
27	0x3fd5fd0c4dba6fb1	0.34356982794428875
28	0x3fd5ef9bb098605a	0.3427495216906259
29	0x3fe28b0f2c88060c	0.5794750089409617

model.2.running_var f8 [30]
0	0x3fd3e06914e91ba6	0.3105719284252991
1	0x3fd259788587e543	0.28671086349602976
2	0x3fcec7ce7f371b79	0.24047261439974557
3	0x3fd8b868cf4545a8	0.3862554573180099
4	0x3fce25cca814cfc3	0.23552854735464565
5	0x3fdbfe8c38e629b6	0.43741136127996627
6	0x3fd68deae2e4d77e	0.3524119582901831
7	0x3fcd2a1b97a27364	0.22784752754241844
8	0x3fc57d1852a9d400	0.16788009678171534
9	0x3fd520d61ad75051	0.3301291715736215
10	0x3fc847e95dce45a2	0.18969456749304664
11	0x3fd8bfc2487a1ad9	0.386704035547536
12	0x3fe46bf6ac5adf43	0.6381791464145653
13	0x3fc44e8a7facd987	0.1586468814291033
14	0x3fc95692157a586b	0.1979544262764564
15	0x3fcdda34c562df10	0.23322162282942616
16	0x3fe5c1d78fa526b4	0.679912357861403
17	0x3fc1eff7a2c96b62	0.14013572166990246
18	0x3fe59444e38f24a2	0.6743492550387098
19	0x3fd47d994302202f	0.32016593498019835
20	0x3fd6c5ba9a5cdb91	0.35581841539845366
21	0x3fc0e1ef0cf7264a	0.13189495213582553
22	0x3fc7fe6fa2fd2bd7	0.1874522729725345
23	0x3fc9176d1108b06c	0.1960274060414834
24	0x3fd0e269e8990a9e	0.2638191958869046
25	0x3fdfc19261badf1b	0.49618968528692314
26	0x3fd546cb0df81e76	0.3324458729189027
27	0x3fd323384b0a2f7c	0.29902465179542737
28	0x3fd51d8b296c7428	0.32992819829252307
29	0x3fdad1d367b739a0	0.41905675056923464

model.3.weight f8 [15, 30]
0	0xbfba41ed65d32769	-0.10256847129781267
1	0x3fd0ffc0ca041395	0.26560992935292776
2	0x3f8fa3a2ceaf1d4e	0.015448829586502424
3	0x3fc27cadc2a4afe6	0.14442989353244612
4	0x3fc9d9b345bc2b88	0.20195618538886273
5	0xbfc39309bacf5ca6	-0.1529247438581695
6	0x3fd435db9aa1ca45	0.31578722096233874
7	0x3fa0bbadc5cb9e6f	0.03268187560553037
8	0xbfa00d7f25b3db5d	-0.03135297141300584
9	0x3fc323164d20397d	0.14950827375328038
10	0x3fb98d441295ad9c	0.09981179670074031
11	0xbfb356baf06f720d	-0.0755421483040168
12	0xbfccc6211854bf6c	-0.22479642570533132
13	0x3fcd603eb00a64c1	0.2294996604512445
14	0x3fa23eafeb5946e8	0.035634515265554445
15	0x3fbe3029e4c0c1a3	0.11792241892613346
16	0xbfc9a48790c00b9c	-0.20033354347114318
17	0xbfafb1620edbc7c6	-0.06190020018938429
18	0xbfa84fa26302d2ec	-0.047482561670596585
19	0x3fbbe6aa5b407f34	0.10898842552023497
20	0x3fc9b5278216108c	0.20084089137902017
21	0xbfa485ef1a69cc96	-0.040084335302617166
22	0x3fd169518059bc84	0.27205312284690586
23	0x3fc44e0c19d55c95	0.15863181363485937
24	0xbfa01a4021d76e28	-0.03145027554611729
25	0xbfbe48735819ae48	-0.11829300785910235
26	0xbfe3b4dafc7c8386	-0.6158270770430228
27	0x3fc4df806eefbee4	0.16307073036977393
28	0xbfb3336f5bf1ae43	-0.07500358576515347
29	0xbfad2c1a743af428	-0.05697710675074347
30	0x3fadbe6ea77d22e7	0.05809350771466431
31	0x3fafdd7f2dff92b6	0.062236761441260155
32	0x3fa5417ba540d2fc	0.04151522056819165
33	0x3fc62af531fc3f6d	0.17318596783342902
34	0x3fc10e8b087455bc	0.1332563201218998
35	0xbfd08e85b9560a06	-0.25869887446620543
36	0xbfb2971b46bfd1db	-0.07261820294645054
37	0xbf7231bea26e41fa	-0.004441971460338307
38	0x3fd0c7b0975032ff	0.26218809868514364
39	0xbfc8d146dce34bc2	-0.19388662133732565
40	0xbfb06dafb26fc508	-0.06417368036615667
41	0xbfb4a383c299ba3c	-0.08062003613461227
42	0xbfcaf8c819505e5e	-0.210717213020632
43	0x3fbb12094f2e02dc	0.10574396308039574
44	0xbfa1688345e2d3d1	-0.03400049427128916
45	0x3fa8ba9f4a485f03	0.04829881459971654
46	0xbfd04a8acf451644	-0.2545496963615259
47	0xbfb9763d8b686c3c	-0.09946045545113774
48	0xbfcd65e0127bdd9c	-0.22967148687869787
49	0xbfc706a5eadf37c4	-0.17989038437229798
50	0x3fced7ba4b2617cf	0.24095848721861876
51	0xbfac5c777de91e61	-0.05539296543116446
52	0xbf976e8e842de141	-0.022882677857951398
53	0xbfaa0507fb167d41	-0.05081963481938568
54	0x3fd1351f109f90cb	0.2688672697388596
55	0xbfdb8149f26b8c51	-0.4297661654838452
56	0xbfc8ffeec228e506	-0.1953104446454647
57	0x3fd44b81d496bcc7	0.31710859070421943
58	0x3fc78ab0dd9324d0	0.18392000979500844
59	0x3f9477f7ef932d63	0.019988893506519455
60	0x3fcc5cda7642392a	0.22158365988111345
61	0xbfb1a9390c7a30ef	-0.06898838572141462
62	0xbfb6acb78a4a983f	-0.08857295156721622
63	0xbfade754c1e3390e	-0.05840554110328543
64	0x3fb1915b57af2f4b	0.06862421885233265
65	0xbfd05bac696c90b0	-0.25559530539818365
66	0xbfb2ee3cd1d60e2a	-0.07394771693184823
67	0xbfb352607f3dd29e	-0.07547572237474262
68	0x3f9adf900a59eb66	0.02624344885996823
69	0x3f985b5573322785	0.02378591075515814
70	0x3fb81680a6460cfb	0.09409336146750384
71	0xbfb5c043e1b6d5e5	-0.08496498356438272
72	0xbf9cf5a2b4906e57	-0.028280775328410303
73	0x3fa60cb402ecaf1c	0.04306566749286686
74	0xbf97a9570f2a0500	-0.02310691862158354
75	0xbfbfbe6444528f7a	-0.1239988962939246
76	0xbfb13cec8f423610	-0.06733587739491775
77	0x3faede20c39186a7	0.06028845202741922
78	0xbfc3b2f2763edd21	-0.15389853261670175
79	0xbfd79167651a3a70	-0.3682497489288954
80	0xbf6d8b618b1fa402	-0.0036065011163270997
81	0x3fb2c272d47c5f93	0.07327954948084274
82	0x3fc31009a8537081	0.14892693251647773
83	0xbfd32898f77ff66d	-0.2993528763762246
84	0x3fc6f03d7c2c201b	0.17920654833892588
85	0xbfd7b772c133605b	-0.3705717932439307
86	0xbfb4d592612a6d90	-0.08138384697161016
87	0x3fc24ed65f13cf5b	0.1430309261555703
88	0xbfc640673ba2b7fc	-0.17384043132682325
89	0xbfc8c477e14af24e	-0.19349573612807308
90	0x3faefeff34bfd68d	0.06053922194398096
91	0xbfb25ef30c20dc74	-0.07176131292441018
92	0xbfc70b0283b48936	-0.18002349310797577
93	0xbfb06ca9d89fb190	-0.06415807284037656
94	0xbfc49412e285134f	-0.16076885281122563
95	0xbfda48fe2142a4d4	-0.4107051205451857
96	0xbfca35df7fbbd9af	-0.20476907479287607
97	0xbfd12924759b84fb	-0.26813613400561537
98	0x3fbf06c4de42d93d	0.1211970369939523
99	0xbfcfa36efa3dc5f4	-0.2471750947839123
100	0xbfbcab92ec72d406	-0.11199301026029226
101	0xbfa4ca672310f3ac	-0.0406067114167635
102	0x3faec660de0fcc62	0.06010725699152243
103	0x3fc0f52979b222be	0.13248175089053932
104	0x3fc1bcb1cc71ca83	0.13857099993363783
105	0x3fa1d546ddf3bb6d	0.034830298036346054
106	0xbf7086b53e3af8f2	-0.0040347175415133985
107	0xbfd2a02cd7a8913d	-0.2910263162650784
108	0x3fa55fffba103f17	0.0417480387333155
109	0x3fb811159b19f865	0.09401068722397239
110	0xbfb747a85d440518	-0.09093715931887336
111	0x3fc1f9d405d17ad9	0.14043665203185787
112	0x3fa6859585bc66f4	0.0439879155876052
113	0x3fc218041995efc8	0.14135791062642356
114	0xbfd7cae7fc7d2ae6	-0.37175941140291824
115	0x3fc438654d4939a7	0.15797106050235962
116	0xbf6cf515d5b5cf23	-0.0035348345242541975
117	0xbfd8e59f5a7761e2	-0.38901504358866934
118	0xbfd22765cd68b55b	-0.28365464267229407
119	0xbfcab9c5d2ad960e	-0.2087943342877882
120	0x3fc273a23130525d	0.14415385629458202
121	0xbfcb9d041c45674a	-0.21572924976754343
122	0xbfbb3f05b807979b	-0.10643039458190488
123	0xbf5984dadf680425	-0.0015575539997601054
124	0x3f92871d2003eaa1	0.01809354312806966
125	0xbfbd9f29314ba385	-0.11570985272886787
126	0xbfbd8c280beab258	-0.11541986742913346
127	0xbfacf9790a6ed82d	-0.05659082653384959
128	0x3fac1b0437b00c85	0.054893619344533774
129	0xbfc6a656ca277081	-0.17695126410297138
130	0xbf976ffe3c64b451	-0.022888157306784788
131	0xbfc485fee84ca49c	-0.16033922522300237
132	0xbfacf3cf5d02685c	-0.05654762277954781
133	0x3fc3b275f13aec5e	0.15388368872467856
134	0x3fbdb092677d049a	0.11597552324839669
135	0x3fa94c1cbb75c497	0.04940881527262169
136	0x3fb49faf04a71e5d	0.08056157935708926
137	0xbfd9601e86dd8f59	-0.39649165316062845
138	0x3fae3c8557cc97f7	0.059055487601923966
139	0x3fc14b972bedaa0d	0.1351193394178413
140	0xbfc3cd450c81e7e8	-0.15470183478083688
141	0x3fbc81ce4e1248ca	0.11135568052330594
142	0xbfbef992843ff7d7	-0.12099567154652334
143	0x3f731394ab47b10a	0.0046573455224285885
144	0xbfd6b1c09940dba8	-0.35459914175174356
145	0xbf99b43d05666834	-0.025101617292968295
146	0xbfbf91e7e5e81439	-0.12332009661629763
147	0xbfd49249a8153846	-0.3214286939081642
148	0xbfcf0752362450f2	-0.24241092342038645
149	0x3f9b4a99e6677f8d	0.026651768386613695
150	0x3faa51cfd9c65950	0.051405425390088966
151	0x3fc631665bb13493	0.173382563373171
152	0x3fc81e492ce55f59	0.1884242505282099
153	0xbfce7bd49aaeb2c5	-0.2381540065083724
154	0x3fcbefab20841e4a	0.2182516011018712
155	0x3fb5fe8051f93923	0.08591463090235556
156	0xbfc03af7f5a93fc9	-0.12679957862064686
157	0xbfc58dfc26c13938	-0.16839553730319223
158	0xbfc0086de5b24419	-0.1252572413982598
159	0x3fc45fff0d81aee7	0.15917957458019957
160	0xbfc2279eed13c625	-0.14183413101231782
161	0xbfd2a02cba4998d0	-0.2910262889112234
162	0x3fa983f6bf3e07e9	0.04983492931843598
163	0x3fbf9a843cf03841	0.12345148551705255
164	0x3f6303189092bd74	0.0023208122043666905
165	0xbfaab27ad2108866	-0.05214294256462963
166	0x3fa29d93af336aa0	0.03635846627886008
167	0x3fd8a0ef527a35f9	0.3848226838534568
168	0xbfcc7856ef31e237	-0.22242247275768687
169	0xbfbbeca6b4825f26	-0.10907976061787092
170	0x3fbb48bb28157b6a	0.10657853821383659
171	0xbfa2df4cdc5200a6	-0.03685989560563145
172	0x3fc4c75a131974f8	0.16233373577680488
173	0x3fa7a5313d89f329	0.046182192575520205
174	0x3fc369a1e28d925a	0.151661143895711
175	0x3fb079e5423d7b39	0.0643599783629555
176	0xbfc3a572ed800ee9	-0.15348660084429547
177	0xbfb3dc1d5cd6a06d	-0.07757743374406952
178	0xbfb7529d021e337e	-0.0911043291254838
179	0xbf6f51b281b9af3d	-0.00382313599202702
180	0x3fd1862f0f659543	0.2738149309501134
181	0xbf81a33165fc2f3e	-0.008612047123754626
182	0x3fc1b9ed413315e7	0.1384865349156563
183	0x3fba8c8473d2cb5e	0.10370662524910076
184	0x3fbbdf2ac90eb104	0.10887401016833925
185	0x3fc70ea719b146f0	0.18013466600910233
186	0x3fc6a5ef6f800e47	0.17693894333216262
187	0x3f603b554fe02d3f	0.0019814172983438068
188	0x3f8e1c15dd782541	0.014702006169516781
189	0xbfb39ca0dc35a0c9	-0.07660870910843011
190	0x3fb80e4e75f109c6	0.09396829966957573
191	0xbfa716f98d248ed9	-0.04509715888914707
192	0xbfc5ffb4d5a48df0	-0.17186603957917113
193	0x3fce2778178983d5	0.23557950162196897
194	0xbf9b85ebcaeb0e9f	-0.026878055820601984
195	0xbfca2617e8450a7c	-0.2042875179414131
196	0x3f782a2e44051876	0.005899601674462676
197	0x3fd4b02e80143362	0.323253274037418
198	0xbfd2ca6fb0ce28c0	-0.29360573068755613
199	0x3faaca73172724c5	0.05232581765773995
200	0xbfb30599c11cfce4	-0.07430420841864166
201	0x3fa82e1d42ac71bf	0.04722682417761658
202	0x3fbdeb0278972c9d	0.11686721271614649
203	0xbfb3a9477e78651a	-0.0768017467275012
204	0x3fb3e5e40cfaa530	0.07772660557624955
205	0xbfba0f2b8fc82bd8	-0.10179397831249959
206	0xbfd5f2c5462445b1	-0.34294254159712084
207	0x3fba1b9ebdd0f6e6	0.10198394903360572
208	0xbfc7c95cfe725915	-0.1858326189437284
209	0xbfc44a4daa7529b3	-0.1585175592720823
210	0xbfcae3cb9e27c4c8	-0.210076763366976
211	0x3fc70ec6bc6fbf9f	0.18013843728067244
212	0x3fbc7b5e6531c7c1	0.1112574574524663
213	0x3fae095ebfe120f4	0.05866523830678885
214	0x3fd63fb0c66655e3	0.347637361287836
215	0x3fb25f568b78273f	0.07176724343312645
216	0xbfd078bcc58b565d	-0.25736922542032464
217	0xbfd00bc023248396	-0.2507171958150648
218	0x3f9097196414aa68	0.016201397641604137
219	0x3fd2901586e777a4	0.29004419492945943
220	0x3fc1ee55a551a0ed	0.1400858933659558
221	0xbfc1aa74290e91dc	-0.13801433567745292
222	0x3fa89af92abd8416	0.048057352511712434
223	0xbfd1717b9cd04b98	-0.272551444185575
224	0xbfb2df197d060d51	-0.07371672918639162
225	0xbf9b331c855f4bda	-0.026562162056347073
226	0xbef4f873101227a2	-1.9999032705920698e-05
227	0x3fc33ce530133eb1	0.15029587600155517
228	0x3fb07ccf8af82c2d	0.06440446036155896
229	0xbf7bf1b1247933ac	-0.006822292292395209
230	0xbfc296a1a78139a0	-0.14522190741486174
231	0xbfc478a962daa5fd	-0.15993230177745935
232	0x3f95d109cb819994	0.021305230184589144
233	0x3fac62f868dd2bbe	0.055442583847784985
234	0xbfc06f8822ff09c7	-0.12840367993164944
235	0xbfba1bf8ef09e260	-0.10198932491210533
236	0xbfb57a166156285e	-0.08389415623074245
237	0x3fbeaab038782425	0.11979199770588929
238	0x3fbd1485ddbdd4e5	0.11359440482722823
239	0x3fd08f2e0aeaa0ce	0.25873900476518663
240	0xbfbc50abd0435677	-0.1106059440092738
241	0xbfce8d68b9ac36e6	-0.2386904627423327
242	0xbfc3a037587bce3f	-0.15332691021431974
243	0xbfc0c33480a20367	-0.13095718651677687
244	0xbfc0a308380514b3	-0.12997534499496552
245	0xbfc4d52a7d97a34b	-0.1627553094142747
246	0x3fb2de68afa15097	0.07370619094700924
247	0x3fc62fbe659ca2b9	0.17333202325359823
248	0x3fc5487609ddac3e	0.1662738369153391
249	0xbfb7849bd216b6b2	-0.0918671977912833
250	0xbfd63ba13315e405	-0.34738950718707456
251	0x3fa6e77354ab765b	0.04473457726065241
252	0xbfd38ff303956204	-0.30566096639589113
253	0xbfb63e1d0c942ef8	-0.08688527638531329
254	0xbfabc04091e3155f	-0.05420114308212009
255	0x3fc68a824b124823	0.17610195794674252

model.3.bias f8 [15]
0	0x3fcce3efb122154e	0.2257060637386225
1	0x3fa44ed1ca1d3ad8	0.03966384498800374
2	0x3fc3a6ce32def15b	0.1535279987709924
3	0x3fbe5cd9f1e76acc	0.11860429912432408
4	0x3fc9319e4cb2a4e5	0.19682673211108362
5	0xbfa9f7d08972628c	-0.05071880033319073
6	0x3fdb9cd9b106fa94	0.43144838607614955
7	0xbfc9a35cd9235ee1	-0.2002979336018518
8	0x3fcf9703816e52e0	0.2467960721957274
9	0xbfcce59e6818af8b	-0.22575740893205096
10	0x3fbb92fe228bce4d	0.10771168082629252
11	0x3fb6f30df4500589	0.08964621748602587
12	0x3f9027d581d40786	0.015776954697691824
13	0x3fc6dadbac878023	0.17855401920587707
14	0x3fc539928d834f96	0.16581947240649403

model.5.weight f8 [15]
0	0x3ff50825c57107f6	1.3144891464767148
1	0x3ff2dfd5559580be	1.1796468108296234
2	0x3ff33dbe6901a4bb	1.2025741674245143
3	0x3ff5375e78f2ae5b	1.3260178303270524
4	0x3ff30d022d354098	1.1906759038866195
5	0x3ff16e39df1ca981	1.0894106593428605
6	0x3ff61a3adda05d18	1.3814037949831057
7	0x3ff427a7dc11c432	1.2596815678082405
8	0x3ff50f27fad711a5	1.3162002371255792
9	0x3ff23dae3324338f	1.1400587079726596
10	0x3ff504a6e2cee67a	1.3136357173629265
11	0x3ff5ca2e9b024574	1.3618608527216027
12	0x3ff0f0cdeb392e29	1.0587901295101665
13	0x3ff635b0ac0a8596	1.3881079407077315
14	0x3ff06b210bf53d50	1.0261545626743391

model.5.bias f8 [15]
0	0xbfd68fb4b9829f45	-0.3525211154578652
1	0xbfd7469010915ca7	-0.3636818086428754
2	0xbfd72c2f978e64a6	-0.36207189369594983
3	0x3fdb14e224c0a50d	0.4231496199523271
4	0x3fda49c111ffacee	0.41075159795464244
5	0xbfd70ee3189d1f87	-0.36028363612830855
6	0xbfdb0989b25e5fdc	-0.42245714587033745
7	0xbfd8f1cac5121769	-0.389757816745592
8	0x3fdabc9f399e2524	0.41776257158979235
9	0x3fdb08974b1a20e9	0.42239935239969256
10	0x3fdc6f9c67333321	0.44431219175457853
11	0x3fd9203c68526cae	0.39259252727215255
12	0xbfd6c22e3bac614e	-0.3556018431422857
13	0x3fd365c57d5a1d05	0.3030866359844853
14	0xbfd7b36cfea562c6	-0.3703262793328971

model.5.running_mean f8 [15]
0	0x3fe99f9ffdf4e152	0.8007354698266147
1	0x3feb1622030d8200	0.8464517650245966
2	0x3fea96f114d1b6aa	0.8309255034088967
3	0x3fe1ca1afaf73cf6	0.5559210683512947
4	0x3fe4d8da45d368e8	0.6514712680612122
5	0x3fe0ab4c755e4f3c	0.5209104816771979
6	0x3ff053b9b4a3d7c4	1.020440774560016
7	0x3fcdc20565e628e6	0.23248355365314594
8	0x3fe00d2af276bf87	0.5016073928472772
9	0x3fe06bc4dcf5f826	0.5131553950921031
10	0x3fea131831f0d9fc	0.8148308730513345
11	0x3fe1b4bd2c7c02dc	0.553312861331587
12	0x3fe3a12341992059	0.6134201317991127
13	0x3fe10aad51962d39	0.5325533479203052
14	0x3fe6197cf4875a1b	0.6906113410903488

model.5.running_var f8 [15]
0	0x3fe63546bcf5a040	0.6940034571280265
1	0x3ff54d15882692aa	1.3313193624864348
2	0x3fe61c2b860f7126	0.690938722454608
3	0x3fdd14440b7460a3	0.45436192625630606
4	0x3fde540674d1d0d2	0.47387849243319835
5	0x3fe04fbae2287f8b	0.5097326676513928
6	0x3feb1ef3a205836a	0.8475282825930723
7	0x3fca974779d912d9	0.2077416748963035
8	0x3fdbb014e3290ece	0.432622167431174
9	0x3fdbf408b8256713	0.43676965697305653
10	0x3ff0be59d3cd4ab0	1.0464723847878012
11	0x3fe07b542596d5f6	0.5150547727741344
12	0x3fe1f511c298c819	0.5611656952589811
13	0x3fe04dfabda83778	0.5095189766159214
14	0x3fe4cea14ba8b220	0.6502233960832804

model.7.weight f8 [1, 15]
0	0xbfd7f74e3b8acef0	-0.37446933569593366
1	0xbfd5054d5f6e513b	-0.32844862288881743
2	0xbfd865571a740925	-0.38118531783415427
3	0x3fe0ddcb50e22c3f	0.5270744876628511
4	0x3fe0245be0367c81	0.5044383410603502
5	0xbfcbc5f32a019a2b	-0.21697845030867433
6	0xbfda4477ec985cde	-0.4104289827823332
7	0xbfd6a19910ae0477	-0.3536131537330855
8	0x3fe4fa2feaa29429	0.6555404265133166
9	0x3fdb2cb10780b311	0.424602753950965
10	0x3fd742faaef63044	0.36346308790303206
11	0x3fe0aef04bc19861	0.5213548163999456
12	0xbfd3185ff05c4d54	-0.2983627173682255
13	0x3fe1be12fcd7221b	0.5544524133957255
14	0xbfd676cab21a584b	-0.35100047486173896

model.7.bias f8 [1]
0	0x3fc032ee0656f805	0.12655425366932618

exp_avg f8 [30, 33]
0	0x3f59856631ff687c	0.0015576837540636481
1	0x3f6686f65643f3d5	0.0027499018925696097
2	0xbf59d999a45ecde2	-0.0015777588282447287
3	0x3f73c3ff64f27f95	0.004825589784701286
4	0xbf5956c502f091ba	-0.0015465663852945858
5	0x3f61c2e9cb65ffc1	0.0021681371974295598
6	0xbf5b921bc6f7fb28	-0.0016827842008521696
7	0x3f721190e3cc5b95	0.004411283470083034
8	0x3f2d62a32b0eab80	0.00022419206427789704
9	0x3f7ed14c1e64a6f2	0.007523820246470457
10	0x3f3e944c20b98397	0.00046660288419358417
11	0x3f560da29b13e70f	0.0013460243174549557
12	0xbf60921013065a31	-0.002022773165843782
13	0x3f71ece5be31bc13	0.0043763136228412046
14	0x3f59edba49b51412	0.0015825576036416805
15	0x3f746fd41cda658c	0.004989460530532407
16	0xbf780a53496e4fcd	-0.005869222010819142
17	0x3f7e80536518a503	0.007446599732739092
18	0xbf53a406abdaa0b0	-0.0011987748288593662
19	0x3f64115bcb894d00	0.0024496834633197517
20	0xbf28d6ef041dd898	-0.0001895109908748901
21	0x3f8183baf560dc7d	0.00855203687033978
22	0x3f6718a6b5b6d45a	0.0028193718005363024
23	0x3f6dd87d38c92408	0.003643269132485919
24	0xbf66584f1a0df295	-0.0027276558834599765
25	0x3f7c60d35c6b9c49	0.006928277615521125
26	0xbf2b60b32c53cece	-0.00020887553379333182
27	0x3f7749b1baba8c59	0.005685514693740756
28	0xbf44d1dbf3a70215	-0.0006353687270391229
29	0x3f7852a287cd7ad8	0.005938181767162397
30	0xbf3a2b4ca0b95101	-0.00039930935665678796
31	0x3f7e03470977bd9c	0.007327344406334115
32	0xbf1ef1a0f1d8412b	-0.00011804146603134186
33	0x3f5070b3cdff4662	0.0010034328370135616
34	0x3eef5b56b1f664ef	1.495208340322954e-05
35	0xbf6917094fe46f03	-0.003062742412238141
36	0xbf5b79f3843d0086	-0.0016770246592870144
37	0x3f4d78181667be23	0.0008993260969968924
38	0xbf6ca1ea0b2cef68	-0.0034951754727482916
39	0x3f3c2cf025207055	0.00042992461124114384
40	0xbf71dacfd27ca8b4	-0.004359065824056586
41	0x3f61d96046e774f0	0.002178848305659835
42	0xbf6dbed81775dfca	-0.0036310406246080383
43	0xbf61a098b9fddb0f	-0.0021517737331423546
44	0xbf6ebcd042c62180	-0.003752142676777648
45	0xbf67d8e0e26bf9eb	-0.002911032893620593
46	0xbf6ea37abb924d61	-0.0037400624392575498
47	0xbf6269672dced109	-0.0022475257123578713
48	0xbf70476090bbf636	-0.003974320610493678
49	0xbf317db7727144aa	-0.00026689270675201804
50	0xbf5e181a7511a892	-0.00183680137367984
51	0x3f3aaecff0d576f2	0.00040714813879626146
52	0xbf72c540b78fc1cb	-0.004582646180083259
53	0xbf5af3ca62404c38	-0.0016450382618174008
54	0xbf5858f9e8f3d54d	-0.0014860573317581783
55	0x3f4a666cc1f912b9	0.0008056670230379349
56	0xbf59ae078b52c078	-0.0015673707651267226
57	0xbf4884a782815862	-0.0007482355040433592
58	0xbf7442951256f4ac	-0.0049463103400146195
59	0xbf4526ab65ec1be0	-0.0006454789071036436
60	0xbf30084dba841fcd	-0.00024463555975317853
61	0x3f5cf34c5327e59a	0.0017669911727565602
62	0x3f5399a0b83997f1	0.0011962956931710312
63	0xbf29ca619541ff15	-0.00019676629256437013
64	0x3f20bc2d7ea632f6	0.000127678445391764
65	0x3f6990872cd12a67	0.003120674146463376
66	0xbf369a8dbb21551c	-0.00034490547398509526
67	0xbf2f2bad9503b75b	-0.0002378129379460536
68	0x3f4347ab13d1dc24	0.0005883775080651782
69	0xbf56606197fd0403	-0.0013657525123138565
70	0x3f20cd69e7c38dd4	0.00012819211759228114
71	0xbf450f22c77928a5	-0.0006426734752918063
72	0xbf203cb5968c8532	-0.0001238795914782292
73	0x3ee89127ad9a9803	1.1714464039979533e-05
74	0xbf71dd32fed8eb87	-0.004361342621957648
75	0xbf4d16bcfa52ad59	-0.0008877203696519383
76	0xbf6ee8908e1a930c	-0.0037730048505458854
77	0xbf52756afa43856d	-0.0011266274169020277
78	0xbf65f7e7d4134dd0	-0.00268168715465731
79	0x3f377d59f8461930	0.00035842367676543457
80	0xbf753efdc3033b29	-0.005187026268869834
81	0x3f615fe8f55885b7	0.0021209287613294897
82	0xbf76b2269765d802	-0.005540991542480002
83	0x3f70a7b54ae9ef19	0.004066188978523199
84	0xbf669823b8f610ed	-0.0027580926613969188
85	0x3f70636ee1d57a62	0.004001076825572799
86	0xbf6828b0645042cd	-0.002949089541751304
87	0x3f712ac7fe796939	0.004191189982146342
88	0xbf7a4e04932f5b64	-0.006422059889664353
89	0x3f75d05c7e0cadba	0.005325661943781973
90	0xbf6e709c9ea486e5	-0.0037158068636394697
91	0x3f718083deeb83f3	0.004272952194441781
92	0xbf513ccdb0450330	-0.0010520943333888859
93	0x3f68d77d1a4df4f7	0.003032440511047892
94	0xbf626869b25eea99	-0.002247053565011936
95	0x3f56ff6b0b2837f7	0.00140366986727569
96	0xbf4cee640552af8c	-0.0008829105742242812
97	0x3f736aa48591f286	0.004740374243848882
98	0xbf70b6f6d25778c6	-0.004080738207873752
99	0x3f167ad36bd93087	8.575358784773851e-05
100	0xbf54b6d5deb8bad3	-0.0012642944883613407
101	0x3f53167e2545cfa6	0.0011650306597319276
102	0xbf280fb8a47899e0	-0.00018357399879782767
103	0xbf401bab0dd71146	-0.0004915795540730093
104	0xbf4b7e17480e3544	-0.000839005821136198
105	0xbf3c4bd9b854eb4b	-0.0004317671340065456
106	0xbf53dd896ca57d8f	-0.0012124864611776397
107	0xbf428fab429840d8	-0.0005664430838710167
108	0xbf49659c08ef2130	-0.0007750522507814824
109	0xbf51a10a99b2ff9b	-0.0010759929198655763
110	0xbf30f766cfc8cc24	-0.0002588869099639532
111	0xbf4577b1ab09eeff	-0.0006551377792471668
112	0x3f21326ae0241870	0.00013120226510227343
113	0xbf5afde856258200	-0.0016474503432492016
114	0x3f352e82bfaa4b15	0.0003232068262743343
115	0xbf5a901a556fa6b5	-0.0016212708630924226
116	0x3f37569cab3f3999	0.0003561146252168079
117	0xbf4f93bfa25ca214	-0.0009636579240793219
118	0xbf03785c8b7b6dd3	-3.713638710475431e-05
119	0xbf22cd24581c19df	-0.0001434428086712477
120	0x3f521c62c96f5f66	0.0011054005351435968
121	0x3f4bbcbf0f70d54c	0.0008464749252029917
122	0x3f4fefe71a8511c4	0.0009746435580742442
123	0x3f49135a77207955	0.0007652465558328029
124	0x3f512f66ca036453	0.001048899059290305
125	0x3f4890b31978dd7a	0.0007496714123992742
126	0x3f3ee0f49f91d77a	0.00047117206810953045
127	0x3f60a94f2300906b	0.0020338578833776675
128	0x3f11547aacb3a9fe	6.610869165838554e-05
129	0xbf393f36d8b9e0db	-0.00038523758914933503
130	0xbf322e2bebf23481	-0.00027741024309408535
131	0x3f41fb912f15e023	0.0005487879663368427
132	0x3f4bfe3de7f67c5a	0.000854282596197363
133	0x3f3c1d825defd1b7	0.00042900498186717754
134	0x3f557549c174d56a	0.0013097019453430455
135	0x3f38c56d18626e7c	0.0003779784532384823
136	0xbf4dacbbbc5e9336	-0.0009056011847304649
137	0xbf40fe69f25f0a5e	-0.0005186097448518048
138	0xbf51a1f77b2a85c2	-0.0010762135322369558
139	0x3f524a0feb7a91f1	0.0011162906138589802
140	0x3f608258503563dc	0.002015278326933585
141	0x3f5616f7de540221	0.0013482494917412895
142	0x3f56e77d2771b214	0.0013979646880911733
143	0x3f33e2e70a70c4a8	0.00030344143528100243
144	0xbf65431088f2221d	-0.0025954554508340736
145	0x3f4f0e33c0319c61	0.0009477379502528354
146	0xbf3cefda036ed204	-0.00044154236405383207
147	0xbf21e82f2155d6ac	-0.00013661933250446367
148	0xbf6535f24d4328d2	-0.0025892002541684023
149	0x3f6ad2beb04cd30a	0.00327431911355303
150	0xbf51425835debd05	-0.0010534154348354485
151	0xbea97c68774dcae6	-7.595410652496732e-07
152	0xbf32a0b19dc92fe2	-0.00028423630081841737
153	0x3f611a35537c5218	0.0020876924062440787
154	0x3f6110c281a8a671	0.002083187003582059
155	0xbf451fbfed84cb95	-0.0006446540019510056
156	0xbf62e1064351c970	-0.002304565651280281
157	0x3f403b6cf90e6e46	0.0004953653425334235
158	0xbf6230b6e31e2205	-0.0022204944625097167
159	0x3f67985b5130e78e	0.0028802665269979716
160	0x3f56e1f4bba34629	0.0013966455431283587
161	0x3f474fd2635ec4e2	0.0007114198003731721
162	0x3f41f2ccd7ac4884	0.0005477428634057678
163	0x3f7283b372a9ea9a	0.004520131080989609
164	0xbf25e17e5d8fe71c	-0.00016693751857115794
165	0x3f6819036951c1b7	0.0029416147831897404
166	0xbf37657451fbc5af	-0.0003569993004780237
167	0x3f2e34bbe8eee96c	0.00023045343229261982
168	0x3f40992e59ef4d76	0.0005065418553108897
169	0x3f528c3934a01092	0.0011320646904105264
170	0x3f632aab553c94e0	0.002339682230643278
171	0x3f6ccb3b5ce23628	0.0035148772649964584
172	0xbf46b385d92a4910	-0.0006927875095519582
173	0x3f33713243d73906	0.00029666402028007165
174	0xbf57bf1609c548b9	-0.0014493670670004245
175	0xbf5203887817e60f	-0.0010994751650045297
176	0x3f50b9eb19be8700	0.0010208888915958503
177	0xbf68cab56d823dac	-0.003026346541510091
178	0x3f5794bd6947a8a2	0.00143927094642974
179	0x3f3a74f53308cfea	0.0004036997443421774
180	0x3f29f31cc887ef52	0.00019798017844141008
181	0xbf708aae3027d38d	-0.004038505956931793
182	0x3f3b9bd3f75b0ba6	0.00042127537686214645
183	0xbf637b67d4eb48a8	-0.0023781803095995376
184	0x3f74a4a8f1225d53	0.005039844445625735
185	0xbf6da5dd6993cf88	-0.003619129606358077
186	0x3f6dbdaa4df79afe	0.003630478502361866
187	0xbf69eeb5308fde95	-0.003165582548259336
188	0x3f715294b15a2547	0.004229145842722665
189	0xbf5131e4df88987e	-0.0010494933213834041
190	0x3f60b5c4e8a8061e	0.0020397992968817077
191	0xbf21e8618024f034	-0.00013662519638468903
192	0x3f6989055e674954	0.003117094503275167
193	0x3f6df2554b16ee74	0.003655592525971413
194	0x3f6852d3ebdf5b5d	0.002969182881297368
195	0x3f65038ad5cc33c7	0.0025651656745879522
196	0x3f73c94b35f13c68	0.004830640594334225
197	0x3f5d0ee651b64659	0.0017735718928161474
198	0xbf660d72b5a2b18b	-0.0026919594211760093
199	0x3f48d7f9fc4fa2d4	0.0007581682808651354
200	0x3f7438be4cd227f2	0.004936927184767003
201	0xbf4013e8e2716a05	-0.0004906546718175814
202	0xbf4c698a7b2d61c2	-0.0008670736482186347
203	0xbf51070e2e2a14b4	-0.0010392797927647858
204	0x3f5036d7181fb1f8	0.0009896374253869338
205	0xbf6b859fc209a2f3	-0.003359615351929407
206	0x3f541b497426739b	0.0012272088357356606
207	0x3f0d133332fa7ed2	5.545616147384153e-05
208	0x3f2cdc39c17462de	0.00022018628144661925
209	0xbf5b283b76a8f17e	-0.0016575413416282932
210	0xbf537339fd100f65	-0.0011871401113702992
211	0xbf4f5ee4538a2f05	-0.0009573569178242541
212	0x3f2d4723ba097bf5	0.0002233725654318949
213	0xbf5c399ad151595d	-0.0017227184191788904
214	0xbf41a579ba5b38fd	-0.0005385250448968478
215	0xbf611e7c87ea7b74	-0.0020897323841632624
216	0xbf568be72abf9c37	-0.0013761289110279082
217	0xbf68e05b6ff08def	-0.0030366693386143432
218	0xbf40019961a85fb5	-0.0004884718831048492
219	0x3f5306960eef95aa	0.0011612382329472073
220	0x3f68da44a907e6f9	0.003033765890219861
221	0xbf53f04615a81910	-0.0012169536991009679
222	0x3f5ed4e07c74c925	0.001881808495295242
223	0x3f480c514e1a9778	0.000733890247109
224	0x3f678b7c9de224b5	0.002874129669241466
225	0x3f1f39992022108a	0.00011911389450075714
226	0x3f7668abdd27e4d5	0.005470916121788257
227	0xbf64cb5cab29a881	-0.0025383768018417134
228	0x3f4fe0c56bd46c97	0.0009728397341492054
229	0xbf69b98f55961c7c	-0.003140239667746734
230	0x3f50a4768c2f1088	0.0010157735530223217
231	0x3f1e5526b79a99ce	0.00011570977030803746
232	0x3f32f1d286fc89f9	0.0002890719397205251
233	0xbf4b96bbb33a4fa5	-0.0008419434074817723
234	0x3f412e2f5e277924	0.0005243045127903173
235	0x3f51169303e4635c	0.0010429797835682297
236	0x3f5db70cb54f6443	0.0018136619666988686
237	0xbf41d01c4ab00e5c	-0.0005436075347237767
238	0x3f4a4355b5413ea6	0.0008014839645599972
239	0xbf20c07b26b41ce5	-0.00012780669508336627
240	0x3f4b48bf83862d1b	0.0008326468587695231
241	0x3f28e5d3b5f3c8c8	0.00018995484695200613
242	0x3f504a91203b1d7d	0.000994340633882234
243	0x3f60ec133c3e2b54	0.002065694397918186
244	0x3f400154af94fe53	0.0004884398942194924
245	0x3f62428c804c5cca	0.0022289985812552248
246	0xbf21e7f5ceb99d1d	-0.0001366126592643257
247	0x3f68e07e345bcfa9	0.0030367340976855295
248	0xbf4f2b90e78772bb	-0.0009512383977000252
249	0x3f6c639513db15be	0.0034654533072593077
250	0xbf5767f2111945dc	-0.001428591149665307
251	0x3f6b0349cf235b40	0.00329746642919862
252	0xbf5eb047b24de205	-0.0018730831299916828
253	0x3f661fd4d553bc90	0.002700725259834842
254	0xbf6ec8f64bc87ffc	-0.003757935568742708
255	0x3f69505d3268cb2b	0.003090078377931423
