dnn/ionosphere/fold_2_model.pt.pt (torch, 53050 bytes, 48 tensors)

model.0.weight f8 [20, 33]
0	0xbfca1a62bfbab9a2	-0.20393022882258288
1	0xbfd4e20b177e7e52	-0.3262965897974698
2	0xbfcd477386127a70	-0.22874301954739762
3	0xbfd004ac8802029e	-0.25028527528778877
4	0xbf8574cd4a2fb59e	-0.010476688219536009
5	0xbfc5bc0f35f145ce	-0.16980161794576393
6	0x3faa72ca0f44037a	0.05165702282284364
7	0x3fc1d958a5e1b227	0.13944538211525634
8	0xbfc32442fefc75a0	-0.14954411936279843
9	0xbfc08a6deb0fe3ce	-0.12922452905311704
10	0xbfc597ca84595179	-0.16869479620312314
11	0xbf769d5d45d78ec0	-0.005521168086008721
12	0x3fa976007e095684	0.04972840822726446
13	0x3fca04f04adfd456	0.20327571540807082
14	0xbfab910e9c9c380f	-0.05384107267137505
15	0x3f9ef58de7c6b62c	0.030233590384957917
16	0xbfd98378e10abac3	-0.3986494252848553
17	0x3fa680ed3b1b30b0	0.043952382531274536
18	0x3f63932a2def0c00	0.0023895095650643405
19	0x3fb160b4aeac0f6e	0.06788186325507947
20	0xbfbc607af36391c0	-0.11084717218506679
21	0x3fa0fdabd8bcab52	0.03318535824504089
22	0xbf9e07ac46814118	-0.02932614498451
23	0xbfbd36c7eb93b250	-0.11411714078321578
24	0xbfb59b6485768940	-0.08440235384344863
25	0xbfcde51a1d7894ec	-0.23355413855566753
26	0x3fc00ded0106400d	0.12542498159427887
27	0xbfd0321971db51c1	-0.2530578243143076
28	0xbfb04f1a418db28e	-0.0637070093195666
29	0xbfc5860c95f32a12	-0.16815335580606977
30	0xbf8a1fc3986cd441	-0.012755897606988255
31	0xbfc5c21688f95a05	-0.16998559654412318
32	0xbfafee975f179381	-0.062367182119294824
33	0xbfc040de9df072c4	-0.1269796630084753
34	0xbfa4c73366740ad5	-0.04058228135729328
35	0x3fd2980677607350	0.29052888543974564
36	0x3fc16f9d63d3e829	0.13621871351625828
37	0xbfcf78c947c0a5a0	-0.2458736038545739
38	0xbfb8ff77bef78901	-0.09764812862661999
39	0xbfba54c85fe5ae50	-0.1028561815380098
40	0x3fb50e10e3a55ecd	0.08224587972415094
41	0xbfcb64001ea208cd	-0.21398927207707744
42	0xbf928dedb507221e	-0.01811953942686461
43	0xbfa71b7415977757	-0.04513132823534132
44	0x3fc1facaa893cc6f	0.14046605330767956
45	0x3fc1699c8d0881b1	0.13603550802600986
46	0x3f968d52d7359e75	0.02202348173650966
47	0xbfd3af91c01f3579	-0.3075909019651913
48	0x3fbbd8fa5cb9940f	0.1087795711878956
49	0xbfbf4158c5cf8f25	-0.12209086255421349
50	0x3fc5b4caf2ff47eb	0.1695798574933741
51	0xbfc3c8c2dfb760a8	-0.15456424640320177
52	0xbfc6258ee5cbad74	-0.1730211851166633
53	0x3fbb00e68975bac1	0.10548249107317088
54	0x3fb8e710ee5069b8	0.09727578943458226
55	0x3fd012bfad91c03a	0.25114433241015244
56	0x3f96fd28e56a0d12	0.022450102808318446
57	0xbfa8202a0179553c	-0.04712039249413144
58	0x3fc56c5338812696	0.1673683191204886
59	0xbfbd6eb1c6e0dd78	-0.11497031312398132
60	0xbfb63d28753e5292	-0.08687069761647084
61	0x3fbffa4d211a49d4	0.1249130445305931
62	0xbfb2bfcbf0e0d4ee	-0.07323908453766467
63	0xbfb6270874a1e0cd	-0.08653309676617767
64	0x3fa0190bce627501	0.03144108671515689
65	0x3f84a88f74156737	0.010087128381815453
66	0xbfb23add3017f5ff	-0.07121069358978359
67	0xbf7c22e9f0ae6db1	-0.00686923392177212
68	0xbfb4430149417c44	-0.0791474155280279
69	0xbfd1c1b908e90bb0	-0.27744890089177954
70	0x3fb44b297b557b2d	0.07927188168603712
71	0x3fa2148694c98e35	0.03531284872294941
72	0xbfc2a66eb6e1f690	-0.14570411615197942
73	0xbfcc6a6398080862	-0.22199673579604268
74	0x3fb1ff323c1fee92	0.0703002354420568
75	0xbfc85223bd9a1c61	-0.1900067020216936
76	0x3fbd1d1e5fccd0c7	0.11372556532734555
77	0x3fc32863b5e96617	0.14967008955390845
78	0xbfc7c84f64df4d92	-0.18580048013118905
79	0xbf90d7e44810b486	-0.016448561571611474
80	0x3fc44b57e3f42097	0.15854929571674312
81	0xbfc18e9676d83c01	-0.13716393282854258
82	0x3fc381cbc45901a1	0.15239855849541775
83	0xbfd2391f219f6ad0	-0.28473642619580364
84	0x3fcb1ed289c22b05	0.21187812544334164
85	0x3fc89b2ffc043f29	0.19223594480035303
86	0xbfb760ece6744fd2	-0.091322714103
87	0x3f35a49def5c8b6d	0.000330246504164736
88	0xbfd15736fe9fb3c0	-0.27094817033394847
89	0xbfd3740a891f5385	-0.30395759001594796
90	0x3fbecad2655f4aa6	0.12028231596859004
91	0x3fda3332d37052df	0.4093749108153996
92	0xbfc0fd89bdd00a60	-0.13273736732670027
93	0xbfac3ff286c5158c	-0.0551753797067632
94	0x3fcbb60a73afda80	0.21649294518256923
95	0xbf92670a6098ec53	-0.017971193452677458
96	0x3f98f8db5aed23b7	0.024386813568785217
97	0x3fc28154bee6ae52	0.14457187005369804
98	0xbfa44600c46c632c	-0.03959658048387946
99	0x3f60375aba6cbb7f	0.0019795200381830798
100	0xbf7e7da3e1f79d4d	-0.007444038550125609
101	0x3fa55eefbae765ad	0.04173993259946527
102	0x3fd495757a8657fe	0.3216222473650986
103	0x3fc4af4620e1b410	0.16159893613385679
104	0x3fcc1e91e977e22e	0.21968292140788165
105	0xbfbb0e8af4d52d08	-0.10569065549241341
106	0xbfbb22fa1d1f0ef2	-0.10600245676965495
107	0xbfd45cea1dd2d8d7	-0.31817105209792146
108	0x3fb9943e29254458	0.09991825584917657
109	0xbfa0ee620006d6a4	-0.03306871652914126
110	0x3fbf2686651ba8de	0.1216815945478262
111	0x3fb34b0e114d108a	0.07536399767292515
112	0xbfbe407e11c6e6a0	-0.11817157682426194
113	0xbfc76748fa0fc7e0	-0.18283951005974952
114	0xbfc979735d9c33d9	-0.1990188796120538
115	0x3f9fe93df6026ffb	0.03116318525336224
116	0x3fcbcc19da23ca17	0.21716616774899997
117	0xbfc6189b26b4c594	-0.17262591733883126
118	0x3fc4de107bfcb6b0	0.16302686742840455
119	0x3fc1b6cc625dad74	0.138391063719023
120	0x3fcb156172dffa1c	0.21158998593450995
121	0xbfd232a8ddccc9a3	-0.28434201870109116
122	0xbfc5166feeaa7660	-0.16474723008734582
123	0xbf9a5d2b2113de2d	-0.025746034521004702
124	0xbfb0f83babe17301	-0.0662877363806267
125	0xbfc1135b89145143	-0.13340324586227767
126	0xbfcc0c8165eec045	-0.2191316364019277
127	0xbf9f29c3ef243025	-0.030432759734182597
128	0xbfd87d1c92f0ce90	-0.3826362071006111
129	0xbfcaa61513a6ae9d	-0.20819343051458797
130	0x3fcc47520ad5a66e	0.22092652825385833
131	0x3fca9c5e478ecf28	0.2078969811824376
132	0xbfcc5e8f83bec3d7	-0.2216357606207839
133	0xbfc9076e3b644090	-0.19553926372509922
134	0x3fb33dd9c5603c23	0.0751625162958907
135	0x3fa9eaaecd37cc7a	0.05061861281492326
136	0xbf997123433dcec6	-0.024845648745624137
137	0x3fc46aa0a87bf5ed	0.1595040152241575
138	0x3fa66dfb6f17b916	0.04380784731971425
139	0xbfceeca90e2397b2	-0.2415973013914346
140	0xbfd6c018064b92ea	-0.35547447790877007
141	0x3fb8277b4cefce30	0.09435244205797555
142	0xbfbd7ac04f1e2d2f	-0.11515428477848809
143	0xbfbc2dc6c58f651c	-0.11007349322553178
144	0xbfca9a8e80d67f21	-0.20784169474517802
145	0x3faf34a6ff1293d6	0.060948580395496485
146	0x3fc32ba11e4e9077	0.14976896266773895
147	0x3fc9380a5ea4530e	0.19702272053896092
148	0x3fa637a9cad76ada	0.043393426905557766
149	0xbfb1f7edefe22884	-0.07018935305146284
150	0xbfd44e99e14b3d66	-0.31729743005140276
151	0x3f7fb6a4f3c1568d	0.007742542595300284
152	0x3f85d4c708d9efc5	0.010659747083302204
153	0x3f8930cb99d3a815	0.012300100929184802
154	0xbfaec443ce42bd2d	-0.06009113209563064
155	0x3fbc58da146d6ed1	0.11073077200620253
156	0xbfb2c8f4371ff2b1	-0.07337881418056715
157	0x3fc89049eec62809	0.19190334471596796
158	0xbf7f2e4c523b303a	-0.0076125127122388895
159	0xbfbd5984abd83370	-0.11464719005034651
160	0xbfa9adb534bfcb18	-0.05015341061507267
161	0x3fc8d95451676aea	0.19413236594012712
162	0x3fb5d4c220ce82a6	0.08527768422073709
163	0xbf9d4ac6be4abe9b	-0.02860556160402315
164	0x3fcf2ce0f609a49e	0.24355709088857663
165	0x3fd1514750b0c777	0.270585850524291
166	0x3fc372b0771ce730	0.15193754020747852
167	0x3fb093a67ed7a958	0.0647529658960243
168	0x3fcc51de961d9f44	0.2212484581934807
169	0x3fb5403d7096c7fc	0.08301147459749808
170	0x3fcfbe087bf6453f	0.24798685124236816
171	0x3fdb12559f355287	0.42299404666599866
172	0xbf9c0b7925bc08c5	-0.027387516906863824
173	0x3fcbc04cd7a1b567	0.21680603531732887
174	0xbfc62c04dd432753	-0.1732183533079544
175	0xbf86afbdfd2717e7	-0.011077389038188513
176	0xbfd18f1d0d751f4b	-0.27435995401582564
177	0xbfccdb1c6aba88ec	-0.2254367371688838
178	0xbfc9b6b2dbc0dfca	-0.20088802080294804
179	0x3fbcc62653255afb	0.11239852456979442
180	0xbfc101d1a7809d1b	-0.13286801031902304
181	0xbfb7546e18593718	-0.0911320504612515
182	0x3f8aa05da720fbea	0.013001186049335051
183	0xbf9a5e7b92e35ece	-0.025751047935812114
184	0x3f5f25e702c7906b	0.0019011264768034285
185	0xbfbfb39a4f7b8442	-0.12383427086344148
186	0x3fc11ea18ffcc869	0.1337472870887411
187	0xbfd0045cf1f561c5	-0.250266300475712
188	0x3fbfc145bf4b0062	0.1240428535484184
189	0xbfb04de1b406ec66	-0.06368837971869964
190	0x3fa474fc2481a804	0.03995502420077915
191	0xbfb7975cf2bbfb76	-0.09215336729174148
192	0xbfb284a711b5ae64	-0.07233661825528653
193	0xbf7aa899e35b1ffa	-0.006508446813036523
194	0x3fa266685b2c565c	0.035937558297672395
195	0x3f87661831418d87	0.011425198558021389
196	0x3fc29b1ade8e9f52	0.14535842768713764
197	0xbfae1afc9d7d1e3c	-0.05879964277715685
198	0x3fbbcfc75cac04ff	0.10863920223711786
199	0xbfc2ab6c0b98aad5	-0.14585638586262087
200	0x3fba909a28c6ec5f	0.10376895423444087
201	0xbfc015efab844fc6	-0.1256694400295812
202	0x3f901fe6ec003bd4	0.015746696619370074
203	0xbfd04dd4448ad227	-0.2547503156049821
204	0x3fc7288a561718fe	0.18092469409584305
205	0x3faeb6a49d175a5f	0.05998720567338433
206	0x3fb901338b9de793	0.0976745811330189
207	0x3fa0300941e0b9cf	0.03161648682759088
208	0xbfb09559921107fa	-0.06477889839246123
209	0xbfcee731f025237a	-0.24143051362832663
210	0x3fc228f1059c6285	0.14187443517655055
211	0xbfd41ae936db2d5f	-0.3141425166802118
212	0xbfc038ab261f4acb	-0.1267293869155622
213	0xbfc011245b6d23aa	-0.12552313293624923
214	0xbf9b502dba56f45c	-0.026673044679899824
215	0x3fbc17938c7f1154	0.10973474674307698
216	0xbfbc83b646dfee70	-0.1113847659143461
217	0x3fad950367e88c2b	0.057777506288651935
218	0xbf6421abe2bbfe5a	-0.002457462038250741
219	0xbfc3fc590aa1134b	-0.15613854426387727
220	0xbf8429366c28707e	-0.009844231773108666
221	0x3fc56e24e6b810fd	0.16742383256508467
222	0xbfa7075c51a6fd6e	-0.04497803208095773
223	0xbfd1ee760d14bb8e	-0.28017951276245234
224	0xbfc892c054303557	-0.19197849379308238
225	0xbfb696be0e3fe34b	-0.08823764655961701
226	0x3fc0312968495c8d	0.1265002974712143
227	0xbfd0bc3e5e22c7a3	-0.2614894789977546
228	0x3fc331492c7e3ad7	0.1499415843249696
229	0xbfcab70f61d48197	-0.20871155049190968
230	0x3fac491e3b480c87	0.05524534677172093
231	0xbfd120adcdab4fc9	-0.26761956295854056
232	0xbfc1976b8fce0016	-0.13743347665513345
233	0xbfa1d022ac6a7f2b	-0.03479107241332565
234	0xbfc87c295c2dbf19	-0.19128911019242237
235	0x3fb7c3e3fc030b70	0.09283280279764283
236	0xbfd7478cc6d184ea	-0.3637420598589204
237	0x3f8a293663b66255	0.012773919027311434
238	0x3faae8b9d33af16d	0.052556807551328834
239	0x3fa5702511c8d60c	0.04187122194381851
240	0xbfc19d2961125b05	-0.13760869254903
241	0x3f90d98b07204024	0.016454860982833122
242	0x3fa22ee5a9806304	0.03551404661283722
243	0xbfd216a01db4fab0	-0.2826309480769096
244	0xbf8280ee4d88dbb5	-0.009034978619735992
245	0xbfd00725ba6d44a0	-0.25043624120469055
246	0x3fb78ab7e6fd5335	0.09196042432206471
247	0x3fc1098e9a35386d	0.13310415773088682
248	0x3f8f37739de10d39	0.015242484336460126
249	0x3fccb30d485bced3	0.22421422989974946
250	0xbfcde6e6eed023b1	-0.23360907231133646
251	0x3fc4f7258a878b64	0.16379231704840003
252	0xbfbdbaa93c5d3008	-0.11612947200518431
253	0xbfc811c2a1dce2ba	-0.18804200080355377
254	0xbfb4862b170e660f	-0.08017224610230066
255	0xbfd1d9261817af13	-0.2788787112501591

model.0.bias f8 [20]
0	0xbfccaaf4788f964e	-0.22396713148843833
1	0x3fb61893541238e0	0.08631249239462901
2	0xbfb1d01cd20024a0	-0.069581795949619
3	0x3f98319b04b87cd9	0.02362673012077896
4	0x3fa590064304049a	0.04211444442808805
5	0xbfc75ad10ac2bb98	-0.18245900178359586
6	0x3fae341ff4734a8e	0.058991430845385925
7	0xbfd06d8ff618a59c	-0.2566871550830798
8	0xbfdfc32efaf9c7d6	-0.4962880564627289
9	0xbfc6e5076d84d6e6	-0.17886441085436572
10	0xbfb761153cdbb4d6	-0.0913251184062632
11	0xbfc9fa9307a16df4	-0.20295942185008153
12	0xbfc07a6bdc59e997	-0.12873600253426495
13	0xbfc062f19e8f105a	-0.1280195259297468
14	0xbfd49b63daac2b72	-0.32198425631275207
15	0x3fdb539200ce9f57	0.4269757278329868
16	0xbfc74172b69ded5a	-0.1816848174747559
17	0xbf9c6f891903426e	-0.027769224311500577
18	0xbfc6b9ab51627ed9	-0.17754117463936472
19	0x3f60ba4401420ed6	0.0020419433804493665

model.2.weight f8 [20]
0	0x3feeeaf21d197428	0.9661799019191948
1	0x3feca1b649afd403	0.8947402419277072
2	0x3ff193133739c93a	1.0984069974188757
3	0x3ff0fe9d262a48ad	1.0621615877940187
4	0x3ff051d57a0b74a0	1.0199789779065114
5	0x3ff38ce76ffa1f56	1.221900403414073
6	0x3feca6778e5d53ff	0.8953206806714887
7	0x3ff5fd9815b57ef6	1.3744126174933036
8	0x3ff4d7de2036b473	1.3027020700785925
9	0x3ff4c30a73eb9fba	1.2976173904553279
10	0x3febd2277fdbdb46	0.8694036004297707
11	0x3ff03b7ab5e34b84	1.014521322726723
12	0x3fec5153f0dbeed5	0.8849277214316894
13	0x3fee6d9b7181a70c	0.9508797852442696
14	0x3fef40e4582d4364	0.9766713831141769
15	0x3ff0625278aa14f1	1.024004432053797
16	0x3febe1a04609e98e	0.8712922447150946
17	0x3ff24c17851c40ae	1.1435771178840173
18	0x3fec40b368a0e768	0.8828980487371441
19	0x3feac4f3f2ec7a9d	0.8365421051601803

model.2.bias f8 [20]
0	0x3fadcc60a36fac05	0.0581999015338042
1	0xbfc2e67af0154e04	-0.14765869829953726
2	0x3fbc7f2217d1686a	0.11131489831442001
3	0x3fc6175b183dde15	0.17258776363063136
4	0xbfb7ad07e393d52d	-0.09248399072733511
5	0x3fc356fc9c09bf96	0.15109212512060982
6	0xbfb28b8baafb527f	-0.07244179653509696
7	0x3fd113cc3f4b2235	0.26683336430554344
8	0x3f78a436cdbd4f5c	0.006015981747470391
9	0x3fa5ac93bc11a7a5	0.042332283694874996
10	0x3fc0bb7943f6d086	0.13072124308166994
11	0xbfc3977b553d15fb	-0.1530603567318137
12	0x3fa4f51d45a3fa26	0.04093257403473087
13	0x3f9e50810baee98e	0.029603973711098734
14	0x3fb45d7eea73d9bf	0.0795516321557903
15	0xbfafb1531372d004	-0.06189975368889125
16	0xbf93d8ef2a002ee3	-0.01938222593166373
17	0x3fbdb88e30b4c1f4	0.11609734238732711
18	0xbfb7a02d69af4ccf	-0.09228786306566693
19	0xbfbcdcaab0cbd25b	-0.11274210754692986

model.2.running_mean f8 [20]
0	0x3fd4086c5f3489b5	0.3130141191233194
1	0x3fdb9f047fb23acb	0.4315806624444291
2	0x3fd1fc096c50654e	0.2810081060175279
3	0x3fd12455cddf5cd4	0.26784272293793987
4	0x3fd58a445eb51aa3	0.3365641522290536
5	0x3fd89d7ad3ba479d	0.3846118037846454
6	0x3fe5bb77ddb88e88	0.6791343050467313
7	0x3fcfe489e0cf075d	0.24916194416987994
8	0x3fcd61d9127480db	0.22954858208777904
9	0x3fd7a995a44e2e54	0.3697256187958591
10	0x3fd570dc0dda044a	0.33501340248773614
11	0x3fdca490c846febc	0.44754428442318406
12	0x3fdb0ef1303bd9b8	0.4227869959862818
13	0x3fd5a2df91e83ea0	0.338065998542314
14	0x3fd2eebdca4450b9	0.29582161667463996
15	0x3fe7aa9359001074	0.7395722139631418
16	0x3fcc0f5b7f2be44e	0.21921867093604636
17	0x3fe4e34e28fd880a	0.6527472305863296
18	0x3fd3db549cf69a37	0.3102618725628505
19	0x3fe2081c44a1fe40	0.5634900417789552

model.2.running_var f8 [20]
0	0x3fdbaa9439599a0f	0.4322863159235632
1	0x3fd79ad5f4e41380	0.3688254252922931
2	0x3fd38768690a69f0	0.30513963945273215
3	0x3fcdcd99f89ecd8d	0.23283695830978637
4	0x3fd119c7790759cb	0.2671984369202646
5	0x3fe6da744d612c7a	0.71416678536606
6	0x3fe9fed0cb8d8c33	0.8123554206507663
7	0x3fd4774f7a583baf	0.3197821326038434
8	0x3fcc4dff2b038063	0.22113027191426501
9	0x3fdeaf1fc6e26ae8	0.47943872854527436
10	0x3fd2bb2216281a4b	0.2926717010854289
11	0x3fe7544c5d525057	0.7290403196989342
12	0x3fe16343df3710e0	0.5433673247976252
13	0x3fe06159dbf99b01	0.5118836685549867
14	0x3fd81bc59442a00a	0.37669505575695494
15	0x3fe3e6e8fe13f9f8	0.6219372713529188
16	0x3fc32f00c1cf213f	0.14987191642127048
17	0x3feb3c8114071644	0.8511357680478757
18	0x3fd487e50f5f4f29	0.3207943582649358
19	0x3fd9f71c3d6efd32	0.4057074165284177

model.3.weight f8 [20, 20]
0	0x3f93834f130bc74c	0.019055591142154868
1	0xbfc90fb0c2b4f1d7	-0.19579133517426214
2	0x3fd9b2379bc8a4a7	0.40150251591928526
3	0xbfafa437d10e5ce3	-0.06179975916819005
4	0xbf80b57ae9b19063	-0.008158645874751074
5	0xbfbefad77d437858	-0.12101504142944586
6	0x3fb18ef5a358038f	0.06858763921628806
7	0x3fd145a3b493461f	0.26987545618348635
8	0x3fd7901eeae30807	0.36817143381279077
9	0xbfc80708b03f9356	-0.1877146587932212
10	0x3fc663d8668d13c2	0.17492203719498717
11	0x3fb386932267e342	0.0762721976278842
12	0x3f7c4600f60b5cec	0.006902698282565494
13	0xbfb97855743f51e8	-0.09949239814824973
14	0xbfc65684c0271cb0	-0.1745153368230823
15	0x3fb5eb03ce8d28e2	0.08561729233511842
16	0xbfc45ad6f3ff97ea	-0.1590222064398284
17	0xbfafdce3c0afe493	-0.06223212935578561
18	0xbfbee40d1678ec47	-0.12066728399888503
19	0xbfa7bae90dcb2329	-0.046347887929704186
20	0xbf7d6ac0adaf04be	-0.007181885385706353
21	0xbfc1ea49c49af2d3	-0.13996240711084926
22	0xbfb72b772d498e99	-0.09050698142669446
23	0x3fc195a95739a9a0	0.13737980612797873
24	0x3fc3cb9a188eda59	0.15465093802568466
25	0xbfb9db27c6f09b0c	-0.10100029570513075
26	0x3f72a180e63fa8fa	0.004548553002658768
27	0x3fc8fd107a2b7e2b	0.19522291150404789
28	0x3fb87838ab6a6998	0.09558443245842907
29	0x3fb9f2cd519fc1a1	0.10136111490988366
30	0x3fd7f41d1cd7e5f4	0.3742745191262593
31	0x3fd2b2b462eaf3fd	0.2921572652811049
32	0x3fc5abafada98fb2	0.16930194835287932
33	0xbfce45f260f80bbe	-0.23650960669337268
34	0x3fca9ddd673a8cab	0.2079426530882292
35	0xbfb09cc71ab64733	-0.06489223863743802
36	0xbfd07427b1eeda7d	-0.25708954216262453
37	0x3f967ce1701320da	0.021960756745813416
38	0x3fbaf0b795e3a53e	0.10523555192380216
39	0x3fb66b2f2cbfcfa8	0.0875730022669915
40	0x3fbb2a7cbbeb83eb	0.10611705387010743
41	0xbfc550269420d46f	-0.16650850518059054
42	0xbf9f5b393c10e841	-0.03062142781366384
43	0x3fd84d359cd3f08d	0.379712489273296
44	0xbf973e532d944b46	-0.02269868817991074
45	0xbfd8aae6a19fbf7c	-0.38543096335978766
46	0xbfb90c0b2c3e40b2	-0.09784002142100937
47	0x3f9ec76cee1cf015	0.030057622941271307
48	0x3fd5c8d2102e86ab	0.3403821142220333
49	0xbfd0d2035bb4de4e	-0.2628181834765869
50	0x3fc1421577702436	0.13482921916900786
51	0xbfd7748af1278154	-0.36648820448137553
52	0xbfc91126da5220bc	-0.19583593044467829
53	0xbfd40d8c966ac514	-0.3133269757191368
54	0xbfb9c047c50255ad	-0.10059021529953922
55	0xbfb08f57e2381eb8	-0.06468724511079926
56	0x3fb3655d9fac13da	0.07576546810385257
57	0x3fa3f5348c6d3ed3	0.038980142728744525
58	0xbfb59b492fb47818	-0.08440072455093206
59	0x3f95eab09e550822	0.021403083480670777
60	0x3fbffd6c37008bc3	0.12496067374063018
61	0xbfc7a6a197e67f28	-0.18477268139849312
62	0xbfd7f0110b66479e	-0.3740275012324846
63	0xbfc1e1237c9af684	-0.13968318542713487
64	0xbf8856a7cabe3fd5	-0.01188403212998416
65	0xbfb2e50e2e34bf76	-0.0738076079185229
66	0xbfca7b611455cab5	-0.2068902348797416
67	0xbfd30d43297a0464	-0.2976844697041712
68	0xbfd558fdd49262d8	-0.3335566116234481
69	0xbfd9854f801dee58	-0.39876163016717703
70	0xbfd4288c990527dd	-0.3149749273621845
71	0x3fc783ca9e8f49a2	0.18370945684598633
72	0xbf924318efc6ac30	-0.017834081301469407
73	0xbf8943b65d49e307	-0.01233618232912327
74	0xbfc5342b300d538b	-0.16565456243793295
75	0xbfbd70b34f2d2041	-0.1150009220410775
76	0x3fc8b4f87a889798	0.19302278502544534
77	0xbfbf0e5f674e22ce	-0.1213130595407492
78	0xbfc2ee360e75daba	-0.14789462762901967
79	0xbfcef5fef85e3e19	-0.24188220145559639
80	0xbf6963a9c142af1f	-0.003099280884347424
81	0x3fbb18076f30bebd	0.10583540405854826
82	0x3fb2d3431a0eac78	0.07353610407032984
83	0xbfc9a446fbece19f	-0.2003258447746363
84	0x3fc46dc87c13856c	0.1596003156510436
85	0xbfd8a3ba1847d9fc	-0.3849930989375989
86	0x3f97030091701f33	0.02247239005740127
87	0xbfb87d718ed7f527	-0.09566411721603583
88	0x3fab45350c5ecda9	0.05326238418583824
89	0x3fd55a7f8e7eb01f	0.33364857593073965
90	0xbf9170c615f963a1	-0.017031760302731794
91	0xbfc0dcac2e7541c0	-0.1317343928190109
92	0xbfcbd14bcc034f4a	-0.21732470952576427
93	0x3fce314e6ba09a9d	0.2358797097706046
94	0x3f996b0fd08341c8	0.02482247076187763
95	0xbfdb982c10e9ac06	-0.4311628499187353
96	0x3fae718a325a5db6	0.05945999016438057
97	0xbfd131f09d44f2dc	-0.2686730895837124
98	0xbfc5f989089a684f	-0.17167771263194928
99	0xbfc0377cc2ba642a	-0.12669333942611277
100	0x3fbc9055623d4a10	0.11157735489295129
101	0xbfc02ecb59809d0c	-0.1264280497573299
102	0x3fcc5eecda872349	0.2216468874960589
103	0x3fc97b9fe2b180dd	0.19908522194874126
104	0x3fcea848ed82d29f	0.23951064679353792
105	0xbfc66791cae5dbc0	-0.1750356903755499
106	0x3fcb1714ed1d3598	0.2116418988975226
107	0x3fd5267bbda82d7b	0.33047383805452285
108	0x3fa40049ddc478ff	0.03906470138666584
109	0xbfd323474acbed40	-0.29902822784761796
110	0x3fbea0d80046f2cb	0.11964178091779869
111	0xbfd6dc8507aba805	-0.3572094511897606
112	0xbfcf9db88c22d041	-0.24700075953080794
113	0xbfbee3149e3226cb	-0.12065247404293726
114	0xbfd3aff839bb8674	-0.30761533391896667
115	0xbfd3d3acbb1e5bed	-0.30979460023212263
116	0x3fab5493a097ae97	0.05337964377744447
117	0x3fc718c3f40baa65	0.18044328132903611
118	0x3fb803ce9f0d0c28	0.09380809195595019
119	0xbfc41086ae84756b	-0.1567543365608047
120	0xbfb02d55cacf47dc	-0.06319175912292913
121	0x3faed21b085b81ca	0.0601967284872021
122	0xbfc58ea1d6837adb	-0.1684152886800437
123	0xbfab6034c5e67ec9	-0.053468369634399666
124	0xbf885e167621970f	-0.01189820812232825
125	0xbfc3fc01d33eabf8	-0.15612814726532043
126	0xbfb210ddee7a4204	-0.07056986877638144
127	0xbfad1e722d9b9d4c	-0.056872909610144434
128	0xbfb718c67161e23f	-0.09022178905605303
129	0x3fd4460b57207eaf	0.3167751646851497
130	0x3fcc278bf9835a84	0.21995687182671386
131	0xbfcc97c6323dd445	-0.22338178113173704
132	0xbfbacfb8e112aee0	-0.10473208899446318
133	0x3fcd54729d61807a	0.22913963970768575
134	0x3fca278ce8f6e744	0.2043319833299454
135	0xbfb9046617c05835	-0.09772337036005825
136	0x3fc7274a93277115	0.18088657555825507
137	0xbfcc2bdbf6677cd1	-0.22008847743470608
138	0xbfd7cc8360126ce8	-0.37185749418286074
139	0xbfbcc269471cc31b	-0.11234148012296112
140	0xbfc908289246f28b	-0.1955614771121826
141	0x3fb93e6d0a71b00f	0.09860879425986034
142	0xbfc091992e374a79	-0.12944330937041906
143	0x3fca2a00bf2adc34	0.20440682730051807
144	0xbfaf4c68aa9054f8	-0.061129828282142584
145	0x3fde5c672429ee31	0.4743898251688022
146	0xbfa32c4465c61d65	-0.03744710676533706
147	0x3fa9c4b643be9ece	0.05032891823731021
148	0xbfc7bad86939d53d	-0.18538956773742568
149	0xbfbee644f264c1ef	-0.12070113103687395
150	0x3fc8faeaa2110845	0.195157364973115
151	0x3f71b69624b5db3c	0.004324518678336994
152	0x3f9f9034a8cab6ab	0.030823538591610838
153	0xbfbfef197b03fa67	-0.12474211934384415
154	0x3fbd267108699d38	0.11386782126793527
155	0x3fd0b3cd27edaccf	0.26097420596370297
156	0x3fb72cded89bd87a	0.09052841938304992
157	0x3fc27c7e8fcfe322	0.14442426702569217
158	0xbfc1b40cb9b82d62	-0.13830718105632928
159	0x3fcc0a7d1878faeb	0.21907008833837635
160	0x3fdd60aecacda1a9	0.45902604870800673
161	0x3fb61a06fa024f52	0.08633464435325536
162	0xbf89701a5f79f26a	-0.012420850790698174
163	0xbfc4a88375204a93	-0.1613926240830393
164	0xbf7f9ee9439f79f1	-0.0077199088936752295
165	0xbfc76584e4830f24	-0.1827856174260144
166	0x3fd2726ae0c65d4f	0.2882334895197873
167	0x3fbe9894bdd8596a	0.11951570162668693
168	0xbfc3b85941980cb2	-0.1540633745463303
169	0xbfcbb11fd1ee3cb9	-0.21634290457266106
170	0x3f920d519b1dffc2	0.017628932087518263
171	0x3f97f565a5bdc432	0.023397052994770635
172	0x3fbdf42b48b73883	0.11700697446141999
173	0x3fa7ad9655b73378	0.04624624058087695
174	0xbfc994b3610d595d	-0.19985048521875629
175	0xbfbaa6f63d6b06b2	-0.10411013602699873
176	0x3fc2bf0d00dc5d17	0.14645540754347827
177	0x3fd4cdd970c4cce4	0.3250640488869989
178	0xbf85477138a122a6	-0.010390171566670613
179	0xbf8662e2863e3867	-0.010930795404217443
180	0xbfc7a60d75cdf31b	-0.18475502254650497
181	0xbfcd2fe204673b60	-0.22802376952173642
182	0x3fb8e2a5a2c12b82	0.09720835898876426
183	0x3fbb1036ec141440	0.10571616424211161
184	0x3fa39fa2b3f53208	0.03832729765654014
185	0xbfb0a74d47f8384b	-0.06505282408781558
186	0x3fcbe37006731dbe	0.21787834467816752
187	0xbf8fce0cd5ae21e5	-0.015529728194238987
188	0x3fd64ef3c798c0ec	0.3485688637911284
189	0xbf9e819f3102b73b	-0.02979134308468832
190	0x3fc3e3e5bd314872	0.15539237726131067
191	0x3fc604db3088b174	0.17202319974729685
192	0x3fd8a1fc850fd8f1	0.3848868655617386
193	0xbfc7e1086c6d6700	-0.18655495924286214
194	0x3fc61252dda8619b	0.1724341947854214
195	0x3fd472eb347eb840	0.3195140850683664
196	0xbfc39f02535b5150	-0.15329007215644674
197	0xbfc31b96cbf69932	-0.14927945098060885
198	0x3f9aaf063db1ee50	0.02605829001957566
199	0xbfc3110db6e0110b	-0.14895793370681817
200	0xbf96d67544d06958	-0.02230246765621166
201	0xbfccdf418519c9c1	-0.2255632305055553
202	0x3fbd7fa8cdb3d908	0.11522917768511232
203	0xbfb544c9ee876394	-0.0830808837266786
204	0xbfc442a714205ac2	-0.15828407747968326
205	0x3f97d53ebe33e6f5	0.023274402960828906
206	0x3fd15c3d923a3b75	0.2712549140932688
207	0x3fd3fbd262b28334	0.3122449840393984
208	0x3fc50c27fcc4aa94	0.16443347780417084
209	0xbfbc7b66c204da5b	-0.11125795590201319
210	0xbfc06d4b1272cc32	-0.12833536530306017
211	0xbfadbe683c54421f	-0.05809331642570136
212	0x3f843da607c3d14f	0.00988321028896935
213	0x3f80322547c196dc	0.007908145191503228
214	0xbfc3cde40a968846	-0.15472078816407214
215	0x3fb976143508a758	0.0994579915501651
216	0xbfc1c9ccdd7e3233	-0.1389709550388872
217	0x3fc9ad32732f0244	0.20059805511665918
218	0xbf9a507c0d3effa1	-0.02569764929626184
219	0xbfcd01ccc9672513	-0.22661743005873144
220	0x3fc61f41e2760f46	0.172828898979896
221	0xbfb833a434cd0781	-0.09453798569759721
222	0xbfb4be7b3e7054fa	-0.08103151583084758
223	0xbfc599b40c875d47	-0.16875315295940593
224	0xbfddd11db3ac0d1a	-0.46588842912770334
225	0xbfba3bfec9c3c10c	-0.10247795511145713
226	0xbfc6fc64c4a702a3	-0.17957744218985736
227	0xbfdb117d7eadf428	-0.4229425179581221
228	0xbfcf2449d6cc6694	-0.2432949351139554
229	0xbfae3c423d75c825	-0.05905348778004819
230	0x3fabdf131c743912	0.0544362995370752
231	0x3fd2d602251187a9	0.29431203479736695
232	0x3f908a7314d86082	0.01615314306954519
233	0xbfc8241647c2e964	-0.1886012888333638
234	0xbfb59b93937f21b9	-0.08440515852919973
235	0xbfa12e9adfafa40d	-0.03355869274657417
236	0xbfd2fb1892e32fe2	-0.296575683064246
237	0xbfc10ee376775923	-0.13326686176760302
238	0x3fbdf5f2070d7233	0.1170340792863918
239	0x3fd3dda2efa4d5ef	0.3104026165268285
240	0x3fd3dfa5562e54c2	0.3105252591715947
241	0xbfa88bd0affb2876	-0.04794170520979517
242	0xbfdaed4403035f34	-0.4207315473008635
243	0xbfd40f95db98ee95	-0.3134512562280432
244	0xbf980eb111bd53ed	-0.023493544299828462
245	0xbfcb8a31363f4ea4	-0.2151547922973026
246	0x3fa1ae4c8bc9eec2	0.034532920898497035
247	0xbfdbd8cfce72f37f	-0.43510813866651427
248	0xbfdd75dd97ab1595	-0.4603189450393413
249	0xbfe1b0a1aaf5273b	-0.5528114642158707
250	0xbf33d133f2deca42	-0.00030238645819761014
251	0x3fbf586ee393183a	0.1224431329347632
252	0xbfa40b7a83b7ed77	-0.039150074557222796
253	0xbfb5ca9b460f2e90	-0.08512278042251809
254	0xbfcfcaba9988c6d4	-0.24837429520407872
255	0xbf8f49a47ae5ee67	-0.015277180672220681

model.3.bias f8 [20]
0	0xbf90a2a934e645a4	-0.016245502332429176
1	0xbfc8682196b874d4	-0.19067783221627244
2	0x3f882ce515570b0a	0.011804380143876542
3	0xbfc110d09abb8e40	-0.13332564883522657
4	0x3fca860e299eb39f	0.2072160437795931
5	0xbfb6af82ef939b9d	-0.0886155924705307
6	0x3f94354bc818268e	0.019734558189191058
7	0xbfc4d57ce31ded61	-0.1627651318520789
8	0x3fbc2b0a6e754841	0.11003174969417363
9	0xbfca8d0f4db1aa61	-0.20742980283405912
10	0x3f72ba5db5d9d200	0.004572263771127627
11	0xbfc38c56e285c74f	-0.15272031841919406
12	0xbf38bbd50a3d679a	-0.00037740660831319663
13	0x3f6b355a4d056be4	0.0033213390053510195
14	0xbfca886941a98ba6	-0.20728793817678798
15	0xbfa50e86eb2b9f6e	-0.04112645741207542
16	0xbfad223340a82dcc	-0.056901551859563776
17	0xbf88ec3b5461be18	-0.012169326317432769
18	0x3faf7e4d973c9bbc	0.06151049109603643
19	0xbfd29658d998775c	-0.2904264569241286

model.5.weight f8 [20]
0	0x3fed41bdf4b41433	0.9142751483310633
1	0x3fe7dbf208c24417	0.7455988093444174
2	0x3ff100032bbeef34	1.062503023988893
3	0x3ff09d0e8a05c3a7	1.038343943739372
4	0x3ff0b24141c8a125	1.0435192651439789
5	0x3ff0a45c5f30ad88	1.0401271551480438
6	0x3fe7dd682b48f397	0.7457772107514867
7	0x3fe9bfecb74b44ba	0.8046783046685484
8	0x3fec04199863b2e9	0.8755004860264225
9	0x3ff06b3fe3d11a94	1.0261839770406924
10	0x3fe724bbe1738717	0.7232341197343172
11	0x3feb12008131e2ca	0.8459475062691919
12	0x3ff5cce281d19e06	1.3625207015082892
13	0x3feb18cbf11902b0	0.8467769345225715
14	0x3fede7170a8482d6	0.9344592290327352
15	0x3fec9f4cb28b53bb	0.8944457518760979
16	0x3fe758f6e76f55cb	0.7296099205220171
17	0x3ff04d7fa8b5d166	1.0189205732577533
18	0x3ff063b5d318f6c4	1.0243433233257955
19	0x3fedd77c94e9b9c9	0.9325545223671777

model.5.bias f8 [20]
0	0x3fd8a9101ede662a	0.385318784852276
1	0xbfc8609f9384c30b	-0.19044871047074027
2	0x3fdc60455bd69f1f	0.443375911413101
3	0xbfe014dadc82e81e	-0.5025457674848928
4	0x3fdee320af8d8b60	0.48261277335966746
5	0xbfcc0c1c3e56a822	-0.21911957782623498
6	0x3fb5443284b8a5ea	0.0830718587900702
7	0x3fd5deba5b26bfac	0.3417192354345342
8	0x3fc2dfef9bc65e7b	0.1474589834804084
9	0xbfd7aea5fd0b366d	-0.37003469191845434
10	0x3fc6e29278062763	0.1787894331030727
11	0xbfd342ab3fb5afa4	-0.30094414922381874
12	0xbfe06bb8e594be9a	-0.5131496891026075
13	0x3fc16274908d8888	0.13581711824651088
14	0x3fc0c9f941327291	0.13116374667597033
15	0xbfc83cf86c2188d9	-0.18936066894372663
16	0x3fcb857287473e07	0.21500999074349655
17	0xbfd4ed2512af00ad	-0.326974170919139
18	0x3fdac1d639b3f47a	0.4180808604722369
19	0x3fe5561a5d4b166b	0.6667606184134461

model.5.running_mean f8 [20]
0	0x3fdd02c142f64b7c	0.453293147461572
1	0x3fd3dbe90bd400da	0.3102972617634926
2	0x3fe2c4b73cda0c2e	0.586513155795165
3	0x3fe0381e4dbd8550	0.5068503874173675
4	0x3fe0f3d2fa29fab4	0.5297636877074496
5	0x3fe219d9cb2113f5	0.5656556098334692
6	0x3fd9e94bcf6a0888	0.40486426596920255
7	0x3fd2715a1a168926	0.2881684546247406
8	0x3fd6b12e9fbd5945	0.3545643386800246
9	0x3fd85cca9d93650c	0.3806635416818416
10	0x3fdfc9f5a623f364	0.4967016336884653
11	0x3fd1b2f9c359e5c5	0.2765488059736437
12	0x3fe39453616162d4	0.6118561651192871
13	0x3fd21944d135093e	0.2827922862089912
14	0x3fcd8e9afba81488	0.23091447151106004
15	0x3fd57514a3ce391b	0.33527103420864685
16	0x3fcb3317e6b40874	0.2124967457276089
17	0x3fd6208541e94549	0.3457348960556215
18	0x3fe42f8795aa3344	0.6308019564763545
19	0x3fc88545d8022382	0.19156716391833234

model.5.running_var f8 [20]
0	0x3fe7230c8ddad931	0.7230284472086962
1	0x3fd7ae6c0df74709	0.3700208794008267
2	0x3fda5c7cd8d69eba	0.4118950002252678
3	0x3fd3395921cb3476	0.3003752546326902
4	0x3fdcd872cfdc92c7	0.4507109670542317
5	0x3feb2b44c5999f25	0.8490318164230969
6	0x3fd7e198f4bb78ce	0.3731443777050004
7	0x3fd5ed5b59c90bbf	0.34261211174105805
8	0x3fded1a04ff3a329	0.48154456908973714
9	0x3fe58b8423ff0236	0.6732807829903951
10	0x3fe52448661c50ca	0.6606790537212188
11	0x3fc7f53fe53624f4	0.1871719235607895
12	0x3fd76e43523e6103	0.36610491782768423
13	0x3fd67a5745091964	0.3512170957732421
14	0x3fc7c945795a524a	0.1858298151534135
15	0x3fd590e11f99e1e0	0.3369677361111183
16	0x3fc5cdacfc866525	0.1703392251045354
17	0x3fe23860aece34d3	0.5693820394677921
18	0x3fe113212d265038	0.5335851556615188
19	0x3fcd7a13e7945057	0.2302880173452901

model.6.weight f8 [10, 20]
0	0xbfb95dbcbed4fc28	-0.09908656748756128
1	0xbfb40e031f980c53	-0.07833880921684626
2	0x3fd9585e33ede374	0.39601855345932013
3	0xbfc3fc035c436174	-0.15612833027877182
4	0x3fd0f45368cbc16e	0.2649124644658717
5	0x3fb2ffff94420057	0.07421872491431834
6	0x3fc3f0e6672cf7fe	0.1557891849315069
7	0x3fcce35e8a522671	0.2256887603182807
8	0x3fc37ce41a02b1e9	0.15224887151761315
9	0xbfd3ba085e5f29d5	-0.3082295343016573
10	0x3fb0dc07a62dfb8c	0.06585738951797121
11	0xbfc208dc200746fe	-0.14089538158309972
12	0xbfc449a39de47dae	-0.15849728784176648
13	0x3fc89905591a7b32	0.1921698269915964
14	0x3faa318a8e580865	0.05115921962352913
15	0xbfb9aea884eed74b	-0.10032132382806684
16	0x3f86236fc543c465	0.01080977745775353
17	0xbfca5d1a4d1404d2	-0.20596627009948648
18	0x3fcc3c5a51a38320	0.22059182153955081
19	0x3fd03c4355a8a2e3	0.25367816319571385
20	0xbfd7f90aa84d209a	-0.3745752948348212
21	0xbfb0806eb91cd2ab	-0.06445972461080866
22	0xbfabb7bade2c3d61	-0.05413612329550222
23	0x3fd17e574e9911f7	0.2733362453039087
24	0xbfb06aa48f67da3e	-0.06412724019160351
25	0xbfa7760844f18fe8	-0.045822389999358226
26	0xbfc48662777ed9ad	-0.1603510936235585
27	0x3fcaa25829e6fcf6	0.2080793575860082
28	0xbfc901ff5b175c80	-0.1953734583646316
29	0x3fd662fa31a55ec3	0.3497910961936947
30	0x3fc3db1875cced47	0.15512376548745463
31	0x3fc96f90ef3bff1c	0.19871722871175101
32	0x3fdb35ba65c698f4	0.4251543039230363
33	0x3fcd38a19229e3bb	0.2282907451333623
34	0xbfd1f528856de2e4	-0.2805882742900805
35	0x3fb70ed7bae4823f	0.09007023155982895
36	0x3fb5f799e353de85	0.08580934333792285
37	0xbfd8af424f5fe0e8	-0.3856969618932582
38	0xbfd79602dbb11052	-0.3685309548784562
39	0xbfc877e896b3386e	-0.19115931852724394
40	0x3fca47436ad277ea	0.20529978481221117
41	0xbfc2d4f01148a248	-0.1471233448403544
42	0x3fd1ab4424c582ca	0.27607825842828204
43	0xbfb25857d4dfd71a	-0.07166050860527343
44	0x3fd7be7d9159484d	0.3710016173764686
45	0xbf934eb99ffe4c67	-0.01885499991437847
46	0x3fb841e7c6c8d068	0.0947556362451124
47	0x3fcc87952903d3a2	0.22288765433009156
48	0x3fd036ee14100481	0.25335266074404933
49	0xbfd4a515c307f5f5	-0.3225759892082743
50	0xbf9fa6bfc62fccea	-0.0309095349038672
51	0xbfbdc86a8a7e3ce6	-0.1163393581502877
52	0xbfc30338fe06bab0	-0.14853584674479725
53	0x3fc3e84cc0715a0d	0.15552672764415867
54	0x3fc910a16250499d	0.19582001972646604
55	0xbfc205322fc53076	-0.1407835705998683
56	0x3fce15d721ad6f21	0.23504151482017568
57	0xbfc800902da4a331	-0.18751718739192705
58	0x3fd0e04f8e42ac6f	0.26369084255811165
59	0x3fcefeb6432e34f8	0.24214819221780437
60	0x3f9731e6a207cd39	0.022651294364505168
61	0x3fb4c22aaa726e6e	0.08108774815848971
62	0xbfcd092bdacae135	-0.22684238608577237
63	0x3fbb071423fc1ecd	0.10557676199470763
64	0xbfd0574822c31ceb	-0.25532725710622967
65	0xbfda94be90ff4f7f	-0.41532863769429434
66	0xbfcfec1b54c804cd	-0.249392906567698
67	0xbf9036b688b27a7f	-0.015833713620504227
68	0xbfd1c4b51eacbba6	-0.2776310729558936
69	0x3fc13aa0a0ecaf18	0.1346016679539097
70	0x3fb617e362b43d34	0.08630200538413108
71	0xbf450dec0b70ef1d	-0.0006425287782642928
72	0x3fc67b7fa4164c08	0.17564387809815707
73	0xbfc745be21922176	-0.18181587828827234
74	0xbfc6e123ef0fd3f2	-0.17874573872509775
75	0xbfb1b3b1880bb84f	-0.06914815493993952
76	0x3fad31d3867239d0	0.05702076927365207
77	0xbfd23b8dff24b7fb	-0.2848849288592416
78	0xbfb012542a73f83e	-0.06277967487764699
79	0xbfc531046f8f683a	-0.16555839011454215
80	0xbfa3c0bc76ba3d11	-0.038579835408308345
81	0xbfd082a2c3a1ba8a	-0.25797337631858197
82	0x3fd67cd1e0a71092	0.3513683980820669
83	0xbfc12b1af5267bc3	-0.1341279694579197
84	0x3fd1943f376873b4	0.27467327509821904
85	0x3fc8cbc63ee21bd7	0.1937187010809953
86	0xbf6e2f9dc5175e36	-0.003684814590751785
87	0x3fc55539dc5644d5	0.16666339167253477
88	0x3f9b234a23647511	0.026501806650334695
89	0xbfd3cfa2e38590a0	-0.3095481130496953
90	0x3fcab25f6e57bde4	0.20856850517110026
91	0xbfd71e64b4cbd643	-0.3612300649250281
92	0xbfd13222cdc98b04	-0.2686850556985265
93	0x3fc6f21eb5b90b82	0.17926391480622433
94	0x3fbd0217308856da	0.11331314978482557
95	0x3f9217e4a478820a	0.0176692700753183
96	0x3fc1be39666c3b55	0.13861768246757813
97	0xbfc43612f10e01ed	-0.1579002072358117
98	0x3fbddc9900cfdd0d	0.11664730329345137
99	0x3fc1824fc223a54a	0.13678929309325333
100	0x3fcd18d2fcaf6a57	0.2273200734915288
101	0xbf9304b957f8249e	-0.018572708124371055
102	0x3faa2d2e8a4c3f4e	0.051125959760723746
103	0xbfc0b92eeca4d629	-0.1306513457763441
104	0x3fa8a407ec4ddf41	0.04812645682880979
105	0xbfb6de239fae357e	-0.0893270745129566
106	0xbfa542012035e478	-0.04151919859118264
107	0x3fa1aa2852c6f3c6	0.0345013237997374
108	0xbfb43a7d4a016015	-0.0790174775769404
109	0xbfbd4c6334f0aa17	-0.11444683115465924
110	0x3fb50c707eaaa1cf	0.0822210606808149
111	0xbfc4efc1839a08b0	-0.16356676984657303
112	0xbfde951b39364dca	-0.4778507288658288
113	0xbfae3b7a66f8c72b	-0.05904753214816901
114	0xbfb22113c267193f	-0.07081721779022575
115	0xbfd316e0476ff28d	-0.29827124573038405
116	0x3fbe0c8b8b6d12df	0.11737892297703521
117	0x3fc98669f15d1fa4	0.1994144848379139
118	0xbfc02e747945335e	-0.1264176933422289
119	0x3fc2f612a4e56653	0.14813454677168866
120	0x3faa94df0ade92aa	0.051917047573885114
121	0xbfbef97ee7cd9498	-0.12099450263265721
122	0x3fc785bb6a119ffe	0.18376867941992708
123	0xbfb8ff76fd862be9	-0.09764808358720213
124	0x3fcc45f20fbe0731	0.22088456886927468
125	0x3fb2307f6be41e8a	0.07105251678523863
126	0x3f9aaaeba1b40dac	0.026042634720409616
127	0x3fbbc508e5278b6e	0.10847526163665375
128	0x3f82bd0452bebec7	0.009149583602123269
129	0xbfc838d267fc578c	-0.18923406674792564
130	0xbfa36f2704a65780	-0.03795740062484665
131	0xbfa2175c9af70436	-0.035334485928168055
132	0xbfccd013e2aa8e18	-0.22510002677619023
133	0x3fc2423eec0da996	0.1426466610531178
134	0x3fccc96babd7a286	0.22489686861742458
135	0x3f9d173bc9c3a680	0.028408941449845404
136	0xbfa2f0d4c2499d28	-0.03699364539789435
137	0xbfcf274fff78f722	-0.2433872220444125
138	0x3fd04f566caa9c18	0.2548423825450654
139	0x3fce43f8a9535f13	0.2364493204865928
140	0x3fce3fc07c396c29	0.2363205534519193
141	0xbfb1bce5ac071222	-0.06928859186070516
142	0x3f74dd62dbae5ce6	0.005093942799155848
143	0xbfdc6f4375a30fd8	-0.44429098594650673
144	0x3f95e4bcf643e67a	0.02138037922939027
145	0xbfc6f87f77a346d5	-0.1794585546654647
146	0x3fa3bd44f24bab48	0.0385533853312468
147	0xbfb36b3faf38c48a	-0.07585523631930094
148	0x3fa3a4d2ecec9dd7	0.03836688177244312
149	0xbfade2f0404e97a4	-0.058372028207755805
150	0xbf8f9035c528726f	-0.01541177757194953
151	0xbfcf308cc45f4009	-0.2436691244934084
152	0xbfdfb291309e13ea	-0.49527387378503696
153	0xbfa4d0158c653824	-0.040650056255444406
154	0x3f9193f5ce75ecb4	0.01716598580013047
155	0xbfdcd3149b93fa0b	-0.4503833312336673
156	0x3fb2d671a3f22170	0.07358465435584605
157	0x3f9e8f59b577380e	0.029843713475024507
158	0x3f85d7fd560c476c	0.010665873707271088
159	0x3fd26c4d01f99b61	0.2878601569449782
160	0x3fd17c7174b20696	0.27322040935551095
161	0xbf82874ad4910f60	-0.009047112094897336
162	0x3fbf7a8882ac53db	0.12296345892202913
163	0xbfd6cd04871a5e74	-0.3562632865300437
164	0x3fbb3a3bffa2245a	0.10635733595894817
165	0xbfd15efb465b03db	-0.2714222132745456
166	0x3f1e0b1c5fe2616c	0.00011460648235795339
167	0xbf7df6181cd78fa1	-0.007314771833509954
168	0x3fca26bf85903877	0.2043074991383411
169	0xbfcacb369d043055	-0.20932657877745223
170	0xbfa198352b6692c3	-0.03436437754434032
171	0xbfb68b51aba5816b	-0.08806333962048078
172	0xbfdf63727091bb07	-0.4904447650250607
173	0xbfc2cc469d51d45d	-0.14685900384543774
174	0xbfb9a5d869895e71	-0.10018684937073787
175	0xbfc07b967ef07c2e	-0.12877160261356962
176	0x3f933294593a0896	0.01874763292881506
177	0x3faca5872fc30590	0.05595037897138433
178	0x3fa7468700c090f3	0.04545995601827881
179	0x3fc213a5084a6465	0.14122450737775974
180	0x3fd445839f53bf40	0.31674280700007174
181	0xbfa9cc3c03dcf177	-0.05038631007343757
182	0xbf91f2923690baed	-0.017526897983937074
183	0xbfe38910b95b02ac	-0.6104816074585719
184	0x3fb9e6675a56b7bb	0.10117193179641408
185	0xbfc4b90e820d384d	-0.16189748144319296
186	0x3fc8c9135d05346d	0.19363634149559364
187	0xbfd4cd4e667d3550	-0.3250308991308275
188	0x3fb89446ca471971	0.0960125202028388
189	0x3fad54fd0f1fba7d	0.05728903588884735
190	0x3fd3762ce2405630	0.3040878495679378
191	0xbfafe834a985c74f	-0.06231846398703899
192	0xbfddf1a91678df61	-0.46787478632494667
193	0xbfb2051f0a8da662	-0.07039064414643684
194	0x3fcfd25be5965590	0.24860714636149028
195	0xbfde47b20cd7d1af	-0.4731259465618462
196	0x3fcd0742a1bc0e50	0.2267840661735243
197	0x3fa70a7bd41dff6f	0.04500185932465583
198	0x3fbf87ced0d76163	0.12316601370492246
199	0x3fdaa5403a255c33	0.4163361137229373

model.6.bias f8 [10]
0	0x3fd86261a1e373ce	0.38100472268507424
1	0xbf9f09b9da4b5bde	-0.030310539196616186
2	0x3fd99b91691f8332	0.4001201178162318
3	0x3fd0fa85d723a339	0.26529069909752284
4	0x3fd8e12b256c42fd	0.3887431970079403
5	0x3fd601828dfb0f3c	0.3438421618013654
6	0x3fd3cf4df7d16b71	0.30952786637288116
7	0x3fde7995747fbcb2	0.4761708867726596
8	0x3fd0bbf15195083a	0.26147110907561777
9	0x3fdb259fc2996b67	0.42417139057004366

model.8.weight f8 [10]
0	0x3ff22e1f0a7af0d7	1.1362600716957354
1	0x3ff7706b32680cb8	1.4649459809304926
2	0x3ff4d5a8c2bc0c6a	1.3021628958529399
3	0x3ff465ec0b7e57c8	1.2748833130803963
4	0x3ff424d0b77a6206	1.2589881102668428
5	0x3ff251711a8518ec	1.144883254617123
6	0x3ff172f9491b1cb3	1.09056976849551
7	0x3ff3ccbd56d9c48e	1.237485255489705
8	0x3ff2d645aa002333	1.1773125305791836
9	0x3ff2e9d7259c3c64	1.1820899457123

model.8.bias f8 [10]
0	0xbfdf9370b5de963b	-0.4933740402287616
1	0x3fe3bd299f555ede	0.6168411361677177
2	0xbfe3de5dc1d8927a	-0.6208943162969967
3	0x3fe4ef3d58ac9219	0.6542040569225406
4	0xbfe1b29b8eded918	-0.5530526915015654
5	0xbfdfa8abde92b463	-0.4946698831143463
6	0xbfe0b87b2f6e2965	-0.5225196768163128
7	0xbfe3358f83f309aa	-0.60028816005097
8	0xbfe0cb4e02d68f47	-0.5248174720222573
9	0xbfdf77fd306fd6a7	-0.4916985486046123

model.8.running_mean f8 [10]
0	0x3ff7aec305fd94aa	1.4801664575582358
1	0x3fd190ac89633c1e	0.2744551984478124
2	0x3ffab76099f509f9	1.6697698606445768
3	0x3fdd6dd48ba27ddb	0.4598285068149985
4	0x3ff7c0d74a88171f	1.4845803176298842
5	0x3ff09ab859dabcbe	1.0377734670581016
6	0x3ff2f890b0eb991a	1.185684863181058
7	0x3ff8a2d35359bfc2	1.5397523170358771
8	0x3ff3d00c850b0b03	1.2382931897161036
9	0x3ffc95fc669c3256	1.7866176613053049

model.8.running_var f8 [10]
0	0x3feff9558e464620	0.9991863039778686
1	0x3fc96b598a9bbac2	0.19858855503067302
2	0x3ff456d766c6d6db	1.2712015166011301
3	0x3fd4fe25353764f3	0.3280118007365466
4	0x3ff3c1329ffc571f	1.2346674203340127
5	0x3ff07db108a7b12c	1.0306864107215672
6	0x3fe46f09a2736c2c	0.6385543988102476
7	0x3ffd66954847c7c2	1.837544710488587
8	0x3ff23913ed3f5b5b	1.138935019252776
9	0x4006a89ca233e905	2.832330004891562

model.10.weight f8 [1, 10]
0	0xbfe2158a6f99b2a4	-0.5651294879622424
1	0x3fe40bf5778d6ba0	0.6264598212250014
2	0xbfe0ce1fb1ca7f1c	-0.5251615974884518
3	0x3fe8964b08dacbb0	0.7683463261549743
4	0xbfe14cbd7d20a3f4	-0.5406176990410345
5	0xbfe3019356ce2954	-0.5939423270622606
6	0xbfe1ebb3cb06d442	-0.5600222554554721
7	0xbfe2219b50a61f47	-0.5666023802923313
8	0xbfe221e1c9455062	-0.5666359835690964
9	0xbfdac9a21101b4db	-0.4185567060547563

model.10.bias f8 [1]
0	0x3fce323d9d2ad5b4	0.2359082238596507
