dnn/ionosphere/fold_4_model.pt.pt (torch, 53050 bytes, 48 tensors)

model.0.weight f8 [20, 33]
00000000: 2c02 40e4 091e a53f 8fd3 27c9 6dbe a1bf
00000010: 97f3 c7c0 39ac d2bf bd46 c5f0 c934 cebf
00000020: 31fe 8624 606f b2bf dcac 83c2 c9c5 a6bf
00000030: 8df3 ba83 3f9b bf3f 66b0 6425 fb2a d63f
00000040: e0ef 8d18 23f1 b7bf fbac 4ff6 5d7a b1bf
00000050: 666c ca59 977e bcbf ddce a7df f02e c0bf
00000060: 9e20 bc05 107e be3f ebeb 725a 23a7 c03f
00000070: 9c32 d9b5 52d0 8f3f d505 240e efc8 a43f
00000080: f92a e543 803e b6bf b0ab 1889 f686 b43f
00000090: c32e 2fc7 7a47 b33f c5ef 8303 893c b1bf
000000a0: ff22 c878 bfc5 c4bf b520 8550 7f0f 4bbf
000000b0: a6be efbd fb14 b0bf 1af7 4283 34e5 b3bf
000000c0: b402 e58e c002 c4bf c839 76dd cf02 cabf
000000d0: aa05 025e 6bea b93f 5d86 d321 de28 c8bf
000000e0: 989d dc05 077c c2bf 21a9 6f15 57f6 c8bf
000000f0: 53ac 8d87 c03a babf f8e9 544e 30d2 cdbf
00000100: 6483 e37d ad9f c0bf b764 218f 893e ccbf
00000110: ec4f d03e 1969 b13f d035 71ed 48db bd3f
00000120: d600 ee4b 9a40 c03f 9743 adc0 c9a0 d3bf
00000130: 3d68 5ca7 518f b9bf 79cb 57c3 ed92 b1bf
00000140: 468d 4ccc c13e b33f bef8 0ffd d2ab c4bf
00000150: 027b 6f89 8b6c a83f 1f38 ada7 f144 c0bf
00000160: a049 0862 b59b c73f bb91 3841 0f5e c13f
00000170: 8353 9583 523c a43f 2da0 64dc 4a97 cfbf
00000180: 8508 07d8 9ce7 be3f 07e2 d6f4 3eb1 b9bf
00000190: 1afc e4d2 7c03 bf3f 5194 08a9 8c57 b1bf
000001a0: 276a 3ff1 c3e2 c3bf f51f e2c4 b9f0 cb3f
000001b0: 7370 660c 5a05 b53f 8663 a46a 81af d33f
000001c0: a7ea c29c 47f7 813f e5fa 7ce7 bdbc a3bf
000001d0: c6a6 d1e9 1827 d03f 2894 7dd9 26f0 b9bf
000001e0: d359 6841 7075 bfbf 1f04 20db bfcb a83f
000001f0: b075 3b5b ab8b 9bbf 477f e511 3abe 51bf
00000200: 82a2 06f7 5806 a63f e085 4088 08f8 b13f
00000210: 80e4 53b0 695f bdbf 75bc b62a 7c42 a7bf
00000220: 87d2 3de7 0318 ad3f 7fef 4f2e 3fe0 d6bf
00000230: c0a5 1abb 5b7c 70bf 3fa1 9d97 4bc2 943f
00000240: 3253 ac7a a8c3 c3bf a5ad f644 041c c7bf
00000250: e053 621c 3fe4 c33f e646 6233 b5bb c6bf
00000260: fed0 e206 d391 af3f dc2e 7d18 cd06 b0bf
00000270: d179 4f70 a097 a2bf 5b08 074c bc99 b9bf
00000280: cc00 3286 efd9 9ebf 48af c53d 7507 9fbf
00000290: b438 fff2 558c b13f 34e7 f408 bf90 c3bf
000002a0: 1481 dfe0 3dc1 bb3f bb6c f627 3391 b83f
000002b0: 1b15 7ed3 ab7c b0bf c1fd d5d5 072b 8abf
000002c0: e8e6 02dc 709e c7bf 3bab 4ef7 bfbe c5bf
000002d0: 7e46 4b3f be95 c73f 6f92 7361 9dd3 d53f
000002e0: 97b4 b948 2e81 d0bf c18c 9bff 41d5 833f
000002f0: 69f7 eeaf a6fb c63f cf81 c0a3 1058 a83f
00000300: bd82 84d7 1198 b9bf b808 2e2a b964 c23f
00000310: 428d d26b 79d9 c3bf 0421 5f9e c89b a03f
00000320: 9eca 6bad f2e5 c1bf fa5a 367a 7ace bfbf
00000330: efb2 3a0f 9972 d43f a64a 55dd fde8 ca3f
00000340: 8922 0a1e b9c9 c43f 2b68 c8cd febd 8abf
00000350: 0c16 8f6b 620f b5bf f47b 6060 7f5c af3f
00000360: 16a2 ae03 ccb5 a93f 1fd2 daf2 c01f d13f
00000370: 159a 4fee db25 9fbf e298 4087 5016 bcbf
00000380: 4e35 7100 7db1 cabf 937e 0b40 f04e b0bf
00000390: 0097 bd51 e3f4 cfbf d24d 2373 a7d2 ab3f
000003a0: b27d 28bb bfce a43f 7aac ae5b b7ed ccbf
000003b0: 00b3 112e 8ae9 c83f 5f9a 9a4b c30c c13f
000003c0: c9df 930f bd3c b53f f6c0 eaa1 9110 c3bf
000003d0: fa4d 9552 80ab d1bf 2838 405f 8980 cbbf
000003e0: 20b2 0841 1a9c cc3f 73e5 9b65 3ea8 b43f
000003f0: b9ce 459e 98f1 cfbf a2a1 3a62 bd6f 953f
00000400: 2f26 ade3 748d c0bf bcef af53 1ac0 c8bf
00000410: 934a cd2a 76c9 c63f 7b49 6206 498b c93f
00000420: 601b 7030 ed9b d1bf b198 e96e 146b b03f
00000430: 05c1 67bd 2d07 a73f 1e3e c913 1c4a d83f
00000440: 4b1a 1171 1402 b8bf 1f75 9b6f d320 d23f
00000450: de01 1308 a868 59bf d9e5 d170 ffdc c6bf
00000460: 40bb ab53 20a5 aabf a374 f0d0 792f c43f
00000470: f12c 82cf c86e b1bf b4d6 f152 4778 b93f
00000480: 73e5 c608 7693 bfbf cddb 0a32 4a3d ab3f
00000490: 309a dce3 4214 c73f 5c86 ac46 279c 97bf
000004a0: 9bbd 537d 81d6 c9bf eb7d 507a 6b4c a6bf
000004b0: 9eb0 821c 0425 cfbf 182c cdf2 169e b43f
000004c0: e5c4 fd59 a369 d43f c4ab 1365 988a b63f
000004d0: d911 224f 049a b43f abb7 d8b7 7d90 b33f
000004e0: 6ecc c416 9097 c0bf 482c d404 ac49 d23f
000004f0: b4c7 b78c 53d1 a63f c0a7 9276 f19e c3bf
00000500: 5e6c 97d2 34e9 b53f ac7a de36 6af8 89bf
00000510: 0121 b2e9 79cd a7bf 4625 f351 9768 a93f
00000520: a623 b9fc 8793 d03f 1704 5da2 6498 993f
00000530: 03c0 3d85 0a79 d43f c63c 5aea 1b10 cc3f
00000540: c123 7bbd 5d23 ca3f 633a 5f0d 7c34 a73f
00000550: 657c 17f1 0531 cc3f 2fb6 cdaf 810b d13f
00000560: a3e0 3341 d656 c03f 3869 ee29 b7cf c63f
00000570: 846c c98c 90b6 c0bf 4fe1 b6ff 8c0a 843f
00000580: eae9 3857 ea41 cbbf 4b09 d830 259e b13f
00000590: fd71 fee2 7e50 c3bf 88ac 28d1 608e 90bf
000005a0: 08d7 2543 d5a2 b8bf aefa 3249 9cd4 b2bf
000005b0: d9b4 935c f548 aabf 5a67 7c30 6d2c 393f
000005c0: dc10 c57f e584 cdbf 4418 b7d6 ded4 ac3f
000005d0: 2b36 3bf5 ac62 79bf 83b9 f9f9 83b2 c3bf
000005e0: 0da8 b841 1ba3 c23f 2f47 c7cc a2b5 cebf
000005f0: e538 7d89 2968 b9bf 96a6 0d01 4ece a33f
00000600: bee5 1f70 80ab b5bf c435 c049 24fa a93f
00000610: d22e 51ba 5270 7f3f 0a33 6179 90ab acbf
00000620: 8dc9 73fe 56c8 bcbf 3de9 6242 541c 99bf
00000630: f125 389a 76d7 c43f 2845 dfdf aa8d 9cbf
00000640: 2f8e eadf 370c d33f 432a d9ca ee4b b0bf
00000650: 025d 2c5f 050c aa3f d068 ed94 3f70 b2bf
00000660: de32 70bb c96b d43f 694d 5b89 763a c33f
00000670: 8769 cd5f 3645 c73f eef6 3510 eec5 b0bf
00000680: faaf 5b88 4112 c73f 9525 5862 909f c3bf
00000690: 15e9 cf2e 1a11 cf3f e7d6 f363 8125 c2bf
000006a0: f595 b4e4 003b 76bf 36d7 79a4 2a9e c7bf
000006b0: 1b70 8f98 b448 bb3f 3a0e 2f23 0f18 c43f
000006c0: 651c f9f2 2acb 703f 3bd9 1c98 94a5 c33f
000006d0: 8193 d5f8 1c8d 9cbf 671b 3b2c 976f c0bf
000006e0: 02cb d222 e76b bb3f f3fd e15c 219c b73f
000006f0: 6312 a626 0f3b c93f c10f ea33 7192 bfbf
00000700: 61c4 793f 76d9 cebf 6c3d 95d0 bd9d cb3f
00000710: f766 6944 f719 8a3f a3ab fe25 7da2 babf
00000720: c18f 8e54 d704 b53f 91aa 6e3d de65 bf3f
00000730: 5abb f071 1071 a7bf bec5 3d84 4d66 b3bf
00000740: 9249 4f47 e93a c2bf 38b6 27a9 1a4b a4bf
00000750: 2839 6c6c 0be0 bcbf 0452 117b 5578 aabf
00000760: 5a7a 62ca bf45 c7bf 097e 9136 24c4 abbf
00000770: b712 36b7 83ab cf3f 87f6 c212 dd0b 91bf
00000780: ddf5 54d3 9c0a c1bf 5555 211f 288c 70bf
00000790: 1590 4aca de96 bb3f 32a7 52fd 2763 cabf
000007a0: d632 03dd e8b6 bd3f 5df7 bbef 8d26 d2bf
000007b0: bc26 686e aaa6 d13f 0ff3 1afe d51b cabf
000007c0: e53e 1f7b a5a9 c53f 6a06 e43c 4b9e ba3f
000007d0: df2d 48df 06b3 bcbf 9458 a51d aae6 c83f
000007e0: bad2 809a a81a c4bf d062 00cd b022 bfbf
000007f0: ab09 374b 1021 9fbf 5e13 bb7e 74b2 b0bf
0.041244801628640054 -0.034655981831668396 -0.2917618162753625 -0.2359859872472522 -0.07201195613651447 -0.044477753633907574 0.12346264806815395 0.3463733544510944
-0.09352321004365605 -0.06827342284639208 -0.11130662862926641 -0.12643252297095034 0.11911106243144551 0.13010064999056623 0.01553406350571978 0.04059550330749643
-0.08689119012448633 0.08018437239722576 0.07530944216631057 -0.0673299439985718 -0.16228478810833022 -0.0008258220341668317 -0.06282018077012683 -0.07771614269855967
-0.15633398988031433 -0.20321081460538282 0.10123320622553558 -0.18874718333886423 -0.14441001688213073 -0.1950177054089375 -0.10245898541840974 -0.2329769499281864
-0.12987297675047238 -0.22065848816672481 0.06800992759264063 0.11662727162293796 0.1269715185881128 -0.3066887265786646 -0.09984312377892564 -0.0686482049857612
0.07517634618539146 -0.1614936576515386 0.04770313313178144 -0.12710400283180065 0.1844393471406649 0.13568297085397582 0.03952272278062365 -0.24680457841282202
0.12072162889583822 -0.1003608081581505 0.12114696644583525 -0.06774214865488772 -0.15535783080743323 0.21828386414949788 0.08211291125047797 0.30758700765868985
0.008772429915884073 -0.038549360759579966 0.2523863109005159 -0.10132067498996433 -0.12288571926942575 0.048429484842934516 -0.02689998382890274 -0.0010829512680956153
0.043017177729159264 0.07019093824830902 -0.11473713450313205 -0.045429115499580876 0.056823846795770065 -0.3574369385021256 -0.0040248473393744155 0.02027242768181847
-0.1544085120191539 -0.18054250113833095 0.15540303121511467 -0.17760338791827407 0.06165942629869113 -0.06260377738834272 -0.036313070020458256 -0.10000206810130534
-0.03012823349536191 -0.030301887412334666 0.06854760344069427 -0.1528548043950707 0.10841738452973387 0.09596557355546313 -0.06440233147994372 -0.012777386868718989
-0.18452273123494156 -0.16988372397949 0.18425729837922583 0.3410409404444072 -0.25788457014170646 0.009684100735688596 0.17955478277684314 0.04754688261914774
-0.09997664939556734 0.14369883117257642 -0.15507428898590986 0.032438535053701784 -0.13982995479417054 -0.12424436076831205 0.31949450003848673 0.21023534114154535
0.1624061009099658 -0.013057699828142052 -0.08226599813414043 0.06125257541156506 0.05021512551258327 0.26756309238706594 -0.030417858524652248 -0.10971549322184473
-0.2085415126952434 -0.06370450557323641 -0.24966088763465422 0.05434153824321765 0.040639869305091905 -0.2260045240085196 0.19462706803769692 0.1332019919547802
0.08295804624856297 -0.1489431419954667 -0.2760926062084931 -0.2148601260273051 0.22351387191282956 0.08069219570815793 -0.24956042984159924 0.020934065933632014
-0.1293169128132816 -0.19336251341144173 0.17802311983048877 0.199563148610263 -0.2751419995333233 0.06413390834640854 0.04497664391590387 0.37952329570996024
-0.09378173599643806 0.2832535352625473 -0.0015508309300430382 -0.17861931809220158 -0.05204106351253879 0.15769884779084462 -0.06809668604016729 0.09949155592934283
-0.12334382738381126 0.05320197926396695 0.1803058254819958 -0.02305661553248793 -0.2018586980770863 -0.04355178707214321 -0.2433171405040228 0.08053725650567889
0.3189476374455594 0.0880522963304165 0.08047511035881118 0.07642350901070809 -0.12962533103709312 0.28574657889902655 0.044565783431507994 -0.15328806199732803
0.08558969632524469 -0.012680845069380574 -0.0464895341656888 0.04962609172214143 0.2590045898437502 0.024995396051284837 0.3198877621825888 0.21924160902969997
0.20420428993227627 0.04532230056030497 0.22024606964166363 0.2663273064452793 0.12765005286906214 0.17821397349764267 -0.13057143091541346 0.009785749009879522
-0.21294907816793734 0.06881935541608646 -0.15089403232276757 -0.016168129697842676 -0.09623463525153053 -0.07355667864883728 -0.051337878752613704 0.00038411775357049193
-0.23061817873725132 0.05631157275233581 -0.006197620026524168 -0.1538853617270882 0.14560261448906467 -0.23991808890291952 -0.09924563986462294 0.038683354977206694
-0.08464815843026138 0.05073655510214395 0.0076754790835129195 -0.055996432129722676 -0.11243194305624211 -0.02452212958517318 0.16282541780701323 -0.027884168542930216
0.2976207434350923 -0.06365864231444456 0.05087296282561661 -0.07202527414247872 0.31907885841864736 0.15022165018909142 0.18179969480372568 -0.06552017112513983
0.1802446285067843 -0.15330700685471457 0.2427094200682595 -0.1417695749329859 -0.005427363862769753 -0.18451436072398913 0.10657814716927343 0.1569842263980819
0.0041000058841468056 0.1534906141984694 -0.027882054031028062 -0.1284054723712089 0.10711521721058762 0.09222610967298532 0.19711484324593007 -0.12332828061522517
-0.24101141070744617 0.2157513874503637 0.012744838500271067 -0.10404188325507717 0.08210511984230974 0.12264813422977229 -0.04578448668359299 -0.07577976683184937
-0.14242282850188964 -0.03963549914247405 -0.11279364964523053 -0.05169932486811393 -0.18181607610763956 -0.054230815564320585 0.24742170759068013 -0.016646818418613065
-0.13313637083949362 -0.004039913868912966 0.10777084769011964 -0.2061510073593183 0.11607222934544423 -0.28360317622706593 0.2757974699203307 -0.20397448451503705
0.16923969756907478 0.10397787319745935 -0.11210673285693627 0.1945393223529136 -0.15706355613806072 -0.12162308697623847 -0.030399565306433434 -0.06522300809872436

model.0.bias f8 [20]
00000000: 7df4 94bd 0855 ccbf 00e1 1c7b 9607 babf
00000010: 70ee 2da5 8ac5 91bf c5b5 e819 050f b7bf
00000020: 7f8e 022e 3c6b c23f a0d7 ba19 13fa d7bf
00000030: 2849 27ac 9295 b2bf 9b71 b478 6fe9 c2bf
00000040: 2890 f212 ac55 c3bf df4c 25f3 1a72 bc3f
00000050: 5d91 3da5 ad43 b23f 05b5 04ba c614 c1bf
00000060: 37bd bddb 3899 c1bf fbd6 0db4 bf75 c0bf
00000070: 0a0a 26ce 2d0a 54bf 3a90 9368 57ae d13f
00000080: fba1 9fee ef43 ad3f 53f3 faf6 ed7d b5bf
00000090: 6c04 b342 fe85 c5bf 4903 6084 704c b43f
-0.22134503609587233 -0.10167828088458819 -0.017355123836280517 -0.09007293589157601 0.14389755484181774 -0.37463834297829557 -0.07259480193105061 -0.14774888414184492
-0.15105200696155063 0.11111610828565997 0.07134518894378546 -0.13344654162339267 -0.1374884674982952 -0.1285934094591353 -0.0012231299702710773 0.27626595699826206
0.05715894496808357 -0.08395278243820074 -0.16815164810944638 0.07929137450993297

model.2.weight f8 [20]
00000000: c417 7f7c 7d04 ee3f 623f 2b0c a532 ed3f
00000010: 50b4 95e0 3b30 f13f c8a8 63a4 e4bb f33f
00000020: 96d7 043c aac6 ed3f c169 c2b5 8295 f33f
00000030: 3d8d 6652 a160 f03f cebc 6fb4 8921 ed3f
00000040: 3fe8 229d ba3d f23f a5d3 97ad a924 f63f
00000050: b411 95e8 8e9c ee3f 73eb e175 23ec ea3f
00000060: 0284 ad3c 8fa5 ee3f 0b86 45cb 21dc ee3f
00000070: e40f abaf 1bb4 ef3f 48a6 5089 c173 ef3f
00000080: 35a2 cf86 ec42 ef3f 7eed ce89 b37a ee3f
00000090: 23f2 77b6 7268 f03f f6b0 cd67 7b75 eb3f
0.938048117787496 0.9124322164225129 1.0742758534281798 1.2333723470169833 0.9305010959858346 1.2240016078927598 1.0235913485310697 0.9103439830922981
1.1400705469263952 1.383950880144064 0.9566111128447603 0.8413255026238019 0.9577099022973246 0.9643715829990368 0.990735858060813 0.9828803712782213
0.9769194252995194 0.952478188664301 1.0255000236203464 0.8580910708820102

model.2.bias f8 [20]
00000000: 1357 c2e8 32d4 c03f 12b2 8225 7f8e ac3f
00000010: 66bd 5c90 660f b83f 2459 6f00 6f3b d03f
00000020: 9af8 a9b6 be1a babf 83aa b533 09a9 c83f
00000030: 5f9a 62c8 b096 97bf 0cf8 9f2f a4a1 c23f
00000040: d619 9c42 d634 9abf de42 6efd fffe 9cbf
00000050: 298a c15d 1b21 b5bf 1291 df92 4ea9 b4bf
00000060: 0e92 14f9 7891 c53f 6e76 3a53 8b2b b33f
00000070: 3a1b e5bf 8a41 adbf 54b3 51ed ba98 c7bf
00000080: 2895 18bd 48cd b3bf 07bc 6951 7c16 db3f
00000090: 908a bde8 bd60 c03f 64fc 0141 f48c bf3f
0.13147579541389884 0.05577466328518112 0.09398499512166367 0.2536275390861127 -0.10197059592789728 0.19265856766590525 -0.02303577635816578 0.14555790257867363
-0.025592181983506844 -0.028316497653181887 -0.08253642119374462 -0.08070841871046167 0.1685019699299492 0.07488318235342614 -0.05714067070453273 -0.18434845531319388
-0.07735113731958576 0.42324741316309694 0.1279523264339173 0.1232445391378732

model.2.running_mean f8 [20]
00000000: 13b2 60eb f60e ce3f c453 8157 70fa d53f
00000010: 9cfa 3e07 e258 d73f b416 f963 d473 d13f
00000020: 0bc4 3c43 8c76 e03f 8606 0331 246f d73f
00000030: 038d ba5d c77b d93f a218 b240 1ab2 c83f
00000040: 306d 6627 e9c6 e53f 40ce 2ca5 9bf6 d73f
00000050: 2dbb 7f31 e0af da3f 427b 3d93 c00b d63f
00000060: 706a 6179 8f11 d63f bd5e 0f90 7bdb cc3f
00000070: 653a afc7 40fa e43f e997 bc65 1d03 e53f
00000080: 19b5 78bd 559f da3f 463c 6108 b010 d63f
00000090: 69ad 000f 7cfc c93f 419c 843b 50b1 d93f
0.23483168118527029 0.343410573438913 0.36479998309725103 0.27269468081463377 0.5144711793165028 0.36615853105841045 0.3981798568076586 0.19293525847405585
0.6805310983212731 0.3744267571484876 0.41698460420495814 0.3444673002140243 0.34482180455748956 0.22544807943517312 0.655548467644462 0.6566302287144455
0.41597503188207124 0.34476853197424295 0.20301771862555576 0.40144735157304373

model.2.running_var f8 [20]
00000000: e04c 2bdf 992e cb3f 4f7f 7c76 ebd8 ce3f
00000010: 5d5b 2095 274b da3f 88cb 19da 7502 d13f
00000020: c5d8 c0c6 f183 d63f e088 74b8 e930 e13f
00000030: 595b 9208 9814 da3f 0e70 7639 8174 be3f
00000040: 2e56 541b 9112 f13f a223 aa19 a1d0 da3f
00000050: 4df0 4f4e bebd ce3f f833 cc4f 496a dd3f
00000060: d915 1b0e ae03 d63f 7f2e c3e9 995a d23f
00000070: a6e9 0868 d97b f03f 7398 69f7 a14c e33f
00000080: de1e f6ff 1fef ce3f 60b0 9a09 1669 d83f
00000090: 486c e130 0d9f c43f 4740 aa69 88b2 d63f
0.2123596515362811 0.2409948662325356 0.41083707392811225 0.26577516840841797 0.35180324944975566 0.5372208216324701 0.40750695073204707 0.11896522190949119
1.0670329158359766 0.4189837217932625 0.24016550849762766 0.459612205436144 0.3439746034385656 0.28677985981332904 1.030236631761548 0.603104575374131
0.24167251585117006 0.3814139455596486 0.16110386740442295 0.354646781147498

model.3.weight f8 [20, 20]
00000000: ae23 d8cd e74a b9bf 6763 c677 b2f5 b1bf
00000010: 6b44 8f7e e8e3 cc3f 8db8 3540 de55 c6bf
00000020: 7e5d 53dc 5f32 a5bf 882d 46bd dbe0 d1bf
00000030: 6833 dc01 fdb5 c03f 00e1 a50e fbed bdbf
00000040: c3ec 966b 4a33 ca3f 05df 5703 bc16 d1bf
00000050: d8c0 c798 216c d03f fcf2 b726 84a0 9ebf
00000060: 535f ebb2 981f abbf 43aa b848 307c a83f
00000070: 77b7 9f3e 57da c6bf 42cd ac22 c39f c6bf
00000080: 8707 98d0 eb70 bcbf 0768 395c e9ae 9ebf
00000090: 05b1 7f4a 6c67 d5bf 3d6b a536 bfe0 a3bf
000000a0: 865e 4b82 0a05 b93f b385 c9a6 11e0 b93f
000000b0: ee16 1735 6ef9 a73f 1954 7d41 4bcc b6bf
000000c0: 0578 8545 8ac4 c83f 4134 63c8 f279 74bf
000000d0: a751 1e72 d9e4 c0bf 3529 8a69 433c af3f
000000e0: 4842 bb27 01ad aabf 18a9 0ffc aaff ca3f
000000f0: 3203 7a29 2a68 d23f dae1 cb75 9ce2 cc3f
00000100: f470 10a3 ffdf b33f ef37 d2fb c1ce a1bf
00000110: f668 92e0 f6f5 a83f 6470 bb0f 5cf8 b3bf
00000120: 8909 8306 97a7 cbbf b4ae d90f 23e8 c9bf
00000130: d6c1 057f 147e b03f 275b 060d a65e ce3f
00000140: db32 92f6 fd58 b43f 85d9 9878 7e60 c2bf
00000150: 6cd7 58af aac0 cabf d684 1128 28a8 d13f
00000160: 504e f13b 813f 96bf 3867 0003 2669 dabf
00000170: b349 0af1 6413 c5bf b556 f958 3ac3 b53f
00000180: 3008 db97 1779 d53f 52c1 f0b6 c278 c8bf
00000190: 9bdb 2e0e cda5 bcbf 77b9 c148 fb24 ccbf
000001a0: f494 effd 635b c1bf 73de b7c5 a008 b8bf
000001b0: e87c 0326 3cd6 b23f 0279 bb0f 745d 4dbf
000001c0: e5fa ef5e 96b3 c53f 3358 d295 3d7d a93f
000001d0: 99b2 1e27 24ed b5bf 7c84 030d 03f3 c93f
000001e0: a203 b710 e4cf c33f 0ebf 0a7c 0bbf bbbf
000001f0: 4d2b 1925 78c4 d4bf ed86 d6f9 254a d3bf
00000200: d498 f475 e8a8 85bf 452e 804b b50e c1bf
00000210: 58cb fa23 b5ec c6bf 4e3e 7232 564a c1bf
00000220: 87bc 5f61 5ab8 d4bf e556 2fa3 4d11 c2bf
00000230: ba98 01ad e4b7 a7bf 1005 55c9 ce27 bd3f
00000240: 4cdd b30e c4fa d0bf 3ec8 3612 fa7c 9abf
00000250: 949a 7955 7a02 bdbf cbdf bdfd 9ecc 913f
00000260: 4ec7 0967 0368 c83f 248e 3c7f 573a d0bf
00000270: b9c4 ba6f 7805 b3bf 9d08 7b23 748b d6bf
00000280: b405 de39 0707 c4bf 2a2e 174b 0dd1 a53f
00000290: 45fe 92ec 1ab9 c73f 17ff d8d7 181a 853f
000002a0: 19b2 c90d 01c6 c63f 3782 b28c 861f dcbf
000002b0: 1ae5 961c ee67 96bf ff44 f121 9218 b7bf
000002c0: 1863 40d1 da16 a3bf 306d 56af cda6 d63f
000002d0: 5cb2 40ff 8567 953f dddb b7d4 033a abbf
000002e0: ee84 c98c a005 cfbf 5b66 7c86 a326 c73f
000002f0: 1c4d ed27 6635 b0bf 686f 47a5 d4aa ccbf
00000300: 9c36 524b d3c4 b03f b58d 935c ef30 c1bf
00000310: d70e 8ccd 8dd2 acbf 99c9 4c42 3a15 c5bf
00000320: 9197 adb6 da0d d7bf 4522 e315 9376 b2bf
00000330: a031 5cb4 89a1 d33f 7dad ae3a 871e da3f
00000340: d4dc fd14 2332 9cbf 6edc eac1 b234 99bf
00000350: 5aae 9a31 9a0f a93f 2faa 05cb 6f3c 94bf
00000360: bb58 960e 3a84 c3bf 96f3 fdc9 ca4b d0bf
00000370: d412 ab53 a066 a6bf b762 e970 7562 a5bf
00000380: b7a3 5b99 3936 ccbf b3a1 bdbc 771c c5bf
00000390: e301 0a5d 0858 c5bf 53f5 4e3e de50 d9bf
000003a0: 5de4 1966 e391 c23f 5dbf 1e6d a972 703f
000003b0: e7e3 253d b0d8 ad3f 3db9 02b7 b579 af3f
000003c0: d5a9 f3d7 46f0 8dbf ef6d 3eef ae0e c03f
000003d0: 8b57 1093 e77b b83f 5042 5e15 ff5b ae3f
000003e0: 379c d4cc 891e b33f 2cad 2590 c364 9ebf
000003f0: 3afb 5c58 d67e 753f 9766 ece0 603b b23f
00000400: 8878 2873 786a b0bf 49e8 197e c0c9 dd3f
00000410: 8281 43e5 aec8 c23f 69d2 916c f547 c0bf
00000420: f688 d7af fb7f b33f 9d91 a492 01ad d33f
00000430: a24b c15d dc31 90bf a619 3523 fdc0 bc3f
00000440: ccae cbd7 733c d23f bbd0 5fbf 210a 9abf
00000450: bc3f 54a1 3b28 bdbf 73e1 b682 d6b7 babf
00000460: 3e80 8b73 4b74 c4bf 6c88 850e 318d be3f
00000470: b8f0 71de f978 c1bf d51f 79fa 0cbf a3bf
00000480: 611a 2ffd 0932 be3f d7df 1fc3 3c28 c73f
00000490: 08a2 cdd3 517b c9bf 9d6a 7d17 a6b4 b73f
000004a0: e04a c643 92c4 b9bf 5183 a5ef 3c0a c5bf
000004b0: 50b9 f954 3dc1 c43f 2adf 945c 3258 bc3f
000004c0: 40da d736 6ea1 a23f c515 785a 0ac0 9e3f
000004d0: 5e1a c791 b515 a03f 6899 c94e d493 cf3f
000004e0: 291b 6321 707c cb3f 52f4 a3f2 adbc bdbf
000004f0: 7655 221e a25a d3bf fa33 89e2 54d2 9c3f
00000500: 46a8 811a f960 c33f b75b ca1e cd9e 7e3f
00000510: 7fea 59ee 305e bd3f bdca b167 8004 a7bf
00000520: b412 e9ff 16fd c53f 6ec8 658d 1ad9 d4bf
00000530: b7ff 7ecd dc19 963f 0fdd f1df 85e8 b73f
00000540: 388f 022d 0c51 b3bf ceec 7173 3a74 cdbf
00000550: 97d8 2808 e89c babf 5065 596b 25c5 c53f
00000560: ce32 3f56 6e08 c53f f52e 2207 df8e 7b3f
00000570: 9d18 a9fc 2c2f d4bf 5a13 04f5 a903 a8bf
00000580: 7824 c3a4 c6f2 c13f b4c4 c0ba 6966 d13f
00000590: a405 0b6e 41e4 c23f 348a ac54 541b c1bf
000005a0: 976f ff95 9952 c4bf 5764 fecd 48ca ccbf
000005b0: abc0 179e 1254 cc3f 16ba 95a9 9e64 a43f
000005c0: fd08 35b1 4b86 b5bf 7b07 bd2c 3396 83bf
000005d0: c53d ebcc 5222 d83f dc20 1c90 f1d6 a0bf
000005e0: 66fe 148c a3ac c73f 54c4 3707 ebcc 6c3f
000005f0: 0b05 30bd 762a b1bf 94bd fe69 fbfe aa3f
00000600: 4722 9f09 6c64 c63f df4a 44d4 a39c cfbf
00000610: 5df9 ca52 2825 d33f 0039 1bde b142 cd3f
00000620: d5a0 129e 4561 bebf 38ba 94e0 3f7b b5bf
00000630: 3b12 0dbd 9edf 9b3f 8ad2 86ea 420e c13f
00000640: 65e6 08f9 b7ad b2bf 4ece 0d07 612c bfbf
00000650: aa28 17b3 c251 b8bf aa43 077d 0cd9 cdbf
00000660: 8f2e d3d1 846d cabf ded2 f2a2 673b 9c3f
00000670: 5ac7 cab7 0bcf c33f 7b45 08ba 683e d43f
00000680: 4b98 ad11 c6aa ba3f 5a4b eabd 3761 a1bf
00000690: 782d 6766 a688 cfbf 920f 238f 1527 b3bf
000006a0: 8ef7 9846 0bed b2bf 5454 b4c2 a64e a9bf
000006b0: d84c 40d3 f0a3 cebf c4f8 24ab f2e3 b53f
000006c0: 6780 b7ab 82c5 a0bf f340 3a36 0c42 d03f
000006d0: 32e8 cc27 52ab 92bf 06fc 2e81 1197 98bf
000006e0: d2a9 2aff fb4d ba3f 0eca ce4b 770c 9c3f
000006f0: 7589 d6c1 50ec d03f 4289 c817 2192 c5bf
00000700: 9be1 d31f b7f4 c8bf 4e7c 0980 70aa c4bf
00000710: a3fd 2ef8 30ed c9bf 3e5c a400 4869 d5bf
00000720: 43e2 b4b8 8711 abbf 882c 6184 4451 bb3f
00000730: f494 40b1 e627 cf3f eceb b542 f8d7 c63f
00000740: 57fd 7a3b aed3 933f aea8 dd52 3004 a13f
00000750: ceef a30b 6c49 b2bf c58f d882 366c c9bf
00000760: 4fd8 81a0 0bd0 d3bf 5bfe ec25 8a7e bc3f
00000770: 7908 40a5 5059 b93f db0a f0fc 7c32 cd3f
00000780: ef77 c784 6207 bb3f fbb4 1cf2 9b5f b9bf
00000790: ddf8 ec9b df3f d7bf ddf7 9538 be5b d8bf
000007a0: 89db 1635 a8df 903f 0429 7d4c 4667 cabf
000007b0: 6f2e 80ac 9f1c aebf 7703 584a 120f aebf
000007c0: db99 7649 4a10 d6bf 58a2 8022 d4cc d3bf
000007d0: f362 f36f e900 b6bf 1467 3c96 8f3a bc3f
000007e0: c54c 1d19 7c70 d6bf be84 3be3 4712 abbf
000007f0: c89e a8ba a944 ae3f 0435 7ef4 d3b5 bf3f
-0.09879921699042768 -0.07015529083436221 0.2257052057234746 -0.1744954885029454 -0.04139995159647024 -0.2793492649440954 0.13055384245708557 -0.11691254718414612
0.2046902680720902 -0.26701259924401227 0.25659980697583995 -0.0299091957694939 -0.05297543701243392 0.04782248389922874 -0.17853823240096364 -0.1767505568801458
-0.11109804003356603 -0.029964109662934415 -0.3344374396827024 -0.038824057980227235 0.09773317032829185 0.10107527086213146 0.046824878674255874 -0.0890547785650856
0.1934979285678652 -0.004999111528559531 -0.13198392936886913 0.0610066477139121 -0.05210116968158168 0.21092736537622936 0.28760770845842665 0.22566562415865016
0.07763669711170335 -0.034780561437500405 0.048751559175075274 -0.07800841697775379 -0.21605193918192026 -0.20239675783101563 0.06442382908949837 0.23726344715097378
0.07948291082193341 -0.14356976402786983 -0.20900472223155064 0.2758884803098004 -0.021726626666646986 -0.4126677541076904 -0.16465436715641388 0.08501019165245334
0.3355158789601118 -0.19118532116545822 -0.11190492244973742 -0.2198785882241727 -0.13560151957714306 -0.09388165309052869 0.07358146598879822 -0.000896150274879465
0.1695430720864898 0.04978363469960847 -0.08564973788333886 0.2027286351722387 0.15478182617337405 -0.10838386324280355 -0.32449153540499226 -0.3014006557296927
-0.010576072787966607 -0.13326135813291465 -0.17909874207324594 -0.13508107627102323 -0.323752017108696 -0.14115305393232017 -0.046324869269299865 0.11388866820654564
-0.265305532796863 -0.025867373811429888 -0.11331905924599034 0.017382129895366732 0.1906742337337683 -0.2535608999771475 -0.0743022225167519 -0.3522615763178097
-0.1564644844584514 0.04261056462891262 0.18533646155809627 0.010303682410380639 0.17791760609851862 -0.43942416896792075 -0.02188083695884755 -0.0902186711184818
-0.037283742946050136 0.3539308750420842 0.02090272303046202 -0.05317699405343721 -0.24235922693609474 0.18086666170784124 -0.06331480479029888 -0.223963337614687
0.06550331677336846 -0.1343058778794394 -0.05629389890785113 -0.16471031415273954 -0.36022060241372694 -0.07212180408817755 0.3067344914750496 0.40811329584786177
-0.027535007625797928 -0.024615090451984782 0.04894716125030803 -0.019761797682273204 -0.15247274124403085 -0.2546259853914362 -0.043751726354036485 -0.04176680568042939
-0.22040481556112265 -0.1649312659822165 -0.16674904387401943 -0.3955607994538088 0.1450771568814017 0.004015600034037306 0.058293826546055354 0.06147544726387586
-0.014618447747541655 0.12544809991673797 0.09564063396859816 0.059295626982138416 0.0746847271990284 -0.029681258843465105 0.0052479145868449765 0.07121854296965534
-0.06412461101033007 0.46543896021433234 0.14674936480060913 -0.1271960048794825 0.0761716179181667 0.3074344570216228 -0.01581520387874103 0.11231977567249504
0.28493972848694393 -0.02542927485042477 -0.11389515579889936 -0.1043676442267321 -0.1597990335640151 0.11934191326648297 -0.13650439607216014 -0.038566976142248834
0.11795103484392079 0.18091544654430322 -0.19907591669040436 0.09260023187145312 -0.10065569071438629 -0.16437493993273702 0.16214720391458082 0.11072077522555604
0.036387867159579645 0.030029451152605597 0.03141562847627165 0.24669889304204706 0.2147350466750251 -0.11616027044142754 -0.30240681593689744 0.028146101309449258
0.1513968829561369 0.0074756634245635644 0.11471849269029553 -0.04495621934701919 0.1717861890375808 -0.3257509594760738 0.021583032648549962 0.09339176862146224
-0.07545543764950657 -0.2301095069595704 -0.10395670127113231 0.17007892362270605 0.16431979380867862 0.006728049471472754 -0.31537937806968747 -0.04690295329968448
0.14022143406899423 0.2718757938155918 0.14759080765911137 -0.13364652761909357 -0.15877075027571827 -0.22492322977339782 0.22131569594740105 0.039830167962339555
-0.08408043934199223 -0.009563827326590993 0.37709493648159437 -0.03288988956598057 0.1849560197824644 0.003515681304400201 -0.06705419653737381 0.05272660893330819
0.17493963689618594 -0.24696777214611296 0.29914291463128057 0.228597863626824 -0.118671752063736 -0.08391188843663933 0.027220230377922965 0.13324772311684213
-0.07296323614073115 -0.12177092001166409 -0.09499756691289699 -0.23318630318547423 -0.20646724934919233 0.027570361443127626 0.15475603555892797 0.31630914847581665
0.1041682999762951 -0.03394483750630313 -0.24635772705219572 -0.07481512779764746 -0.07392950509617277 -0.04942818762553061 -0.23937807383536014 0.08550945928888881
-0.032756885015033536 0.254031231838794 -0.018231662444329007 -0.02401378012632096 0.10275244693426736 0.027391304017962574 0.2644235508870659 -0.16852201138778794
-0.1949681191833975 -0.1614513993435786 -0.2025510036309984 -0.3345508581418847 -0.05286811952322925 0.10670879585193138 0.24340518622299323 0.17846587426524196
0.019362184887311198 0.0332350827364548 -0.07143283161343492 -0.19861489666902635 -0.30957308458835525 0.11130584169313222 0.0990190890734385 0.2281032786414333
0.10558143369368599 -0.09911513005200227 -0.36327352740398827 -0.38059955144842467 0.016478183975518177 -0.2062766908150665 -0.05881213169786014 -0.058708736014529465
-0.3447442738928694 -0.3093767487467054 -0.08595141394779286 0.11026856820936032 -0.3506155247934653 -0.05287384651979597 0.05911760715053799 0.12386822432582184

model.3.bias f8 [20]
00000000: 723c 6497 bee1 c0bf 16e4 f992 fc28 d1bf
00000010: 399e b7c5 97da c3bf b459 331d 253a d3bf
00000020: 300d cf3e 86a1 64bf af2e 9b45 91ee a6bf
00000030: 8241 d7d1 e779 c5bf dc66 d882 6708 ccbf
00000040: cd61 cf97 0d56 d13f 8774 364e a0f1 d0bf
00000050: 69a7 48d5 7ca8 bd3f 97a1 f614 c448 c33f
00000060: 7c84 e7c2 fd60 a9bf 461d 235d d5d6 b73f
00000070: 7533 7c3a 9908 7e3f 7f5f c79b 3ad0 b63f
00000080: 0b15 ec3e 5a81 cebf d7fb 8531 9879 57bf
00000090: 6834 321a 4c88 cb3f 3a5d ce18 a6b3 b0bf
-0.13188917534032246 -0.2681266246141275 -0.15510842470324507 -0.3004238877450931 -0.00251842708391483 -0.04478887533840969 -0.16778276201376846 -0.21900648011142365
0.27087726426318853 -0.2647476924701739 0.11585216719745763 0.15065814040759726 -0.0495681095524185 0.09312184833389833 0.007332418965018008 0.08911482146447545
-0.2383225257146154 -0.0014327989830176158 0.21509696272952117 -0.06524122338884278

model.5.weight f8 [20]
00000000: a920 a372 710e f13f c400 e841 2c8f ed3f
00000010: ad61 f224 6043 f03f 13a4 ac5b d49f f23f
00000020: 900a 4282 5e00 f23f 6d05 c5c3 cc09 e73f
00000030: 37d4 7956 5814 ec3f be49 9774 ad41 e93f
00000040: 3e6f 0ccc dec2 ec3f 8109 b8b4 9b6e f13f
00000050: bf8d 772f af7d e93f 4007 34d1 b728 e83f
00000060: 1151 0c1d 2a0a f53f ad1b dc75 b168 ef3f
00000070: fd78 cfff fd2c e93f 2c7f c9dd d599 eb3f
00000080: 8b61 557d a217 e63f c562 6ddb 9b09 ea3f
00000090: 5090 b1d4 8ef4 ed3f 69c9 4e66 a80d eb3f
1.0660261610046666 0.9237271582824396 1.0164491122469415 1.1640208798437512 1.1250901306345078 0.7199462722420954 0.8774835289938271 0.7892672803084719
0.8987878785442047 1.0895039614993893 0.7965923239793752 0.7549704633713432 1.3149815687839388 0.9815299322079817 0.7867422100351004 0.8625287372378572
0.6903850982590013 0.8136729512871957 0.9361032632991826 0.8454172132681325

model.5.bias f8 [20]
00000000: c0e8 8568 ce59 d13f 2235 6b02 a446 d03f
00000010: 8dda a690 9b97 cf3f 50fe aaac d81a d4bf
00000020: 2272 eea4 15f0 de3f 7c56 6265 6b4f e0bf
00000030: 256d 02a0 f709 d1bf a47d aca8 0f01 c83f
00000040: 58d8 847f 4287 c73f 6c3e 1628 755d ccbf
00000050: f176 8f5b d664 913f b98b 390b 05e4 d03f
00000060: c42a 0e9f 2485 d3bf 4a32 7d49 4aef ad3f
00000070: 8e7c dc0d 786a 73bf 4010 afcd c44c c23f
00000080: 3fc8 e22a ed13 9ebf 282f ebb0 8924 ddbf
00000090: c2b8 e454 5be7 d33f c232 2354 9d83 da3f
0.27110634047825144 0.2543115638371366 0.24681419909548588 -0.31413857328513917 0.48340359789452425 -0.5096947651060897 -0.266233354815727 0.18753238426232344
0.18381530024061266 -0.22160210091941523 0.016986226404575203 0.2639172181717942 -0.30500140698192646 0.05846626422007668 -0.004740208589082985 0.14296779673725446
-0.02937288831953588 -0.4553550937387052 0.31099589624762924 0.4142831155448158

model.5.running_mean f8 [20]
00000000: 0b8a 4eec 0d7b c73f 91e2 998d b603 c03f
00000010: 570b 21f9 a44a c93f f0d4 98c1 c66b d83f
00000020: f1ea 7884 319d d33f 76d6 4914 25c4 d63f
00000030: 4168 a3b6 061f d13f 5326 ab3e 92fa cc3f
00000040: a4ef a1b1 758b e23f 07bf b995 e70b db3f
00000050: e146 6996 2688 d53f 1b50 7408 2e7c da3f
00000060: b84a 47ba c6cb e13f 72f0 c070 6a86 d13f
00000070: 2285 501f 996c e33f bd20 ed40 7583 d53f
00000080: 89f3 bd6a 77c4 db3f b81f 6be7 2da5 d43f
00000090: 7f18 53b4 660d e13f c6d7 2229 21c8 d93f
0.183442821869065 0.12511331476322998 0.1975904671145041 0.3815781488986678 0.306469325416102 0.3557217310074984 0.26751869045040527 0.22639682826984373
0.5795238942514414 0.4226016008533268 0.3364349812373871 0.4138293345033632 0.5561250341655386 0.273829088316922 0.6070066081630652 0.3361485609098159
0.43386636184714483 0.3225817451425388 0.5328858873333643 0.4028399373740935

model.5.running_var f8 [20]
00000000: c08e adf7 c1a2 b53f 5bbc f78f accb c03f
00000010: 7c43 b74b de70 ba3f b4c9 adef a8df ca3f
00000020: 4743 02e8 de4e d33f d268 c3ee 319f cf3f
00000030: 1b6d 0b1f 0389 d83f d49c 6340 ee9d c33f
00000040: f074 99fc e4ff d23f 6078 d5db 827d e83f
00000050: 105f 4421 9978 c03f a201 f85b ab97 d53f
00000060: 97c6 15cf b045 d63f f055 e8da 32f4 d73f
00000070: 1ca1 e935 cb4a ec3f d1b0 d350 8a90 c23f
00000080: 2434 8ce7 6065 e63f d41d 2be8 276a dd3f
00000090: a913 20f2 c947 e23f f170 da8f 9aed d43f
0.08451473519158537 0.13121563939737055 0.1032847342351157 0.20995055869168555 0.3016888871871299 0.2470457473598971 0.38336256057455537 0.15325716156005476
0.2968685595313465 0.7653211873655543 0.1286803638874905 0.3373821638233726 0.3480035803141645 0.3742797029275087 0.8841301014881853 0.1450360197699241
0.699875309220833 0.45960424111077924 0.5712632874498144 0.3270021824662442

model.6.weight f8 [10, 20]
00000000: 43b0 d89e 12fb b3bf a7b3 fc47 3c4d cc3f
00000010: c78b 62ff 0186 c33f e6c0 8d6b 4d52 ddbf
00000020: 471e 0be4 2a8d aabf dc1c 31ba 16ae a7bf
00000030: 0961 1ab8 476c aebf a6eb c398 f850 b23f
00000040: cc4f a924 e43e a53f de55 4f7f 0036 d3bf
00000050: 6cf5 fa28 3f8f bc3f f5c1 9038 3a6b c83f
00000060: 0810 c8fc d24b d4bf e7f3 83ef b7d0 ad3f
00000070: b913 a1d9 82e6 bdbf 5c57 a0ec 1ae0 bcbf
00000080: e1bc c240 b263 8f3f a2b2 3d4c 50dd c3bf
00000090: ae9d a056 2d4a cc3f fd5d ccb8 0768 bfbf
000000a0: 41ae dd6d 41ec d9bf b586 4a1b 725f cfbf
000000b0: 2b99 e2f3 86a2 92bf e2c8 37f2 9410 cd3f
000000c0: 1f41 355d cbe1 c23f 0bb3 d8ea 8eae c8bf
000000d0: 553e 953d 8c8f d7bf a349 acb6 9a60 b03f
000000e0: 3cd7 ad51 45ba bebf 2ace cd29 06b4 d33f
000000f0: a3cd de92 3e06 8dbf 3b5d 62cf 43d8 c1bf
00000100: 9774 3035 1715 d13f 74f1 4e94 1fdd ca3f
00000110: e02b b54c d9fd bc3f 599e e631 3afb 963f
00000120: 1299 f55f 3988 c6bf d80c 8e55 c1e3 d2bf
00000130: 6955 096f b110 d3bf 8fbe c7ae 6f57 9bbf
00000140: 783f fcda 0705 d63f 3082 f3cd 24b3 c3bf
00000150: 2c98 7a75 4fdd ca3f f6f6 e4c2 e0be babf
00000160: 6ae8 3e39 a312 d53f 8215 d63c d11f a13f
00000170: a857 e3c8 8d74 b4bf aa10 c97e 9c2c 38bf
00000180: 2603 5730 09a6 c73f 09f7 d7b6 2f5d d0bf
00000190: 9d08 099c 7cea b43f 1306 bc46 3453 b4bf
000001a0: c889 b49c ad3b cabf 3510 57f6 001b d23f
000001b0: 69c0 6a71 549b c53f 69ea da2c 7756 aebf
000001c0: d0bd 09a3 c008 c53f dd0f c518 39a4 c8bf
000001d0: a9a6 054a 6784 b33f 81c2 3112 5a11 cb3f
000001e0: db54 e7b6 60a5 d6bf 4fb9 4981 2c47 c43f
000001f0: 7650 8d5f 647b d0bf dd8e c636 6c6c c43f
00000200: fd2d d1f4 bc9e d0bf 3cd5 608b 0792 c8bf
00000210: a16b b60f fcc5 b7bf 1a97 65cc 2b01 6ebf
00000220: 6c43 c960 8fd3 cdbf 6564 e586 ca3f b83f
00000230: 8773 d20e bd3f bbbf 074c 224f 85c2 ad3f
00000240: 94ee 080c a99c cc3f 7d64 47c7 9462 d3bf
00000250: e29a 5d1d fa47 a8bf 8a14 0a8e 44e7 a23f
00000260: f22e 8c03 804b b1bf 239d 3bd2 fa69 c0bf
00000270: 677f a645 13a0 763f 35ed d740 a26f abbf
00000280: 919f b786 a772 a8bf b28f 4322 3fbf c8bf
00000290: 3daf 800a dbfe ce3f d8a1 a336 0451 bbbf
000002a0: 8f34 4ead 6636 dd3f 41d8 bd04 ebff 99bf
000002b0: dd54 48f7 a774 ba3f a0db 213e 472f bb3f
000002c0: d6f9 28e4 b34f b93f 0b9c 0864 889e d0bf
000002d0: 7e26 cf30 41ba c23f baff 041b bd2b bdbf
000002e0: 130a 9b33 4836 d4bf d26d dfce 75af c13f
000002f0: b069 f725 b633 ad3f c491 eb85 f1e0 b13f
00000300: e82e 7bc8 5b83 babf 8b71 d47f c060 c5bf
00000310: 4342 f9a1 e339 a63f de26 c41e e3ee b53f
00000320: 8e2f 26a8 f3b5 b93f e1c8 7ad8 6321 a9bf
00000330: 160c 54b5 7b66 97bf a139 161f 0ad0 c8bf
00000340: 37ff 7a4c f237 85bf 6844 0280 0a05 80bf
00000350: 6709 b7d5 405a 50bf 5ebd 506e 77f4 8f3f
00000360: e186 d837 b7f7 863f eefe f911 6d4b cabf
00000370: aabd b5f3 b3b8 a63f 95be e2b0 bbc7 61bf
00000380: d78f 9ffd 9871 e1bf 6ecb b8bf a48f a73f
00000390: 255c 132a c172 b53f 22e8 c36d 5e64 d0bf
000003a0: 61b7 c900 bc30 bb3f dbb0 76cc f27e ad3f
000003b0: dd11 f324 74fc a5bf 9d55 3e36 0100 8f3f
000003c0: acb3 c977 b70f c93f 13c8 e190 6188 bbbf
000003d0: b81d b0db 4b7a a03f 905d 3b73 77f3 c4bf
000003e0: 3fa0 dbbd 288d c43f 19ac 0f80 f709 be3f
000003f0: 475d de76 5e29 b4bf c536 ba81 0488 a1bf
00000400: 4208 bc02 d892 afbf 09f6 3b57 52fa ccbf
00000410: 10ab af28 52fa cfbf 5e60 1b43 6999 b93f
00000420: ec15 0eb7 4441 c9bf 7675 3dcb 1ed2 c63f
00000430: 54a7 20a4 47c9 90bf 445e 1d0c f0ed c43f
00000440: fca3 0eaf 2b58 b8bf eb0b fce9 d735 cabf
00000450: 89bb 2df0 e064 c73f 0da3 f879 5a6f c13f
00000460: 760b f922 3b50 c93f 80a9 66e7 f42e aa3f
00000470: bc6b f385 cc4b b63f 66ec 6c1e 608d d7bf
00000480: 46dd 56fe fac6 8ebf 77de 8889 1488 b3bf
00000490: 5607 0a8a aae9 cf3f abde 1919 9c3f a43f
000004a0: 257a 1edd bb8c c03f 1041 f809 132a 8ebf
000004b0: 0eb2 7b48 a23d a63f fec6 cd6f 70a7 733f
000004c0: 8571 2ad8 39e5 dbbf 1893 5d5a 1e6b b3bf
000004d0: 0534 6f9f 4433 d3bf ce68 6d49 ca6a d1bf
000004e0: 3724 809c fcbd ab3f 2140 e284 511a b63f
000004f0: a53c 0567 176f a23f f79e 9341 337d 9d3f
00000500: 8c64 048c 475d d33f a006 bf3a f57d a93f
00000510: d8dd f7f6 cb15 cd3f 5961 fbef c2f7 c8bf
00000520: a57f a285 1556 d33f 035b 9b9c b635 a4bf
00000530: 0fc2 8fae b968 b4bf dee9 dfdd 2f6d c03f
00000540: e16a 8016 6170 c53f 33b1 74a4 f585 d2bf
00000550: 87d3 4072 4100 90bf c328 bc00 b11e 8abf
00000560: 8e8b d5bd 419d d3bf 550c 17fd c44d a63f
00000570: 58b3 b8b5 30e6 a8bf 9d3f e9c2 1756 c83f
00000580: df53 71d0 d0f5 97bf 3d57 40a5 8465 c1bf
00000590: 0bfe 95ae 7653 c33f c3f7 3ac3 b543 b93f
000005a0: bfca 393a 255b a83f 5fc4 fa95 ec0d aabf
000005b0: cb0d c911 c0a2 c4bf e9aa f034 2661 e4bf
000005c0: 2cf0 bd02 1f3d a5bf aa5d 7cab 16d9 93bf
000005d0: 0802 8bc6 a157 d53f 687f 8db5 f3b5 cdbf
000005e0: c72a c037 14a2 cd3f d386 906e 4331 c7bf
000005f0: 99ac a4ba a4ef c93f a7fa 226d 0e61 be3f
00000600: 51da 8ac0 4a84 e1bf f4d6 fe6e 6c95 cbbf
00000610: 9935 5f5b 64a4 b6bf 05f9 7956 cae0 a63f
00000620: 0071 d469 5ca1 a43f 8ce4 c207 306d c03f
00000630: 1571 51b3 8ff5 c53f 1612 ab2b de90 d63f
-0.07804981592261222 0.22110703959461128 0.15252709360092195 -0.45814834121030257 -0.051858272874195914 -0.046250066975113774 -0.05941986200667954 0.07154802064535079
0.04149544665838753 -0.30017101700408755 0.11156077147002968 0.19077232133851366 -0.3171279400414737 0.058233020770764025 -0.11679857075894419 -0.11279457356462558
0.015326874352778965 -0.15519145701127451 0.22101370553830918 -0.12268112432172269 -0.40504489640327185 -0.2451002724893009 -0.01819811690861532 0.22706853701635682
0.14751569796727268 -0.19282709567178133 -0.3681364632984459 0.06397406539716725 -0.12002976650350389 0.3078627975694156 -0.01417206655228293 -0.13941238046820978
0.2669122714449456 0.2098731493150684 0.1132484257006321 0.02244273118563309 -0.17603223023906672 -0.29515107493371096 -0.2978938659992623 -0.026700730364551502
0.3440570486572976 -0.1539045339223022 0.20987885700486808 -0.10447506673969173 0.3292625483551378 0.03344587199812123 -0.07990347055905878 -0.0003688699787611863
0.1847545133623722 -0.2556876454908524 0.08170298394637361 -0.07939459540286746 -0.2049462332880252 0.2828981786408378 0.16880279100360276 -0.059253429627877115
0.16432960472910318 -0.19251168927632892 0.07623906666926906 0.21146703613660026 -0.3538438593071313 0.15842205346002422 -0.2575312550664032 0.159558798547656
-0.2596886053840704 -0.1919564657743339 -0.09286475547416596 -0.0036626677930823416 -0.23301880098236027 0.09472337525711934 -0.10644132243983338 0.05812470046034695
0.22353089416161664 -0.3028919168551239 -0.04742414101092664 0.03692068323020077 -0.06755828940020672 -0.12823424592281993 0.005523753434687118 -0.0535860733179682
-0.04774974364755658 -0.19333638356249377 0.24215257656885028 -0.10670496305431898 0.456445378535883 -0.02539031235161127 0.10334253108188159 0.10619015948201005
0.09887241669000643 -0.2596760727778366 0.1463090408636169 -0.11394864949852393 -0.3158131126366765 0.13816711999139258 0.05703515256364555 0.0698386146501156
-0.10356687206802528 -0.16701513520900976 0.043410409471679866 0.08567637921455737 0.1004326138992708 -0.049082870650993156 -0.022851880018617342 -0.19384886281882266
-0.01036061569118339 -0.007822114974518082 -0.0009980805542545103 0.015603001646097677 0.011214667693880855 -0.20542682054291767 0.04437792158102678 -0.0021704355086383333
-0.5451168969707351 0.04601778831820168 0.08378226544606145 -0.25612602919830085 0.1062123777316777 0.05760916467565532 -0.042941693792758896 0.015136727779274045
0.1957921347524495 -0.10754976069600301 0.03218304688203538 -0.16368001104886476 0.16055783529668763 0.11733958126539824 -0.07875624086442655 -0.034240856967796364
-0.06166720422153606 -0.22638921031459372 -0.24982668863898327 0.09999711883881576 -0.19730433405145165 0.1782873623259708 -0.016392821686316353 0.16351128188647313
-0.0950953771959035 -0.20476817059542837 0.18276607253525537 0.13621073680521825 0.19776095588357706 0.05113950085372476 0.08709409971508725 -0.3680038735507821
-0.015027962576694375 -0.07629516942767532 0.2493184255618483 0.0395478039399085 0.12929485604122806 -0.01472868799376717 0.04343897948078644 0.004798354345312948
-0.4358658419603432 -0.07585324960889428 -0.30000415391697316 -0.2721429555000555 0.054183858970710146 0.0863390874312704 0.03600381023954328 0.02879791343448709
0.30256832765150743 0.049789107724348414 0.22722768362994716 -0.19506108014935356 0.30212915468473006 -0.039472300164268524 -0.07972298156506262 0.12833212217067475
0.1674920425292248 -0.2894262414945558 -0.015625975225890733 -0.012753851733141258 -0.3064731935357309 0.043562084097651756 -0.04863121240882745 0.19012734429497594
-0.023398649904567633 -0.1359105879679933 0.1509846069784405 0.09868942276349828 0.04757038436664151 -0.05088748293690836 -0.1612167441218005 -0.6368590387331469
-0.04148194225760479 -0.019382814613974432 0.33347362889256305 -0.23211523404006162 0.23150875780296173 -0.18119089983615896 0.2026258384079014 0.11866846241444283
-0.5473989258378628 -0.21549754543018873 -0.08844592314490853 0.04468376451130677 0.040293586653406877 0.12833214167566032 0.17155643707054283 0.35259203209378265

model.6.bias f8 [10]
00000000: 7807 f3aa 74ce d13f 787c b2f3 1599 da3f
00000010: f91e d677 4793 e03f 0a42 0ef5 d74b db3f
00000020: ab4e b857 4d49 84bf fd15 38af ed7c d83f
00000030: ef8f 9c80 abab c73f 3c5f 7405 eca4 e13f
00000040: 9a6b b443 78d8 d13f 4de0 db78 c804 dd3f
0.27822605795164845 0.4155936126571258 0.5179784145884404 0.4265041249391578 -0.009905437697887839 0.3826250277637369 0.18492645053731802 0.5513820749792795
0.27883726703447 0.45341693689943413

model.8.weight f8 [10]
00000000: 1e12 3ba5 734d f13f 4204 0726 36ec f43f
00000010: 8229 1e8c 40ff f43f b42b ab81 2575 f53f
00000020: ca85 030e fdce f03f b570 55d4 48cc ef3f
00000030: d712 d8b4 2651 ee3f 4a1d a0e2 2d46 f23f
00000040: e518 9a84 a8db f13f 4f74 275b b490 f33f
1.0814091162038788 1.3076688275762227 1.3123174165108087 1.3411002221280173 1.0505343005573757 0.993687071527822 0.9474061519727809 1.142133603339817
1.1161275081408857 1.2228282509525064

model.8.bias f8 [10]
00000000: ed59 e97e f093 dbbf c52b dc75 d2c7 e13f
00000010: d8da ab14 c67e ddbf 5772 1f0c e85b e03f
00000020: 8f95 ebfd b50e ddbf 3d8a 2652 14a6 d9bf
00000030: 2c94 27b3 083e d6bf 3f52 7fe2 ff00 debf
00000040: e87e 188a 955d dabf 8b59 4f02 b49a dbbf
-0.43090450662330576 0.5556423475221598 -0.46086265581781793 0.5112190472387493 -0.45402288243197914 -0.40076168081774083 -0.3475362538868605 -0.46881100767976486
-0.41196192251116637 -0.43131733155805624

model.8.running_mean f8 [10]
00000000: a84e 3829 614e ee3f 5c45 2422 e8bd e53f
00000010: 147d 9cd2 8310 f33f 4d2f 4e80 1326 e13f
00000020: 3669 5853 55f8 e43f 125b a0c3 9744 ea3f
00000030: 9f7c a894 9423 e73f 070e ae91 89d8 ef3f
00000040: a9be a767 3fe0 f13f cfa7 86ea a162 f33f
0.947067814357486 0.679431978877044 1.1915319659236205 0.535897970768454 0.6553141239012692 0.8208731480434344 0.723093309734299 0.9951827855406358
1.117247967627842 1.2115801964923667

model.8.running_var f8 [10]
00000000: 2358 5855 1d3c eb3f 59e8 8751 5f03 e03f
00000010: d1aa a6fa 899b ec3f d12a 559f fc2a d83f
00000020: 184e bc07 b49f df3f 61ab cf76 119f e43f
00000030: 63db 5116 4e33 d93f f495 7308 4f5a ee3f
00000040: 0c9c 7516 1231 e73f 19ae a07b 027c fb3f
0.8510882059952148 0.5004116623306444 0.893986692002125 0.3776237064345596 0.4941225123922961 0.6444175072223112 0.3937564104048105 0.9485240140026563
0.7247400702152631 1.7177758053975423

model.10.weight f8 [1, 10]
00000000: 557b 8c67 ace8 debf a4fd 41df 4408 e03f
00000010: 33e3 990f 9068 dabf be1d 4254 94d3 e53f
00000020: f787 d987 364c d3bf f2c7 14cc 3e9b d8bf
00000030: cd58 2b52 27ec d3bf 3051 5103 69aa d9bf
00000040: 13ce 3b49 e58e dbbf a13c ea4b 911c d6bf
-0.48295126068290034 0.5010094032767722 -0.4126320030550687 0.6820775647801651 -0.30152667299819264 -0.3844754212360605 -0.3112886717257311 -0.4010260136031034
-0.43059665824623145 -0.34549362577031145

model.10.bias f8 [1]
00000000: 491b d86c 5370 c73f
0.18311541380554733
