dnn/ionosphere/fold_0_model.pt (torch, 51083 bytes, 34 tensors)

model.0.weight f8 [30, 33]
-0.32852401282955757 -0.04493045847429596 -0.22967426240841363 0.019086585639563818 -0.16998073584027107 0.0821298302599725 0.10356307067248946 0.2838062760659072
-0.21583073706006625 -0.0847384730599136 -0.07650538015506402 0.07974378822385704 -0.09070229714115735 0.2723226008781617 0.039946865214361874 0.09068754360915632
-0.1389799358604618 0.1633128752427878 -0.2420141227424556 -0.022706642069341882 -0.23168769877979037 0.08229072028937683 -0.30112273628048997 0.01115406077856775
-0.4329140765303783 -0.2076269578658758 0.10376291740528945 0.045508490552982415 -0.15187498327649918 -0.21000976158767218 -0.2026618144226614 -0.12729593185775248
-0.1921226566435316 0.1476395026532879 -0.10153316639167162 0.32871505543846796 0.09002813823953591 -0.24543588716309722 -0.038286427635832156 -0.01875524996994313
0.021865169617086355 0.0187809471487188 -0.05489440188630115 0.19200435215762396 0.20225809199225014 0.3548825807137074 -0.057668981367565736 -0.11168188172476458
0.0013589253829354856 -0.03525014789364678 -0.010003527889908237 0.012270558179845225 -0.1825436461879009 0.056793902836509105 -0.09002974617812565 0.24206570399915506
-0.1562189899501941 -0.13637250823217356 0.1847982103203024 -0.23076188555008337 -0.1915675004283352 0.08198386212488559 0.017440738891310755 -0.10635572494580937
0.038156492532682613 -0.01710190993355261 -0.2733906916879461 0.14012333225997073 0.06106871152829348 0.0803892294904767 0.07039430321802857 0.28020371055076154
-0.22310289288740778 -0.08170745629416512 0.3014767997339486 0.01264114364555104 -0.11136299033868993 0.17020614886656288 -0.3559876211454087 -0.0034051448383926467
-0.06396831699920781 0.05631510108127413 0.10986974255664292 0.09620978398643608 -0.07740862446136228 0.27114491141342706 -0.012441753789348536 0.2031821214110799
-0.21425965682331022 -0.1626900840596352 0.10901610347352102 0.004266034537054037 -0.13360079239198114 -0.10497766720926102 0.12587524116811977 -0.24795689956200956
-0.08414720965283394 0.10746386770634847 -0.3277779782170078 -0.01604799408148898 -0.12362259517234662 -0.3024823126802907 0.09262489926022485 0.05315039936007318
0.09457580179537503 -0.05095030273190555 -0.05577813229923019 -0.053218353499558335 0.09471509054417643 -0.2854330451723342 0.0628736140067486 -0.19551614357604177
-0.13695499685514995 0.0021121103715973965 -0.10322938978665583 0.28720234108670734 0.1907082379872574 -0.12165992640259067 0.17446282390322154 0.12771076972646145
0.07119112233757884 -0.3527323142996819 -0.2724547175592674 -0.06692846379909387 0.04341946006870281 0.07276857948324704 -0.2296417229519987 -0.19638280782409057
-0.25941090405027 -0.06699248666359235 0.10895865909760602 0.2849898052473185 -0.16895329553144298 -0.08536404048891791 -0.1714637664231387 0.11283630174479442
0.03361431714118219 0.29643672365680424 0.04644151349169759 -0.09878373826082217 -0.09789142095745844 0.1346905470766201 0.027019555910514827 -0.0054521996162266205
-0.05701055829393005 0.1362657944897879 0.01638596096088807 0.11030660960652271 -0.013096174591140926 0.07266812878432262 -0.18332632757181802 0.03022676694470904
0.27058324756176433 -0.0918883303190335 0.0020642405008820404 0.04167251663067062 0.054440481687908465 0.2980155781754641 0.1997354578658923 -0.08992355373194169
-0.021150773674039426 0.26399670467998404 0.11422951455230886 0.10436230872536564 0.264034593389845 0.025989609569813638 0.04199195209037996 0.27891354106012783
-0.03260969311890962 -0.32748760594007437 0.03093270513394513 0.12799838091384752 0.05387276814512165 0.16197683939515034 -0.008414911307038066 -0.039397494358208954
-0.06500780653390631 -0.1986218169164673 0.024015796919454366 0.014714372763639674 0.03938781795317399 0.009289317920963443 0.13632219182260435 0.15558200750157303
-0.09483273165601878 0.25150659631446737 0.04719505747297076 -0.0797367648063426 0.0688896455315152 -0.1339552576492568 0.396723543957908 -0.003555119338271835
-0.17473363444666323 0.12226648576255192 0.07618130523802105 -0.03222495187332967 0.3101787022211666 0.07286118528768608 -0.07612688978453334 -0.3217079500945208
0.21751354770688516 -0.21785966372807916 -0.3535136849500722 -0.21191214191782853 0.18619733116400253 0.17008058964072978 -0.020232484356571052 -0.027719713738896132
-0.01708752982991117 -0.07274794693379086 0.008059736229696277 -0.2384623163208135 -0.13204769838924696 -0.052128496032648644 -0.14337822215018217 0.08313612606232408
-0.013464249923961103 0.05506498453981985 -0.06661893240239529 -0.1893495004636879 0.034332121244634466 0.1357863819410606 -0.08701900089960309 -0.18634232714931487
-0.12630593060459439 -0.042645805408209767 -0.0023213227075021613 -0.20264396441815435 -0.08883480654428048 -0.03958034298443135 0.004387711689715278 -0.1166011605766355
0.050429216909611815 0.17866061873358785 0.07064291745347777 -0.09485618809726226 -0.2837386460144784 0.22177424669249704 0.1875838194310938 0.0974999165906462
-0.07871089632078249 0.2602125916565407 0.021921826221377422 -0.10929069971021364 0.002726020628428435 -0.09346089764645034 0.20253840009166882 0.1167887730648532
-0.06313294030841722 0.25540340270810147 -0.21340570651090202 0.027012905649880008 -0.2839289386456991 -0.04458095135009334 0.018226550073637098 -0.14940379042586888
00000000: be6e c394 8906 d5bf 1b97 7b03 2001 a7bf
00000010: a976 e35a f765 cdbf abf8 7414 6f8b 933f
00000020: 3c26 b1c2 edc1 c5bf e41b fee6 7506 b53f
00000030: fe96 9c01 1c83 ba3f 4f91 86cc e129 d23f
00000040: ef80 9272 57a0 cbbf bb5b 81aa 6bb1 b5bf
00000050: 87ea bb49 db95 b3bf a509 7bc2 166a b43f
00000060: 44b2 e407 4438 b7bf 75ef 2ec6 bb6d d13f
00000070: 72c8 585f ea73 a43f e0b5 f481 4c37 b73f
00000080: fa11 a933 18ca c1bf fc7c 17b1 6fe7 c43f
00000090: 44ab 2c9b 51fa cebf d5f4 5bf4 6840 97bf
000000a0: 7d85 9248 f1a7 cdbf 733b 6830 0111 b53f
000000b0: fb07 1a4c 9845 d3bf cba4 17b2 f0d7 863f
000000c0: d843 2b3e ddb4 dbbf dfa4 e628 8593 cabf
000000d0: 9213 cbe0 3490 ba3f ab13 3b8d e34c a73f
000000e0: f065 20b3 a370 c3bf 390e ee90 99e1 cabf
000000f0: f4f2 8b84 d2f0 c9bf 1117 1fac 3b4b c0bf
00000100: b563 8da7 7997 c8bf 862d bfe9 d9e5 c23f
00000110: ee8e 1cdd 13fe b9bf 31e8 33df aa09 d53f
00000120: 1765 7585 150c b73f feab 5072 716a cfbf
00000130: 2534 2755 479a a3bf 1931 ff84 9334 93bf
00000140: b31f b5b1 d263 963f bea6 2a07 503b 933f
00000150: 0498 ab79 1e1b acbf e673 9a3e 9993 c83f
00000160: 2aa2 3ad9 97e3 c93f 1278 856d 65b6 d63f
00000170: a445 efe9 c986 adbf 5948 900d 2f97 bcbf
00000180: 3f52 f404 bf43 563f d0c6 c3b0 4e0c a2bf
00000190: 8de2 0dc9 ba7c 84bf 7955 b070 4e21 893f
000001a0: d11c 3c17 975d c7bf 520b 9726 1714 ad3f
000001b0: 3092 807f 300c b7bf 5c6d 144d 02fc ce3f
000001c0: 8bd4 6cde fbfe c3bf 6620 7783 a774 c1bf
000001d0: 03af d7be 77a7 c73f 64ea ccff 9a89 cdbf
000001e0: 1e78 a8aa 4885 c8bf ce4b a0f6 e4fc b43f
000001f0: 4f01 a02c fcdb 913f a176 62f8 203a bbbf
00000200: 51aa 1d6f 3f89 a33f d479 74bf 2983 91bf
00000210: b127 f5ab 3b7f d1bf 6347 bbb4 8fef c13f
00000220: 5b50 a5ed 6544 af3f 82bb 9c77 6394 b43f
00000230: 7369 256e 5c05 b23f c022 428b dbee d13f
00000240: 8b15 4cb6 a28e ccbf 126f 9fa4 c7ea b4bf
00000250: 120b d758 654b d33f 4a5c 5594 99e3 893f
00000260: c24b 7df1 4882 bcbf 1ee1 7aa9 50c9 c53f
00000270: 706c a64d 80c8 d6bf 625f 0237 1be5 6bbf
00000280: e1e3 7d45 3a60 b0bf c07b d43a 55d5 ac3f
00000290: d6c8 1967 6c20 bc3f 57e7 c653 34a1 b83f
000002a0: dd69 7d36 0dd1 b3bf d1d6 bf2f 705a d13f
000002b0: c384 0aed 0f7b 89bf b3d6 4b2b df01 ca3f
000002c0: 3243 7445 dc6c cbbf 3eb6 3557 07d3 c4bf
000002d0: cbf7 27b7 7ae8 bb3f 3ac2 1fed 4279 713f
000002e0: 0a89 05ad d419 c1bf be61 79ff d0df babf
000002f0: 5cba 180e ae1c c03f 8edb 373b 0dbd cfbf
00000300: 1f32 82e9 ab8a b5bf 74e9 4c85 c082 bb3f
00000310: 8ca0 327c 50fa d4bf 6d4f fca6 e26e 90bf
00000320: 1fd7 4ffb baa5 bfbf 8c23 25c6 de5b d3bf
00000330: a632 1ef1 43b6 b73f 54ad 0a76 8736 ab3f
00000340: ce40 b4a7 1e36 b83f fadf e877 2816 aabf
00000350: 6a43 1d8c f38e acbf 48b7 a79f 6f3f abbf
00000360: bc2d 5388 3f3f b83f 999f 8df6 8844 d2bf
00000370: 56b8 f033 7c18 b03f d1e3 3f49 ac06 c9bf
00000380: a621 42c8 bd87 c1bf caf6 169f 6a4d 613f
00000390: 2ea6 1ec5 3d6d babf b554 93ed 8561 d23f
000003a0: c2d4 9da6 2069 c83f 5505 22dd 1a25 bfbf
000003b0: 481d 843d cc54 c63f d83b a995 d358 c03f
000003c0: 7797 34d6 9439 b23f b035 8a8e 2a93 d6bf
000003d0: cab5 63e9 e56f d1bf ee49 304b 3922 b1bf
000003e0: c396 0252 133b a63f 7b92 0e2d f6a0 b23f
000003f0: 601e f064 e664 cdbf 90f1 8c64 1223 c9bf
00000400: fec9 4731 309a d0bf 973f 4c6b 6b26 b1bf
00000410: f6b2 70f5 b6e4 bb3f d7c2 4ee1 453d d23f
00000420: bff2 6df7 42a0 c5bf aa81 27f2 6ada b5bf
00000430: 2a41 9e52 86f2 c5bf 90a4 cb01 d7e2 bc3f
00000440: b9f5 9851 e535 a13f 891e 5cbc d1f8 d23f
00000450: 6446 3f9b 2ec7 a73f 75f4 341d e449 b9bf
00000460: a33d 9283 690f b9bf 9420 6333 8a3d c13f
00000470: b7d1 f3b3 03ab 9b3f c5f3 afb0 0b55 76bf
00000480: ea5a cce6 7c30 adbf 0bd4 7255 2871 c13f
00000490: c01e c339 7bc7 903f 67eb cad0 0d3d bc3f
000004a0: 9ec0 92cc 2ad2 8abf 2916 97e4 609a b23f
000004b0: c957 b5b2 3c77 c7bf 9d21 f7fd c3f3 9e3f
000004c0: 52e3 c765 3c51 d13f 05b3 9a5d fe85 b7bf
000004d0: e3de 27ae 06e9 603f e038 24a0 1956 a53f
000004e0: dc29 db70 9fdf ab3f dc93 7dee af12 d33f
000004f0: 205b b175 ee90 c93f b635 6be2 3a05 b7bf
00000500: 6a42 dc64 8ca8 95bf 1c8c 366f 52e5 d03f
00000510: ad78 3d3d 253e bd3f 9616 e9fe 7cb7 ba3f
00000520: 89cf e759 f1e5 d03f 5879 8d2c 059d 9a3f
00000530: 5dc5 d819 f87f a53f 85f2 502e b8d9 d13f
00000540: 73e5 f4ba 37b2 a0bf bbe8 5693 8ef5 d4bf
00000550: 2e5b b5b3 d2ac 9f3f 74a3 fb3d 4062 c03f
00000560: 6015 a822 3695 ab3f ceaf f435 a8bb c43f
00000570: 3456 e646 d63b 81bf 222e a08b e82b a4bf
00000580: 1c3e 0c03 5aa4 b0bf 68d3 f68f 706c c9bf
00000590: 0cfd 6cd9 9897 983f 1b6b 68ae 9122 8e3f
000005a0: 6a7a f0db a32a a43f 84a8 6125 4706 833f
000005b0: 926e cc6d 0173 c13f 305b 0879 1cea c33f
000005c0: c78d 0d39 f546 b8bf c487 791f af18 d03f
000005d0: 082d c258 f329 a83f 57d0 21ed a069 b4bf
000005e0: 9744 9776 c0a2 b13f 3e8b 5d25 7225 c1bf
000005f0: 448e b625 eb63 d93f 5cf5 5129 a01f 6dbf
00000600: 68d5 baf6 ab5d c6bf 0e3c bf3d db4c bf3f
00000610: 5a5b 9036 9e80 b33f f57e d2f4 c97f a0bf
00000620: 1829 7dc5 f7d9 d33f 3b5a f5d7 07a7 b23f
00000630: 3384 f845 0d7d b3bf 083a 21f1 dc96 d4bf
00000640: d543 ebe2 7bd7 cb3f 3732 6a51 d3e2 cbbf
00000650: f022 e3dc f79f d6bf 02c9 94e3 ef1f cbbf
00000660: f5d6 f96b 50d5 c73f 877d 1865 33c5 c53f
00000670: 3262 830a d3b7 94bf 5c27 da7f 8e62 9cbf
00000680: 8cd3 27b7 647f 91bf d288 ee04 9c9f b2bf
00000690: 52de 2a7c 9f81 803f 0891 f6e4 ee85 cebf
000006a0: 8204 0c61 f0e6 c0bf 9abe 4c13 96b0 aabf
000006b0: e5fc 8bb3 375a c2bf d5c6 8dbe 6848 b53f
000006c0: 3a6b b508 2593 8bbf daac 8147 7a31 ac3f
000006d0: fb74 f637 f00d b1bf 73b3 00bc 9a3c c8bf
000006e0: cf61 e5d3 fa93 a13f 23ea d6ba 7261 c13f
000006f0: 5590 fe92 e046 b6bf 6cc1 7bbc 10da c7bf
00000700: f868 9ef0 ca2a c0bf 0666 14c7 abd5 a5bf
00000710: cf02 97a3 2a04 63bf 8031 f4c7 3cf0 c9bf
00000720: fbaa dabc e0bd b6bf 2f7d 5ded df43 a4bf
00000730: e5ba 6263 d9f8 713f f02f 5adb 92d9 bdbf
00000740: 3683 c7ba dbd1 a93f 049e 45e5 59de c63f
00000750: 731e 287c a715 b23f 8072 b3c1 7e48 b8bf
00000760: 9895 4f23 c628 d2bf f1d4 5138 1963 cc3f
00000770: 848f db20 bf02 c83f 0b9b 1e29 c1f5 b83f
00000780: 1c5f 89b5 6526 b4bf 0f06 cbb6 52a7 d03f
00000790: 08f5 c1da ac72 963f af27 03ad 79fa bbbf
000007a0: 2c75 502e e154 663f 9da7 d8aa 0ded b7bf
000007b0: 01f8 493e c7ec c93f a57f da78 dee5 bd3f
000007c0: f9ca ecf9 7a29 b0bf 4ac7 7a83 8758 d03f
000007d0: 9e3e 1fd1 e050 cbbf 7e3c 5869 45a9 9b3f
000007e0: dcc2 7748 e42b d2bf d27c 2580 50d3 a6bf
000007f0: 6ed2 f011 fba9 923f 9686 e3d4 a91f c3bf

model.0.bias f8 [30]
-0.10115053548977675 -0.022876391198212158 0.10358896764929319 0.228329575654294 -0.1818010565080761 -0.11917030306947567 0.013969811389880299 -0.0442847961283906
-0.29194559313952434 -0.05619297739368769 -0.11760984406353325 0.1347185890857737 -0.14502259789225033 -0.002854016304693969 0.43291712562288814 -0.4275728662571013
-0.20045799716147472 -0.0030092649167089277 -0.23222327826628955 -0.41446371371491386 -0.11774370892782135 0.14222801700146773 -0.1851263914343166 0.16070129754623147
-0.2348176974096218 0.14502557160755078 0.11602359439389005 -0.11759094184596026 -0.2643851200561924 0.05300846552232409
00000000: 4bc7 e661 00e5 b9bf 7ef2 2fa0 e86c 97bf
00000010: b3b5 477c ce84 ba3f 2f87 124e e739 cd3f
00000020: b04b 0acc 4145 c7bf 7b7a 56ea f181 bebf
00000030: 8316 6858 349c 8c3f c9b5 292e 7fac a6bf
00000040: 91b7 af91 3caf d2bf 536d 5770 53c5 acbf
00000050: e8c6 f0c1 ad1b bebf 4bb1 246f 753e c13f
00000060: ff67 90b9 1990 c2bf 28f2 1b56 4e61 67bf
00000070: a56e 1b08 eab4 db3f 81cc 4e95 5a5d dbbf
00000080: 6cdd 038f 9ba8 c9bf de5a dfcc e2a6 68bf
00000090: 0506 c30c 7eb9 cdbf 5831 f2cf 9286 dabf
000000a0: c69c 27a3 7324 bebf 7551 cc14 8734 c23f
000000b0: 071f 6bba 38b2 c7bf da62 b130 dc91 c43f
000000c0: 95bb 729d 810e cebf 77ae 91ab 3290 c23f
000000d0: cd72 7ce7 b8b3 bd3f c5c3 88a1 701a bebf
000000e0: 302f 0c91 afeb d0bf 92b7 a8f3 ec23 ab3f

model.2.weight f8 [30]
0.86375084168869 1.2569826474835222 0.9633374411776336 1.1424477462576326 0.9613122346201619 0.9298739537424447 1.0300455863809508 0.8905508070343697
0.9353043221112807 1.2055977551893877 1.0578416571686982 0.9042770758489125 0.9151284391633014 1.055430093650986 0.8453197407006063 0.8399401753302822
1.0251164917803977 1.0241464523295507 1.1366452983454423 0.8295620479021366 1.0014043314863954 0.9163927616549424 0.9898608981837457 0.7453764283984202
1.1638628892631855 0.7746458804262271 0.9552846436163874 1.1557566974458064 1.170524073705084 0.9277997644756639
00000000: b140 1ece d8a3 eb3f b24c 29d6 991c f43f
00000010: 2cd9 9b0a a9d3 ee3f 090c b949 7747 f23f
00000020: 5806 1ee0 11c3 ee3f 883b 9705 87c1 ed3f
00000030: 4253 ae14 117b f03f e472 f467 647f ec3f
00000040: 14d0 6854 03ee ed3f 01b6 2adf 204a f33f
00000050: 112d 9e5f ebec f03f 1865 697a d6ef ec3f
00000060: a811 bb6f bb48 ed3f 8c1f 77aa 0ae3 f03f
00000070: 1e1d 1ffc db0c eb3f 707b f437 cae0 ea3f
00000080: cd97 ec8c e066 f03f 141e f163 e762 f03f
00000090: c0bb f8fa b22f f23f 40c2 37b5 c58b ea3f
000000a0: b3e8 5c8c c005 f03f d52b b3e9 1653 ed3f
000000b0: 5b3a 29c3 f0ac ef3f a9c6 e5aa 1fda e73f
000000c0: 7f9d 66b1 2e9f f23f 3c2d 4d28 e6c9 e83f
000000d0: 3f82 d619 b191 ee3f 719a 1abc fa7d f23f
000000e0: 8be7 7b73 77ba f23f 741a b521 89b0 ed3f

model.2.bias f8 [30]
0.2634237822357928 0.08204950199602717 0.12593867486313337 0.16439950857759217 0.38730203644804373 0.028338260079869036 -0.17007986149901302 -0.1276555167147983
0.38373254740099644 0.042464122615975326 0.25137393752503584 -0.1567499587800021 0.008861861281941691 0.3475896200297487 -0.042068050873779926 0.1196142838932064
-0.16981589627920182 0.1500614715856517 -0.006487379483111863 0.043280997177658556 0.1846235053127619 0.11763801106199191 0.2029859855672636 -0.12309378138817467
0.14363293623617415 -0.1958040457111279 -0.15714637050655325 0.06639856650624003 0.14307062335764653 -0.24502975493425327
00000000: 2d3f 6c6c efdb d03f acdc b937 3201 b53f
00000010: ac5b eb2c c21e c03f 86dc 6808 0b0b c53f
00000020: b0fc 0d7b 8ec9 d83f 9906 1371 b404 9d3f
00000030: 2559 6c49 2dc5 c5bf 4ed6 b816 0457 c0bf
00000040: 0be0 5ff5 128f d83f 3124 c783 dbbd a53f
00000050: 5727 2fb6 8216 d03f b102 4ef5 6110 c4bf
00000060: d0dc 19e3 2a26 823f d23c 9d88 e83e d63f
00000070: cb2f 6b8d f189 a5bf 11ae 74ad 0a9f be3f
00000080: c117 6efc 86bc c5bf 0acd 6cdc 3635 c33f
00000090: 96a1 77ab 8292 7abf d226 d546 ed28 a63f
000000a0: aa12 b236 bea1 c73f 111a 4752 861d be3f
000000b0: 8a63 c7dc 71fb c93f 0c37 67f5 1283 bfbf
000000c0: 21a4 e165 9062 c23f f97b 6062 1b10 c9bf
000000d0: 1960 014d 5f1d c4bf db44 a517 7fff b03f
000000e0: 4c72 2b60 2350 c23f 58a8 fe8f 225d cfbf

model.2.running_mean f8 [30]
0.37156157946125284 0.3284249401382215 0.4521861911957093 0.3829020881046929 0.3891037361021366 0.3133231466745962 0.4458248992041033 0.3456804681824452
0.1680976880995379 0.33193602062275906 0.2511673607970981 0.5489658573747036 0.41620262930685015 0.26303152021946896 0.6996979850933618 0.20477095727602018
0.5315816488222749 0.3202268951240663 0.414481996864307 0.2657247403935488 0.44682982067966837 0.34213110453568446 0.24403262647265722 0.5134367757800506
0.21752178665759783 0.39157592315292705 0.6221088658773329 0.34160505584882594 0.21128128065373158 0.7248236507562407
00000000: ad1d 0f38 aac7 d73f 1f67 450a ea04 d53f
00000010: 21db b859 9ef0 dc3f 7fb4 7ec2 7781 d83f
00000020: 89d8 535b 13e7 d83f 5b05 0387 7c0d d43f
00000030: 62be 7428 6588 dc3f 9b69 6df8 a01f d63f
00000040: 46da 759c 3984 c53f bc1a 3c94 703e d53f
00000050: 088e 1c44 2013 d03f 4070 81d8 2091 e13f
00000060: dc74 585a 10a3 da3f de39 4a28 82d5 d03f
00000070: deb2 6107 ed63 e63f 42e7 554a ef35 ca3f
00000080: be0d 9b84 b702 e13f 10e1 76f2 987e d43f
00000090: c007 547f df86 da3f d19d 6e57 a201 d13f
000000a0: 1097 ac1a dc98 dc3f 3335 3bdc 79e5 d53f
000000b0: b4b3 ed0a 763c cf3f 823f 11f6 126e e03f
000000c0: d151 eeff c0d7 cb3f f1f0 f575 940f d93f
000000d0: 5dd5 2fda 50e8 e33f a836 c173 dbdc d53f
000000e0: 5617 55d7 430b cb3f 30b1 6b5e c131 e73f

model.2.running_var f8 [30]
0.513335817856831 0.40343719294388375 0.4368653450124703 0.3835281972384633 0.3239352127216864 0.24413426867224602 0.5625801760013311 0.36987767429179963
0.12934520317488116 0.2547900078942954 0.2189460548219185 0.5248851601722762 0.6600565566960674 0.30449904299609376 0.3423844354485272 0.16014725250433082
0.4371141204371037 0.16940473461604064 0.6898060370188552 0.3504390845360933 0.49953896154599287 0.2630487723542455 0.28233361076306396 0.33264870675545755
0.21467058939393724 0.4577129808752477 0.3452969700268657 0.35330793720167664 0.2524061305734341 0.6409636814536916
00000000: a2ef b13c 3f6d e03f 07c7 6b3b ead1 d93f
00000010: 7265 6510 9af5 db3f 16ea 0eda b98b d83f
00000020: 8565 2ac2 5abb d43f bedc e3ad ca3f cf3f
00000030: 6eb7 2924 a800 e23f faa4 a668 13ac d73f
00000040: 5fea c334 628e c03f aa3a d0bf 7a4e d03f
00000050: c330 86a0 6c06 cc3f 8c0f a3f6 dbcb e03f
00000060: aca3 90ed 2e1f e53f a237 d58d e97c d33f
00000070: 534b 3a68 a0e9 d53f 0872 0686 b47f c43f
00000080: 296b f980 adf9 db3f 7352 7be9 0daf c53f
00000090: 068a 321c e412 e63f 1ea7 d40d 986d d63f
000000a0: e8bd ba43 72f8 df3f 7aec a084 cad5 d03f
000000b0: 367e 32fe c011 d23f 9091 24cd 1d4a d53f
000000c0: a414 6e6c 537a cb3f 5216 f462 2b4b dd3f
000000d0: 0717 6b76 5819 d63f f6b2 ece4 989c d63f
000000e0: 0adc 070b 6c27 d03f 468e 3844 c682 e43f

model.3.weight f8 [15, 30]
-0.1885919896168416 0.26322111090698536 0.013003146149307292 0.029073777658111474 0.1631176871051472 -0.13135759455511503 -0.1329305760099479 0.0016861901672687962
-0.12859949352907143 0.3798928034327452 0.2014140128132937 0.11606002639172427 -0.16981288472576606 0.2956960658877832 -0.005982668616107307 0.2086891983530425
-0.08809764888959264 0.1148201847594658 -0.1283944986326307 -0.04573096099086936 0.002693778719236398 0.05810609041555239 0.3067576036852826 0.3645611017715159
-0.07056093920981076 0.03418695813269534 -0.3818106938066042 0.0754912921324359 0.052528278801756825 0.014098171898593392 -0.05464757131170559 -0.040445660685486017
0.04655384559886243 0.10639352902404457 0.15324087480133064 -0.1966874925214677 -0.08942662902158192 -0.0769241309521656 0.2502083643244945 -0.02334162799046675
0.05301420087241686 -0.12951785804649704 -0.2134634373242731 0.09208386309773155 0.037948970519700746 0.08937222560148433 -0.3293107791266422 0.09699378570898712
-0.24475358799029 -0.19158876107454118 0.24063496887686292 -0.04031906257645397 -0.009423363120690254 0.04120067734288535 0.24804554664391498 -0.27109199200981493
-0.14363137826735703 0.13972123250931892 0.2849028571073933 0.010659873671916337 0.17696432705579576 -0.11100767710823944 0.14538569469704557 0.049438503194706274
0.11199159389275914 -0.1861628189976928 -0.15935723253013842 -0.22043211164172977 0.23579537328199984 0.15088882150925834 0.20186446262321905 -0.06147271523133245
0.09835196374710269 0.25164869601831846 0.019251498339883603 0.08816431049243288 -0.09175115577025278 0.12464615778555953 -0.29054756940005877 -0.2858397446154461
0.030182844385672154 0.07634613910690104 0.22559673011147013 -0.03671849664012402 0.043687164561700534 -0.10371718562613623 -0.1332479536891654 0.17005628516814753
-0.011448017423730831 -0.16211698402814714 -0.22423266890600108 -0.1027395424823178 -0.15646331637256544 -0.026646838737679323 -0.146962221930065 -0.1471275201001173
-0.07434924251212431 -0.26712048939919747 -0.0033425866519807184 -0.22096250300728723 -0.29847346959936144 -0.10498987239259752 0.019999055198173913 0.12327441810585697
0.15572715457902325 0.07096835115371299 0.15648439488051905 -0.240340774486146 0.0846311000639819 0.10637401740454497 -0.10816105143572305 -0.0103996404441108
0.0768981089411661 0.16304333025586898 -0.2528785428944956 0.1732026935172882 0.05360259282536226 -0.35105697820842136 -0.24972866281414122 0.05373448908120653
0.03561241436674383 -0.20202778757678547 -0.2079830108748264 0.02898662168568128 -0.0005681197974696635 -0.035656474059589806 -0.22301298979719716 -0.13580909547270703
0.002588219781258504 -0.1873051893189312 -0.1236694670777015 -0.17251140842400164 0.041691593433530655 0.20978832613060155 0.1584289749442449 0.03151290173208157
0.1700078598088867 -0.28114006319448315 0.10141703227310457 0.05020308033923984 -0.22692420186480128 0.1504432553656773 0.03436372823370558 0.054125199538176696
-0.28730376959620035 0.030580682785238386 -0.15268073850667066 -0.22908093297672447 -0.37717372017506884 0.05264324554230076 -0.16404986465183713 0.15388293615833595
0.11365423349275963 -0.019174343400112204 0.17541294230433138 0.30194193959558596 0.0719132007405279 -0.07566183338238962 0.32257937878154913 -0.14510664854974148
-0.0959232990646202 -0.21074662769383393 0.08935469138866454 0.26965083763122105 -0.009834561418886988 0.0023245016724263248 -0.0017835491738218102 0.29684171217491834
-0.32033380785533416 -0.13475159877135556 0.18422748443627784 -0.17332034305856892 0.03501585001849028 -0.1169514715647325 0.2044219586110518 0.07332039927656554
-0.10075025661628002 0.055251612999143974 0.11499182391765246 -0.22108878259425216 0.23308872031339198 0.05530805181415983 0.08906223414446415 0.025531420741001367
0.24395941839454402 0.20076682272575733 -0.01047692427669769 -0.06114353797527317 0.038169100211606945 -0.009088270311112102 0.2670642909698511 0.13240364999228318
-0.05332345710808835 0.3090819514365937 0.009322412640082385 -0.08365820619432879 0.022993718112167234 0.16860791246607873 -0.2727255742486221 0.0414364650797075
0.04864318330285677 0.010542578673077365 0.08070108310520828 -0.011022914205080237 0.10279060440374134 0.02405222947803458 -0.2758865858850484 0.14141956087587024
-0.07586515410000079 -0.17550091538808532 -0.21837317000892895 0.26969976974910637 0.13485605001789897 0.12851413665911754 0.23197737269932536 0.03135934254597995
-0.14557454609085616 -0.301298925012309 0.08936241546829025 0.40394590214292214 0.19621238309519293 -0.021631776486424805 0.11677821044986966 -0.12720250178770803
-0.09643094601633113 -0.00703227970331372 0.006719369718563776 0.06542533154399768 -0.06102907972873859 0.05208641891107503 0.01767674351083163 -0.10443143265596855
0.09084015194565442 0.16001165118973124 0.005415530529426597 0.08431657754117365 -0.2236460724847311 0.2245889517800156 0.21768907904732127 0.11265672946225533
-0.08862590618386575 -0.18456038468512878 -0.11991147530710268 -0.38677342227437617 -0.05299140032302521 -0.015889735142572296 0.093913044800533 0.06366716540767385
-0.029126306412091952 -0.3288248844824278 -0.23731201636382862 -0.08039376424188464 -0.1722362582271008 -0.08674924147572165 0.010293796210073513 0.09302844102971931
00000000: 6290 d845 c823 c8bf 2d96 bd5b 9dd8 d03f
00000010: 36ac a6bb 64a1 8a3f dfde d930 84c5 9d3f
00000020: b104 c255 0ae1 c43f 6604 595e 53d0 c0bf
00000030: 16f3 4c7e de03 c1bf 2e6e e3e7 64a0 5b3f
00000040: c5a8 7ebd f275 c0bf 71ae aee7 2950 d83f
00000050: cf9e fe32 efc7 c93f b6b0 b921 1cb6 bd3f
00000060: 2815 2bb9 6dbc c5bf 18cf 2231 afec d23f
00000070: 07a6 c860 4881 78bf 0e36 fae0 53b6 ca3f
00000080: a3d5 d548 918d b6bf db6b 760a db64 bd3f
00000090: 0a86 4e1e 3b6f c0bf bea9 bd6b 0c6a a7bf
000000a0: 3a97 0e70 4311 663f c301 11dc 14c0 ad3f
000000b0: e42a e8a4 eaa1 d33f 2227 6016 f854 d73f
000000c0: 7ffb 471e 4810 b2bf 2f61 42f6 f380 a13f
000000d0: 5565 ca1e 966f d8bf b972 d7b6 6553 b33f
000000e0: b22e 238f fce4 aa3f 331b e799 80df 8c3f
000000f0: 7de0 2d37 c4fa abbf 8b8c d12b 4bb5 a4bf
00000100: 8e46 b3d8 e7d5 a73f 730f aa37 9b3c bb3f
00000110: 8c50 d7a0 659d c33f b9ba f445 0e2d c9bf
00000120: 3f0a 0adf a9e4 b6bf 4478 b6c2 4cb1 b3bf
00000130: 1b66 7df1 6903 d03f b3f5 6a23 dee6 97bf
00000140: 26f3 f065 ad24 ab3f e761 478a 0a94 c0bf
00000150: 2c89 1919 c552 cbbf 397d 7edc ce92 b73f
00000160: 4714 9926 0c6e a33f 4c0d 2122 19e1 b63f
00000170: e66d a484 6d13 d5bf 820b 89b1 95d4 b83f
00000180: 309c ffe7 1554 cfbf f553 8c03 fb85 c8bf
00000190: 36d0 cc6c 20cd ce3f baad 573e b3a4 a4bf
000001a0: c0a2 5f63 8e4c 83bf d07f 8553 4118 a53f
000001b0: f484 60db f4bf cf3f 00f0 f839 9259 d1bf
000001c0: df39 2b54 8362 c2bf 5998 17a6 62e2 c13f
000001d0: b90b 7431 d93b d23f 7d29 6706 d8d4 853f
000001e0: 83b3 a15e c4a6 c63f b8e9 c8c6 ff6a bcbf
000001f0: b9d8 039a ff9b c23f 48d7 c4e4 0050 a93f
00000200: a041 3229 7bab bc3f d3c2 a9e9 2ed4 c7bf
00000210: a78b 0c5b d165 c4bf 4ea6 3e93 1e37 ccbf
00000220: acab 65f4 8a2e ce3f 696c db2c 5350 c33f
00000230: d67d 98d8 b1d6 c93f 2ea0 070b 5a79 afbf
00000240: 038b ca23 982d b93f c9b3 de21 031b d03f
00000250: e13f 132f aab6 933f 9748 3dae ef91 b63f
00000260: ac47 67f5 007d b7bf 1fd3 4283 cfe8 bf3f
00000270: d05a 20d5 5498 d2bf 234d c1c8 324b d2bf
00000280: b299 2566 40e8 9e3f 79d7 a3aa 6b8b b33f
00000290: 1ae7 f488 5ae0 cc3f 6b8a 744c c4cc a2bf
000002a0: 824e 18fe 295e a63f 7b23 4ca0 358d babf
000002b0: 334c add9 440e c1bf 8062 a383 67c4 c53f
000002c0: 8ffe 82e3 0e72 87bf 4176 43d4 3fc0 c4bf
000002d0: 72b2 d2f5 a7b3 ccbf dbb1 f77e 234d babf
000002e0: ee03 6c6d fd06 c4bf 9333 ae13 4f49 9bbf
000002f0: a7f3 7778 a8cf c2bf 8bf6 9517 13d5 c2bf
00000300: 1b6b 124d 8d08 b3bf 89e8 8389 8018 d1bf
00000310: ea73 568b e961 6bbf 3780 07d2 7f48 ccbf
00000320: 3dc9 a977 301a d3bf 2261 56c4 9de0 babf
00000330: 81b4 1be0 a17a 943f c3b5 328a e98e bf3f
00000340: a60d 020e deee c33f 0599 415b fb2a b23f
00000350: 994f 2c3f ae07 c43f 7c1a 288b 7cc3 cebf
00000360: 81d2 ff3e 62aa b53f 368b e5dd 533b bb3f
00000370: 360e 9e52 71b0 bbbf 45ea c71c 684c 85bf
00000380: 37cc 062f 98af b33f 42d3 a395 9ade c43f
00000390: 31e3 e57b 292f d0bf cb30 1e80 812b c63f
000003a0: 3ddb 548e cc71 ab3f 2b04 1cb0 b777 d6bf
000003b0: d58c d4db 1bf7 cfbf 37c7 8a42 1683 ab3f
000003c0: e7d2 1256 ca3b a23f 8644 43ea 0bdc c9bf
000003d0: f05d eaf2 2f9f cabf f066 a540 abae 9d3f
000003e0: 6dd1 a4f9 bb9d 42bf 4d06 f4bb 9041 a2bf
000003f0: eb8d e18c b08b ccbf bcfd c643 3162 c1bf
00000400: 7e79 17ea e333 653f 9679 3fcf 9df9 c7bf
00000410: 45cb 9c5c cda8 bfbf 2a1a af94 da14 c6bf
00000420: 5c5a a1bc 9958 a53f 4a21 e807 58da ca3f
00000430: 38ea 0f91 6647 c43f b4c5 ae84 7522 a03f
00000440: 6d97 f84a d1c2 c53f e000 41e4 32fe d1bf
00000450: f5cf de74 77f6 b93f 7455 6ed8 37b4 a93f
00000460: 9211 d72c da0b cdbf a584 d97e b941 c33f
00000470: 2e63 dd61 1f98 a13f cad7 cf53 4cb6 ab3f
00000480: 8bb9 9b59 2f63 d2bf bccb cee1 8a50 9f3f
00000490: 71c1 4edd 0a8b c3bf 6fd7 a225 8652 cdbf
000004a0: 3f01 443e 9d23 d8bf e740 eb33 0ef4 aa3f
000004b0: 10e3 cb01 96ff c4bf 7d33 1ba1 6fb2 c33f
000004c0: fa41 e79f 7118 bd3f d092 4d67 70a2 93bf
000004d0: a901 3f69 ee73 c63f 77a5 f648 0453 d33f
000004e0: d2cc 544d e768 b23f a7c9 eeeb 925e b3bf
000004f0: 9bc4 8efa 23a5 d43f ea05 faca da92 c2bf
00000500: 432f 68e8 6d8e b8bf 99f9 d7d8 bef9 cabf
00000510: 352c 42f5 f2df b63f 35c4 3d96 f541 d13f
00000520: d925 517d 2424 84bf 95c2 3355 d50a 633f
00000530: 71f3 d457 bf38 5dbf 9950 7861 74ff d23f
00000540: fcac 225f 5980 d4bf 7c41 e756 8a3f c1bf
00000550: 06ce 5626 c494 c73f cc82 956a 5c2f c6bf
00000560: c094 57f5 98ed a13f 07f0 9619 88f0 bdbf
00000570: 3fcc 68ad 7f2a ca3f 49c3 052d 20c5 b23f
00000580: 0904 3bd1 c4ca b9bf 75e0 c37d f049 ac3f
00000590: 15a1 08ab 1a70 bd3f 359c 6021 a34c ccbf
000005a0: 4f00 68e7 d9d5 cd3f c99c 7e43 5651 ac3f
000005b0: 0a8c f556 c8cc b63f 477d 69a4 e824 9a3f
000005c0: bb22 c7ed 0f3a cf3f 794e dd2c bab2 c93f
000005d0: 4f76 0cf9 ec74 85bf 415a eeaf 344e afbf
000005e0: 85d1 407a e68a a33f 6783 1bfe de9c 82bf
000005f0: ad46 e9d2 9417 d13f e13f 4b51 9af2 c03f
00000600: aa1d c750 364d abbf d50e 4daa ffc7 d33f
00000610: 8492 450b a117 833f f48b a5cb 9f6a b5bf
00000620: a586 384d aa8b 973f ebbe f1ae f194 c53f
00000630: cc8f 8bf7 5574 d1bf 2925 c20c 2937 a53f
00000640: 8f0f eb62 c2e7 a83f ae55 eef4 5897 853f
00000650: 374b b080 d3a8 b43f 27b4 2380 2e93 86bf
00000660: 5909 402c 7c50 ba3f 8c24 04cc 25a1 983f
00000670: 1902 f235 20a8 d1bf 63ff 7c42 091a c23f
00000680: 0df8 c313 e66b b3bf 1044 0162 d076 c6bf
00000690: b38f c1eb a6f3 cbbf c0e9 b3d2 c242 d13f
000006a0: 964f 3f8a f642 c13f 9625 03b7 2673 c03f
000006b0: e3ea 933e 6fb1 cd3f 616e 51ed 540e a03f
000006c0: 078e 4bcd 2fa2 c2bf 57dc 4f49 7b48 d3bf
000006d0: f788 ed8b 74e0 b63f fca6 c3e9 3fda d93f
000006e0: df66 3bc4 7c1d c93f 271a 41f2 a326 96bf
000006f0: 2681 c442 2de5 bd3f 26e4 92ec 2b48 c0bf
00000700: 5565 76cf b2af b8bf c610 7935 e1cd 7cbf
00000710: 6b30 0e13 c585 7b3f b2b9 4feb b6bf b03f
00000720: ed6e 141b 343f afbf a2e0 9333 12ab aa3f
00000730: 4a7e 1d2d da19 923f 308b eeb3 04bc babf
00000740: 882f c5d9 4c41 b73f 9b5f 6b04 437b c43f
00000750: 2be3 3a68 982e 763f 13cc 0c6f c595 b53f
00000760: afb2 993b 6fa0 ccbf 4413 78ad 54bf cc3f
00000770: 7430 9a59 3cdd cb3f fef6 b648 12d7 bc3f
00000780: 6558 a3f8 2fb0 b6bf 2b0e 2eb8 ac9f c7bf
00000790: 21ef dbb8 84b2 bebf 3059 e84f e5c0 d8bf
000007a0: 2499 b656 b021 abbf 1e28 1e13 6645 90bf
000007b0: d208 1670 af0a b83f 7b46 41c9 7d4c b03f
000007c0: 0d0c f955 49d3 9dbf e1a1 3d87 770b d5bf
000007d0: bd7f 9d7a 3d60 cebf 73a2 388c af94 b4bf
000007e0: dea9 2274 d60b c6bf d34d 17c3 3235 b6bf
000007f0: 7375 97f0 e914 853f e10c d23f b6d0 b73f

model.3.bias f8 [15]
0.10555212986929056 0.07723231117369034 0.24901283328572008 0.13935525114287917 0.1760629598488236 0.21479999185906337 0.29477064209605464 -0.10969173821626386
0.2798524404004216 -0.1952951992275265 0.1351457491965103 -0.053031093869154465 -0.015497685359934973 0.14775409183199198 0.13107277049192168
00000000: b3ce cfe1 7605 bb3f a07c af2a 7fc5 b33f
00000010: 438c 9f0b a7df cf3f c49e 1793 64d6 c13f
00000020: 6538 4b27 3b89 c63f 7b9d 1bee 907e cb3f
00000030: 06e7 e7ae 85dd d23f 3fbe 47fc c114 bcbf
00000040: 3b70 ce35 1ae9 d13f 79bf dfde 6eff c8bf
00000050: f207 7fb6 744c c13f bba1 ad3b e426 abbf
00000060: 2be6 461e 40bd 8fbf 0961 2228 9be9 c23f
00000070: 6857 5417 fec6 c03f

model.5.weight f8 [15]
1.2427047498736157 1.2394624014926336 1.2516972565697675 1.3523824912398703 1.2082556076595214 1.3102561672329296 1.059801119300042 1.0945546910136863
1.4060750182162485 1.1822917827009118 1.5705674105722556 1.2963714759716163 1.0209673480053745 1.3018722791369681 1.067312317319671
00000000: 19a8 3460 1ee2 f33f 0d85 f086 d6d4 f33f
00000010: 755c d7b3 f306 f43f 97ee b8d2 5ba3 f53f
00000020: 35b3 01d5 0355 f33f 245d ba2b cff6 f43f
00000030: a886 ba04 f2f4 f03f 0a65 99c7 4b83 f13f
00000040: dc61 af84 487f f63f b27a d0c9 aaea f23f
00000050: cf23 094b 0b21 f93f d73e 4c04 f0bd f43f
00000060: 9078 9fdb e155 f03f 6c65 e706 78d4 f43f
00000070: 6b18 9814 b613 f13f

model.5.bias f8 [15]
-0.34413098012401394 -0.35380750248542364 -0.3420968425242555 0.43345159999474053 0.432089774483928 -0.416213739813452 -0.4537650027842589 -0.4058739583518996
0.4160160689876316 0.37722512957811866 0.4934084761349298 0.4326032041003752 -0.38996009590110775 0.4256821702042952 -0.3951350324501756
00000000: 8313 4bf2 3d06 d6bf ff46 1039 c8a4 d6bf
00000010: f137 ad27 eae4 d5bf 0b15 98c7 abbd db3f
00000020: 0f0c 96de 5ba7 db3f 9c41 29f4 3ea3 dabf
00000030: 82c6 c15d 7c0a ddbf add8 5ac4 d6f9 d9bf
00000040: 1164 badc 01a0 da3f c91c b1de 7424 d83f
00000050: e865 2425 0194 df3f 1261 7059 c5af db3f
00000060: 5ffa a830 1bf5 d8bf e022 e16d 603e db3f
00000070: 5f27 7872 e449 d9bf

model.5.running_mean f8 [15]
0.653144362158675 0.6740375606489999 0.9794776120068559 0.3201571046546075 0.4997236303671018 0.8073759339918971 0.8926608046315829 0.46283195603946503
0.3699643623894924 0.5372184450185553 0.23346087225025616 0.6584759049968452 0.6191284295076755 0.37077930600850867 0.6315028060921395
00000000: aa39 6101 8fe6 e43f 146b e837 b791 e53f
00000010: d779 d76e e157 ef3f adb5 8439 747d d43f
00000020: 1dc4 5dd2 78fb df3f 2c53 020e 06d6 e93f
00000030: c809 4a64 ad90 ec3f f2ec aeec 099f dd3f
00000040: c47e 4901 7fad d73f 9634 85bc e430 e13f
00000050: 25f1 9abd 0be2 cd3f 644b a50f 3c12 e53f
00000060: 404c 986c e6cf e33f 8bc4 5520 d9ba d73f
00000070: 5cef 6f5f 4535 e43f

model.5.running_var f8 [15]
0.8945056762903918 0.6046086811748612 0.535283532799476 0.23449375722429802 0.3102801696414394 0.8709849202435543 0.7460801249978238 0.5717099336234428
0.2784732657374922 0.4699556672063399 0.13436547369546814 0.7659913224843896 0.763600550652987 0.20186640501251926 0.6105165727187554
00000000: 741d 385e ca9f ec3f 50c2 104e f458 e33f
00000010: 46c1 6eee 0a21 e13f c17f 3235 e403 ce3f
00000020: a344 4d5b a1db d33f e12a 78c4 1bdf eb3f
00000030: b9f5 216d e3df e73f a8c0 76a1 724b e23f
00000040: 3cc8 4988 81d2 d13f 5526 4eef c013 de3f
00000050: 14e6 9d49 e332 c13f 45e3 e23b 0083 e83f
00000060: b463 086c 6a6f e83f 5b4d d823 c2d6 c93f
00000070: 26c7 2f0d 5a89 e33f

model.7.weight f8 [1, 15]
-0.3092844225381753 -0.3702917741136458 -0.40101925794209553 0.5463058280097823 0.5140050646700972 -0.3724860998985003 -0.25168769901597177 -0.2523623510917642
0.7537630734895605 0.41733652172172003 0.6879439170108745 0.5496516425806474 -0.30537287369697075 0.5726984958916816 -0.39813307990577285
00000000: 65ad fde3 50cb d3bf 7cf0 f244 dcb2 d7bf
00000010: f95b 7bad 4caa d9bf a451 1d5c 567b e13f
00000020: db90 d7bf ba72 e03f 5dd5 51f0 cfd6 d7bf
00000030: d00f 05b9 a61b d0bf 2e92 2b6b b426 d0bf
00000040: 513e b2bc d31e e83f d527 0e3e a4b5 da3f
00000050: 2c67 21f6 a203 e63f 3173 a20a bf96 e13f
00000060: 3c4c 67aa 3a8b d3bf 5a57 cacb 8b53 e23f
00000070: caaa 692b 037b d9bf

model.7.bias f8 [1]
0.15515930469342393
00000000: 8a07 aa95 42dc c33f

exp_avg f8 [30, 33]
-3.485485336577651e-05 -0.0007646886892467768 -0.001804989608728835 -0.0014603355078305243 0.0011162179364373414 -0.0014358440186846085 -0.0006804668081931722 -0.001484528848825617
0.00147242769917054 -0.0011746580513957252 -0.0006031660299166582 -0.0017419792045923104 0.0020180844289797795 -0.0014486793294512515 -0.001174100893596328 -0.0026056160646752893
-0.0006287712377424391 -0.0020270145708576196 -0.001817357609041339 -0.0007973869745043411 0.0009443793163342326 -0.002278758363647246 0.0006709723966353554 -0.0014576288415796303
-0.0009564766608139067 -0.0014913378490096724 -0.0015227681591620944 -0.0020231054733661907 -0.001752449601756479 -0.0009276422926849642 -0.001546155909297997 -0.0010722686890309403
-0.0013824986415849018 0.0007699030869472147 -0.00036418898101744034 0.0004808913988959568 0.0009424959819462076 -0.000954288317714724 -0.0012628814390537482 -0.001743136853786491
-0.0004764428246227263 -0.00024112881964574948 -0.001628079163598379 -0.002962266319196042 -0.0013891470016421123 0.0002823898375320303 0.00023039982151003662 -0.004553157634751905
-0.0003135292225364455 0.00025322109097286285 0.0010881956770658473 -0.0011219616975771422 0.000604622643206497 -0.0005908694392342099 0.0019039276602512525 0.0017459521068780457
0.0007961626216674945 0.0014480025118384927 9.923659563211446e-05 0.0017608562407960405 0.0006251200428372339 0.0013819809728062204 0.0002743745655078118 -0.0011333936786416788
6.17849558775572e-05 -0.0009210770601136554 0.002102032317029378 0.001877243335565247 -0.001848590999386728 0.0027083046004719963 -0.0015718839421810927 0.00237573608168962
-0.0026860781727131326 0.003640515014902654 -0.0034474447545194543 0.0014625246338365902 -0.0008690073022978355 0.001306393406045879 0.0018640153432345316 0.004373841087921625
-0.004608835585688413 0.0024075040666739623 0.0007850072460277737 0.004314815327093034 0.0025963740305571656 0.003893328076107779 0.003068276937689369 0.00355046971980231
0.0035091444121250546 0.003594836328108604 0.0006096566938934598 0.0022184618016951245 0.0002745088160339282 0.006580691057881061 -0.002364069345885954 0.0039674574060181225
-0.0021700532035122213 0.005140549210126482 -0.0019949722701639327 0.003307619018542327 -0.008224064301607794 -0.003016091545961352 -0.005089919328086756 -7.460057371097877e-05
-0.004246406206165619 -0.004673719336496123 -0.0018205056189710884 -0.00034540132639183403 -0.00718241792372282 -0.00025614011840800516 -0.002067735062764796 0.005265673675956247
0.0006826896850639322 -0.009379676921175284 -0.0017812587964916294 -0.005541828892711213 -0.0008021666654215741 -0.004321027343546907 0.0012160275918954187 0.0034954839874078896
-0.0028680579925665804 -0.0005337049655761503 -0.0016247726588611649 -0.0041221081159991384 -0.0019144737688328393 -0.0035336257601973693 -0.0014525678683483879 -0.002547751119631945
0.002736532450570425 -0.004104693292647059 0.003799713836633891 -0.003404775260132806 0.0031779661592149103 -0.0020407838981161353 -0.002312988734097151 0.002740157997194676
-0.0027600680040660674 -0.0015261910955809152 -0.003037772984247937 0.0007359622226667737 -0.0025232384762637256 -0.0022608415508493856 -0.004524128825939593 0.0012989613335991233
0.001981576391394569 0.0023210121202344187 -0.0035917075467923245 0.001961144443146199 -4.3761900104187745e-06 0.0032133308642509515 0.002277515305937257 0.0030952374221055326
0.0028202089813205633 0.0014937127340509013 0.000938518998089397 0.0006695939004080577 0.0018059875750792876 -0.0009111178063746212 0.0015274655881028908 0.001956086678168267
0.00065340799136306 0.0024054455645101474 -0.0014856486286965315 0.001121544496453604 0.0011636728620023065 0.0012363518310585483 0.003222972495221327 -0.001155501117201789
0.0035851970887792206 -0.002001611418962203 0.0010258033594565286 -0.0025325374438248155 0.002990301849237484 -0.0016075183374237544 0.0028019108050029076 -0.0008966165917678224
0.0013200528622607332 -0.0007625875736455399 0.002502326148627445 -0.0018187992572765426 0.002661450683651082 -0.00044475432860964216 0.0034011490658273414 -0.00034511029667001547
0.0023210799700500856 -0.002514117790700858 0.004190232727569062 0.0016183219152675326 0.002916416161790844 -0.0004090917551824656 0.001768981591974952 0.0015527612750640503
0.005174008527604734 -0.0022454081032288863 0.0025919219834212217 -0.0013653718131067401 0.001876691726635484 -0.0019856716448959687 -0.0006792215273234934 0.001519177948890376
0.0017223415837869405 0.0007708299948555328 0.002987109801873203 2.3455593023951426e-05 0.002946777751105573 -0.0019477434848895147 0.0021024820136812585 -0.0014038946960994866
0.0032992151958519482 -0.0027728813153269885 0.002302279192049708 -0.0026771659282623793 0.0020720820810937904 -0.003628596223582879 0.0007764368438847955 -0.0036788235985306286
0.000705000677433459 -0.004422467310689058 -0.0007006333314733896 -0.001946924297099661 -0.000495238159465529 -0.0026037437383816687 -0.0007765106451204345 -0.002019544092287421
-0.0006028774717327207 -0.0012884208793740976 -0.0013142428994873361 -0.001445587933756741 -0.0007990157536121529 -0.001373183405941518 -0.0013515705080788636 -0.000277600091066197
0.0015321580820930798 -0.00038273349977933506 0.003933500249321791 -0.0017313903988877897 0.002621522167472797 -0.00012109875008555772 0.002272715383382121 -0.00015269615110009854
0.002472337379867625 -0.0002230973005692811 0.0026237801793287433 0.0002598644157831127 0.002242708029631534 0.0014998248327068122 0.0017305533874688037 0.001518848928015517
0.0011200539481265226 0.0012593498146017592 0.0005952760076363807 0.0002884294828077875 0.0011478487441462602 0.001099632008209905 0.0006709576818947315 -0.00013968844039719428
00000000: 0a15 7ba4 2346 02bf bc51 ba74 ac0e 49bf
00000010: 32fb b3d5 ac92 5dbf d015 d44f 17ed 57bf
00000020: e6ad 0fe2 c149 523f a2d8 8dc6 5d86 57bf
00000030: 1746 f657 2b4c 46bf 335f c3b6 9052 58bf
00000040: c309 1334 cf1f 583f 2ae6 8a7a df3e 53bf
00000050: a0b9 af2f b9c3 43bf 54c4 b2ed 638a 5cbf
00000060: 12e7 efd3 3a88 603f fc9f e995 33bc 57bf
00000070: 283f 2c3c 893c 53bf 6c2c 1479 5f58 65bf
00000080: 13f1 8df3 839a 44bf e289 4a29 f59a 60bf
00000090: 0af6 bddf 8cc6 5dbf b4fe 267d f720 4abf
000000a0: 089a ab23 07f2 4e3f 471a b714 e7aa 62bf
000000b0: 0037 0240 86fc 453f 0b1a 130d bde1 57bf
000000c0: b170 21fd 8157 4fbf e96d 7bd2 1f6f 58bf
000000d0: 42f8 59dc f3f2 58bf 60de 057b c292 60bf
000000e0: 3640 8e6e 4eb6 5cbf f0a8 9ca7 a065 4ebf
000000f0: 992c 2844 0c55 59bf 2c23 ecbc 6b91 51bf
00000100: eca7 f39c 9ea6 56bf f7f6 2d4a 6a3a 493f
00000110: 5c29 56c3 13de 37bf 1f98 c8d4 0484 3f3f
00000120: 0b19 a4b5 3ae2 4e3f 6300 ca8e 2645 4fbf
00000130: 4e7e af9e e8b0 54bf 7bc2 e2f1 3e8f 5cbf
00000140: 1ca4 a459 6239 3fbf 511c fcc9 f09a 2fbf
00000150: 503d d4b0 a8ac 5abf eece d09e 5244 68bf
00000160: 09b9 3f3c 81c2 56bf 77a7 ee1d b781 323f
00000170: 8d5a 9365 ef32 2e3f cf1b 28f2 54a6 72bf
00000180: 5b8e d3c1 258c 34bf c53b ec4d 5898 303f
00000190: bdaf 0e36 39d4 513f 8cf1 1933 d961 52bf
000001a0: 5ba4 4f3d f1cf 433f 6abe 7775 925c 43bf
000001b0: afff 38c2 a631 5f3f cc5a c3cc 0d9b 5c3f
000001c0: 5de0 0f36 b216 4a3f 832d b4db 5cb9 573f
000001d0: aa93 31bb a703 1a3f 3e38 e6fd 90d9 5c3f
000001e0: c37c ed11 e37b 443f d7cc 3dc5 72a4 563f
000001f0: c44e 24c9 3dfb 313f f6ea 2032 cc91 52bf
00000200: 3ad1 a275 5132 103f f71a d6ec 8d2e 4ebf
00000210: 7f1c d101 4838 613f 939d e7ae bac1 5e3f
00000220: 16fa b478 8d49 5ebf f7e6 f8f5 b92f 663f
00000230: be51 fc87 f5c0 59bf 0808 cb98 4776 633f
00000240: c66d 003d 1d01 66bf 9450 bf9d b6d2 6d3f
00000250: 5fb4 36cf d03d 6cbf 8efa 33de 45f6 573f
00000260: 2dd6 bff8 c279 4cbf fa6d 193d 6967 553f
00000270: b24f 0f3c 3f8a 5e3f 986d e306 4eea 713f
00000280: 388e cfe1 b6e0 72bf 9f3b 67e7 e6b8 633f
00000290: 91ae 7239 1eb9 493f b184 7d6b 69ac 713f
000002a0: 5ee7 94b1 fd44 653f 2bac 4d98 e6e4 6f3f
000002b0: a83e 47a3 a422 693f d3a7 9fea df15 6d3f
000002c0: 4fa7 958f 35bf 6c3f aa9f d60e eb72 6d3f
000002d0: 1d94 f1c7 2bfa 433f afb3 579c 732c 623f
000002e0: 0b05 2863 7efd 313f 8011 0fce 5af4 7a3f
000002f0: fd73 d510 d05d 63bf 88f7 e93c 2e40 703f
00000300: 95ef 4471 eec6 61bf 5205 dbab 410e 753f
00000310: 8559 0495 c257 60bf 947d 6470 9418 6b3f
00000320: ee8f b939 c7d7 80bf b215 a7d1 33b5 68bf
00000330: 66c5 dad0 2ad9 74bf e998 ef18 5c8e 13bf
00000340: 3e07 7ffc ad64 71bf 3906 37fb bf24 73bf
00000350: 5a60 1f06 c1d3 5dbf 9ff8 9d66 dfa2 36bf
00000360: 44e1 6aa1 4f6b 7dbf d48e 876e 51c9 30bf
00000370: e470 15cf 5af0 60bf 2f9b ac83 7591 753f
00000380: dafc 71ef d05e 463f 53ea fcec a635 83bf
00000390: 7b88 b411 242f 5dbf 44e5 aa5d 07b3 76bf
000003a0: 13cd 05cc 0f49 4abf 93af 02f2 ecb2 71bf
000003b0: cc11 3faf 63ec 533f 6a83 1bad 8fa2 6c3f
000003c0: a6cf fee8 c07e 67bf 45f4 b9af 0a7d 41bf
000003d0: a643 ba5b ca9e 5abf 9eda c7f8 57e2 70bf
000003e0: a8d8 798e e25d 5fbf 5177 71e2 8cf2 6cbf
000003f0: 9f80 58df 82cc 57bf 62de 9677 05df 64bf
00000400: 7908 26ac ec6a 663f 7883 3b37 15d0 70bf
00000410: d235 33d5 9320 6f3f c75c 8fcc 54e4 6bbf
00000420: a288 1797 ad08 6a3f 1237 3883 d5b7 60bf
00000430: 2bc0 015f b0f2 62bf 747c 7b1f 8772 663f
00000440: 578a fd39 489c 66bf 8429 f335 4f01 59bf
00000450: 562e d7f3 abe2 68bf c186 b6d6 b21d 483f
00000460: 6db8 8957 9dab 64bf 0efa b610 5485 62bf
00000470: acd5 9a95 e487 72bf c7b6 941c 3d48 553f
00000480: 8245 75b9 aa3b 603f 4404 cde4 8303 633f
00000490: 6c9b 684e 5b6c 6dbf e299 df67 d110 603f
000004a0: dee5 50f3 e55a d2be 6655 24df d752 6a3f
000004b0: 431b 2ab8 4ba8 623f 62a3 0af0 2e5b 693f
000004c0: 6e0c f72a 681a 673f d158 e9d5 1579 583f
000004d0: 51dc a433 dec0 4e3f 497a b1f3 f5f0 453f
000004e0: 4dcb 9a64 dc96 5d3f f1fa 3097 02db 4dbf
000004f0: bd65 c9af a706 593f ffad f209 3606 603f
00000500: a6bc 17fa 2e69 453f d327 05c1 95b4 633f
00000510: c0a4 8211 4357 58bf 87cf ba3b 1960 523f
00000520: fcba ac38 cc10 533f 6f58 91ab a241 543f
00000530: 41f0 cf2e 1067 6a3f ad60 91e0 85ee 52bf
00000540: c567 df07 b45e 6d3f 6a05 aef2 ae65 60bf
00000550: 4d2f 62f8 87ce 503f 896e e8af 1dbf 64bf
00000560: 7a7e b914 1e7f 683f 7013 f7ab 6b56 5abf
00000570: ecf0 c268 08f4 663f 271e 2778 5d61 4dbf
00000580: 2e6b d5f7 b3a0 553f 65db 3558 0cfd 48bf
00000590: 05ec 1c1f c27f 643f 7dd1 fdd4 98cc 5dbf
000005a0: eea7 ad74 77cd 653f cb5c cf4b bd25 3dbf
000005b0: 0da7 3500 badc 6b3f d9cc 0d70 fd9d 36bf
000005c0: 602d 0252 a803 633f d62b 0fb6 7c98 64bf
000005d0: afcb 7008 c729 713f 7891 d4ec bb83 5a3f
000005e0: 1355 2a01 2be4 673f 8281 a6b5 6bcf 3abf
000005f0: a4ae 6c85 a5fb 5c3f 2cf7 45b9 c070 593f
00000600: 7304 a556 5731 753f 9c48 d34b f664 62bf
00000610: 6cea e184 a73b 653f c6e6 2fd2 c85e 56bf
00000620: 6ff3 cb65 6abf 5e3f 4a43 d058 4144 60bf
00000630: d560 901f b941 46bf b0d0 dde6 e4e3 583f
00000640: 4d0e 9831 0638 5c3f 08eb 30cf 3042 493f
00000650: d44d 135d 6c78 683f f16b 4214 5098 f83e
00000660: 74fd 3942 d723 683f ebe6 63a4 6de9 5fbf
00000670: 2c70 a76f 3939 613f 4134 a273 5c00 57bf
00000680: d3fb cbab f406 6b3f 79a2 1452 27b7 66bf
00000690: d373 c1ba 3adc 623f e186 7383 6cee 65bf
000006a0: 27ce bb98 78f9 603f b0ab 8ac3 b7b9 6dbf
000006b0: 50e2 0a6d 3971 493f a7e0 6361 0d23 6ebf
000006c0: 30ca 366d f919 473f 71fd 7807 4b1d 72bf
000006d0: 4197 619f 56f5 46bf 64e2 c30b fee5 5fbf
000006e0: dae4 6cd9 5b3a 40bf e42f 8346 7254 65bf
000006f0: e66c b3e9 d771 49bf d5d7 887a 4a8b 60bf
00000700: 62ac 2583 4dc1 43bf 36d6 9562 071c 55bf
00000710: f355 6d91 5588 55bf 93d8 8839 3caf 57bf
00000720: c8b6 ef43 a12e 4abf 47b6 7974 8c7f 56bf
00000730: b013 59c8 e524 56bf d9bb ff4f 5b31 32bf
00000740: 5a8c b636 561a 593f b5c6 58dd 3315 39bf
00000750: 5fd3 dfee 921c 703f 9eff f248 fa5d 5cbf
00000760: f87b 33ff ba79 653f 7016 50af ccbe 1fbf
00000770: d4ed d4c7 3a9e 623f 026a 4df3 a103 24bf
00000780: f863 1e06 de40 643f b1e5 3338 e73d 2dbf
00000790: 0bce fc41 777e 653f d97a cc2a cd07 313f
000007a0: cb2a 89b4 4c5f 623f aa0d cca6 b892 583f
000007b0: 0495 008d 775a 5c3f 0a0b 4c9e 83e2 583f
000007c0: d7e5 ecc4 d859 523f 58e6 2591 18a2 543f
000007d0: 68ee 107e 8981 433f 11fd 2332 0be7 323f
000007e0: 287b 4734 6dce 523f 324b d3e0 3004 523f
000007f0: e093 7ea6 66fc 453f a318 f790 2a4f 22bf
