dnn/ionosphere/fold_1_model.pt.pt (torch, 53050 bytes, 48 tensors)

model.0.weight f8 [20, 33]
00000000: 3ec5 6c34 4fa0 cfbf dc1f a42a 9417 d2bf
00000010: 8c88 cf98 b47e c9bf 261d 0c12 e4ab dcbf
00000020: 726e 398e 039d b53f 7a1e 9273 a9a9 cabf
00000030: 5ff1 6624 1fff af3f e786 89a8 f008 cd3f
00000040: 5ab1 6349 72e2 d0bf 4b4c fea1 73e3 9cbf
00000050: 9e85 4c5f ac0d c8bf cd93 872d 24b7 adbf
00000060: b112 065e 5e97 a13f b435 e663 5f64 c33f
00000070: 9fc5 fd09 756f acbf 7bf1 4b2e ca8a be3f
00000080: 4e29 ea66 4b7a c8bf be4e 1eef 79b0 c13f
00000090: 7432 b8eb 61f6 a9bf 66e8 9ce4 2bff a7bf
000000a0: ed2b 6ae9 1431 c2bf 2f4a f22d 32cd ba3f
000000b0: a85c 7708 6ec4 9f3f 5b9e a8df b832 933f
000000c0: 3d69 1cc0 f00d d0bf 67b4 c053 c405 adbf
000000d0: 61bd 3939 f76e c03f ac4f 7d94 2640 94bf
000000e0: ba10 3f5a abf3 bebf 4901 2a87 3dfd b9bf
000000f0: 9860 1716 5f88 c13f 518f 940f 8cbf a5bf
00000100: 42a7 70a7 7ebf a43f d0bc b952 7b72 d1bf
00000110: bee3 a8f4 c937 cbbf 4d12 c678 c327 c23f
00000120: 6f32 41a8 6ad7 9bbf 0a3c 611e 3bff d1bf
00000130: 4c91 ea48 4ef2 c4bf cd22 ccc1 0079 c7bf
00000140: cd7c 74dd 8208 c9bf d790 d210 5706 aabf
00000150: 4fb7 354b 3529 bdbf 8c06 3b7a 5118 c23f
00000160: aa75 fbfc 82ad ad3f 8f61 2c9c 2661 d43f
00000170: 8cb2 52ab 333d c1bf 1d34 c73e 5162 84bf
00000180: 10dc 91ee 06a0 a5bf 626a 7072 d256 d3bf
00000190: 1ac6 58f0 eb7b aebf 1447 ea4d 2047 c9bf
000001a0: 8532 9488 5209 d8bf 0ea2 c59b f197 c73f
000001b0: aacc 98f0 c8ea 6b3f 8a90 61aa 8196 bcbf
000001c0: cfaa d091 469c cebf ed99 f151 8ca5 ccbf
000001d0: 72f6 ac46 ac64 c53f 3428 978a e30b d0bf
000001e0: 23df 36b2 8834 d5bf f23c 7927 69c7 b5bf
000001f0: 43a7 33ac 7905 bdbf a9bc bd2a 8ae0 7d3f
00000200: 446b 6a2e f75d 90bf 9ff1 619b 640f b13f
00000210: e8a3 0929 6deb 5cbf 16ff 1efd cbac c53f
00000220: f6a5 7b98 f13f a43f 65b1 dcb1 29ed d3bf
00000230: 19e5 4f95 d655 cb3f 0c28 1377 1128 c93f
00000240: 12dd 9caa 54da d1bf f48f ecea 9eeb c1bf
00000250: e750 6eee 8f0b c43f b61c 0f93 e1a7 c2bf
00000260: 9063 95f7 8d55 ac3f 48bd 7754 c410 893f
00000270: 7941 6b25 906e bdbf 98a6 8402 7367 d2bf
00000280: f5cb 68a6 9f32 a5bf 8ca8 c273 48ca 9dbf
00000290: a392 3bed 1cc4 c23f abe6 c921 e162 c5bf
000002a0: 1fb6 91ec fc2f d03f d5a9 381e 8b44 c03f
000002b0: 8c21 0357 5d28 abbf 3898 cfe8 b715 c1bf
000002c0: 6b92 3f57 a7f8 d1bf 0d55 b640 51dd d1bf
000002d0: 70f2 90f8 4401 ce3f 08ac e672 d22f ca3f
000002e0: 1755 f665 3832 a9bf 754a 8c97 32ee 9b3f
000002f0: f89c f48c d890 c53f 7220 52d8 f985 ccbf
00000300: 4d02 4254 a3f9 c53f 9418 046b 400c c13f
00000310: 4ec1 a284 8ed4 bbbf 83bd 34b2 59ea 433f
00000320: 0664 d754 a0fa 6dbf 92c9 008d 382e 743f
00000330: 569d 29b9 c427 b23f 7433 5e95 3996 8b3f
00000340: b661 4f7d 01e6 a3bf eaa1 5984 a8f3 a83f
00000350: 530e da8d a67a c4bf 46d0 4e7d 6b94 d8bf
00000360: 48d5 ab66 0627 bb3f d04c 23c3 2051 b2bf
00000370: a77f 56de fee6 c6bf 1ad3 c5c1 68a0 b3bf
00000380: 6553 5116 337c c8bf 2207 3153 f9f3 d2bf
00000390: 8995 9545 e84b c7bf afa2 593f 1be4 7abf
000003a0: 40dd 7648 8f70 c83f 4d69 55ff 0f8b a3bf
000003b0: 62ab a97e c89d 9e3f e76e d654 48c9 d33f
000003c0: 3fc2 0361 bf23 cb3f aded 7d7b f57f b8bf
000003d0: 676c 0d6c d017 cebf a663 72cb 2677 aebf
000003e0: 34bb 6656 3b7b bf3f 113a 5551 45e4 7ebf
000003f0: d559 ea47 1004 c1bf 8b4f 3db5 1e14 b73f
00000400: 921d ba78 8517 b8bf c415 3982 d4d7 c9bf
00000410: 7198 4cff 464e c53f 3fd3 b86f afd9 c43f
00000420: ffc5 dba6 4bde d4bf da94 9195 ee14 c2bf
00000430: b009 51a8 eb77 b7bf 4007 13f3 80e9 b63f
00000440: 7e66 9be1 3c9f d5bf baf4 8186 aca0 af3f
00000450: bb6d e6f6 20a8 c43f 1a13 12ec 9b9a a6bf
00000460: ce93 2be2 cb65 ccbf de65 fe2c fe89 c43f
00000470: f9d1 bb1b 6167 bbbf 48c4 be38 f947 a33f
00000480: f6a8 0918 c18d cbbf 9811 7f1e 25f4 c03f
00000490: 38ab 67f0 ff55 ba3f 11ee 046a aa58 cd3f
000004a0: 0cd0 fe54 db05 a8bf 4431 1ec8 2583 c73f
000004b0: 0042 2340 5070 bbbf c7cb dd4d a3dc c23f
000004c0: c401 1fd6 6974 d53f 4835 dda1 8175 c03f
000004d0: eaf3 3dc6 cf6d abbf 016d af00 e29f cb3f
000004e0: 35d4 bbe2 ee0d aabf 93f4 9f5f 9735 ce3f
000004f0: c70f fd31 4e14 d13f 0d4d da83 9e39 963f
00000500: 5e86 4826 9bad b33f afbb 543b ac94 ce3f
00000510: 52b5 c777 bfc2 bbbf 3ebf 4c87 a2f0 953f
00000520: 1222 9d79 2dac d53f 6756 698d 83ef d83f
00000530: 8daf 94a8 dc80 c13f f629 5a08 c9e7 b73f
00000540: 815c d8eb a349 c13f 3f14 34fd 3b79 cfbf
00000550: 06c7 528b 5e2f cf3f 9420 d5f4 ea7d d13f
00000560: f5e5 699c a411 d63f dcc1 1b0e b93f bd3f
00000570: 6554 e57d a3a1 b1bf 9b91 2d63 d022 d3bf
00000580: a1f4 5af7 0a0f c3bf fe66 cc2b 3c47 b5bf
00000590: baed 98a6 5a2a ba3f ba1d f7b5 5341 b0bf
000005a0: 6455 5592 3f54 c03f 170c af95 1fc6 c63f
000005b0: 6d99 884d 2ee2 c63f e60c 668d f160 b13f
000005c0: e1c9 4317 5a65 ba3f 2611 508e d7f3 a5bf
000005d0: 0172 7f26 ae5d bc3f 2cc5 750b 8be8 b0bf
000005e0: 3ca5 cb82 cf13 cf3f 38b3 909c 0b1d bb3f
000005f0: ef71 22f6 edfb b7bf 696f 113f b78d 923f
00000600: 1ecd cfc6 c031 94bf 6425 f6a1 258c ac3f
00000610: 265e cf3b 9ebf b53f 5c06 184f 11f4 bfbf
00000620: 97fb e4f3 b945 b33f 6a87 00b4 7070 aabf
00000630: 8fb5 0da9 aac0 d63f bcf0 2572 38b1 b53f
00000640: ec85 ade6 672c bf3f c067 1dc8 3e3e d03f
00000650: f037 d295 da36 c73f fd89 76de 7da6 683f
00000660: f037 2f2f b611 da3f c96b 5d3b 0238 b1bf
00000670: 8919 73bd 8d8d d03f b7c2 582b 1f75 ac3f
00000680: 5b59 b1a1 2e91 d03f bf07 7d0d 0441 c4bf
00000690: 2f78 7745 94ae c93f 6344 493d 8917 bdbf
000006a0: e549 540d 0ee2 c1bf 339f db4a 486c c0bf
000006b0: 6242 fac0 7530 cf3f bb99 a54b 790d 923f
000006c0: 03c1 7116 0386 c8bf ef66 a30b dc51 b43f
000006d0: 3785 21e4 5bc1 b9bf 4b22 7b30 d860 993f
000006e0: 4d02 bef2 c007 d03f 52ac 8f30 94f3 c13f
000006f0: 6c76 edc8 fe9e d13f 13ff 2438 b007 d6bf
00000700: 02ec 37ea 1f47 c2bf f40c 0453 1dbf 93bf
00000710: bf45 b221 2ea3 ba3f fcd4 928d 2213 b6bf
00000720: 5331 7160 1cb3 c13f 37e6 56c4 fcbf c1bf
00000730: d787 7b54 5a9d c4bf d4a9 8ec4 1683 883f
00000740: c7e9 fd5f 878c c6bf b7d5 128e 01ed ba3f
00000750: 1ee7 9b93 76bb 7bbf 8348 0be2 59fc 833f
00000760: 4003 3258 df3b cebf f8c9 e416 bdc6 cb3f
00000770: c860 dfa8 b4b4 7e3f b1e5 b370 b300 c03f
00000780: d757 0ac1 9d90 d1bf 4441 ccb9 7d52 c03f
00000790: 1b94 921d 0e8b a7bf b7b4 d0f3 f27e 6ebf
000007a0: 22f6 93a1 6374 a9bf 4901 c202 653a a5bf
000007b0: 657e 5201 12e1 bf3f 5eb1 8778 b56c a63f
000007c0: b2b8 d85e 3ef9 c0bf ae56 9198 51eb bc3f
000007d0: cea8 a662 5acd c6bf 8912 b473 42b8 73bf
000007e0: 070a 7a88 f831 c8bf 329b 51b0 d006 b1bf
000007f0: b779 efe4 8b62 c6bf c06a 25fa b960 713f
-0.2470797544461138 -0.28268913425608644 -0.19917924367388584 -0.44799138796266147 0.0844270918109318 -0.20830267088989612 0.062493298715227345 0.22683532933574854
-0.26382119337974574 -0.02821140934208825 -0.18791727689044263 -0.05803788238316763 0.03435797593832513 0.15150062921422391 -0.05553785082782813 0.11930526380814925
-0.19123213315135462 0.1381981294222125 -0.05070787432132287 -0.04686867871937821 -0.14212285420612095 0.1046935426877915 0.031022757784594873 0.018748177195588727
-0.25085085640752763 -0.0566846229779479 0.12838640493599043 -0.019775965512351654 -0.12090559914855961 -0.10152039098648404 0.13697422579457874 -0.042477013494390044
0.04052348894067716 -0.2726124103418899 -0.21264004179263724 0.14183848759798182 -0.02718893672890704 -0.2812030598333314 -0.16364458618512356 -0.18338021719707456
-0.19557224095567563 -0.05082962112763461 -0.11391003690888833 0.14136713474549756 0.05796441400682835 0.31842961551003496 -0.134680231717898 -0.009953150490128288
-0.042236534712110196 -0.30217419791885025 -0.05953919705315176 -0.1974830990262083 -0.37556899392874526 0.18432445627264865 0.003407852612122027 -0.11167154702849494
-0.23914415473821868 -0.22380212784919654 0.16713479472121012 -0.2507256368086275 -0.3313314190267979 -0.0850740167017994 -0.1133647962011795 0.0072942158839019245
-0.015983450134267288 0.0666411284782442 -0.0017651144045436277 0.16933584079196667 0.03955035196652183 -0.31135027283996514 0.21355707445744868 0.1965352851314609
-0.2789508501186485 -0.1400030753221696 0.15660285131583082 -0.145748326116722 0.05534022948513162 0.012239011600256547 -0.11496830857800501 -0.28756404157557247
-0.04140185266842159 -0.029091960969403405 0.1466098936426948 -0.16708006048047727 0.2529289541479062 0.1270917794766563 -0.05304233252678889 -0.13347529285164383
-0.28080161590904734 -0.2791331417041228 0.2344137395574708 0.20458441362765734 -0.049211275526582714 0.027275839328533686 0.16848284609407194 -0.22283862173594887
0.17168084730293956 0.1331863901652396 -0.10871210802247797 0.0006077707261393093 -0.00365954699257687 0.004926892186676206 0.0709193183953308 0.01347012507519605
-0.038864180132523726 0.048733965068837495 -0.1599929993281984 -0.3840588306150078 0.10606422430631313 -0.07155041469677603 -0.1789244256624418 -0.0766664002492913
-0.1912902697537461 -0.2961409866730823 -0.18200400731727154 -0.00656519549884453 0.19093504942223127 -0.03817033759942721 0.02989877007568554 0.30916031155514506
0.21202842938466124 -0.09570249810160787 -0.2351017501449377 -0.05950280412179802 0.12297411784559814 -0.007541914722720936 -0.13293651114936603 0.09015075611870153
-0.09410890767514093 -0.20189911230606417 0.16645133462697317 0.16289322810339432 -0.32606784148001106 -0.141263793021756 -0.09167359217921134 0.08950048384124631
-0.3378441050714186 0.06177271978320094 0.16138088279408955 -0.04414832360001793 -0.2218565801951215 0.16046120831451466 -0.10704619338122957 0.03765848939600197
-0.21526349710195064 0.13245071400718866 0.10287475222837095 0.2292683618232876 -0.04691968357602158 0.18368980666526558 -0.10718251767981002 0.14735833456106048
0.33523031149163907 0.12858601001281955 -0.05357217116304709 0.21581673654041114 -0.050887551476911964 0.23601047677212658 0.2668643463296089 0.02170417480244873
0.07686776814127813 0.23891213318844737 -0.10844036745375732 0.021425761707347883 0.33863388897273794 0.38961876687731095 0.13674505454525523 0.0933805127516861
0.13505982414128329 -0.2458872782082455 0.243633096722583 0.2733104124968204 0.34482684397479996 0.11425358385509504 -0.06887265990856546 -0.29899987874366624
-0.1488965709485557 -0.08311821049974452 0.1022087723476294 -0.06349681084167616 0.12757105488951048 0.17792124565866693 0.17877749238796117 0.06788549139132591
0.10310900753010045 -0.042875991937793054 0.11080444755447873 -0.06604832677637223 0.24279207121370827 0.10591194698708939 -0.0936878896631652 0.01811872789799854
-0.019721042761330236 0.055756736775104426 0.08495511017041987 -0.1248179262256825 0.07528269009070097 -0.051639101002605894 0.3555094386018362 0.08473542010136986
0.12177132970602828 0.253799148010895 0.1813615066097891 0.0030090769175370445 0.4073310337815874 -0.06726087521876346 0.25863975048960036 0.05558106807837276
0.25886121549901525 -0.15823412569630865 0.20064023391654603 -0.11364038225407706 -0.1397111477932206 -0.12830451636477277 0.24366638109906363 0.017629523508185346
-0.1915897235480842 0.0793740776456635 -0.10060667342761041 0.024783494910283015 0.2504732485322492 0.1402459370723102 0.2753293001349906 -0.3442192600523281
-0.14279555260131366 -0.019283731643565852 0.10405243227639625 -0.08622947651277352 0.13827852925386228 -0.13867148959052297 -0.1610520279419336 0.01196878230424129
-0.17616359889127706 0.10517892569153885 -0.006770575704416774 0.009758665285890316 -0.23620216185011067 0.21700252168518808 0.007496553136626179 0.12502139094412493
-0.2744516739998039 0.12751742908631958 -0.04598278151505771 -0.003722643391049187 -0.049716104005693276 -0.04146114023842757 0.12452805073052671 0.04379813286127175
-0.1326063120954522 0.11296567892835682 -0.1781418782896424 -0.004814395502084631 -0.18902498878385662 -0.066510241552902 -0.17488239935387437 0.004242636178185932

model.0.bias f8 [20]
00000000: bbdd 3808 cb41 d4bf 36f7 59d0 4111 b8bf
00000010: 3b5c 5796 5222 af3f ffb9 7b36 fb0d d5bf
00000020: 8674 1cc1 5d18 5abf 6e06 fa06 7b49 593f
00000030: 2249 0bea 0077 a73f 596d 8d09 ce02 c8bf
00000040: 149e d40c 5fbe d9bf 5b01 570f 419d c3bf
00000050: fe06 a2ee e789 93bf 8987 33c4 db89 74bf
00000060: 3b4d 7cb1 9315 bebf 0a4d 7188 6f4a c73f
00000070: 0ab9 6f1c 6d6d 933f 24e4 7887 cbaf d53f
00000080: a60f 1cc3 b76e cabf 4606 7695 52d4 bc3f
00000090: 351a f30e 2aee d0bf 8d07 2b93 5087 ce3f
-0.316515691785266 -0.09401332222657008 0.06080873570652342 -0.3289783508361381 -0.0015927234239321588 0.0015433980405820352 0.04582980019553619 -0.18758559671810351
-0.4022443414018835 -0.15323651551262682 -0.019080757083890447 -0.005014284575027513 -0.11751673777717013 0.1819590965484184 0.018972115383740586 0.3388546774836547
-0.2065038397487317 0.11261478566123015 -0.2645363946907396 0.2385044783205185

model.2.weight f8 [20]
00000000: 3999 164f 68f8 f03f 5d30 57a2 e5a3 f03f
00000010: db12 de1e fb73 f13f b003 9477 1ee4 f03f
00000020: e9ba f2b0 944c ee3f 845a 6dbc 5cea ec3f
00000030: a0a0 41e2 febd f23f 185c 5742 f457 ed3f
00000040: 7111 d0a5 4269 f23f b56d 2beb a3a8 ed3f
00000050: 6eab 50d2 64b2 f03f 3c37 7444 c1b9 e93f
00000060: 59f2 6195 dc86 e73f cabf 1ca4 64bf f03f
00000070: c607 2093 3e3c f03f bcb3 245a 76da e93f
00000080: 5b38 5b4f 1c27 f13f 4ade fcee a2a8 eb3f
00000090: fe38 b286 4abc f33f c052 5aa4 2698 ec3f
1.0606463517556917 1.0400139180592511 1.090815659118724 1.0556931181929308 0.9468482452410544 0.9036086731164947 1.1713856542719796 0.9169865890243072
1.1506983258305719 0.9268359749943814 1.0435531821665012 0.8039251648894843 0.7352126042965877 1.0467268381726051 1.0147081133913942 0.8079177628147742
1.0720484828812207 0.8643355052690336 1.2334695111817946 0.8935731134430043

model.2.bias f8 [20]
00000000: cc6f 0baa fe2d c33f 7204 f1f0 10e7 a33f
00000010: 350c ea4e a169 833f 8b3f 9a8d a0b0 c93f
00000020: fe06 cbe5 d329 d4bf 8bee e462 4605 cc3f
00000030: 3507 a10e 25cb 713f d2ca bfa3 9212 c13f
00000040: 65e5 0bf8 ba97 c23f 04e5 e359 8229 a33f
00000050: 9ef4 06ac f02e b0bf b09a 646d ef74 27bf
00000060: a731 a2a1 f3f0 d83f eb5c 34c8 93bd a6bf
00000070: 5f33 d35f edba acbf f811 cea6 2e93 933f
00000080: 8682 9e81 855b d63f 142a ec65 f587 c33f
00000090: 55df 27fa ffe1 b3bf 3ed4 481c c496 ac3f
0.149841149358393 0.0388722700231562 0.009478817196628334 0.2007027331751455 -0.3150529617379191 0.21891097859212424 0.004344124559851716 0.13337929721418235
0.14525544273036953 0.037426064942289755 -0.06321624946481783 -0.00017896101662380958 0.38970652374771436 -0.044415109814673524 -0.0561136416887169 0.01911614316078844
0.34933602960703813 0.15258662678418544 -0.07766723496740487 0.05583775372762333

model.2.running_mean f8 [20]
00000000: 4060 f88c ef42 cd3f cac2 7f29 0a64 e43f
00000010: 8998 037d e835 dd3f d8d3 da39 7b14 c13f
00000020: dcc5 008a bdc2 e73f 3097 1bb6 8d86 e23f
00000030: 6d8a 146b d02f e33f 26d4 4235 c1a8 e13f
00000040: 8a4b cd73 4130 d73f 7b1d b39e 5b44 c63f
00000050: f1a9 8f7b 068e d43f c45b 775f acd6 dc3f
00000060: 95c2 981a fb95 da3f 3032 501e f858 e13f
00000070: 4664 beef 91fc e13f 1e69 c002 6e82 e43f
00000080: fc86 c82e d8b2 cc3f 6359 2e5b 5ad1 e43f
00000090: 4c66 ca6a fa0a d23f cd41 f76f 538d e13f
0.22860521682082613 0.637211876919616 0.456415292820005 0.13343754124585305 0.7425220198985545 0.5789249951164717 0.5995866862688907 0.5518499412779689
0.3623202925565968 0.1739611172581411 0.32116853777429727 0.4506026203429736 0.4154041061147294 0.5421104995780919 0.562081306695412 0.6409215978376641
0.2242078998979692 0.6505557804946814 0.28192005566379374 0.5485017000992741

model.2.running_var f8 [20]
00000000: 92f1 fc0b e4f4 d23f adf4 4e59 4f23 ef3f
00000010: 9c33 957e 0c55 e03f af4c 1038 c533 c83f
00000020: 03a9 4030 e926 e83f d616 d0dd fffd da3f
00000030: 623e ce15 3329 ee3f 7e38 dd35 4a72 e53f
00000040: 2e56 469f b783 d53f 9500 aeca 3559 ca3f
00000050: ab4e eac0 5a8b dc3f 0a8b a766 7c93 e23f
00000060: f215 8fa5 fdfe d93f 211d 1228 21b5 da3f
00000070: 2827 0b26 d1b0 ea3f 0020 5770 ac58 e73f
00000080: 0d92 01bb 16c4 cc3f 8541 2f7f 004f ed3f
00000090: e8f5 c38f cf58 d93f 3fbd 9229 b98c da3f
0.29619694872578706 0.9730602974228951 0.5103819343872718 0.1890799068210973 0.7547498648102934 0.421752897848234 0.9425292421237368 0.6702014019044922
0.33616438440489815 0.20584747692555952 0.44600552405720845 0.5805036549539591 0.40618840377678034 0.4173052684131609 0.8340841048277285 0.7295744127413855
0.2247341549983876 0.9158937915872661 0.3960455802879026 0.4148390680301936

model.3.weight f8 [20, 20]
00000000: 0158 909d 75a7 b8bf d8c7 7f1b bba2 bdbf
00000010: 0d85 c852 e87d d63f 0d36 5253 82c4 b1bf
00000020: 0fa5 0ec5 d2c3 95bf 3e86 c67c 8eb6 cbbf
00000030: 7c0f 9ace 4af7 afbf bf1b 8039 b4c5 a33f
00000040: 20ee 10ae 2bee d93f 7c09 8582 609a a6bf
00000050: a747 a2bc 0cd1 c0bf f66f 0520 cea3 b1bf
00000060: ae7a 1ec1 5f1e 923f b086 2fc1 a010 bebf
00000070: 2d06 74e9 a685 d1bf 314e d7d2 1151 62bf
00000080: 5439 c86e 83c6 d8bf cd50 88c0 0c3e b53f
00000090: a684 57e2 83fd 85bf 2d63 d639 88fd 9a3f
000000a0: 046b 8492 9afa c33f b2e9 6703 605c d73f
000000b0: 69a6 8878 940a d7bf 4da8 3bf5 2bbc 943f
000000c0: 9a6a 2d2e afdf c93f 5e4f 05d2 6a73 963f
000000d0: cc10 1a06 e215 aebf 3ab6 0417 f8bf c4bf
000000e0: d161 c294 f884 b6bf 25ce c680 af48 bcbf
000000f0: 7c32 2144 c8b8 c93f 47c5 3b4b 0e08 a43f
00000100: f627 8e0b 7417 9f3f 1646 ef4f cbb7 c83f
00000110: 89b4 3d01 4460 9a3f 2734 aad5 5f25 b1bf
00000120: 0cc4 d8df 60d3 abbf 4244 9aa9 fc4f b0bf
00000130: 5bed dc46 b83f c9bf db02 79f5 3102 d93f
00000140: b3c2 7d31 0522 cd3f 1652 9669 46d4 90bf
00000150: 921d 214c d8f2 d5bf 3478 99ea 9895 c73f
00000160: 4563 b6b7 1dcb bcbf 4716 996d eb1f cebf
00000170: 193d 5f22 226e d4bf 1651 4eb9 2f21 a43f
00000180: fc0e 2bc6 d768 d23f e997 68d0 969c c1bf
00000190: b803 041f 2eb2 ccbf 56ac 8479 38d7 d3bf
000001a0: 5471 8770 2b70 a9bf d0f3 22ae 0835 8bbf
000001b0: e1f8 8a8f 0766 ca3f dfae 4018 a991 c9bf
000001c0: 0d9b 03d0 6a0a a73f f7ab f9ab 89b7 b3bf
000001d0: a3de be94 3cda c8bf bbc7 76f5 a6d7 bc3f
000001e0: 18a5 89d9 08e0 c93f cc47 5441 e57a cfbf
000001f0: 30b7 0193 4dd5 d1bf 592e 0051 1b65 c03f
00000200: 0adf 4970 aab0 b03f 2682 3143 67d0 c03f
00000210: f7e2 43cf 8a42 9cbf 09fc 7dcc 3053 c6bf
00000220: ab3e 930e a66e aebf dcac 8109 a610 b3bf
00000230: ac1f 5ee6 a0de c9bf a385 5dfa 5d1b b03f
00000240: bf79 a897 0378 a5bf 0168 4905 247f d83f
00000250: 0628 56a8 a9ab babf 7a4a e116 eb80 c1bf
00000260: 0681 0c97 111f b43f 1599 de47 1191 bcbf
00000270: 6c86 c12b 717c 993f 6024 46d3 3337 cabf
00000280: 57dc 440d e6e3 cd3f d24a bf69 6d42 bcbf
00000290: ae26 f05c c1f1 d03f 3256 d9e8 7140 ab3f
000002a0: 5d6f 0be0 a900 be3f 4b54 787d 91ba d5bf
000002b0: 28f2 50cf f612 a83f 0b22 0d3f a39d 9c3f
000002c0: e109 cb6d c00b c13f 1085 dfcc f17a d43f
000002d0: 0f6f 7907 5269 c0bf 077d f7fc eadd a8bf
000002e0: e94b b7d1 f78c a9bf 4094 2c08 358a b53f
000002f0: 5151 7b5e 8169 b13f 3cc6 b060 67e3 d2bf
00000300: 4198 f0ee 9913 a83f 48bd f462 fc81 8a3f
00000310: acbf 9247 3073 9dbf 879d 62ec 8d37 c4bf
00000320: 4833 8607 f289 c3bf e4dd 1fed 48ae cd3f
00000330: 83cd ade5 64a1 ac3f 360b e3a7 18cc d43f
00000340: 4ef0 833e e025 c43f acc9 e38b c71e ba3f
00000350: ee11 5dc3 b5e3 97bf 0ae4 720c 87f6 c63f
00000360: 884d 85bd 7f8f cabf 4654 4a8e 25b7 d0bf
00000370: 80ef eb5e e13f d0bf 6440 dbec f8f1 943f
00000380: e179 cbde 7108 c8bf 6c32 087a 40ce a1bf
00000390: f6c8 d696 4e90 d3bf d75b aa25 163a cbbf
000003a0: 3ed7 d810 684b d03f 12e2 a9eb 367b b2bf
000003b0: 4b10 56c1 dfde 8ebf 8b81 3628 aaec 5cbf
000003c0: 5b1f acbf 8b7f c23f ce87 a691 ef1b b0bf
000003d0: 1e86 aaeb c0b2 babf 50ea d409 a6d0 6bbf
000003e0: f524 e61b e19b c73f 9b3f a3ee 5b21 d1bf
000003f0: 609d 9b80 9f98 b3bf 6973 4dcc 551a aa3f
00000400: b646 d248 777b c03f ed00 d786 7340 d23f
00000410: 7346 d2b7 92ae be3f 5d6a 4143 e5e4 c5bf
00000420: 9d09 8ebb 0349 bebf 22ff d2b9 8bae a03f
00000430: a2b2 e0f1 6e4a a83f 7eaa cf3a f3e4 c5bf
00000440: 4039 87b2 88c9 c73f a1f1 8502 db95 c6bf
00000450: 1c52 d6a9 7586 d0bf 2a48 1b57 719c c4bf
00000460: b4a6 9a68 f72f 8cbf b023 9b33 412a c13f
00000470: 3a33 9e4d 8475 d5bf d279 0f8f 6041 b2bf
00000480: c25e d0b5 5914 cb3f b05f 4048 bc72 bd3f
00000490: 4dc5 6d36 c7b3 cebf 4498 5010 2349 bd3f
000004a0: 9410 a03d ea49 b43f 60be 5c5e 017b a6bf
000004b0: 3ebc c9fa acdc d03f ee70 ed8d 4053 a13f
000004c0: 6aa4 b348 b975 c03f 4dfd e158 ac57 5abf
000004d0: e960 6e42 7caf c83f eab3 280e 34c1 933f
000004e0: f28c b106 4c7a cb3f 6c58 3a47 f434 c7bf
000004f0: ed58 08f0 211b d7bf 6b3e b692 1776 ce3f
00000500: 2472 ad0d 7bfb c83f ef69 f413 fb58 c53f
00000510: 6db7 0f65 82ca c33f f601 c6e9 6d29 afbf
00000520: cfa3 cb5e 8eb3 b33f 3fcb e1f6 a010 b7bf
00000530: 5140 1d14 67e0 bdbf e29e 501d ac6f 98bf
00000540: 8a15 8c69 9be9 b43f 1c8f a795 af3c a6bf
00000550: 4ab1 64db 72e6 913f bc4e 021d 1e3e d23f
00000560: afb7 d570 e38f d03f bdcb c709 581b babf
00000570: 9f2a 9619 25d7 d0bf 6e2c b8b8 2172 a4bf
00000580: ee99 e259 61c6 c53f aec2 6786 b9e6 d13f
00000590: 73a8 6220 49ae df3f b47f 5bba 48b1 bf3f
000005a0: 33b1 1568 a4f8 babf aa1c 50eb 6a99 c0bf
000005b0: 37e2 acf6 1343 86bf 359e cd99 9055 2b3f
000005c0: d200 e92d 8a50 c93f 5c9c 4a45 24c1 ccbf
000005d0: d508 e2cc 3219 dd3f 75b9 6c4e 2fa8 c43f
000005e0: 5d3b b208 e0c9 ba3f 7c77 56ce 1c46 bd3f
000005f0: 0e05 f206 66ca bfbf 33ec a6a3 05bd ae3f
00000600: 7e6c 84c5 23bf c63f 26ce 8244 ce28 d2bf
00000610: 0af7 2342 6633 d83f dc18 6663 e0f8 b63f
00000620: 23cc 2531 a0c6 b5bf 5d13 127f a606 c7bf
00000630: 5af5 902d e895 a63f 93f3 ba58 e947 b6bf
00000640: 225a 8783 a137 c9bf 8343 4abf e82e d5bf
00000650: e663 a7c7 a793 b9bf 7328 191d 6a07 c9bf
00000660: f035 c2fa 67ee cdbf f34e f7ce d739 c23f
00000670: e301 594e 390e d63f 4073 cb82 d827 c23f
00000680: d202 fb9f 8951 833f c1f8 0e0a c590 bbbf
00000690: 54c2 8ea3 ef94 d1bf b6d4 d99b f6fc b43f
000006a0: f010 0e19 f0eb a73f 436e 3a9a e0b8 cbbf
000006b0: 4868 6998 5dfa b83f 48bd 81d5 1d47 c63f
000006c0: 09ab c73f 74da 99bf f5bf 8dd1 3f36 ba3f
000006d0: 89e1 a7c8 a99e 9b3f 651d 3de9 1697 b4bf
000006e0: 173f 43a0 aceb c83f 3015 8d07 4856 723f
000006f0: 8c2b 4c2e 9a46 b8bf bce0 a09b 951a ccbf
00000700: a0b2 a004 8dc9 aebf c985 6160 584b d5bf
00000710: 4ef5 4bf0 9c59 cdbf b57f e559 70d7 ccbf
00000720: d953 570b fc22 b4bf b5df 8a33 9b49 b73f
00000730: ed80 9df2 906b c93f 8514 15a0 46a0 b83f
00000740: 406b 2e16 2882 bdbf 348f bf7c 3504 c4bf
00000750: 7b6e d656 fe24 c4bf 0182 4fc1 6589 c5bf
00000760: d944 ac36 2166 d7bf 9ea1 d31c 3c03 60bf
00000770: ec99 67b7 470d d33f 25d1 e59e 4a42 d23f
00000780: b623 3da8 5bfb bc3f 88d6 8d12 73eb d0bf
00000790: 4bae 3a0f 55ea d2bf 925f f6eb 801a d5bf
000007a0: 05c8 17a4 f19e 693f 766e 663c 5936 ad3f
000007b0: 4cd0 99b9 9cee a6bf 342f a04b c6f0 c9bf
000007c0: 2ed7 debf 1a2a d9bf 0583 41d1 ff2d d8bf
000007d0: 751b 3b4d 1377 bf3f 4141 544b f99e 9f3f
000007e0: 7a04 2f7f 1101 d5bf c4cd 9e48 8176 c03f
000007f0: 4496 7d0d 1761 c8bf f863 f1ab f0bd a1bf
-0.09630522820256716 -0.11576432629934119 0.3514347847395392 -0.06940474065978482 -0.021254819180886616 -0.2165086850409796 -0.062433564872690334 0.03861773683461633
0.40516178129812097 -0.0441465529752518 -0.13137969217910703 -0.06890571862953707 0.017693992769290894 -0.11744122234770304 -0.27378247068563405 -0.0022359226338524375
-0.38711629694525596 0.08297805500507423 -0.010737448067575105 0.026357773332708213 0.15608532098925576 0.3650131257305943 -0.36002074976804593 0.020249068110310287
0.20213880305057758 0.021924656933449575 -0.05876070332036107 -0.16210843204446396 -0.08796647674387904 -0.1104840936084704 0.20095160795826306 0.03912396114709309
0.030362904744414686 0.19310895350513196 0.025757849288698984 -0.06697653738429264 -0.05434706432823341 -0.06372050419510436 -0.19725707492930664 0.39075898143714277
0.22760071674885793 -0.016434765047579424 -0.34294707712657513 0.18425284819653742 -0.11247430548827449 -0.23534911014046342 -0.3192220054306332 0.03931569230113234
0.28764910080302264 -0.13759122062873466 -0.22418762697637162 -0.31001102320687346 -0.04968391178747092 -0.013284747900223964 0.20623869427612987 -0.19975770649158783
0.0450013522075122 -0.07701931427588692 -0.19416005385368348 0.11266559117100787 0.20214949247319036 -0.24593797387984606 -0.2786439834225005 0.12808553176033646
0.06519570580882941 0.13135996609618522 -0.02759758844419743 -0.17441377625434054 -0.059437932280727544 -0.07447278720944744 -0.20210658310338425 0.0629175888293703
-0.04193125940604458 0.38276005283626097 -0.10418186530856141 -0.13674677483739456 0.0785990709086982 -0.11158855442645106 0.024888771339084334 -0.20480964485276143
0.2335174145498253 -0.1103886016056024 0.26475557399735805 0.05322605101961776 0.1171976253494313 -0.3395122266095469 0.047019684607651435 0.027945090030046454
0.1331711326693741 0.3200039387430289 -0.128214124345384 -0.04856809938405076 -0.04990362582216063 0.0841401238399877 0.06801613384897577 -0.295129627632466
0.047024546067675484 0.012943240899942268 -0.0287597221073949 -0.15794538538214573 -0.15264726035493426 0.23188125208228805 0.05591883948991507 0.3249570502777489
0.15740588238247927 0.10203215756681655 -0.023329582261128516 0.1793984232697599 -0.20750424150410773 -0.2611783875993904 -0.2538989474266984 0.0204543013158517
-0.18775771502164587 -0.03477670182846712 -0.3056827996289394 -0.2127101596749685 0.25460244794099995 -0.0721926045752144 -0.01507353600278107 -0.001765409630799383
0.1445173917675174 -0.06292626672669074 -0.10429006341521371 -0.003395389837036057 0.18444455969100884 -0.26766107849561543 -0.07654759301987246 0.05098217123916166
0.12876788192493444 0.2851837937160003 0.11985127437426417 -0.17104783805810345 -0.11830161408400959 0.03258167880403408 0.04744288160904843 -0.17104950305595773
0.1858378288001834 -0.17644822715000166 -0.2582067640844643 -0.1610242533993767 -0.0137633637235298 0.13410201091599339 -0.3352976568210583 -0.0713100766438182
0.2115585458529861 0.11503197444869673 -0.23986139447837687 0.11439723156272047 0.07925285343668725 -0.04390720631488132 0.26346897593515795 0.033838288617262666
0.12859264421357192 -0.0016078169897183082 0.19285538905820168 0.0192916997568097 0.21466970755418618 -0.18130353429723145 -0.3610310405796458 0.2379788843504572
0.19517458122108267 0.16677797769882782 0.15461759504926978 -0.06086295584373495 0.0769585591730355 -0.09009748484986078 -0.11670536271162858 -0.023863496102562894
0.08168956114612605 -0.04343174650037282 0.01748065437384242 0.28504135926162255 0.2587822534468342 -0.1019797347906168 -0.2631314039105436 -0.039933255957372946
0.17011658562587634 0.27970731854933717 0.49501255190501253 0.12379889058820376 -0.10535647908335903 -0.12968193521394272 -0.010870128598626667 0.0002085436834946428
0.1977703785105463 -0.22464421637889387 0.454662990647319 0.1613825924809579 0.1046428700667383 0.11435108220618234 -0.12418210668149163 0.06003587362962328
0.17770812172316036 -0.2837405842830968 0.3781371732619482 0.08973505427102019 -0.08506203842061714 -0.1798904533826783 0.04411244922855913 -0.08703478256479817
-0.19701022074032531 -0.33098810845063315 -0.0999092924534036 -0.19553877278150686 -0.23383807891916275 0.14239022832645495 0.34461815501347653 0.14184099565945907
0.009432864374845282 -0.10767776008194387 -0.2747153374903395 0.08198491387323056 0.04672193818899639 -0.21657950907398246 0.09757027598371437 0.17404530453812073
-0.025247398751086645 0.1023902784925211 0.026972439643914412 -0.08043044275574614 0.19469220948530427 0.00447681557199546 -0.09482730512915633 -0.21956129168552774
-0.06013146096697608 -0.33272370731546325 -0.22929727299917108 -0.22532467259861524 -0.0786588218391694 0.09096689232217055 0.19859515997359925 0.09619561584720955
-0.11526728192840796 -0.1563784464952903 -0.15737895240896535 -0.16825553835862198 -0.3656085046687401 -0.0019546674799253002 0.29768555555929654 0.2852961112723896
0.11321041924851624 -0.2643706971351567 -0.2955525063250419 -0.32974265139773096 0.003127548174910013 0.05705527174287976 -0.04478921666751087 -0.2026603574053013
-0.3931948541388576 -0.3778075736536695 0.12291069636840553 0.030879874441837932 -0.3281902067211103 0.12861648603357712 -0.19046295317382278 -0.03465225314057102

model.3.bias f8 [20]
00000000: 65fc 299e 0e44 c1bf 4aa5 8340 6669 cabf
00000010: 7f0e 627e b25e 983f cefe 5e45 f418 a83f
00000020: fa5d 2821 95c4 d03f bd17 cb96 3970 c5bf
00000030: d8ab 9f7e 47f7 d4bf baa2 7c77 8438 b0bf
00000040: 711f 9527 aacb d63f 3b8d fa87 cacc dbbf
00000050: 26c9 5de9 4e05 ca3f d761 1387 2c56 c5bf
00000060: 5882 c067 d261 c4bf 8700 c29c 7ef8 c93f
00000070: 8bc4 2e06 2def c4bf 7b42 dff6 e4d4 c53f
00000080: 71c8 0ee0 9226 c0bf 3b23 171b 1f14 bcbf
00000090: a0c7 0541 5d04 b53f 4901 a443 1749 d1bf
-0.13488943789340904 -0.20634153509244363 0.023798741306122025 0.04706538531126868 0.26199844587378573 -0.167487333898121 -0.3275927292403913 -0.06336238782081241
0.3561807047412833 -0.4343744590680278 0.20328699488488516 -0.16669231982702 -0.15923528734221537 0.2028959527415319 -0.16354906846894254 0.17055952123930126
-0.12617717686004284 -0.10968202983270896 0.08209784352746263 -0.2700861130288286

model.5.weight f8 [20]
00000000: d53d 5565 5215 f03f e827 97c4 e695 e53f
00000010: e04e 2974 87ef ee3f ce0e 8652 5694 e93f
00000020: d688 23a1 dede e83f da88 3d28 e880 df3f
00000030: b924 a64e e436 ed3f 9af8 d257 3f72 ea3f
00000040: 054c 3b91 c28d f03f 51dc bb8a 7c35 ef3f
00000050: 8b0f 540c 77b3 f03f eb01 8f8c ff8e e63f
00000060: 7591 126f 424d f73f dfe3 b4b0 2d4f ef3f
00000070: a6ad 278e 268f ef3f c834 5573 37f4 ed3f
00000080: a463 da59 23df e83f 049e dced 079a f03f
00000090: e4d9 c93c faa0 ed3f 1f25 996f 3093 f23f
1.005205531913693 0.6745485152871398 0.9667393940712508 0.7993575679579068 0.7772057673685377 0.49224285058711603 0.9129506622422446 0.8264462199511116
1.0346093819723603 0.9752791127820136 1.0438147050453803 0.7049558396611791 1.4563621844073087 0.9784153415013143 0.9862244392838206 0.9360615971178499
0.7772385363524461 1.037605218074419 0.92590057251692 1.1609348639779637

model.5.bias f8 [20]
00000000: 9060 b83d 680a d73f 859b b459 6078 b13f
00000010: fd49 8dc7 7671 d13f 7182 a98c c144 d0bf
00000020: 039e 7efd 0116 d83f c6de 8091 0535 bfbf
00000030: 0541 14ce 5ac8 cb3f 9105 6903 dad6 df3f
00000040: 7d97 2ca7 3853 cb3f 1fcb 819f 00ae d0bf
00000050: c8ce 250f e202 bbbf bda3 f654 99ab be3f
00000060: ec47 c198 503b e0bf 030a cec8 fd9c c13f
00000070: e71d 8b8d c458 d9bf 2b26 c3e2 3759 ab3f
00000080: 96be 18e8 b6c1 cabf 0176 021d 5334 d2bf
00000090: 5014 9a18 0d93 cc3f 1cfa d51f 0191 d83f
0.36001020457616395 0.06824304761958729 0.2725502918957828 -0.25419653641259915 0.3763432479413213 -0.12190279772118648 0.21705184042412654 0.49748850186377874
0.21347721255113675 -0.26062026573997515 -0.10551274175468983 0.11980589222242961 -0.5072405799385229 0.13760349564479676 -0.3960429556140909 0.05341505663961884
-0.20903669674725184 -0.284443643884373 0.22323764516127875 0.38385036572427267

model.5.running_mean f8 [20]
00000000: f24c 9042 520f c93f 65b6 090e 90a4 d13f
00000010: 3d17 62ee 39d7 d73f e6d5 2360 3f14 dd3f
00000020: 73c3 d731 b0bf dc3f 5b1f f9de 4b1a cb3f
00000030: e854 9a16 44b8 c23f 2160 6975 8987 d83f
00000040: 6641 7cf5 4cd5 e63f ff45 6191 cb8e d43f
00000050: 9a96 6210 4129 e33f a432 da1a 61ce c03f
00000060: e5e1 1fbd 2ad5 e03f 5c59 82b8 e604 db3f
00000070: c74d 2dcf 887c e23f c9cb 8adc 20fa e23f
00000080: 8a30 0565 6b46 cc3f 0eb9 c28b faa4 c93f
00000090: 383f 44ad 0799 db3f 3dc6 1169 b0d6 c03f
0.19578006982974433 0.27566911097424046 0.3725113704643837 0.4543608130328195 0.449199722933421 0.21174000155792325 0.14624835113196544 0.383272518787182
0.7135376734386625 0.3212155265547096 0.5987859077474298 0.1312981968989294 0.5260213559950527 0.4221741487357542 0.5777019545006902 0.5930332477058694
0.2208990329039618 0.20034725021600547 0.43121520920339007 0.1315517914804775

model.5.running_var f8 [20]
00000000: 1f67 4bf8 d733 c83f 98c2 9fa6 9b54 c83f
00000010: 4255 765f d014 cb3f 8420 4925 d482 ce3f
00000020: d089 105d bbd5 d83f 95fc b81c db8e bc3f
00000030: a5e5 ed5a 8053 c33f c0bd c692 6361 d53f
00000040: ce13 dcfe 527d f33f 0dd4 8513 8137 e03f
00000050: 2bd5 a626 05c0 e23f d734 5d23 b1e3 bb3f
00000060: 19db 80e9 88e6 d53f cec6 5dfe 923c dd3f
00000070: beca 792e 7ec3 ed3f 98ba 8c4b 7a0b d93f
00000080: 9490 91dd 9ded c53f eb93 278b 9d8d db3f
00000090: 4e53 eed2 0ae7 e03f 8181 d5d2 68eb d03f
0.1890821421027846 0.19008203159275605 0.2115726915477954 0.23836757488811966 0.3880451592287075 0.11155480815158321 0.15098576011568557 0.33406915029169326
1.2180967288452282 0.5067754155448952 0.5859399561801742 0.108943053373156 0.34219572833119255 0.45682215538464 0.9301138789872636 0.3913255441465622
0.17131398505000972 0.43051851834599003 0.5282034034486089 0.2643682536054471

model.6.weight f8 [10, 20]
00000000: 1407 ae4d 79f2 9d3f 4d1b 248c 4feb a1bf
00000010: c9b1 4c4f 637a bc3f 5b06 b100 e313 d1bf
00000020: c2a0 30b9 c89d a33f 519b 48f4 84bb a2bf
00000030: d593 de1a d9c2 bbbf 5ebf ddea 27e3 a13f
00000040: 5c13 7b3e 544a da3f e5db 219c 62c9 c5bf
00000050: f6f7 920d 9ae0 a5bf d2c5 45ac 40f3 bd3f
00000060: cfdf 3e7b 73a4 dfbf 78e2 0528 84d3 b7bf
00000070: 3475 a6d6 54d3 7bbf e10b 5d4b d74d d9bf
00000080: f637 79da 45bc c13f a45f 54ca d6fb c7bf
00000090: 234a 5609 a09b ac3f ef8c 893a 58ac c5bf
000000a0: 8989 9959 d022 d8bf 3413 bc7b a62b c8bf
000000b0: 840b 9a7d 4372 d5bf 0964 5cdb 8977 b43f
000000c0: c89d dbe7 365d 92bf 82db a96a 242f b83f
000000d0: ac8e 9207 54e3 cfbf 8b22 bee8 15ba c3bf
000000e0: b9af a77d 3a2d bebf 1ff3 5010 6585 d23f
000000f0: 2887 d807 7322 cf3f 503c 9214 d550 b3bf
00000100: ec6c 65ef 8c88 d63f 6a0b 9565 7973 99bf
00000110: dfc5 0861 d15a c5bf f41e 4151 0741 a3bf
00000120: 1490 e33d 7d86 963f 8865 8e28 96ec d9bf
00000130: a8f8 b780 df3f e2bf 082c 7fbb 3b1b cfbf
00000140: 58a3 d869 7584 cb3f 08ee 1763 e3ad c2bf
00000150: 5991 e6df 68e0 c13f 6c0f e945 ed65 c3bf
00000160: 6449 d641 3d7c b23f 9781 35b1 9b6b b93f
00000170: 2ab4 0eaf 6a18 c0bf aa20 91f0 8517 c03f
00000180: 0456 03f7 4336 7ebf fd2b 9534 0710 d1bf
00000190: 284a 9935 af02 d4bf 06e1 3d1a 4d43 b2bf
000001a0: cebe 03fc 64ee dbbf a074 399d 2173 d03f
000001b0: 4f5e c927 e6c8 b0bf 08f6 02d3 e2ec 693f
000001c0: 4403 7a1c 766d a3bf f54a 6df0 221d cabf
000001d0: 8496 8c27 8fe6 b4bf bbbf 55c9 805b db3f
000001e0: 940d ed23 969d c3bf 24b7 f0f6 694f 9a3f
000001f0: e667 5db4 4093 d4bf 346b 3348 1c4f 9ebf
00000200: f2f8 275b f6a6 d1bf 1dd1 051e 6e07 c3bf
00000210: ea68 fa14 39d2 b7bf 70ea 702f 9b74 be3f
00000220: 2923 f10b 3091 d6bf 7782 719e ab47 c73f
00000230: 69fa 02ca ad40 c93f 1970 d699 2543 b6bf
00000240: be27 5196 b80f d43f 5cc8 8459 708c a83f
00000250: b03b b531 6d27 b2bf 28da 0fa8 3bd7 ae3f
00000260: 72dc b4ef 621e d0bf 6361 76eb c0b5 d0bf
00000270: d912 cfef 2d11 b2bf 95ee c977 c5da d33f
00000280: d817 7111 3942 c5bf 1013 1242 2808 bcbf
00000290: 0be9 5a6d aa05 ad3f 421e ec39 ccb1 b4bf
000002a0: 21b3 b135 0ea6 c43f 4c97 2cd1 1616 793f
000002b0: e1ac 6a90 9cb8 a03f 2d2d c7a7 f7d2 d53f
000002c0: 6c5b 36ba da11 a63f 2152 bc83 c8c4 903f
000002d0: 69e7 c802 e7e6 c0bf 5af5 8899 4013 543f
000002e0: dda8 b0a6 38c8 d2bf 5423 82de 9582 c43f
000002f0: 41be c858 f6e9 c43f 20d0 deb1 9b2b c83f
00000300: b1a9 3304 ef52 c1bf 1608 a214 dd1c d2bf
00000310: c2f8 0946 47fc c0bf 97ef fe50 3738 c2bf
00000320: e834 a133 e91d ca3f 845d dd85 b9c2 803f
00000330: 4be5 ccd0 c92b 62bf 75c3 1a60 e35f b13f
00000340: 7f0c aaa2 85ed c13f ff97 1325 9c39 963f
00000350: 324f b692 72b8 a7bf 382f f2c2 1de0 b43f
00000360: 9a27 c346 15cd c03f 1cf8 6295 1d26 c5bf
00000370: af79 66c1 0522 b73f db94 a96e 4537 a53f
00000380: a662 a94d ca79 e1bf 062d b4b0 bb0c b13f
00000390: 4e06 5880 8ec3 963f 73a6 c10e 6a02 ccbf
000003a0: c8a5 c704 3a39 b53f 4594 521e 4bf5 a3bf
000003b0: fb4f cc35 d0c9 b7bf a5ed 11ae 69c9 b0bf
000003c0: 3a1e b69c 61c1 9c3f d99a a320 690d 97bf
000003d0: 321e 5eb6 3745 aa3f 6866 dca3 f1cc c1bf
000003e0: 8130 6a0b 1368 70bf 804c 23c1 40e7 aa3f
000003f0: 8f40 8f65 e8dc c6bf 5fc7 c18d 4f4a 58bf
00000400: d3d1 efa9 5915 a2bf 1e16 b5fa 3098 c8bf
00000410: 4380 dd65 40ff d3bf 1f19 7178 421f 973f
00000420: de49 55da 19c0 d0bf c16a 7132 6319 d03f
00000430: 7d3b efb3 fd13 c0bf 07ce 7351 2955 bd3f
00000440: 64d8 729c ce90 c0bf fe9d 1ac3 a2f1 cdbf
00000450: 0de3 e0a5 7bec c63f 81fc fd6f 808e d13f
00000460: 33fc c0b8 d6c3 d13f 96af 9c5b 5f62 903f
00000470: ca65 8b1f 568d c43f 1e99 5f6c 667f b9bf
00000480: 32be d5de 837e ae3f b009 759a 8410 a3bf
00000490: 5323 e316 2403 ba3f 1821 3748 ad10 ce3f
000004a0: 2eaa 227c f6f9 a4bf 4664 7b0d 1be5 bbbf
000004b0: fd93 47a3 e9c8 d1bf 38d3 f766 634e a4bf
000004c0: b7a4 e2cd 90f4 ccbf 8127 3fce 1f57 bb3f
000004d0: dd53 aaf8 d773 d8bf 6d7f 5808 3da4 c03f
000004e0: dde6 d44e eb66 b3bf 69da e403 e9ef a23f
000004f0: 2442 5eaa 5ad0 b63f efba dc58 f7ef d33f
00000500: 4f06 a024 c383 be3f 6708 65cc 0c53 c03f
00000510: 0cff a93d f91a cc3f 0f9a 3a62 f546 a5bf
00000520: d4a9 cb92 5fd7 be3f f4bd 4c14 6a88 6fbf
00000530: 665b de67 f90c d53f 1ab8 1f73 e435 b43f
00000540: c04b e780 3af5 93bf f391 d7bf 8c84 c7bf
00000550: a8ee a2d9 478a c3bf 1560 2c7d ef58 b03f
00000560: 9c9b b618 e644 dbbf be74 bbb7 bb59 d0bf
00000570: 8cc0 13d1 b605 d6bf e261 4d57 5fef bb3f
00000580: b8aa d8ba 6463 5dbf fe15 9050 9eb0 b33f
00000590: 26aa 3cff fd0a c03f 973a 6eac 37ad abbf
000005a0: bc60 a43f b063 d33f 8812 4b6e 59f3 9dbf
000005b0: 357d a778 6977 cebf d1eb ea88 af3b a2bf
000005c0: 9ffd 33e3 a228 bbbf 726b cb09 ce7e c7bf
000005d0: b734 e5b8 7241 3abf e69f 7b81 11fc c4bf
000005e0: 4e91 122e f848 b2bf 7226 66b5 ace5 d63f
000005f0: 5298 081c 3601 ce3f 47cd aecb 656a b6bf
00000600: a6c7 fa8a 88fa d63f 5071 5167 85a2 d7bf
00000610: b918 36f1 5c44 be3f 9237 ebdb d493 d63f
00000620: 99ea 4ffd 6328 cdbf 24ee bee4 85a5 e0bf
00000630: 70b7 63cd 7436 d6bf 75e1 8234 ea06 a2bf
0.029245276800344902 -0.034998403412876834 0.11124249158883183 -0.2668387896302186 0.03831317196483176 -0.03658690912225516 -0.10844189554207102 0.03493618719119128
0.41078668691289066 -0.1702082884182509 -0.04272920051288047 0.11699299054978177 -0.49441229854300855 -0.09307123162387565 -0.00679333820371868 -0.39537603721345077
0.13855813186313498 -0.18737301711439358 0.05587482561090364 -0.16932204111353807 -0.3771248698232275 -0.18883210221988522 -0.335099098833034 0.0799490128087116
-0.017933710004312237 0.0944693336876821 -0.24912500734091247 -0.15411638130560265 -0.11787763183354984 0.2893917712533937 0.2432388103780394 -0.07545215370395053
0.3520843828061533 -0.024854561638913898 -0.16683404195786886 -0.03760550372004259 0.021997410681152088 -0.40506509743280406 -0.5702970041309259 -0.24301859526744374
0.21497981708787495 -0.14593164766834854 0.13966093952798067 -0.15154806054681147 0.07220824105596574 0.09929822040931523 -0.12574513957716366 0.12571787115507976
-0.007375970352048625 -0.26660328040151154 -0.3126638434816038 -0.07133943453471056 -0.4364254437523244 0.2570270572085267 -0.06556547614433693 0.0031647138749508787
-0.03794449899306199 -0.20401417483898113 -0.08164305415683698 0.42745990430466535 -0.15324665788839964 0.025693565079726657 -0.32148759473568445 -0.02959865751914066
-0.2758155718037322 -0.148664250049145 -0.09305149805223648 0.11896676929692673 -0.35261155286984774 0.1818747066163444 0.19728634227608957 -0.08696208005716279
0.31345953635593193 0.047946463515828625 -0.07091410125325015 0.060235847726222425 -0.2518546429523162 -0.261093358939908 -0.07057463745793359 0.3102277440845936
-0.1660834632077115 -0.10949946988155213 0.056683851098073466 -0.08083797849769161 0.16131761190208585 0.0061245814602324915 0.03265847456835914 0.3410014284570078
0.04310496829128038 0.016375668564324045 -0.13204658161140095 0.0012252932412047586 -0.29347053793266104 0.1602351509539185 0.1633899625316975 0.1888308161265977
-0.13534343438307198 -0.2830116940969004 -0.13269892616148665 -0.14234057860255397 0.2040378095720492 0.008183907888151827 -0.002218145533700399 0.06786938759138457
0.1400610965975808 0.02170413948342542 -0.04632909813804388 0.08154474267410883 0.13125863986198 -0.16522569460170267 0.09036289188086387 0.041437310942265625
-0.5461169735745741 0.06660054267938528 0.02223036440228148 -0.21882367821244805 0.08290445915886047 -0.038980815364347644 -0.09292317689352096 -0.0655733156181016
0.028081441106705386 -0.02251209508622307 0.051309338580776034 -0.13906689167997688 -0.004005503075529161 0.052545569969560724 -0.17861657103504 -0.0014825608150456843
-0.03531913947509548 -0.1921445106656145 -0.31245431850220856 0.022580183602508016 -0.2617249138030767 0.25154952932431845 -0.12561007772316293 0.11458070982535427
-0.12941916121571062 -0.23393663908539958 0.17909188842329407 0.2743226140664277 0.27757804911010736 0.016000261274868054 0.16056324520358906 -0.09960022111736008
0.059558983756570774 -0.037235397200237386 0.10161042746325437 0.23488393808498453 -0.04096956506085224 -0.1089646251597439 -0.27788773484490986 -0.039660555190414504
-0.22621355107302119 0.10679816041297664 -0.3820705345509035 0.13001215846542938 -0.07578917193032049 0.03698661968740142 0.08911673220996669 0.3115213744921865
0.11919803280036344 0.12753448467452985 0.2195731688589081 -0.041556995621523034 0.12047383626819591 -0.0038492271291017347 0.3289168848363516 0.0789473324836937
-0.019490160100598564 -0.18373259894646274 -0.1526574909856795 0.0638570480917909 -0.42608024991425864 -0.2554768842945342 -0.34409876268092243 0.109121283353836
-0.0017937167825815958 0.07691373316637137 0.12533545458548295 -0.05405591945519921 0.3029595014099973 -0.029248616558805313 -0.2380191649562932 -0.03561161562307514
-0.106088810414795 -0.18355727651836734 -0.00040062952839010506 -0.16394251654060027 -0.07142592549150104 0.35776822771786165 0.234411967933911 -0.08756099913334935
0.359041343424105 -0.36929450120603224 0.118230637444955 0.3527729175228781 -0.2277951228023383 -0.5202054469768354 -0.3470737462765703 -0.0352090062237406

model.6.bias f8 [10]
00000000: a58d b161 96c7 d43f c638 27c9 6ef8 9c3f
00000010: b3d2 8bfe c0b4 de3f b480 f853 3516 cd3f
00000020: 24ab 3f69 99a0 45bf b8e8 0332 bf57 d23f
00000030: 941f 71ab 65e1 c73f d471 2335 9cf4 e23f
00000040: dfca 9214 647b d13f a1dc e8b5 aca7 cc3f
0.3246818498648401 0.028291445758264165 0.4797823415567947 0.2272402439130069 -0.0006600140645763625 0.2866056431227082 0.18656607505021994 0.5923596418247663
0.2731561852371395 0.22386702425294394

model.8.weight f8 [10]
00000000: 1128 5eee bd12 f23f a4a1 3935 7538 f53f
00000010: d2d5 3bc7 b28b f33f 42c5 5c40 df1f f53f
00000020: e446 1858 37f9 ec3f 46cd bea9 aabe f03f
00000030: 202d 17fa 522f f13f 5f92 899d 024b f13f
00000040: 132d f871 ead3 f13f 4b6a f02d c6cb f63f
1.1295756636850494 1.3262836531740527 1.221606043106807 1.3202812685161267 0.9054218979456121 1.0465494757343818 1.074053742328779 1.0808130410961423
1.11423725623428 1.4247495455262136

model.8.bias f8 [10]
00000000: 510b 687d d07b dbbf dccf dd76 b128 e23f
00000010: c5cf e3f9 d7d6 dfbf dcd1 82b5 b8b2 dd3f
00000020: efe0 1ca5 3a78 ddbf 38c5 b36e 0a14 d9bf
00000030: c3f1 2dc8 2795 dbbf 5a47 3377 b8ce dfbf
00000040: 7467 f315 d1bf ddbf cdeb d6ac 56dd e33f
-0.42943203207703556 0.5674674340830239 -0.4974880161601017 0.4640332958763602 -0.4604632008008726 -0.3918481904102751 -0.43097872303749457 -0.49699222221999195
-0.4648325647700553 0.6207688689968279

model.8.running_mean f8 [10]
00000000: a489 3c0e a9f2 f03f a519 49f2 aef8 d73f
00000010: 06a8 c34b 927c f43f e51e a08b 9404 e13f
00000020: 9a34 ca75 f343 de3f cc6c d258 cb9d ec3f
00000030: 1b5f 3d9e b70a e93f 7297 abcd 9db9 f63f
00000040: d8ed 8df9 d244 ee3f 9948 93d8 147e e43f
1.0592432552444757 0.3745534292287636 1.2804129561941422 0.5318091132221211 0.47289740088383214 0.8942620024494317 0.7825582590694212 1.4203165086741731
0.9459013818845348 0.6403907995211454

model.8.running_var f8 [10]
00000000: 7269 072d 03ba f33f 0859 e4af 6011 d13f
00000010: 0d44 532c 7488 eb3f 0c93 0f49 5335 d73f
00000020: 0c36 6b53 9ddb d43f 4e53 fc44 41b4 e93f
00000030: ae4a 7334 c3ec d73f 4bf3 bc8d 82ed e43f
00000040: ee48 b0c5 a68f e53f 2045 3f57 a6c0 e23f
1.23291318501887 0.2666856496520187 0.8604069581725767 0.3626297200665227 0.3259042086254744 0.8032537791610623 0.3738258373461275 0.6539929169008273
0.6737855778794974 0.5860168174787397

model.10.weight f8 [1, 10]
00000000: adc8 dcf5 ef11 e1bf 3b3c e452 1b95 e13f
00000010: 548e a277 8975 d7bf 8799 7e45 e013 e43f
00000020: 5577 32a5 02e8 cdbf 311b 2fbd e506 dcbf
00000030: fb4e 8aec f606 debf a445 88db 867d d6bf
00000040: 8c4c 2f52 bff4 dcbf 57c8 e986 3874 dc3f
-0.5334396173477863 0.5494515055633039 -0.36654888804534846 0.627426276904587 -0.23364289346948888 -0.4379209849834523 -0.46917508220325005 -0.3514115470762482
-0.4524381926141323 0.44459355521315075

model.10.bias f8 [1]
00000000: 2bb8 e4ae e918 c93f
0.1960727790805675
