dnn/ionosphere/fold_4_model.pt (torch, 51083 bytes, 34 tensors)

model.0.weight f8 [30, 33]
00000000: 7011 0ee5 80ec d0bf 3ed4 3029 62e3 bcbf
00000010: 0d8b a23a 61ef 85bf 46c8 6a82 28c6 b8bf
00000020: 82b5 184f 1d04 a6bf 2953 ace8 521c bb3f
00000030: 1215 e84d 4fb8 c13f 9af5 13b8 dabc d03f
00000040: e34c dc9b bf81 c9bf 4c50 057a 624b c0bf
00000050: af7f a14e a60a c1bf 0a7b 8808 e488 a03f
00000060: d698 a211 bb67 82bf 70b3 4cf5 22b8 c63f
00000070: 4be8 6fca ad3b adbf 1f05 5e76 7f6e b23f
00000080: f8c4 92e6 5557 bebf 8d62 cc0c 98d2 bc3f
00000090: 357e 114b f6b9 b0bf 1c0e b085 3a58 a93f
000000a0: 97c9 9776 eea8 c8bf 4a71 8d74 d8fd c03f
000000b0: bf1f 448f 2845 abbf 2636 3722 ae20 96bf
000000c0: bcbc f540 bdaa d5bf bb50 eff8 f36a d1bf
000000d0: 1ecb 6990 fab1 c63f 9e56 4be8 bdcd 7cbf
000000e0: 8e93 66eb 46d7 b4bf 192b e98b f273 cbbf
000000f0: 2b31 13e4 76dc c0bf 9d81 0bbb 46d0 bebf
00000100: c636 45e3 8fdc b4bf 2e64 e150 1846 c4bf
00000110: c9d3 c25c 188a ae3f a176 d988 9ebd cb3f
00000120: 0013 db79 10d7 d03f 3eb3 3d36 fe4e bebf
00000130: 903b eead 2faa bebf b35b f2ef 6342 bebf
00000140: 5325 2e2c 761e a73f 9bcb cef1 c2b9 cabf
00000150: b4b5 a494 b8ae b3bf 567a 8d71 41a8 bcbf
00000160: 150f 5c00 49ab d23f 0aa1 90c5 18bc c73f
00000170: 9c84 9bde c313 8bbf 6b2b 5209 f4f8 cdbf
00000180: cf4b c0e6 5177 473f eeaf 1467 1bde b33f
00000190: 239e a5a1 f248 7a3f 51d7 b35a 0d77 b9bf
000001a0: 650f 0c5b 3d1a b2bf 6e61 b322 dc1e b93f
000001b0: 3cfb be16 dd12 ca3f 8144 bfe9 b76a bb3f
000001c0: dc36 26c5 703f c1bf 211a b9a8 60e6 cabf
000001d0: 5c5c 9ee7 65ae c43f 438b 2dfc 1215 c0bf
000001e0: 7636 c4b7 90d9 cbbf caa4 7502 40e4 c73f
000001f0: 4fe2 95df 63be c3bf ca33 b5d1 bbbe b8bf
00000200: 553a 405b 0cd5 963f f7a9 7f67 1312 c53f
00000210: e4fb 3a67 3f40 9cbf ceb2 0253 7f91 c73f
00000220: 51be f2ab 4e5e d53f 826f 41f9 2b70 c4bf
00000230: 9961 dab0 44ce b9bf b3c8 be50 40af b93f
00000240: 5891 4ea3 661f d3bf 0744 8952 5a32 d1bf
00000250: f245 b3be 3424 bb3f f8ba 2a55 a928 bebf
00000260: 314c 90da 7e1f aa3f a82b eafc c3a1 9b3f
00000270: b925 b775 9e48 c6bf 2cfe 017f 8f5d 8e3f
00000280: 38aa 8e3f a952 a33f 7462 5280 401e b13f
00000290: b879 34ff 8866 a73f c671 0f9d beeb bcbf
000002a0: d792 6508 b9c2 c03f cbec 566c 14de ca3f
000002b0: b1c0 175a 711e a3bf b643 1902 dea0 b53f
000002c0: 4fac 48a5 de14 c5bf da56 95b2 1674 bdbf
000002d0: 73f3 b04e bfb1 d43f 838b b305 398a c83f
000002e0: c986 c545 9cca af3f feff a865 799c aebf
000002f0: 92ba eee4 2eda d13f d568 a15d 5b60 b0bf
00000300: 806b c4fc d610 c43f 487a 1c3f 805d a1bf
00000310: 8c7f c484 5d3e babf 2a7a 8e93 5060 ce3f
00000320: d9bb 939d 87c1 c5bf 28d1 f48b a87b a0bf
00000330: 336c 7c42 9beb b23f cee2 8ddb c40b c53f
00000340: a370 508c 0f7e b63f 03ba 1037 133d a6bf
00000350: 6f29 aac5 78d7 b1bf 0bfc b85a 9460 c3bf
00000360: 6e69 5dca 0cc0 af3f fe97 ca60 fae6 7a3f
00000370: cfc2 0b11 247e a3bf b75c 5bc9 d9dc babf
00000380: 3635 26f8 4758 cabf 31a5 aeb4 cd23 b3bf
00000390: f67c 00df 0508 cbbf c577 5b48 be7f c43f
000003a0: 329d ad9e b496 983f 9a12 ad74 938a c2bf
000003b0: 143b 8f02 b31a c83f 13e5 3d4a dc7a a43f
000003c0: 37b9 3dd2 7a47 933f ba40 7450 ce0e c7bf
000003d0: 3d33 8fa8 fbdc ccbf a4ab 0212 5681 c2bf
000003e0: 8666 9a4e 7f38 c13f 467e 30a7 1436 b03f
000003f0: 7983 d901 1903 c8bf 8cca f92f 8bc8 a4bf
00000400: bcc3 c988 c6b5 c9bf d6f5 02e6 0156 c1bf
00000410: 856a 7ed8 2665 cc3f 71fd 5987 686c c93f
00000420: 4002 0686 758a c1bf ea18 ef1d 3965 73bf
00000430: cd97 3833 da3b c9bf 8ddb e264 a677 84bf
00000440: 72f2 7420 025b 623f a947 ec8f 7405 c63f
00000450: 0939 2721 7407 a13f 68bb d9d3 72de c2bf
00000460: 566e 24c5 baf2 a6bf f287 350e 9f7b 9a3f
00000470: de41 0ab9 d869 c33f d235 b64a 9116 c7bf
00000480: 7d3d be0d c6ae b33f dce5 d80b 4e3c 92bf
00000490: b52e 2f97 ab72 863f 7e1a 99cb 03c9 bcbf
000004a0: f27d 8f6a ddf5 a6bf 61d0 7f7b 1e23 a8bf
000004b0: b61a df92 c5d2 c8bf 9e64 9f0d 6a86 b9bf
000004c0: 70c6 86c8 478e cc3f 6ac3 3307 7e67 c0bf
000004d0: b75e c6db bdc4 af3f 58ea dc8e 69c2 b8bf
000004e0: 72db 4b76 43bf c0bf 8a2a c867 9294 823f
000004f0: 186c 5dde dd88 b43f ae11 6786 a40d bebf
00000500: 3083 2165 89f9 d2bf 3825 b346 3705 b23f
00000510: 598e b27a 6ae6 afbf 51e8 0d7f f4f9 b03f
00000520: b9ae c9cd 41e0 b63f eca5 5e89 82c9 a33f
00000530: d43c 875f e60c b23f 34eb c76f e325 c43f
00000540: 71d3 37b4 1e9e a23f 4b49 f5b3 b546 d2bf
00000550: c0d2 e480 f46c 86bf 5dc4 ab36 e21c c63f
00000560: b0c8 e250 c608 ad3f 912c b488 e47a a53f
00000570: 466d 3a7c 9510 95bf 08d0 7d3e d44e d0bf
00000580: cd86 cfbc 35a6 bdbf 6f7a 900e 5d3b d8bf
00000590: 9ebe 524b 9f7b 683f d01f 8857 1251 7fbf
000005a0: f89c 5d3e 4401 91bf 22be 24fc 9ca2 94bf
000005b0: b22b f0bd 0906 c73f 543d 7cb4 e9eb c83f
000005c0: 13b0 786d 9aa8 a6bf 1a56 7331 34ba d03f
000005d0: 1225 7f32 2b86 cd3f 7ae9 cac2 453a acbf
000005e0: b355 b738 78b8 9a3f 6e76 bd51 e2ea 8fbf
000005f0: bcc1 9aa5 cd42 c43f 32ed b339 7fb9 753f
00000600: b8ad ccd8 9e96 cfbf 2628 b5af afcc a73f
00000610: e84f f3d0 b308 c3bf d1a6 73ae a6f3 c1bf
00000620: 035c d8ef 3ebf bf3f ff96 d1c7 f726 953f
00000630: 8356 cb2b 63b0 aa3f 2fd2 3b3d a27b a7bf
00000640: b486 353b 2506 c73f d71d 4766 00c8 c3bf
00000650: b71a a219 c031 d4bf b789 b157 e85e cfbf
00000660: f8bd aec1 3ca0 b5bf 5f4d 8fad ff1a b23f
00000670: 5de2 965b ddad c33f 3f0c 6569 721f ca3f
00000680: 1969 e49f 3a3f babf aaa8 5a75 4729 cabf
00000690: e881 c899 5519 d13f 42b1 c187 e9a4 d3bf
000006a0: 386c a69f 16dd c2bf e677 edff 3e29 c4bf
000006b0: 0562 95bd cfdc c23f ef0d c281 9955 bf3f
000006c0: ec9f cd4e c680 b23f 2451 1553 5823 ab3f
000006d0: 0a00 c69e 066f a33f 4bbb d458 bec0 c7bf
000006e0: df57 45c4 b176 bf3f c2f7 5ac1 fc2d c43f
000006f0: d6df 9216 5cde b7bf 8d99 842f b734 cfbf
00000700: feb6 4b8b daf5 cfbf 49cb 4d13 1d00 a93f
00000710: 6968 18b5 03d0 b7bf 801c b70c b465 99bf
00000720: 8af5 b2a0 74d2 aabf 46c5 1db3 1d97 b83f
00000730: 46d9 1ce8 9f6d bebf ee4e 58e0 ed35 c8bf
00000740: 0aca 5a4b 6b3c ab3f 4d0f 55f2 580e b83f
00000750: 6e2d 474a 8152 d53f 1aa3 0407 c3b1 53bf
00000760: 3758 4521 cbbb d6bf 95bb 9aaf 5385 a03f
00000770: 5e46 872a eaaf c23f 200d 3e91 d901 a0bf
00000780: 9415 2413 e599 c0bf cdf0 059a 39d4 a1bf
00000790: 53a9 6f3d b856 b43f 9033 1604 181c d0bf
000007a0: d1df 9a94 6d8d 5e3f 892e 2782 1ac4 a6bf
000007b0: 3108 bdd9 bd97 bf3f a7e4 d566 aa8f bd3f
000007c0: 2237 bf4e 1b7b 7c3f 627b 7daa 61e5 c43f
000007d0: e02a 6a24 c2bd d1bf c661 f9da 8a56 c13f
000007e0: d73b 80d5 b252 babf 972d 4cbf 1e38 c2bf
000007f0: 5f50 4a47 e19f c3bf 4254 3bac 259a c1bf
-0.2644350277771741 -0.11284459596284166 -0.010710486986061274 -0.09677365478526764 -0.04300014105352103 0.10590093784805944 0.1384371881869489 0.2615267560612097
-0.1992721091306527 -0.12730055769009352 -0.13313750113866038 0.03229439357914117 -0.00898691318100157 0.1774944017173783 -0.05709593864590142 0.07199856414628812
-0.11852013472777745 0.11258840858898563 -0.06533755619738531 0.049501255816746886 -0.19265538016004477 0.13274675074615977 -0.05326201199392199 -0.021609040106161846
-0.33854609817258186 -0.27215289411584437 0.1773064808981752 -0.007032148195056513 -0.08140986678206572 -0.21447593528349598 -0.13172804008935066 -0.12036554399992956
-0.08149050997345872 -0.15838912915458664 0.059647332499856605 0.2167242210588727 0.2631264867780345 -0.11839283775561868 -0.11978433605530214 -0.1182005368049051
0.04515427865323809 -0.2087939911558266 -0.0768847811602516 -0.11194237730294651 0.2917044166099328 0.18542775770880154 -0.01322129271597055 -0.2341599507820676
0.0007161283406297239 0.07760783449765515 0.006417224673306107 -0.09947284187714202 -0.0707128855975135 0.09812713477311316 0.20370067225118216 0.10709714371411573
-0.13474855066708968 -0.21015556562834184 0.16157220658780858 -0.12564313233732535 -0.21757706616374478 0.18665313835234648 -0.15424774567852004 -0.09666036481685505
0.02229708964301332 0.16461412957808338 -0.027588835406955683 0.18412772706269326 0.3338810614759256 -0.15967321081813785 -0.10080365483952959 0.10033037158317164
-0.2987915606302258 -0.2686982923524401 0.10602121024864866 -0.11780794457693478 0.05102154176724872 0.02698427420777319 -0.17409115550826273 0.014826890052289952
0.03774002934308779 0.06686785824639135 0.04570415606780237 -0.1129721768806525 0.13094246778486848 0.20990233697907565 -0.03734163498654775 0.08448588896977935
-0.16469939299108424 -0.1150526224131129 0.3233488338917631 0.19171822336565122 0.06209266998008684 -0.059787553462683704 0.27894184452717596 -0.0639702895727255
0.15676390974189403 -0.03391648073578729 -0.10251411906619817 0.23731429295453782 -0.16996855920976264 -0.032193438610564507 0.07390756962961191 0.16442166061803792
0.08786103416099648 -0.0434347157209807 -0.06969408822820865 -0.1513848727208543 0.062012099936242446 0.0065679340738480346 -0.0380717535789522 -0.10493241468371904
-0.20581912628805704 -0.07476506863772127 -0.21118234051480272 0.16014841588088138 0.02401239603514433 -0.14485400387834063 0.18831479668593742 0.039999851286618114
0.018827361185168114 -0.18013934067176313 -0.22549386721075307 -0.1445720279637871 0.1345366605572062 0.06332520562909236 -0.18759453382792993 -0.0405925270141739
-0.20085984877689878 -0.13543723803552038 0.22183690615641552 0.19862085923157793 -0.13703793567766986 -0.004735205758100694 -0.19713904858616474 -0.009993839219857548
0.0022406617678412616 0.17204148318756765 0.033259991690657804 -0.1474135908533427 -0.04482062965891191 0.025862202875380498 0.15166768107566403 -0.1803762068561086
0.07688558421636134 -0.01780816981611176 0.010960903693465121 -0.1124422428193643 -0.04484455037868064 -0.047142937255473034 -0.19393224402866388 -0.09970724899848668
0.22309205333072013 -0.12815833427114437 0.06204789455221998 -0.0967164968286992 -0.13083689953029026 0.009072440902874197 0.08021341971236529 -0.11739567071260268
-0.29648051143708454 0.07039208866185198 -0.06230480907222775 0.06631401159202822 0.08935939096562152 0.03864677359463173 0.07050933677895738 0.15740626295140603
0.03636260938575376 -0.2855657822994046 -0.010950002845313889 0.17275645894509042 0.056707570432437904 0.04195322197673435 -0.020571075160302564 -0.2548113451259728
-0.11581741199145341 -0.3786232607107313 0.002988635179086276 -0.007645675323608672 -0.01660639410638695 -0.020151570214862365 0.1798717667992072 0.1946994906688625
-0.04425509058305024 0.2613649828830106 0.2306570049825401 -0.05513208391990339 0.02609432073753277 -0.015584724540242702 0.15828867517622125 0.005303856825089869
-0.24678407274164527 0.046483507345854755 -0.14870307638795954 -0.1402481414618735 0.12401193004221515 0.020656463213888362 0.05212697896574261 -0.04586512563210864
0.1798750437838429 -0.15454106325181158 -0.3155365228962341 -0.24508384973439742 -0.08447627762392773 0.0707244681100767 0.15374342891824969 0.2040846838591239
-0.10252729800814499 -0.2043847392099612 0.2671712877072694 -0.30694044358712713 -0.14737208171286098 -0.15750873085465783 0.1473636317921462 0.12239989679260764
0.0722774450674703 0.05300403608512941 0.03795643509056397 -0.18556956613016448 0.12290488282937372 0.15765342179468972 -0.09323669005504995 -0.24379625148976594
-0.24969035913039045 0.04882899151461701 -0.09301779910347964 -0.024802029872969644 -0.05238689862879216 0.0960558473868974 -0.11886023918927888 -0.1891457887110088
0.053195336292805775 0.09396892467799241 0.3331607079860167 -0.0012020496906847756 -0.3552120041762267 0.03226720350846005 0.1459934909494675 -0.031264113406928695
-0.12969649729363353 -0.034822273303662145 0.07944823741823841 -0.251714710226957 0.0018647737619357128 -0.04446490134031673 0.12340914312247332 0.11547341356880968
0.00695334116967475 0.16325016808238063 -0.27720693164944343 0.13545356456849172 -0.10282438003945003 -0.14233764973355953 -0.1533166502091516 -0.13751669797662386

model.0.bias f8 [30]
00000000: ce16 d4e9 c3d2 cbbf f13f df22 bd6c 83bf
00000010: 36b1 5ae7 2058 bdbf c9a2 f881 c260 c33f
00000020: d588 3917 c936 c8bf 7222 d57e 84ee acbf
00000030: c5ea f9d7 0a97 c2bf 0a53 b693 0152 adbf
00000040: e417 388e 9949 c1bf 6510 95fd a970 993f
00000050: ccc6 c946 0976 b0bf 5851 5109 71fd 80bf
00000060: 930a 7c17 72c5 9a3f 3f64 58aa 034f a43f
00000070: 336d 296f 9727 d03f 6982 39ef 2462 c9bf
00000080: 3dc7 eda0 bcdb d63f b006 4331 e7db d7bf
00000090: 3750 47a4 7c2c c4bf 8796 678d 530e cebf
000000a0: df09 ece9 3ae6 a8bf f1dd 850f c29c a8bf
000000b0: 2516 ee9c 82f8 82bf df20 e968 8fb4 d33f
000000c0: 942f 5440 7264 843f f4ee b313 82ce be3f
000000d0: ee99 4c1d 53a9 b63f fa92 77da ae56 d5bf
000000e0: 4747 b2a3 8818 cf3f 6e0b 35f6 e904 cd3f
-0.21736954610258014 -0.009484746576987365 -0.1146259846524956 0.15139037462474494 -0.18917192110081396 -0.0565072445702456 -0.14523444696154378 -0.05726628234984872
-0.13505858845036223 0.02484384165042321 -0.06430109003283774 -0.008295901390888247 0.026143820460684152 0.03966533140573646 0.25241647582670906 -0.1983076255883305
0.35716167178826536 -0.37279681978916823 -0.15760763188757362 -0.2348122063114497 -0.04863151650899388 -0.048070969004523685 -0.009263058103679953 0.30789551968747547
0.009957211101685272 0.12033856373812651 0.08852118935883599 -0.3334157117335931 0.2429362105654553 0.22671246072612966

model.2.weight f8 [30]
00000000: 9d6d 0b28 cd69 ee3f 662c 0c75 560d f33f
00000010: cd74 6f06 c71e f03f 8d97 c6ff 8ddc ef3f
00000020: 7f3c 4437 d351 ec3f d4d1 7b74 37b6 f23f
00000030: 7177 d2d4 5531 ef3f 094e 6cdc 1fed e73f
00000040: 6805 9e3b f2be eb3f 4a96 8510 de9b f03f
00000050: ec23 f83b b8e5 ee3f e151 066a fc0f f13f
00000060: 9a69 0759 d54b ed3f 16e5 5bca aa9a eb3f
00000070: 4407 b2b5 4639 f13f 006c a9d6 5d07 ee3f
00000080: 5e63 8d1e ad37 ee3f 8819 3e64 dc5a f33f
00000090: 0ee9 5c69 977c ef3f 7e07 4694 2d88 e73f
000000a0: 932d d5c6 b02d f13f a82f 345e ea40 ee3f
000000b0: 0f23 23ee 2695 f13f af02 d771 ba8c ee3f
000000c0: 1937 2367 f58a f13f 9632 5b66 5f24 ea3f
000000d0: 49e0 34d2 f3d1 eb3f a151 b199 ad88 f13f
000000e0: bdb6 0960 2f5f f13f acbb 8ff2 e4e2 ec3f
0.9504152090188885 1.1907562801523226 1.0075140239126086 0.9956731792087666 0.8849884108948486 1.1694864797728899 0.9747723728830647 0.7476958565843584
0.8670588650131039 1.0380535741218346 0.9655419513011316 1.0664028302754718 0.9155070055815486 0.8626302673648378 1.0764834496953464 0.9383992378819812
0.9442964169239578 1.2096828380323092 0.9839589174146413 0.7353732963531312 1.0736549155143151 0.9454242553633678 1.0989140798794244 0.9546787475047348
1.0964254406748692 0.8169400214333844 0.8693789582821491 1.095868683206483 1.0857385398370945 0.9026970613029923

model.2.bias f8 [30]
00000000: 79c0 16e9 8ecd c03f e814 6f38 2217 94bf
00000010: 5810 2c41 ec9d c33f d456 8612 b5b0 d53f
00000020: 5ee1 1d72 4340 d63f 803d 15b1 5f5e 8e3f
00000030: 4904 35b1 ec0e a6bf 5d87 2850 77c4 c6bf
00000040: 531b 6320 2ff3 c23f 9bea 355f 5916 b0bf
00000050: 0336 c32a 770c b93f 137c 86f7 a6d5 a53f
00000060: 69cf bdd5 5120 8cbf 90d1 e7d7 9df4 cb3f
00000070: 73d7 722f 6515 b9bf 7ace b65c 132c cf3f
00000080: 1e4f ce38 bbd9 c4bf 8ddc de80 6281 b73f
00000090: 0663 a3d9 6d4c d03f 56ea 4071 1045 b13f
000000a0: e2fd 8266 f461 b63f b0ef cd8c 06c1 ca3f
000000b0: 7632 273a 127a b53f 50fe 954f 46cf c5bf
000000c0: 0b45 cecf a5ba b33f 6890 5931 17c9 c1bf
000000d0: 6015 c414 8d9d ad3f 7c4d c70e eff8 943f
000000e0: 21db 9b11 a35d c73f e691 1967 61e4 c1bf
0.13127313977520652 -0.019619497961476023 0.15325692350609432 0.3389103585153468 0.34767233032427736 0.014828441230433809 -0.04308261550114218 -0.17787066854458092
0.14804638940241918 -0.06284102034070786 0.09784645837790866 0.042645662036413644 -0.013733519873973159 0.21840260545981183 -0.09798271568692289 0.24353258158736307
-0.16289463304257706 0.09181800504926425 0.2546648621915185 0.06746008648853183 0.08743216994024963 0.20901567340103844 0.08389390868905786 -0.17038802038222167
0.07706676791555737 -0.13894929799710387 0.0578426444863378 0.020480857159623764 0.18254507407956402 -0.13978211912321042

model.2.running_mean f8 [30]
00000000: 99cd c42f 33ab c23f def1 9a8a da58 ce3f
00000010: 02db a8af f730 cc3f b4ea 7203 3b4b d43f
00000020: 47db 39cb bdd2 cc3f 9dc7 6808 0d0e cd3f
00000030: e535 96f8 495f d33f 93e8 993c 24fb d83f
00000040: 91d2 d695 d34c d63f 65d7 0c84 8700 d53f
00000050: 5838 55bb 752e d23f 8e4d e240 81b6 db3f
00000060: 4462 ec0f 2395 d33f 2e53 6942 a38e d83f
00000070: 1c0c 79c9 d7be e03f 0ed0 6c28 0e04 d53f
00000080: ff76 d74d 1130 e73f ba52 94b1 9165 c43f
00000090: b8c1 eb7f 9d94 d73f 4d51 ffde eb9c d93f
000000a0: 0482 60ad 15b2 c93f 225d 3415 0496 dc3f
000000b0: 9507 6e21 b73b cf3f 7975 a8f6 6f22 e33f
000000c0: 8cc6 4177 f623 e23f d52a 8e63 30aa d73f
000000d0: 97e0 3051 1caf dc3f 63ed 2e5d 65db bd3f
000000e0: 1882 ad92 3156 d83f a0f4 7edc aa68 e43f
0.14584960777720538 0.23708659904322266 0.22024437024239069 0.31709170662694963 0.22518131659645688 0.2269912997303977 0.3026909759144856 0.39032846372686797
0.34843911774377384 0.32815730948947525 0.2840856866286052 0.4330142148621342 0.3059775977613166 0.3837059162663533 0.5232962546364237 0.32837251613386875
0.7246176262230789 0.15934964342945596 0.36844575397756385 0.4002027204235404 0.20074721303628007 0.44665624686008887 0.24400986797632798 0.5979537789859669
0.566889985011771 0.36976251337243343 0.448187903678908 0.1166289665697398 0.38026084255219095 0.6377767855225507

model.2.running_var f8 [30]
00000000: dbc4 de2b 04da c33f de4a 039b 720d ce3f
00000010: 8cee 373c 2365 d03f b78a 148d 11b5 ce3f
00000020: 31f8 340f 8f92 c63f d172 99ba a541 c23f
00000030: 0c82 4e9f 623f d33f 3562 62bc 747c dd3f
00000040: 0f40 9bda 88b1 d13f 51fe 0d70 edac d13f
00000050: 1346 4689 be29 ca3f 2a1c b4b8 51d1 db3f
00000060: 75f1 f0d2 e530 c73f e577 cb7a 115d ca3f
00000070: d733 0391 0bbc db3f 7353 9a07 8a45 d13f
00000080: a461 0ada cc47 df3f b0f9 eb3f 1142 c73f
00000090: d049 c7e6 8e40 da3f c997 6c8c 8c73 e83f
000000a0: c230 d8fa bd11 c23f 9c53 2bb1 fed7 cf3f
000000b0: cef4 f495 b936 c73f 5429 71c5 7007 d33f
000000c0: 2f28 f414 2b88 e53f b6c0 6f0c 5a46 d73f
000000d0: a10d 7826 f227 d53f 5d69 9db8 05e9 bb3f
000000e0: 712e 6d25 fbab c33f 00b2 0807 8ab7 d83f
0.15509082929705795 0.23478539055812225 0.2561729515143518 0.2399007738941543 0.17634762041592603 0.14262839900302152 0.30074372823040174 0.46072119137673734
0.2764608511761261 0.2761796564372832 0.20439893439156318 0.4346508315797474 0.18117974090445058 0.20596521850433117 0.43335236703279406 0.26986933462585866
0.48875733654997533 0.1817037164800701 0.4101903203674313 0.7641051047000867 0.14116644619242008 0.24877914095727938 0.18135757276642156 0.2973291328568355
0.6728721055271815 0.36366893019204427 0.33056310421690155 0.1090243888587898 0.1536859448191197 0.3862023419085574

model.3.weight f8 [15, 30]
00000000: 6834 9d71 5de9 c2bf 8301 75c5 d7bb a43f
00000010: e6f6 27ac ccda 673f dad5 02df b93f c63f
00000020: e603 c110 397a a53f aaba 5ca6 f356 d7bf
00000030: be22 e91d f182 bf3f 975b 4bbf a423 63bf
00000040: f9f8 f72b b1d9 c53f 1c7b 1f36 6584 a13f
00000050: e6cb 0de2 6337 c43f 8fbf 3a2e 2af6 c23f
00000060: 85da b7d2 853d d0bf 0e14 fc58 81c8 c1bf
00000070: e6bb 4131 7a1f b3bf ecf1 b17a 0c4f cd3f
00000080: 360d 5c0e 9f77 d2bf d344 e3f8 f74c a43f
00000090: fb1e a827 fe6b a8bf 9ac2 3b2e 3865 bdbf
000000a0: 7d84 15c6 a521 903f fcf9 f258 e331 cbbf
000000b0: 16b8 3eb0 f654 d33f 8e7e cb94 b8ff a4bf
000000c0: 247e 3356 e07c d33f 1959 ae28 8a28 a63f
000000d0: 817f 62db ae68 943f 819d 19a0 4755 a0bf
000000e0: f81c 78de 7bd3 d43f 342f 84f9 02cc 9bbf
000000f0: e445 863a 8b67 a6bf ffe6 9361 0f10 ab3f
00000100: 34f2 0772 faf7 a03f 45f7 01ca 9000 be3f
00000110: d331 a245 3b5a a7bf 599d 5216 747e d3bf
00000120: 454f 2829 54af c43f f986 820d df90 aebf
00000130: b8b2 89d2 9833 d43f 05c2 130a 080f 99bf
00000140: f070 7014 18f5 c4bf 1620 99ea df04 c83f
00000150: f153 736e b6c0 90bf 16b2 3ef2 511a 593f
00000160: d163 0676 cf21 763f dc53 5a22 d115 a1bf
00000170: 4315 6636 80cb d9bf 38a7 b417 4e1e c5bf
00000180: 34ed d6ac e462 c7bf 7fef c463 8324 b0bf
00000190: a7ae b3fb 02e2 ce3f c101 2f90 8e7c b5bf
000001a0: a655 f7db dbff 8b3f 6e56 6aba 4451 62bf
000001b0: bd72 7382 39bb d03f 36e3 bc54 9ca3 c5bf
000001c0: 2e1f bbaa 0cf8 bcbf 6d4b 7876 f09e d03f
000001d0: 9ffa 0e2f a637 d13f 43dd 7313 a4fa 913f
000001e0: abec 15e2 072d b4bf 3662 d480 e99d c4bf
000001f0: 2af4 36b1 b569 aa3f 91fb eb21 a763 bc3f
00000200: 7b95 dfdd 9fb5 b23f cb38 0772 bc82 c9bf
00000210: 26ae edbe 36fd c23f b1c2 34a8 9577 b7bf
00000220: d214 05df 38fd c83f 9290 5ee4 5a4b b63f
00000230: 810a 8548 7b5c a9bf 4a12 90b4 1f46 b83f
00000240: f1c8 8c38 cc69 90bf 02bb 81fe 0bf9 6e3f
00000250: 0c42 8020 12a7 b3bf 2913 5981 cd2b b53f
00000260: d8a0 20fb 0f55 bfbf 8a03 20f0 b7f6 c43f
00000270: 5ce9 f447 8a44 8fbf b7f0 7598 7318 c7bf
00000280: e84d d329 b9db b1bf 64a4 95ac 926c ab3f
00000290: 8c2e a75a 5f38 d63f 97db 6d09 902b d9bf
000002a0: 9f1a aa75 3929 d23f 9d97 59c6 c70b 91bf
000002b0: e47d 93d8 376d ad3f 1af3 bb37 3975 c03f
000002c0: 0d06 836d 45dc bc3f 2411 9a52 14be c4bf
000002d0: 18c9 8754 53fa b9bf 9ce2 4023 8cee c7bf
000002e0: 73eb 3e94 845a cdbf b958 464e 0731 7abf
000002f0: db26 aa9c 0b7d a13f 6946 3b5e 91ad cebf
00000300: aa5a 48b3 3183 a5bf 32f9 2125 423d a3bf
00000310: b52e e907 ee16 b63f 1964 cc99 9d02 cabf
00000320: ca5e 4879 c245 cbbf 561e 1c00 73b3 c0bf
00000330: 5bf2 e3dd 9f98 b2bf e5d3 4874 ab04 bc3f
00000340: 867f e649 61b1 d23f c1e2 b6af fd57 54bf
00000350: 8136 52a2 da26 b83f 41a7 46b6 9b08 d1bf
00000360: fde4 c7cc 7593 bc3f 2342 3cba 8a00 c03f
00000370: b577 a793 2229 c8bf 9cba 3664 e01b ac3f
00000380: a803 2757 cb25 9fbf 55c5 5cee 1c33 c13f
00000390: f576 c04a eb1a c6bf 89c6 8b9b 0887 c93f
000003a0: 8600 bbad c875 a6bf fd25 6128 d469 d5bf
000003b0: c942 735c ef45 d5bf 1188 6d26 acf7 ab3f
000003c0: a8a5 5107 dd58 c0bf 54a8 94db c2e0 d0bf
000003d0: ffbd 78c0 2472 9ebf 3605 e313 9959 a73f
000003e0: 1b3e 77c3 f2da c53f 27a3 bb2e 65e5 c4bf
000003f0: 4795 1c43 e65b babf 79fd d80c 1077 c0bf
00000400: 8ce2 e415 7f20 b43f 530f c188 4dfc c6bf
00000410: b234 f242 5def 403f c735 36c6 a2a1 c3bf
00000420: ae51 49b0 fab7 babf 853a f570 24c4 c13f
00000430: fbe7 a4d5 1559 c73f a36a 383c 4977 9e3f
00000440: 5833 2f45 29f9 c03f 4b37 0497 e6b4 d7bf
00000450: 59ee 6805 d28b c13f d86c ca8c 71f4 ae3f
00000460: 0206 7b71 0a04 c6bf 1143 0c90 fa9b b73f
00000470: d879 1526 4c52 c4bf e0bb 6966 733c b23f
00000480: c98b 0817 590d c4bf 8d99 e671 4824 a0bf
00000490: bd1e 8d02 b8be c3bf 6c45 0bf1 c825 d0bf
000004a0: 0c5e 46d7 ad04 d1bf 6be6 e0d3 1839 a33f
000004b0: 07e3 24ef 34a7 66bf 4e42 7857 dd5d afbf
000004c0: fc0b 5d13 b3f2 d43f 2fbe 5a3a 1ad9 bebf
000004d0: 59e7 5cb7 5366 a0bf 05b0 1c61 31d0 d43f
000004e0: 63c6 3b1b 71fb b5bf 4636 1642 a091 773f
000004f0: ee31 1c07 6c48 b1bf 6ac4 c64d d696 cc3f
00000500: f6a8 41d5 718e 53bf 8558 64b7 647f b1bf
00000510: 9df4 3f25 3a52 a73f 8028 6fe1 d2cd 62bf
00000520: ecbf a4d7 603e aa3f 5f5c 4db5 bbf4 7cbf
00000530: 4ac8 d6e4 1fc5 a23f eb72 b211 efdb d03f
00000540: 7269 056c 0e19 c5bf 31ec fc96 ef30 903f
00000550: 9d64 ece6 fa02 c73f b93b 106e c10f c4bf
00000560: a948 5a7a 6020 a33f 5041 2255 7014 9bbf
00000570: abd9 c6d5 0239 a83f 9606 ef02 fd7c c63f
00000580: 071a 061b dc4a b93f 8d25 1a36 abf2 c7bf
00000590: 6cba 771b fd0a c5bf fd85 d2b0 fd13 8ebf
000005a0: 52ea a622 8ffe d33f ce57 b2f2 e5bb b93f
000005b0: 44be e496 f50e c4bf fd43 44ee 5fd1 be3f
000005c0: f883 3a8d 261c b43f 039d f399 8ec6 cc3f
000005d0: bcbf 0cb4 8b83 c73f b4d1 c74a e2c8 c2bf
000005e0: b0d3 7ee1 64b0 b83f 687b b270 3296 ab3f
000005f0: 1e30 cdd0 8fe3 a93f 78fd 5b1c 07c0 c13f
00000600: ecb8 3080 32c6 cbbf cf84 77a9 608c aa3f
00000610: 8ae8 f77e 1503 b73f 684a 7214 5068 cfbf
00000620: d825 e431 b757 a1bf ba8d d3d1 4183 503f
00000630: 9c8c 1494 8a32 cdbf dfa5 fc73 932c 763f
00000640: f467 f920 1734 c0bf 76bf 3752 c450 b7bf
00000650: 40d0 4a31 dc8b 9fbf 5c17 4c71 4568 b8bf
00000660: 384a e766 1805 c23f b9cc bf70 8bcb a5bf
00000670: 2552 a78f ee63 d0bf a4ab 0035 f3ba 81bf
00000680: 271c a13a 44ea b2bf 3905 f442 5d8a c2bf
00000690: 7698 f089 705e cdbf 1996 866f da3d d03f
000006a0: 22e4 b5de ca03 bb3f b9bc 795d 1451 a83f
000006b0: 31d3 945b 3a3d b53f cb8c 6784 6484 d13f
000006c0: ecb0 4a8e 0d24 b8bf ade1 b850 a44a bfbf
000006d0: b8ec e6fa 497c b43f d1dc e387 014b d83f
000006e0: 4bb7 d89d 204d ce3f 68cb 9dcf ec6f 8a3f
000006f0: 50fb 2f4a 8c88 bc3f 6ad4 9bac ed4d d7bf
00000700: e3d9 1d38 4722 b2bf 5086 aa7c ee63 af3f
00000710: e87f 4fda 0e4e c23f 38b0 6974 d3ac 9abf
00000720: db59 9162 8afc b23f 08ef b543 7ccf c23f
00000730: fd54 f29f 6570 b5bf 5780 01db 475a cdbf
00000740: 01e1 a2f5 5dbc 923f ef57 769b 6a4b a2bf
00000750: 5552 9365 8d9b bbbf ec24 f6d7 f28b 903f
00000760: 54db 8e52 0b0c c23f e7ad 63f1 dc7b ad3f
00000770: 5130 982b f78f af3f b3ed 5218 0198 d23f
00000780: 04a3 1318 8e63 a4bf 5b70 75fe a896 d0bf
00000790: 77a5 38c3 0cc1 babf b19b 6cc0 3d82 d2bf
000007a0: ffd0 8cda 913b 9dbf ba6a 2514 b025 c5bf
000007b0: 8d97 ede6 d1e7 89bf 03d6 9b5c 5efe c53f
000007c0: 6a71 70c2 6695 c0bf b926 0f64 8cb3 c2bf
000007d0: 5db5 db04 7bc8 d7bf b2d6 1853 2ece c4bf
000007e0: d49e 69a0 810d c4bf b1a4 46fd 8d66 b1bf
000007f0: 42c2 127a b1da 793f 0d78 8dc7 2d90 be3f
-0.1477467350727324 0.04049562726368363 0.002911948920199292 0.17381976498806645 0.04194811181560691 -0.36468211408911577 0.12309176426164023 -0.0023363321036912843
0.17070593497187028 0.03421322141342939 0.1579403737810871 0.14813735253619284 -0.25375505044886665 -0.13893143506007316 -0.07469905569608634 0.22897487631770674
-0.288551105521225 0.03964972413235448 -0.04769891962138036 -0.11482573631998108 0.01575335523137199 -0.212459963257018 0.3020607682364028 -0.041013496554794235
0.30449684541778965 0.04327804323763668 0.019930584087546336 -0.031900633138145736 0.3254079506445602 -0.027145430068272705 -0.0437587269726796 0.052856903706880225
0.03314192430477583 0.11719613010242565 -0.045610286951248157 -0.30459310703232273 0.16160060891763287 -0.059699030303148555 0.31564922867145695 -0.02447140275484296
-0.16372967718132925 0.18764876322734442 -0.01636014031540251 0.0015321541077170145 0.005403337855022409 -0.033369574969732446 -0.40304570495967 -0.16498733670715082
-0.18270548285895816 -0.06305714784406112 0.2412723282826523 -0.08393183727367327 0.013671605730375468 -0.002236017451035014 0.2614272855696916 -0.1690555013426775
-0.11315993469463301 0.2597008854801775 0.2690215549045351 0.01755768173913209 -0.0788121153799916 -0.1610690955210587 0.051587751276635466 0.11089558199090123
0.07308386961775241 -0.19930224960120876 0.14835247347524322 -0.09166846615404257 0.1952277268375498 0.08708732676911016 -0.049533703424931914 0.09482000501891111
-0.016028586341413967 0.0037808641682696162 -0.07676804822427402 0.08269962699803259 -0.12239169961015095 0.16377925133567955 -0.015267448731368809 -0.18043370193834615
-0.0697589614022075 0.05356272083992833 0.3471907029422503 -0.39328385277570405 0.2837661408488347 -0.01664650104648723 0.057473893344418575 0.12857737752337856
0.11273607181194496 -0.16205076249401273 -0.10147591413241164 -0.18696738931045764 -0.22932488668979154 -0.006394413507584123 0.03415714538011879 -0.23967187024259154
-0.042016556868636215 -0.03757673934250007 0.08628738110672425 -0.2032048226326715 -0.21306639596945437 -0.1304763556038206 -0.07264136473890785 0.10944625462509767
0.29207641808351814 -0.0012416818052384678 0.09434286559027251 -0.26615040588750466 0.1116250634148805 0.12501653760456674 -0.18875534257580076 0.05490018103897862
-0.030417611307487796 0.13437234534061795 -0.1726965060233209 0.19943339915294114 -0.04386736984952315 -0.3345842737513463 -0.3323934939226488 0.05462396592226083
-0.12771189553613493 -0.2637183327048025 -0.029732298133408715 0.04560545318373459 0.17074427170017334 -0.16325058729059913 -0.10296477449863516 -0.128633505128146
0.07862085613749964 -0.17957467248390432 0.000516815698476633 -0.15337023428257465 -0.10436980060450793 0.13879828944705622 0.18240616733402235 0.02975191526466382
0.13260379675048273 -0.3704163050432398 0.13707947982935556 0.060458706318252176 -0.17199831524889936 0.09222379700464624 -0.1587615190464493 0.07123490572278923
-0.15665734886814978 -0.03152681723013293 -0.15425777554104583 -0.2523062089868151 -0.2659105875295331 0.03754499040992417 -0.0027652772779699383 -0.06126300518747439
0.32731320277179043 -0.12050022053403418 -0.032030693181197285 0.3252070854530305 -0.0858679477203395 0.005754114159015672 -0.06751132176959349 0.2233531837241885
-0.001193629422255924 -0.06835011937468678 0.0455492182227115 -0.0022954100381627485 0.0512571585881004 -0.0070693333007830475 0.03666019123501536 0.26342369774083235
-0.16482715868444192 0.015811675634932413 0.17977844501073018 -0.1567308223170281 0.037356390891674814 -0.026445155330806103 0.047309959979816206 0.17568934100386419
0.0987985197044524 -0.18709316388803324 -0.16439784852214545 -0.014686567267122358 0.31241205581651343 0.10052334952555883 -0.15670652263496454 0.12038230483109653
0.07855454395259176 0.22480947987717323 0.1837019566678445 -0.14675549174684266 0.09644155984172076 0.05388028741548717 0.05056428359839081 0.13867272267087194
-0.21698600062649775 0.05185224598586446 0.08989080762686022 -0.2453708743892833 -0.03387234195731609 0.0010078566331735831 -0.2281048987434574 0.0054136047254273725
-0.12658967123098785 -0.09107615477819117 -0.03080696154457052 -0.09534105316205682 0.14078049683173943 -0.04256854773839209 -0.25609935787841415 -0.008657360129367415
-0.07388712340717572 -0.1448475434226937 -0.2294445680174168 0.2537752236479221 0.10552661835926405 0.0474935878854636 0.08296551452515356 0.2737056057942026
-0.09430012439651464 -0.12223269434696844 0.08002149940050429 0.37957800169483585 0.23672874171591682 0.01290879257769513 0.11145855723587528 -0.3641313729888852
-0.07083554382356953 0.061309292524367565 0.14300714168257334 -0.026049903850818817 0.07416596323432804 0.14695695215402105 -0.08374629168459431 -0.22931764787336092
0.01829668819183983 -0.03573163173420812 -0.10784229020948406 0.0161588615715446 0.14099256068376553 0.057585625139690504 0.061645244666664774 0.29052760482201306
-0.0398220447912703 -0.2591955647419632 -0.10450820699829487 -0.28919929305487374 -0.028547553028333002 -0.16521264060687263 -0.012649192676416532 0.1718252136412702
-0.12955936903098159 -0.14610438237860082 -0.3716113612598145 -0.16254214341613743 -0.15666218121190545 -0.0679711097096909 0.0063120777787593636 0.11938749429597824

model.3.bias f8 [15]
00000000: 5990 3687 3bad c83f 3900 9634 aeac b03f
00000010: 1b8b 1b05 3ff2 c03f 9521 31cf 018d c23f
00000020: 3d7c fa80 ff51 c23f 2038 17de a05a b63f
00000030: 6ea1 f36f bb29 c03f f8eb 03c4 c7b1 a23f
00000040: aa44 be47 5153 d13f 0fc1 4ebb 8f8e c2bf
00000050: 5bc9 ea7c e4d6 d53f bce3 ae5c 353c 9d3f
00000060: bb21 bd92 5330 b53f 5fc3 2501 125c cf3f
00000070: f0a3 584d 88e2 d03f
0.19278663732723336 0.06513489517055938 0.13239276646989925 0.14492819420617012 0.14312738225723534 0.08732037946830973 0.12627356497183534 0.036512606313372886
0.2707102966897518 -0.14497563024406943 0.3412409992116829 0.028549989492350866 0.08276865322580466 0.244997263489064 0.2638264422735679

model.5.weight f8 [15]
00000000: 5813 b5cc aae3 f53f e052 6b3a 5f79 f23f
00000010: 91c1 9c1d 5e4f f33f b5cf 46fd 4857 f53f
00000020: 0843 f4bb eae8 f33f 2bd3 9c3e c2e7 f03f
00000030: 37e1 053f 381d f33f 808c 6068 db31 f23f
00000040: 9f91 c51b db77 f33f 0b39 9563 0f9a f43f
00000050: c013 4aae ba9d f43f 2bbf e8dd a6ca f53f
00000060: c9ff 83b9 5910 f23f aa60 6358 6860 f63f
00000070: 6469 a68c b24e f13f
1.3680828091030062 1.1546318323136617 1.2068768650752626 1.3338098424546676 1.2443644849738025 1.0565817304424836 1.194633718665569 1.1371721341354544
1.216761692508136 1.2876123323399635 1.2885081108263279 1.3619755428625904 1.128991818113706 1.3985370114005868 1.0817132467405708

model.5.bias f8 [15]
00000000: 8d3d 42f5 2aa5 d6bf c9e5 c714 7c00 d7bf
00000010: aa5e 9c1d f489 d8bf bf45 8a28 4235 dd3f
00000020: 682f 3233 b789 da3f ba18 4f48 150f d8bf
00000030: 0569 cee2 f14f d8bf 1d4d e7dd 7233 dabf
00000040: a36e eabf 7bca d83f d86e 3cff 80da d83f
00000050: 74e9 c6a1 7ea9 d8bf aa05 b3da ce70 da3f
00000060: 3ab7 6fbc 8e31 d5bf 6971 d05e ccab db3f
00000070: feb9 3dfd 767b d6bf
-0.35383104277658434 -0.3594045832574833 -0.3834200181167754 0.4563756366634059 0.4146554946862495 -0.3759206014768882 -0.3798794474511314 -0.4093901793505255
0.3873586057832005 0.38833641934773544 -0.3853451328137887 0.4131352554068949 -0.3311497535895459 0.43236073741152 -0.3512856934602552

model.5.running_mean f8 [15]
00000000: 8ade cc6b cf51 e83f 8ebc 9c8f 37d8 e53f
00000010: d50c 222d e806 e83f af36 7ff0 e553 e33f
00000020: 82be 7c93 fa72 e43f f261 5aee 9a5f d43f
00000030: f065 1fce 034f dd3f 1a49 9e7b 6b3f d93f
00000040: 9772 10b0 3f7e e13f cf40 510f 789f dc3f
00000050: e0c8 e1cc 830f e53f eb5a 1ebd 5bfa e03f
00000060: b4d4 fe0f da70 e63f 917e 5861 11f0 e43f
00000070: f10b 3f00 ce3e e63f
0.7599866013978993 0.682643681042366 0.7508431321624821 0.6039914796071651 0.639035499631021 0.3183352782885144 0.45794768456616364 0.39449584076023003
0.5466612280611852 0.4472332143386781 0.6581439019776347 0.5305613225671925 0.7012758552943041 0.6543051625521504 0.6951665882883146

model.5.running_var f8 [15]
00000000: a80a 655a a461 f03f 4123 c9fb c157 ec3f
00000010: a430 dfb8 191c ef3f a77e 53e0 e043 e23f
00000020: caf0 b985 cbd0 e03f 4807 f153 66cb dc3f
00000030: 480e 4498 fc27 d93f 9104 7e1b 1134 de3f
00000040: 9db0 6875 701d d83f d26b 87a3 783c d53f
00000050: 1380 28e5 8cde e63f 6385 4de1 4e39 d93f
00000060: dcb9 0060 7571 ee3f f263 9209 bc5c e33f
00000070: 7fa4 4628 d20d e53f
1.0238383799593667 0.8857126157464351 0.9721802340295835 0.5707859403009551 0.5254876720278159 0.4499145335904484 0.39306559438430044 0.47192790684500446
0.3767968317577102 0.3318158719027312 0.714666793417566 0.3941228103850191 0.9513499140792265 0.605070131964679 0.6579371248855209

model.7.weight f8 [1, 15]
00000000: 0a91 2abc 4c3f d8bf 5be3 e193 5167 d3bf
00000010: b163 6733 7b24 d9bf d9b9 20b5 e56b e13f
00000020: eee5 5ce6 25ce e13f ca48 31b8 95a4 c8bf
00000030: 0eba aa3a 0a21 d4bf b58e 520a 8993 d0bf
00000040: 1994 94d5 6c58 e03f 23b7 048f dc1e e03f
00000050: b5d0 c553 3958 d9bf 2323 bad0 8deb e13f
00000060: 21e1 a9b5 d354 d5bf 135a 447d b79d e43f
00000070: 7944 702d c732 d8bf
-0.378863509899262 -0.30318107072485184 -0.3928516389838093 0.5444210565236133 0.5564145564341609 -0.1925227307679676 -0.31451659897985074 -0.2590048409276549
0.5107940837375536 0.5037672799423699 -0.3960097616284302 0.5600041462613244 -0.3333024286325941 0.64425253359042 -0.37809924542768375

model.7.bias f8 [1]
00000000: 17d7 1007 41be c23f
0.14643109173783195

exp_avg f8 [30, 33]
00000000: 3789 03fd 5456 613f e31f a741 b07f 68bf
00000010: 19b1 3aea b941 52bf a15a 02c5 b366 6ebf
00000020: 50b4 4cdf 3f44 803f 493d 2568 773d 66bf
00000030: cc6f 1855 84d6 333f 176b 0440 cebb 40bf
00000040: 4630 13c0 6289 07bf d306 51e5 69bd 513f
00000050: 9bba 1eaf 6180 71bf b5de 619a 349c 4ebf
00000060: 5c3c 74a0 0f50 72bf dba8 c828 4550 3dbf
00000070: ccfd dccc e2c6 6b3f 4363 083d a7ed 65bf
00000080: 0b30 ba72 a144 53bf e71f cc51 3a9e 52bf
00000090: 54bf 0819 54bc 623f 96ab 50b7 8154 423f
000000a0: 5a40 a132 22bd 54bf f53d 9665 e57a 233f
000000b0: 6579 ce56 7c98 4fbf 5de6 eb04 7dcf 78bf
000000c0: c20b 4b9f 5015 50bf b453 c83d 0f08 63bf
000000d0: c899 4cd6 8f23 603f 2a7c 9de1 2760 70bf
000000e0: a725 981f ae4d 5b3f 817b f0d1 63d0 453f
000000f0: d705 df9b 3c1d 4abf bbaf f0cc 6d43 71bf
00000100: c5ac 93f7 6499 6e3f 7e71 877f f14d 66bf
00000110: 8c52 dc7a c622 7cbf d06d f191 a50b 7fbf
00000120: 5ffe 9101 3a04 4bbf 71db e756 f6a8 653f
00000130: 85e1 ec11 cbf1 56bf f427 5fac 9969 7abf
00000140: 2eb9 8fe4 154c 5dbf d27b 66ff 4242 64bf
00000150: 6137 addf 21e8 4a3f 8998 ea5c 0b33 3dbf
00000160: 28a6 66a2 6839 733f ebaf 2a80 7316 553f
00000170: 3670 aaba 9fed 743f c498 67e6 eda7 17bf
00000180: 9fa4 83e9 6734 5f3f 5cb9 8578 5cbe 6c3f
00000190: eaac 8836 a18d 4dbf 5600 c50a 2ae1 783f
000001a0: f992 6ac5 fc9f 52bf e29a 0738 e936 883f
000001b0: a3a0 3bda f69b 2fbf 26e3 4109 b2f4 4f3f
000001c0: 5006 0536 263b 79bf ce0a 33ef bb18 7e3f
000001d0: 38b1 189b 0d3e 54bf f7ca 427a b6e3 5abf
000001e0: 4772 c3cb b514 81bf 4173 74c7 cd59 7fbf
000001f0: 117e 0754 b2f3 623f d16b 3aaf aeb2 073f
00000200: 78c1 7529 14e1 36bf 60f5 cfe5 efe3 7bbf
00000210: a83d c9e4 99ea 533f 4cee feda 2a35 413f
00000220: 6ef3 a931 cd2f 5bbf 90d8 b980 473c 5a3f
00000230: c2b6 8c69 098c 643f 67ca 2ef4 2d0c 523f
00000240: bcbb 72a5 7822 193f f245 2576 15b4 6b3f
00000250: feec cd6e a18a 333f 4d50 0a19 0401 573f
00000260: dc3a 7e35 5385 613f c531 0ccb 0801 563f
00000270: 9b20 aad7 9135 5b3f e34f 9779 144e 5b3f
00000280: d365 4dad 37b6 533f 2844 9b76 773b 5c3f
00000290: a646 9c63 86cc 663f 60d6 879b b62a 623f
000002a0: d820 9e42 80c6 633f 48c8 31f1 2f86 493f
000002b0: 0504 c451 92b3 6b3f 432e 33cb 745b 4d3f
000002c0: 1394 6a2d c6cb 643f a8e5 756f 0c2b 3e3f
000002d0: 502c 2823 8490 6f3f 15ea 2291 1da0 62bf
000002e0: 4e0f afd6 e2e6 673f ee71 7e97 03eb 56bf
000002f0: 49f1 9baf 4c78 543f cae9 d643 12c8 5cbf
00000300: 869f 454c 7029 703f 8dbc 9dd7 c10e 61bf
00000310: 2924 8c65 37dc 4d3f 5fe5 3012 6726 643f
00000320: ef34 6e7b 101b 68bf db8e 24f9 6994 533f
00000330: 675d c382 5f06 77bf 08fd 89a2 203e 423f
00000340: ba6f c67d fe8c 7bbf b99e 723d 4d51 643f
00000350: 8c2f 35ac 0486 7abf 19ff d107 5abb 6d3f
00000360: 9915 dfb7 27e9 75bf 889e 8083 f0be 5a3f
00000370: 215d 4ce2 1bb2 6cbf f112 2d4d 9904 603f
00000380: 9db8 279e f053 75bf dd2e ec88 7522 66bf
00000390: 3471 5193 6516 60bf 3135 7bba 8a9d 5abf
000003a0: dff2 5c05 2012 62bf ea42 d0ff a998 4bbf
000003b0: dc54 0994 06f7 60bf a454 e307 712e 2a3f
000003c0: 58e8 525c db36 64bf 34cc cba6 4b5b 65bf
000003d0: df94 0b53 b2e4 583f 8a06 57e7 af7b 4a3f
000003e0: ec01 6b23 93f3 5bbf 6e49 ccbc 5458 54bf
000003f0: d440 7237 1f4c 42bf a452 d6f0 d05e 613f
00000400: 8fc1 e7b6 4dc9 183f 65bd 2e71 9bcd 673f
00000410: 744c c916 53d2 50bf d2f6 5d1f 566b 713f
00000420: 1b0f e4ef 41e7 3dbf bf20 5ef9 958f f73e
00000430: b96a adab 91cd 44bf f015 9af0 6531 503f
00000440: 6ae4 0e7a f452 633f 36cf 426e 6bab 63bf
00000450: 1a57 6e29 94d1 433f 3e88 62cb 4b9d 43bf
00000460: 663e 02f1 8d61 223f d59d 84e1 e75a 3f3f
00000470: fca2 ce92 d717 443f 6b46 14b6 e304 4bbf
00000480: 32e3 3cf1 2139 30bf 8140 267b f772 60bf
00000490: 70d4 c997 d386 503f feb4 1d81 7af2 47bf
000004a0: 4581 23cb 71dd 623f 3737 8e0f 18b7 48bf
000004b0: 0de7 00fc 1eea 29bf 8bd1 199a 4cf5 3a3f
000004c0: 6e68 ebea 8364 55bf 0b14 99d7 8cb3 f63e
000004d0: bb8e 5c47 df71 51bf 2148 4e80 3d8b 30bf
000004e0: 9108 6272 6a3c 2ebf 9cca b37a a748 34bf
000004f0: f347 74fe b806 5bbf b2f8 a832 2c78 0c3f
00000500: 675f a78a b54d 43bf af3a e17b 33e8 353f
00000510: 2d1a af69 f0a1 0fbf 58f1 b9b3 8119 583f
00000520: 9643 4c7a 1fda 02bf 63ad e497 60f1 3e3f
00000530: 6799 96fe 8b43 6bbf 8850 4ac1 04d7 623f
00000540: b704 599d e935 6bbf 3bc4 9f2b cc9c 5b3f
00000550: bd93 4ae8 17a7 75bf b960 dadb b489 59bf
00000560: c10e 8993 b19f 67bf e18c df66 7898 543f
00000570: c4a3 6990 df01 54bf 3c94 77f7 4cb4 30bf
00000580: efca c0d6 2575 66bf ce63 eaed c34b 5cbf
00000590: c7ec 31e4 f4e4 74bf 3e03 f1ce dedd 673f
000005a0: 5082 de1f 6c82 573f 190a d39a 2a6e 6a3f
000005b0: 97fa 8cfa 43aa 64bf b1b4 a207 88a4 463f
000005c0: 659e 1bff c994 50bf 9580 502c 015b e43e
000005d0: 1c17 acaa 3120 46bf 024d e081 3fd5 623f
000005e0: 3785 91a2 2d59 6dbf 7301 e13f d944 6f3f
000005f0: 5699 c2c7 2851 643f 5b2f 277c 1385 56bf
00000600: 9b19 83a3 931c 59bf 3082 a11e 1c3d 643f
00000610: 101a 2c4a d1bb 583f 57ad cc51 6907 58bf
00000620: 4f90 cb69 9511 60bf 47e4 a89f 1c9e 63bf
00000630: 06de 2a2c 7439 1abf 8d99 4fb7 f0f3 51bf
00000640: a1b3 f56d 1ea4 453f 80af dbc0 f76c 14bf
00000650: 4f29 840e 3e5d 6e3f 5576 9bc2 d37d 43bf
00000660: e5c8 cdac 3a92 613f 8d1d 9df0 d6cd 56bf
00000670: 0164 8867 f5df 6e3f ec71 6535 4b8e 6dbf
00000680: 026a ed77 c4ce 6b3f 82a7 e912 e5e8 64bf
00000690: ba6e 1389 2174 503f 6fd7 4114 2171 6bbf
000006a0: e939 35aa e3fe 433f 68bf 69bb ff93 6bbf
000006b0: 8a53 c92d 423f 1f3f 21b0 d10b 5ccf 6ebf
000006c0: 42a1 1232 2fe6 43bf bbea 071a 8a93 62bf
000006d0: 51bb 573f 52e6 5dbf f0e3 b9ed a65e 5cbf
000006e0: 32c3 359d 4f18 6bbf 1894 d163 aa09 5fbf
000006f0: 5e4e 4233 17eb 5ebf adf2 afff c9d3 f2be
00000700: a0ea 50ca 02a7 59bf c566 4b34 6384 50bf
00000710: 2817 09fc d453 64bf 96bc bf7d f4a3 493f
00000720: 0877 f384 9353 4d3f 159b 8ec8 c1c2 573f
00000730: d1a1 d4a4 f45e 523f 94c8 6a8a 5711 35bf
00000740: 236f 3de2 a6a0 34bf cd41 ba33 26b2 40bf
00000750: bbe1 f865 aa5c 39bf bb13 4078 eff3 37bf
00000760: 7664 c2a5 73b6 523f 0d5d 8660 13ed f1be
00000770: a788 7f9b f211 353f 50b5 fa76 2e38 4fbf
00000780: 48e0 4509 df4c 25bf 7c2b a39f 8fc5 52bf
00000790: 0d77 a861 250d 393f 2fb4 5292 6891 42bf
000007a0: afe9 47b2 d945 533f 5f7d 84df bbf6 4dbf
000007b0: e097 21bc 6fb7 093f 664e 9d9a 02b7 01bf
000007c0: 0344 0bd9 24c6 433f 037c f510 fede 263f
000007d0: 649c e3a3 5e3b 403f 30e4 fe1e eeb4 4e3f
000007e0: c0b1 970c 1d9e 2f3f 44b6 0e8f 4cf9 303f
000007f0: c37d cb35 54c8 1cbf 1639 7a7c 3597 2d3f
0.0021163616112157796 -0.002990574122325272 -0.0011143031669390068 -0.0037110816120489863 0.007942675592483323 -0.0027148563541811483 0.0003027031972082622 -0.0005106694298178974
-4.48926221082451e-05 0.0010827573908191348 -0.004272824838990853 -0.0009341484881266378 -0.0044708834095806525 -0.0004472893568016175 0.0033907346432042514 -0.0026767984748058706
-0.0011760307924388892 -0.0011363572622844432 0.0022870676550822786 0.0005593903903265858 -0.0012657960856081924 0.00014862108473011307 -0.000964222633786521 -0.006057251316400417
-0.0009816443754721992 -0.0023231790239699127 0.001970082218025502 -0.003997951303829553 0.0016664696144082865 0.0006657111551965218 -0.0007969423238522411 -0.004214695843113898
0.0037352535260787045 -0.0027227131615587532 -0.006869101822094447 -0.00757946658913107 -0.0008244784577442036 0.0026440440481069684 -0.0014004214387580438 -0.006448364530976736
-0.0017881597325373855 -0.0024730022953032083 0.0008211293601136754 -0.00044554736534008953 0.004693421104471386 0.0012870910583542238 0.005109428350490266 -9.024037863234179e-05
0.001904584385608289 0.003508740050327903 -0.0009018933461154819 0.006074108340101322 -0.0011367767780622858 0.011823484442130053 -0.0002411593278488544 0.0009752148930735934
-0.006159924756788351 0.0073478070436887154 -0.00123549774833538 -0.0016412050254472324 -0.008340282708041559 -0.0076540029761218995 0.0023134692166733102 4.520030588858022e-05
-0.00034910909876997116 -0.00680917463341521 0.0012156012409326542 0.0005251368765963409 -0.0016593459937716787 0.0016012857694512085 0.0025081809839296596 0.0011015366332968403
9.588109365908556e-05 0.0033817691011470636 0.0002981800196761446 0.0014040508287154363 0.0021387696433018254 0.0013430200453426893 0.0016607212297988009 0.0016665649367171235
0.00120311200335831 0.0017231623300413366 0.0027830719744848685 0.0022176329186958527 0.0024139885981107993 0.0007789358227354793 0.003381524829933815 0.0008959121973019585
0.0025385733273020155 0.00046032956694083216 0.003853090363241253 -0.002273614643028008 0.0029177122537208727 -0.001398805148688283 0.001249384773870226 -0.0017566851014253365
0.0039457689893892586 -0.002082232092042674 0.000911261605410667 0.002459718046819034 -0.0029425928036689235 0.0011950526137036097 -0.005621312226330977 0.0005567225790200922
-0.006726259333301893 0.002480173930582055 -0.006475466015512309 0.0036293753060475773 -0.005349307202725661 0.001632437588350218 -0.0035028977021159956 0.001955317894870461
-0.005207004464393841 -0.002701978264104328 -0.001963804616521037 -0.0016244749803491882 -0.002205908337513981 -0.0008421735834663578 -0.002070916031054011 0.0001997483231607522
-0.0024675640475751263 -0.0026070096558839188 0.0015193692635702622 0.0008082016853949308 -0.0017060219667400746 -0.0012417628779003115 -0.0005583908486120012 0.002120407187883382
9.45523913527034e-05 0.0029056583384414075 -0.0010267077842811808 0.004252754608271752 -0.0004562889079269148 2.2469408200304722e-05 -0.0006348573000239589 0.0009883399492606158
0.0023588919579791605 -0.0024010751968378775 0.0006048177191242149 -0.000598585137385983 0.0001402364509925813 0.00047844086795342566 0.0006131937603771338 -0.0008245574828455565
-0.00024754599256797676 -0.002007945405416989 0.0010087076508658276 -0.0007308099904840546 0.002302858593893261 -0.0007542483791540326 -0.00019771221377756117 0.0004113494888777983
-0.0013057029970498196 2.1649711447819418e-05 -0.0010647469002344329 -0.00025243998998647667 -0.0002306823673202158 -0.00030950630998841946 -0.0016495520192774088 5.4301117718301247e-05
-0.0005890976365732049 0.00033427483493124027 -6.033434802748083e-05 0.0014709250089302763 -3.595741808316078e-05 0.0004721508811537848 -0.003328107287148874 0.0022997944709662356
-0.0033216059480599375 0.0016853326655985729 -0.005286305797800259 -0.0015587106894710391 -0.0028837650573068922 0.0012570548819830706 -0.0012211497538834196 -0.00025488738125850944
-0.002741407302914715 -0.0017270482418665248 -0.005101162535648024 0.0029134132123832803 0.0014349037078106482 0.003226359569994186 -0.0025225951871157937 0.0006910003860604222
-0.0010120365736216105 9.706252408092894e-06 -0.0006752245438696766 0.002298950231315212 -0.0035825625714528647 0.003817009273035571 0.002480106019066823 -0.0013745012553156497
-0.0015326921257369011 0.0024705456935836465 0.001509622940547243 -0.0014666107665089656 -0.0019615095355778665 -0.002394729524237724 -0.00010003825722548079 -0.0010957575552708904
0.0006604336339656077 -7.791769186454682e-05 0.0037065708203318014 -0.0005948337540890395 0.0021449228283297755 -0.0013918494245944463 0.003768901162640948 -0.00360789002586003
0.0033944928431257635 -0.0025524591540503913 0.001004250287499993 -0.003349842651057359 0.0006102191586395109 -0.003366469837878517 0.00011919824050583678 -0.0037609861160970014
-0.0006072740981340268 -0.0022676179216863635 -0.0018249324033338852 -0.0017315511858255715 -0.0033074908221170313 -0.00189439429893779 -0.0018871046604872692 -1.795511341738897e-05
-0.0015656974076267219 -0.0010081261436227101 -0.0024813804487021814 0.0007824844174119268 0.000894972830703473 0.0014502422729749155 0.0011212720012939612 -0.0003214682314293196
-0.0003147513800649695 -0.0005095182927608522 -0.0003869930278344276 -0.0003654918330087649 0.0011421326990215508 -1.709563915283396e-05 0.0003215043357142157 -0.0009527422789311988
-0.0001625082264913333 -0.0011457350324685913 0.0003822532904978894 -0.0005666504481688423 0.0011763215962888698 -0.0009144227360912519 4.9050423982774155e-05 -3.378845879234149e-05
0.0006034545823131457 0.00017449237246133794 0.0004953586683570485 0.000937095899636314 0.00024122337917677032 0.00025900000678799975 -0.0001097966573513276 0.00022575881870463198
