dnn/ionosphere/fold_1_model.pt (torch, 51083 bytes, 34 tensors)

model.0.weight f8 [30, 33]
-0.22550055200060912 -0.22240262811587921 -0.03574935036380184 -0.2119381680590211 0.04141415884271461 -0.05335852351532633 0.15101820855999898 0.3602609633200043
-0.13064786247439514 -0.053281318687803864 -0.3256721736373448 0.07643898811434059 -0.03718212627964321 0.1196014951955658 -0.09159091402741723 0.191739980864391
-0.24187452415208827 0.11907923772298398 -0.11487950320276673 0.1363127019002432 -0.25553878020758325 0.029145385010163977 0.013683409261782395 0.036653069850970325
-0.21061198645295703 -0.12421055169578261 0.12863004794217986 -0.08814952320064613 -0.048236252782944335 -0.17024426195443418 -0.12864897858222468 -0.1881380683065715
-0.04592667149552792 0.027949602029345353 0.009170305599045775 0.20149128297781954 0.10866039167421443 -0.3079507823299727 -0.07800034144089339 -0.14549190583773647
0.07936940159904195 -0.09485021044101234 -0.030369425237136496 -0.023761637827227466 0.20492698768310713 0.2912190481596365 -0.02324259207473129 -0.22390755258585812
0.054343684188676585 -0.16845520409027273 0.08429324439539734 -0.14067015955610296 -0.16006127258461184 0.18653129825849915 0.1057635662454429 0.32409822736468713
-0.062108527870997896 -0.16966617213959703 0.19988564479811635 -0.10014083922421511 -0.13745650409958537 0.1554328876107126 -0.07639470477828525 -0.19982887097604718
0.12539367883842892 0.031896358851946756 -0.2639181980354274 0.020296933979113183 0.013990522329869276 -0.2215509080705902 0.18198701905948675 0.15510496554699685
-0.10609572765338188 -0.1039817569426526 0.1835413254487126 -0.13691201680374546 0.043655819180845754 0.10595253642442426 -0.23734395887029347 -0.052030324382496475
0.2703943761777037 0.027945754469632003 0.11223876283896254 -0.10574968227457272 0.13057462661573874 0.15389094641945933 -0.08887313339753375 -0.0007538454283479239
-0.2853857462548822 -0.2835883971111704 0.06887075165513673 0.1682557978417296 -0.14211196105833693 -0.011315443333297107 0.17859486746931583 -0.07991716948895973
0.12485900116177308 0.23026514897712078 -0.07514066487987 0.13260856018302475 -0.041197256360305176 -0.1348506664563702 0.04106443038075943 0.19843462166954773
-0.01957553880179052 -0.08390723906658444 -0.057256186473103224 -0.0414815755639593 0.06687383928872427 -0.026565536899002266 -0.057181421645342394 -0.13005784921558647
-0.20902034929735389 -0.015410735310088797 -0.3098005090241643 0.3045974531173605 0.06128812942671327 -0.060591977310021056 0.09256969928478063 0.10558309917254563
0.0726570663568478 -0.2455454506174041 -0.26400337815817443 -0.10892226469037838 0.12024991004506841 0.08412256852604147 -0.15188103971362968 -0.03431772643412804
-0.24002768357156284 -0.1705370542383647 0.21959105900518464 0.28399125735408093 -0.11647049727339778 -0.0801139974354985 -0.275759330999265 0.01672030784093873
-0.07972157935050488 0.09788114777591643 0.06394055819401412 -0.08115128686250822 -0.1672040391770171 0.08751873622144302 -0.17571516031702566 -0.1380269152016316
-0.052650076583204794 0.04509980662979742 0.21375014032412704 -0.054894834219767034 -0.10992807138127764 0.1446423635390016 -0.22824623318688847 0.016973011809310316
0.17798942528631348 0.0765953332402566 -0.14770057159424024 0.0250124831071704 -0.21131608122617077 0.20018393863660233 0.2211978996002383 -0.17938002697000785
-0.19551793725026737 0.027832644401827644 -0.1284254696899189 -0.03011779122061685 0.3210433212964091 -0.0402137332397936 0.10413403272891948 0.23843367592701964
-0.029806857943483485 -0.2621944000733809 -0.005994729318998364 0.10856846542013232 0.09465212047285854 -0.0839124948969306 -0.028031669781449844 -0.11421119403558162
-0.15173691374110035 -0.265780850978028 0.009983121691536603 0.05443652847940431 -0.08602806249319522 -0.10213808588648925 0.19461500574325893 0.16391680224518382
-0.04433688659227769 0.16246581907988317 0.1239151234627155 -0.1651666239996613 -0.03619434712281765 -0.11364053466229446 0.24706735992234358 0.004362366563406196
-0.2672373672055533 0.1595773910055929 -0.1721431782948418 -0.13712024908415604 0.24406063354571872 0.11606856578059847 -0.18877866757141495 -0.14662374839116848
0.14784669746115922 -0.1760690671081554 -0.28950853328472265 -0.3222067389758106 0.15686143862349844 0.21059484129089634 0.24554466828174978 0.09487741867253395
-0.15723680895384942 -0.1262577119744852 0.1738001881339267 -0.3550705912056937 -0.14934361645259067 -0.09994539037138972 -0.10892383130524087 0.18895283417823197
-0.1378122087375531 0.042797408991216555 -0.1723352582855484 -0.18002297836732736 0.09934736674288257 0.09229878896323992 0.06751887364934177 -0.09307842511364714
-0.16837235495447977 0.22715493556296346 -0.08258303507155586 -0.1253452586869717 0.0767075197635169 0.11111940753463888 0.003222981123736294 -0.09924063373121808
0.08238800501290244 0.2678774671755585 0.2880917140227071 -0.0677961053633073 -0.09153005324171741 0.23677000147600458 0.09149153295667332 0.18048188108851085
-0.06966757445101007 0.28637774836410224 -0.03197272006663017 0.14445176560129272 -0.1442078060818366 0.049973229023725904 0.08483482178890471 0.16248801789632794
-0.18116410214547668 0.265834039438248 -0.39278123889991545 0.2116295308936049 -0.17177355138244818 -0.05234888066480422 -0.14714040932313074 -0.003995228346825252
00000000: c349 09bc 33dd ccbf e5ac 2677 b077 ccbf
00000010: 69e0 5425 bd4d a2bf 0838 4b36 ca20 cbbf
00000020: 0241 a493 3c34 a53f f01e ecf2 ce51 abbf
00000030: 5acf 6e8d 9054 c33f 2d08 dfff 830e d73f
00000040: ae56 4fb4 11b9 c0bf 44f5 8062 b047 abbf
00000050: 1656 bf19 d0d7 d4bf 2126 176a 8191 b33f
00000060: 7cce bb20 8909 a3bf 85eb 6a1e 349e be3f
00000070: f6c6 5b8c 8072 b7bf 0bf9 9289 ef8a c83f
00000080: 0601 7c91 bef5 cebf 961f a717 fa7b be3f
00000090: 7f92 3c3d be68 bdbf c670 58d2 b172 c13f
000000a0: bc7b f653 bf5a d0bf 08bc caad 49d8 9d3f
000000b0: 9894 371a 0c06 8c3f d7a7 9df0 30c4 a23f
000000c0: 8a03 fb64 55f5 cabf 25fc 5941 43cc bfbf
000000d0: d2e7 980c f376 c03f 4d05 4e97 f790 b6bf
000000e0: 2561 5e10 6cb2 a8bf 9785 b660 90ca c5bf
000000f0: b054 d6d9 9177 c0bf 0332 4181 e814 c8bf
00000100: 57c3 2c60 b383 a7bf 59e8 9b0a d29e 9c3f
00000110: 1048 2395 e1c7 823f face 6863 77ca c93f
00000120: 447e 9cdc 2ad1 bb3f 57a1 b832 77b5 d3bf
00000130: afc2 9093 d4f7 b3bf eaf0 b390 7a9f c2bf
00000140: 09c5 2b98 8d51 b43f c5e4 dc77 1a48 b8bf
00000150: 046c c4a0 2919 9fbf 9327 7885 f854 98bf
00000160: bc57 152b 0c3b ca3f 4658 f437 55a3 d23f
00000170: 1249 57f3 e7cc 97bf 3382 d7af 00a9 ccbf
00000180: f945 ab74 efd2 ab3f 2951 34ac f08f c5bf
00000190: 1ab4 f3f7 3d94 b53f 2c85 68d3 7a01 c2bf
000001a0: cab3 8d45 e37c c4bf bdaf d9f0 41e0 c73f
000001b0: f7eb 2132 5213 bb3f 0d44 ce7d 06be d43f
000001c0: 866c 0460 b0cc afbf 9ddd 4902 9fb7 c5bf
000001d0: 2184 ac51 da95 c93f 7f45 767d d4a2 b9bf
000001e0: 7e77 ddba 2c98 c1bf ac63 8190 39e5 c33f
000001f0: 483d 9c76 9a8e b3bf c8c1 d110 fe93 c9bf
00000200: 213b de6a e60c c03f e1dc 4234 b854 a03f
00000210: 0e69 5827 09e4 d0bf 6cf2 982e b8c8 943f
00000220: f0ce e21e 10a7 8c3f 08f9 47b8 c75b ccbf
00000230: 5f19 94c3 594b c73f 055c 3cc1 7ada c33f
00000240: c43f 84f0 1629 bbbf 3c06 7365 8c9e babf
00000250: a823 223b 487e c73f 99fd 4c3d 5586 c1bf
00000260: 56da 5237 0e5a a63f c003 df96 b41f bb3f
00000270: 6023 a06e 4961 cebf 2506 3ffb b7a3 aabf
00000280: e027 ad36 244e d13f 8455 09d6 cf9d 9c3f
00000290: d3a1 bcf7 adbb bc3f a182 ee42 6912 bbbf
000002a0: d541 805b abb6 c03f 10d3 02d3 b2b2 c33f
000002b0: d679 6fc1 63c0 b6bf 4cd5 01bb b6b3 48bf
000002c0: 8a31 ba93 c243 d2bf bd85 c7f2 4f26 d2bf
000002d0: fc7e 027a 83a1 b13f d7da 8bee 6789 c53f
000002e0: 85d8 8e88 b930 c2bf 6834 7318 8d2c 87bf
000002f0: 2fd0 8155 32dc c63f 7d0e 589d 7375 b4bf
00000300: d9dd 996e c2f6 bf3f 67f5 2112 5479 cd3f
00000310: 9e3c 422a 6b3c b3bf 42ef 933a 51f9 c03f
00000320: a63f 8189 ce17 a5bf 9f0f 2361 c942 c1bf
00000330: 3b49 07a3 6506 a53f e47f 3b41 4e66 c93f
00000340: 1e32 d22b 9c0b 94bf 4d4a b0df f17a b5bf
00000350: 6a93 cad0 ae50 adbf 8615 deb4 123d a5bf
00000360: d1f9 b3d8 a41e b13f f142 ba00 ff33 9bbf
00000370: e7a1 cf1f e246 adbf 9b09 7c50 bca5 c0bf
00000380: ef1e 37c6 2dc1 cabf a02a 50e1 a98f 8fbf
00000390: 81bf a283 c5d3 d3bf 8b5f e550 867e d33f
000003a0: 949f 0a5f 2861 af3f 8c9d e461 e905 afbf
000003b0: 0f58 07d7 a5b2 b73f 2ad7 f475 7e07 bb3f
000003c0: 5272 d34b a799 b23f adaa 0a88 086e cfbf
000003d0: aa43 ce6c 6ee5 d0bf 2ac4 a65c 54e2 bbbf
000003e0: 1c92 fdb6 b2c8 be3f 16c4 ac80 0e89 b53f
000003f0: 11ec 3981 d670 c3bf b551 6ad1 1792 a1bf
00000400: 2e89 8925 3ab9 cebf cbdf 5a7f 28d4 c5bf
00000410: 51ec 7550 8f1b cc3f 76e2 abaa e92c d23f
00000420: 2af4 bcb0 02d1 bdbf 7ff2 efd6 5982 b4bf
00000430: 0c5b 0d77 0aa6 d1bf e96c 6cdd 201f 913f
00000440: 138c 1828 a268 b4bf 5bae 9728 bd0e b93f
00000450: 78ce 548e 685e b03f 4450 1aab 54c6 b4bf
00000460: 401f 0324 f166 c5bf b8bc dbbd a067 b63f
00000470: fe8b 7c99 d57d c6bf 791f 61af ddaa c1bf
00000480: a60f 1d6a f3f4 aabf a3d2 0f65 5217 a73f
00000490: 8e90 1a23 2a5c cb3f 7ff0 62fb 2c1b acbf
000004a0: 74b4 7eff 3e24 bcbf 5b11 8216 a483 c23f
000004b0: 3287 7c2d 2c37 cdbf 3edd 8a8a 5f61 913f
000004c0: 11bc 5184 5bc8 c63f 290a 4b73 c09b b33f
000004d0: ad83 4c32 dae7 c2bf dc89 bf53 df9c 993f
000004e0: c11d fec4 670c cbbf 8478 d096 a09f c93f
000004f0: 8d0b 5d78 3650 cc3f e725 b2ba ecf5 c6bf
00000500: 41b9 2255 bb06 c9bf a041 de25 2980 9c3f
00000510: 7d54 25ec 3e70 c0bf 1cfe 47c1 32d7 9ebf
00000520: 9a4e 6449 f98b d43f e0de 3afa e496 a4bf
00000530: 4da7 f828 87a8 ba3f fa90 2fa4 fe84 ce3f
00000540: 624f 4160 b085 9ebf d49b 6005 cbc7 d0bf
00000550: 05bc f9e5 ed8d 78bf 683b 5b98 24cb bb3f
00000560: 1090 ed11 1f3b b83f 95de 4e0d 4a7b b5bf
00000570: 94b9 da83 55b4 9cbf 8d4d 38df f13c bdbf
00000580: 8597 0e7d 1d6c c3bf b1a2 b6af 8d02 d1bf
00000590: 48c7 6ae9 0772 843f 95ba 0dcb 1adf ab3f
000005a0: fc4e f262 ef05 b6bf 8bfa 8eba b825 babf
000005b0: ff33 7dfe 24e9 c83f 2938 74cc 39fb c43f
000005c0: b830 d70b 53b3 a6bf e23d d511 aecb c43f
000005d0: e98d c0ca e6b8 bf3f 2c11 3c10 2e24 c5bf
000005e0: fe98 62c2 1088 a2bf d4df dfcb 8b17 bdbf
000005f0: 7644 633b e79f cf3f a861 91db 45de 713f
00000600: 09b0 1ac2 6a1a d1bf 4167 c62d 086d c43f
00000610: 73bf 80a4 c908 c6bf 16c9 b704 288d c1bf
00000620: 90f2 a8fb 603d cf3f 330d 1f66 abb6 bd3f
00000630: 596a b33d e629 c8bf 9e18 1426 91c4 c2bf
00000640: 9969 35fd a3ec c23f 7c8b 8862 6e89 c6bf
00000650: 5fbb 97cc 4e87 d2bf 2dec 9c03 099f d4bf
00000660: 9c1a 721e 0914 c43f ac7d 0692 c5f4 ca3f
00000670: a317 fdf7 016e cf3f a7d2 53f2 e249 b83f
00000680: 5193 17f4 5520 c4bf 782b e673 3629 c0bf
00000690: 5374 09a6 153f c63f 5ffd 3f00 7ab9 d6bf
000006a0: 0ddf 430e b11d c3bf 58f4 0767 0596 b9bf
000006b0: 1906 36a5 6ee2 bbbf 2519 a441 9b2f c83f
000006c0: 6937 c298 d4a3 c1bf 330e f1bf 8ae9 a53f
000006d0: d05e 24ed 140f c6bf 33df 4e32 fe0a c7bf
000006e0: dfb9 1a3b d46e b93f b6b9 0eb8 e4a0 b73f
000006f0: 33ca 2fba ea48 b13f 5e88 d3d7 fcd3 b7bf
00000700: 403d 0aaf 398d c5bf da17 afb5 6913 cd3f
00000710: 7935 d66a 2924 b5bf 4175 623d 500b c0bf
00000720: 1bd8 bda0 1aa3 b33f 5fea 4f4d 5272 bc3f
00000730: d5d1 b4d0 1467 6a3f 5a55 4f8c d567 b9bf
00000740: 20f4 1c5b 6117 b53f 76ad 3688 e724 d13f
00000750: 9d78 7e3a 1870 d23f 1ae2 54e7 155b b1bf
00000760: 8339 4679 836e b7bf 30b4 81ba 7a4e ce3f
00000770: d7e9 e835 fd6b b73f fdd9 65c0 071a c73f
00000780: f4d5 dbf1 bbd5 b1bf f2a8 e155 0354 d23f
00000790: 1ac6 1976 ba5e a0bf 81b2 8d3c 657d c23f
000007a0: e085 79c1 6675 c2bf 0e33 aa50 1796 a93f
000007b0: 9b34 2521 bcb7 b53f c8a4 6d49 68cc c43f
000007c0: 7a46 f6a2 6230 c7bf 1e41 63c6 6c03 d13f
000007d0: 14ae e3eb 5323 d9bf 3f26 072d ad16 cb3f
000007e0: a3b0 c0fc acfc c5bf 5b05 e0f4 78cd aabf
000007f0: 4f40 fb36 7fd5 c2bf 3f46 6ff1 4c5d 70bf

model.0.bias f8 [30]
-0.07548669035343414 0.045693776378726535 -0.16421945844950245 0.22332933202882632 0.026035721794573103 -0.02730295117742788 -0.1885388225926449 -0.39953923633142463
-0.31635175084596096 0.06517433534599397 -0.13105215674987028 -0.07946045430001479 -0.04226941723396096 0.03812576091585788 0.0942485915251308 0.04460961906788562
0.2369175482557311 -0.00967057527013629 -0.2032758360890386 -0.43287772766821264 -0.3361409901057749 -0.017809949864767263 -0.06433124294167386 0.03303270733546212
-0.02457200338400414 0.04332607905836253 0.27649507227470144 -0.03535767288728158 -0.07207272927277734 0.11970586830425839
00000000: 60ed 5982 1853 b3bf f3cf 5ab6 2c65 a73f
00000010: 1f27 b4a9 2405 c5bf 2092 a638 0e96 cc3f
00000020: 55b2 8ab6 1ba9 9a3f c3ba 9009 4ef5 9bbf
00000030: 9de7 8746 0a22 c8bf 42c9 6004 0d92 d9bf
00000040: 879b fa69 1b3f d4bf 237e d9e6 43af b03f
00000050: 7dcd a72b 51c6 c0bf cf3a 8b34 8557 b4bf
00000060: 531c 4849 56a4 a5bf 4596 8940 3885 a33f
00000070: 5364 4bfa ac20 b83f ae98 f76d 12d7 a63f
00000080: d1ad cd70 5053 ce3f 1162 26a4 2ace 83bf
00000090: a2e4 084e f104 cabf f61c e0c8 44b4 dbbf
000000a0: f65b d67f 5583 d5bf 44ad d980 c53c 92bf
000000b0: 34a7 8b28 0378 b0bf 3b86 68bb a9e9 a03f
000000c0: e7da b93b 6729 99bf 4439 3df9 d52e a63f
000000d0: 2f33 3b63 18b2 d13f 2755 6da1 661a a2bf
000000e0: 6bf8 28bf 5b73 b2bf fc8d 8135 0ba5 be3f

model.2.weight f8 [30]
0.9011981581037005 1.1038448149156923 1.0492874359946363 1.0165444150415945 0.9822729694885235 1.088867007987385 1.0993268475152973 1.1288074982642478
0.8509439613473303 1.0448641091417445 0.9369374591040357 1.0753651042427315 1.117073025309169 0.9946332948031037 0.9873546229969848 0.7593481755441802
0.8321764079674849 1.02034612588613 1.0095208734946675 0.879224604070337 0.9785393530412693 1.0537796343845334 1.0988547436029994 0.8846088250025774
1.1367553746461847 0.7317778717112197 1.0544293390557857 1.0508173025471108 1.0809946157004635 0.65523174119246
00000000: a6aa 0885 9dd6 ec3f cec0 3e2e 59a9 f13f
00000010: e335 5b9f e1c9 f03f c48f 9813 c443 f03f
00000020: 2256 f6b8 c76e ef3f aefc cfcf ff6b f13f
00000030: 7316 9bbf d796 f13f 7064 8873 980f f23f
00000040: 25e5 96d4 ee3a eb3f 8e72 986d c3b7 f03f
00000050: 35f9 2744 64fb ed3f f0b6 1f0a b234 f13f
00000060: 8625 eff6 87df f13f 5525 1634 09d4 ef3f
00000070: 5b72 eab8 6898 ef3f 28aa 878b 944c e83f
00000080: a623 176b 30a1 ea3f e87f 9475 5653 f03f
00000090: 8a9f 045c ff26 f03f bb42 0aa3 9b22 ec3f
000000a0: f528 e5c2 3150 ef3f 62f5 ad08 48dc f03f
000000b0: 0245 2db6 e894 f13f 2873 a42a b74e ec3f
000000c0: 7e85 5a67 2630 f23f 1ff5 5d6d b96a e73f
000000d0: fbff 724c f1de f03f 262c c8cd 25d0 f03f
000000e0: 885e 9902 c14b f13f c820 778e a8f7 e43f

model.2.bias f8 [30]
0.12076329561574096 0.16330270750362477 0.18886953946998736 0.2256795126578563 0.37591629822656303 0.11545451959875666 -0.277405663130706 -0.09645866336433269
0.25367538532698475 0.060752950953657084 0.33776190698055025 -0.020019782557592992 0.07208924921936798 0.08002700442816715 -0.13911350224760813 0.25487923593951645
-0.12530003658833522 0.057300741266684545 0.22468031841997044 0.18482872540852285 0.10666865395792396 -0.04559500582952921 0.20817030747228513 -0.23586613820003227
0.08764254765399984 -0.31108765957924844 -0.058070846501362204 0.09205128402648838 0.22272686577258577 0.11418175454365852
00000000: c10e 3ae5 57ea be3f edc4 0966 1ae7 c43f
00000010: 82f9 9d87 e02c c83f 2611 1ff7 10e3 cc3f
00000020: 76a7 ba3b 030f d83f 0220 da69 6d8e bd3f
00000030: e4c7 b7ae 03c1 d1bf 8dd0 90d4 83b1 b8bf
00000040: eee4 f1ae 373c d03f 8280 f6c2 021b af3f
00000050: 493a 141e e49d d53f 8a7b 6edd 1080 94bf
00000060: 4756 cae7 7074 b23f ead9 d056 a67c b43f
00000070: a5f1 4aa3 78ce c1bf 4c8a b2ff f04f d03f
00000080: 00d1 aae3 d409 c0bf b7ce 8dd3 8556 ad3f
00000090: fa95 d51d 53c2 cc3f 1ad8 7eb9 77a8 c73f
000000a0: acf3 410c a34e bb3f eb29 cc85 3a58 a7bf
000000b0: c7bd 4b1b 53a5 ca3f 3ac7 e692 dc30 cebf
000000c0: 2a7c e9f3 bd6f b63f 5c40 0537 dce8 d3bf
000000d0: 0316 2645 76bb adbf ccd5 7246 ac90 b73f
000000e0: fe87 375e 5082 cc3f 1f9e 90f5 033b bd3f

model.2.running_mean f8 [30]
0.29688275519382445 0.36425362136760614 0.21573156818370368 0.4324125557945227 0.2629733770157904 0.21363121756888492 0.3042326337808048 0.5193063258504282
0.3560768775611072 0.4340966376544048 0.20613336007058694 0.41581041771132693 0.242237902706321 0.4590444690674907 0.6319168031694204 0.44822245870163613
0.7135132667643911 0.3051199504317641 0.5132617770162659 0.2649758946487675 0.2773207535514084 0.6664611657687058 0.20634997602578772 0.4399781173967989
0.43502957271829246 0.3277640023726003 0.6966751141251978 0.5162866411329737 0.3013050228639153 0.6841565445411276
00000000: 4872 1387 2000 d33f c34c ce6b ee4f d73f
00000010: a52a 088f 179d cb3f a11a 61b6 a5ac db3f
00000020: 8a18 8049 8ed4 d03f 7c77 6e8a 4458 cb3f
00000030: 64ba 1d27 8c78 d33f b445 c44c 289e e03f
00000040: f026 ffab f6c9 d63f ebde 8143 3dc8 db3f
00000050: dd12 0ff4 9362 ca3f f9ff 594c a39c da3f
00000060: eed5 fcce a601 cf3f d97d 830d fc60 dd3f
00000070: 1afa 6c96 a938 e43f 0033 5d40 adaf dc3f
00000080: 627c 40c6 19d5 e63f 548a 1dd4 1587 d33f
00000090: 6b4b 52f6 a36c e03f c4aa 6f74 5df5 d03f
000000a0: 1058 c08b 9fbf d13f e4fa e05d a653 e53f
000000b0: 83d3 470f ad69 ca3f 8f31 4bfa 9928 dc3f
000000c0: 008c e746 86d7 db3f c4c4 bfdd 15fa d43f
000000d0: 755a e39b 294b e63f d3e3 e08f 6b85 e03f
000000e0: 0f8c d4dc 9448 d33f 99c0 0444 9ce4 e53f

model.2.running_var f8 [30]
0.33946008103034997 0.3302228603362441 0.29034271310491 0.3385266012120921 0.2238083852974222 0.1964136599184028 0.35398622193313645 1.0530638468516176
0.4602139995131582 0.30893503424196556 0.18653833570072872 0.504930866133002 0.36222350466484743 0.4913838370018208 0.5559855408693046 0.35849467217923126
0.5552472141410362 0.30347762355548097 0.9457027008795698 0.28693755815083716 0.18426656230356742 0.5585099254452541 0.2651223127849963 0.6448376536923098
0.46547229671498497 0.3002600044253903 0.7665880635061664 0.5183833666609121 0.29302854222086927 0.5539342976036639
00000000: caa9 94c6 b6b9 d53f a149 6210 5f22 d53f
00000010: 4eb8 5a9a f994 d23f ca0b 427a 6baa d53f
00000020: b824 b6cf c0a5 cc3f 9129 eb32 1524 c93f
00000030: acfe 9bd3 b5a7 d63f 0e3e ed79 59d9 f03f
00000040: 0481 446b 2574 dd3f be1a 2a73 97c5 d33f
00000050: 9377 a4f9 7ce0 c73f c307 99c6 6428 e03f
00000060: 8831 987e ab2e d73f 132c 6d31 d572 df3f
00000070: 20a4 6230 a2ca e13f d833 33a3 93f1 d63f
00000080: 99c9 3dce 95c4 e13f 0f45 0f69 2d6c d33f
00000090: 2c88 804f 3243 ee3f d91f 1059 2f5d d23f
000000a0: a48a 6bf5 0b96 c73f a4eb 0835 50df e13f
000000b0: 067e b693 c3f7 d03f 9fcf 3a93 82a2 e43f
000000c0: 7d6e e550 4cca dd3f 8d72 d3bc 7537 d33f
000000d0: 226a c8b0 e387 e83f f62a d3b6 9896 e03f
000000e0: 2a86 68c9 fac0 d23f 1ce5 8a6b d4b9 e13f

model.3.weight f8 [15, 30]
-0.004036149003830169 0.2358258606603892 -0.12856963298233845 0.07732912759492869 0.14267221321965554 -0.05698392833504739 -0.010180655145676024 -0.26383708362693187
-0.08067622544133068 0.035382575870789953 0.19374748267012049 -0.06902703349853366 -0.2458569779626978 0.19322968609741759 -0.03470108397445852 0.16918396436271868
-0.2311269902049386 -0.06088483002524538 -0.11688394470126949 0.017868780148205542 0.10304028022017693 -0.10528657372496153 0.3490958786368957 0.05537040430731485
-0.013369318646810676 -0.1341356770955079 -0.6717829578978173 0.12211391740022844 0.05523568885727983 -0.020468597454529176 -0.04319518454004028 -0.061880240775396195
0.13161988769429683 0.27289900678176165 -0.034222508677603417 -0.0633849371596839 0.06618874827459718 -0.059575273210507436 0.14530146193657117 -0.13045484203650698
-0.04102224706544824 0.02827680251351381 -0.04928307333182239 0.052728821895335766 0.03170718174895002 0.1138511766544464 -0.3177012478603872 -0.11155133028783737
-0.23794562992133006 -0.24083524412450097 0.2099008225186689 -0.16668067040397055 0.04496673586455059 -0.058335737417309325 0.30633270656478584 -0.12824279072227346
-0.17141269340314935 0.20190054527528206 0.3212603521175268 -0.072028535392092 0.09834615801037408 -0.03374703755603942 0.0027715753799499275 -0.06530909884987736
0.0337648953388364 -0.380482261316382 -0.00924395009282559 -0.25807283122690805 0.09357955169266029 0.03528483117199071 -0.01965619669629716 -0.04527572534796714
0.12019089710484475 0.28678503108200576 -0.1706852346228568 -0.1491120572737054 -0.149654258400748 -0.016867879115762954 -0.2032817140016612 -0.20928026330565233
0.07943178395908507 0.04372085148768951 0.24558880230331367 -0.13429262901434527 0.06395945562933711 -0.30532909251669704 -0.20424901773700854 0.111901020343059
-0.04091346844520963 -0.22907412876685884 0.06917614878319774 -0.0771917322171372 -0.1374930988678679 -0.11654975733426903 -0.13000121025078382 -0.24890991600392776
-0.1523157125782736 -0.11158723835887976 -0.054548536294591284 -0.266995069207893 -0.21999912648814193 -0.32714121183819883 0.029965968201655035 0.05937819344915647
0.17718141407129942 -0.041223824856158255 -0.024829030318781354 -0.06160008295857778 -0.004916000241273478 0.019677287278808336 -0.26106874233650795 0.09271268672618467
0.14777134179621226 0.11252985338945494 -0.36370876263066915 0.08020818988451722 -0.043727451185646235 -0.399234045967225 -0.25555740169710633 -0.09412696371220704
0.18624966044718316 -0.25126981413739247 -0.07340211354280479 0.06702595099327548 0.05074340741969134 -0.07533902000360225 -0.2556845108438306 0.29519572676374545
0.22079905866366198 -0.046973213715173136 -0.10211420977453649 -0.06233095443470529 -0.18364055252111447 0.2017984716116078 0.14155749933684106 -0.12669819280506303
-0.0892365225775023 -0.2700527855450916 0.24786216998316268 0.3093892646040924 -0.10537770311690375 0.12370883455167313 -0.22711658698295842 0.09820192355225159
-0.18125072064220385 -0.13900849749483682 0.08202688781929607 0.0073263998039117305 -0.19675740682549517 -0.060707517630148505 0.0286925411989923 0.22063194322592247
0.2512387784317301 -0.17865059399144675 0.25830412084278787 0.287688036575076 -0.19713322632350708 -0.2313477958590462 -0.12160993371422621 0.1672022671978823
0.15943092102469925 -0.08475766043044218 0.12014500614159726 0.10041104368687635 0.0588636240150386 0.04399447740306621 0.12066236687682205 0.3084427300101239
-0.1652425677575638 -0.043649599430347186 0.05767043341040739 -0.11901154951214417 0.14592143358980436 0.009861155321023524 0.04591686182463626 0.1948615945361299
-0.08250815147461489 -0.06292208227632956 -0.027504416580972208 0.01538526163661313 0.11145943322791031 0.37128500525566716 -0.04630177392162594 0.059356198971513896
0.21050930017182673 0.3055011684952687 0.13493354945071112 -0.22805893534889043 0.017812564075032535 0.11101677539094998 0.3518639318311171 0.013673826680290026
-0.10348668921265278 -0.027865221193167963 0.008641592934806189 -0.08036968754675536 0.019629628409673062 0.1830002579790669 -0.23145497433866377 0.04933396453584771
0.008003674095008514 -0.03258416505674076 0.13375950463970185 0.053262834756464816 -0.018052285485404166 -0.03946338225765921 -0.1799553978424023 -0.04538117624279541
-0.16149559291442625 0.029982025833907782 -0.32284523584730646 0.2449472475695166 0.03917399908003361 0.19194835449285633 0.1773291234827951 0.05664099217194491
-0.18200991918751103 -0.28941015406739784 0.1823931520314796 0.027909582975548502 0.10434062796116601 0.2496876675344554 0.17209203380625737 -0.2793306770620516
-0.17717797905852747 0.14902490263718554 -0.027069774802178766 -0.007605745081055559 0.02068197121562906 -0.022279564160356504 -0.15814480330972103 -0.37126203189808893
-0.07098673184947527 -0.20613118263570931 0.07807206046969017 0.07254326120583059 0.0061341275054748205 0.22716531718072863 0.23057118937697926 0.09783675544305803
-0.043718184780198274 -0.26310192545154715 0.04445106510444954 -0.12593449876766857 -0.15671777968865339 -0.23814920759779595 0.12907793977838472 0.09203107410599205
0.027507082096738845 -0.22368146832683666 -0.3390157717122163 -0.13179314994091706 -0.30534705092325193 -0.2813782649422483 0.00971382307130911 0.0876191281135769
00000000: 595d 927f 3588 70bf bb30 8bb3 8a2f ce3f
00000010: a77c 7540 f874 c0bf e665 0c7a d7cb b33f
00000020: 25c6 e944 1543 c23f 4f7a 3159 ff2c adbf
00000030: 0863 3867 98d9 84bf 8394 69ef b4e2 d0bf
00000040: 30d2 d575 32a7 b4bf 3e33 6d3c aa1d a23f
00000050: 3210 e0ae b7cc c83f 6f85 6a73 c1ab b1bf
00000060: 50ed ebcf 3d78 cfbf fece 3317 c0bb c83f
00000070: 76b2 9c29 57c4 a1bf 5906 f9f4 d1a7 c53f
00000080: 8e99 13b8 9195 cdbf 63d8 8fe3 4b2c afbf
00000090: 6f5f eb2f 1bec bdbf f37f 6c89 314c 923f
000000a0: c561 b709 d960 ba3f 504a db96 0ff4 babf
000000b0: 8d7c 7a3d 9657 d63f 1c1a 5577 8259 ac3f
000000c0: fee2 dc92 5f61 8bbf 140f 2d9d 5b2b c1bf
000000d0: f7cc 45f9 3e7f e5bf 45d4 9e91 db42 bf3f
000000e0: c397 6d2a da47 ac3f 9215 a652 b8f5 94bf
000000f0: a768 e3e1 ad1d a6bf dc40 cc54 c4ae afbf
00000100: ae39 93a4 ebd8 c03f 6144 4f65 2d77 d13f
00000110: 4a61 1dd7 9c85 a1bf 6bec 28c8 fe39 b0bf
00000120: b7db 33ed bef1 b03f 19c5 2d74 a680 aebf
00000130: 520e 8a01 3d99 c23f 0e69 1388 beb2 c0bf
00000140: a4eb 1b33 de00 a5bf 7abc 1f18 98f4 9c3f
00000150: 85c0 6988 a13b a9bf edb3 31ab 45ff aa3f
00000160: 7df4 5179 ec3b a03f 158b 57c8 5925 bd3f
00000170: 365c 5d9d 3755 d4bf b85b 69c3 a08e bcbf
00000180: 607e 5e9d 0075 cebf 8894 9e74 b0d3 cebf
00000190: ef82 0fb8 07de ca3f 1255 21ce ca55 c5bf
000001a0: 3269 e447 e105 a73f 2c70 ca88 2ede adbf
000001b0: d404 197f f49a d33f baca 0c80 426a c0bf
000001c0: 2495 24e4 d9f0 c5bf 623e 8087 e0d7 c93f
000001d0: 8028 7694 878f d43f c247 e34b 7670 b2bf
000001e0: 8a80 57bc 362d b93f a9b7 47ad 4a47 a1bf
000001f0: 7867 b033 6ab4 663f 2903 b1db 18b8 b0bf
00000200: 6d61 77e2 a149 a13f 97f7 4345 d259 d8bf
00000210: 6524 adfa 7dee 82bf c0c3 86e8 4384 d0bf
00000220: 2f25 185a d4f4 b73f 076f db77 da10 a23f
00000230: 44b9 e507 c120 94bf 372a 583f 612e a7bf
00000240: 079b 57a4 d4c4 be3f 15b1 5e9a af5a d23f
00000250: bdc0 4e86 03d9 c5bf 1e05 b798 1a16 c3bf
00000260: 85e8 c4e8 de27 c3bf 27ce 9e34 d045 91bf
00000270: e987 c19c 2205 cabf 394b 4c17 b2c9 cabf
00000280: 5401 5e32 a455 b43f e9f6 9556 9462 a63f
00000290: 8f09 1431 746f cf3f cdf0 da38 8030 c1bf
000002a0: e6ad 329a a55f b03f c219 b808 838a d3bf
000002b0: 6cd5 b5f1 d424 cabf 2d31 c396 8ba5 bc3f
000002c0: 144f e031 9cf2 a4bf b4e8 b411 4d52 cdbf
000002d0: 75e3 af30 87b5 b13f e3e9 645d d6c2 b3bf
000002e0: 8516 88b5 5f99 c1bf fc7f 1b74 34d6 bdbf
000002f0: 3cd8 3b31 e1a3 c0bf 7488 71b6 47dc cfbf
00000300: 4466 18ce 147f c3bf 1a00 6733 fb90 bcbf
00000310: e920 dc26 c9ed abbf eb3b 9c7c 7216 d1bf
00000320: 3523 b56e ee28 ccbf 3335 81b1 e1ef d4bf
00000330: 7024 ad15 66af 9e3f 4a5c eb8d d166 ae3f
00000340: 0d98 726d e1ad c63f 9d7e 2507 4a1b a5bf
00000350: 9d9c d704 c86c 99bf 51d8 79cb 0b8a afbf
00000360: 81e0 36c4 cc22 74bf db8d 5865 4826 943f
00000370: 35f6 95ab 59b5 d0bf 2dcb 69c5 04bc b73f
00000380: 9e7f 26dc 2bea c23f 5da2 21a8 c1ce bc3f
00000390: 471c 311e 0147 d7bf 5ce4 6c20 8688 b43f
000003a0: 3e40 8fc9 7163 a6bf 6841 b8f4 0c8d d9bf
000003b0: 318c a26e 0d5b d0bf 3dd2 d066 b418 b8bf
000003c0: 3c81 4164 07d7 c73f 5a4b 8cfc cd14 d0bf
000003d0: e8a5 1f1d 7bca b2bf c9d9 7fdb 9c28 b13f
000003e0: e6d9 b536 0afb a93f 9735 0703 6b49 b3bf
000003f0: acc0 0a91 225d d0bf 9ba1 179e 7ce4 d23f
00000400: 8358 f9bf 2443 cc3f 0dae 6381 df0c a8bf
00000410: b342 7027 2824 babf 43ab a6c5 d7e9 afbf
00000420: 5916 a69b 8881 c7bf a431 fa45 88d4 c93f
00000430: 05e0 135f 8e1e c23f a9af 4779 a537 c0bf
00000440: 6342 146a 34d8 b6bf 1c08 877a 8b48 d1bf
00000450: b023 ff94 f2b9 cf3f f950 4da1 08cd d33f
00000460: e85c 9d7c 08fa babf 972e a0d6 61ab bf3f
00000470: f347 bc04 2812 cdbf a3ab 0fe2 c223 b93f
00000480: f970 c43e 3933 c7bf 3d9f 4dcb 07cb c1bf
00000490: f497 93d0 b6ff b43f 2530 e278 4902 7e3f
000004a0: a9d7 c7c1 582f c9bf 9487 af45 0e15 afbf
000004b0: 95ef 5ad8 9361 9d3f a7db 4de2 aa3d cc3f
000004c0: 397b 36d0 4b14 d03f ab57 4dcd 05de c6bf
000004d0: 8c46 dc01 0e88 d03f f895 2215 7b69 d23f
000004e0: d1d8 015c a93b c9bf 50af 9bf8 cd9c cdbf
000004f0: 3edc 2b20 d421 bfbf 674a b746 e266 c53f
00000500: d4d8 e27f 3b68 c43f 675c a293 adb2 b5bf
00000510: b6e7 27b8 d2c1 be3f 2fd8 cac4 89b4 b93f
00000520: 9a23 2378 5f23 ae3f 1633 4db3 7186 a63f
00000530: 1e0a 9897 bae3 be3f b246 8593 86bd d33f
00000540: a280 3620 ab26 c5bf e0dc 1284 3d59 a6bf
00000550: b73f e3a2 fa86 ad3f dd3d 0079 8a77 bebf
00000560: dcdd 86b4 8dad c23f 102a d6dc 1532 843f
00000570: cd57 be37 6a82 a73f 3ab9 e387 39f1 c83f
00000580: 81a4 3c14 411f b5bf d8b3 925d a91b b0bf
00000590: 55e5 d726 1e2a 9cbf 3da8 8edc 4e82 8f3f
000005a0: f968 8bfc 9a88 bc3f ad5e c42e 22c3 d73f
000005b0: 71f7 7ab9 ddb4 a7bf e087 cb8a ef63 ae3f
000005c0: b6f4 deff f7f1 ca3f fdec e4c5 548d d33f
000005d0: 8812 03a7 8045 c13f f828 7102 0931 cdbf
000005e0: 6703 a4f0 743d 923f c68b 9c6b 986b bc3f
000005f0: e2d2 f64b f084 d63f 7461 39f3 0501 8c3f
00000600: 565a bd89 1a7e babf ecc0 e156 b388 9cbf
00000610: 559c 52f8 aeb2 813f aa61 9a9b 1b93 b4bf
00000620: 3a6e 3510 ca19 943f f3fe 966d 8d6c c73f
00000630: 6ffa a30c 51a0 cdbf 20e8 8628 4d42 a93f
00000640: 9e21 e3f3 3a64 803f 8e84 9226 dfae a0bf
00000650: 7b74 fa0c 081f c13f e816 be2a 4445 ab3f
00000660: 0189 1c5f 4c7c 92bf af54 5f60 8b34 a4bf
00000670: 8363 3c4a c708 c7bf 0736 a297 333c a7bf
00000680: dbfe 0139 e3ab c4bf eba5 b2b1 9bb3 9e3f
00000690: b58c 6810 7fa9 d4bf 7d34 c770 6e5a cf3f
000006a0: 71f7 cd49 9d0e a43f bdae 8880 c391 c83f
000006b0: 6554 fe80 b8b2 c63f 49a5 fb51 0c00 ad3f
000006c0: 869e 3add 194c c7bf 0b63 b62a b285 d2bf
000006d0: eea9 7ea7 a858 c73f 8bfa 7f68 5494 9c3f
000006e0: 6dc0 bc40 11b6 ba3f 6d33 23f7 c3f5 cf3f
000006f0: dccc 8c9c 1c07 c63f 3011 b0c6 8de0 d1bf
00000700: 0f5a d09c c4ad c6bf cae2 8e7d 3f13 c33f
00000710: e217 f1d5 2db8 9bbf cc54 28a6 3327 7fbf
00000720: 97a6 f397 a72d 953f a75f c03d 74d0 96bf
00000730: 80b1 1fc3 163e c4bf 5aec 4fd3 c1c2 d7bf
00000740: a250 bebb 2f2c b2bf 2197 0db0 8162 cabf
00000750: f8da 72d2 87fc b33f 339a 6cf6 3192 b23f
00000760: 837b 6850 1920 793f 30d1 09cc c013 cd3f
00000770: bf10 e352 5b83 cd3f e884 f960 d40b b93f
00000780: ee2c bedb 3a62 a6bf bf0e 5575 a9d6 d0bf
00000790: 93bd ca3d 4ac2 a63f d398 d224 9f1e c0bf
000007a0: b774 3b05 540f c4bf 66b5 1959 ac7b cebf
000007b0: 26da fd3c a085 c03f c540 8035 598f b73f
000007c0: ad36 0e08 d12a 9c3f d8ae 9727 98a1 ccbf
000007d0: 4a42 1535 6fb2 d5bf d0a1 6a12 99de c0bf
000007e0: 754e 695b ce8a d3bf 09dc 6efb 1902 d2bf
000007f0: 5181 4843 d7e4 833f 0b79 c009 356e b63f

model.3.bias f8 [15]
0.2693102330580789 0.050000002569968616 0.05835449257360034 -0.04514175309531136 0.24057471005569286 -0.0047693327729079376 0.18796901728547305 0.1359494678321758
0.25461693505147887 -0.25651547795811525 0.28531376659856855 0.07873042206300244 0.07673473612768804 0.07470712530392241 0.18407590207153673
00000000: 069b ddfc 603c d13f 5005 adaf 9999 a93f
00000010: 9c48 5bda a3e0 ad3f e6f9 74e2 d11c a7bf
00000020: 7c89 f7ef 26cb ce3f 15ba 8804 0289 73bf
00000030: b680 f366 5e0f c83f e1b7 1fcb ca66 c13f
00000040: 6872 43d4 a44b d03f d2dd 2fe5 bf6a d0bf
00000050: 68ec 28ac 9442 d23f bbfb f54b ad27 b43f
00000060: 53b7 223e e3a4 b33f 9f61 f593 0120 b33f
00000070: 6681 b095 cc8f c73f

model.5.weight f8 [15]
1.1606267509582304 1.20076659668254 1.2707635164604383 1.3019411377987964 1.183456637303551 1.0538766057610407 1.0732538568338097 1.2287127024676479
1.3004823411918842 1.159531094139113 1.3593255460302636 1.3268209211558715 1.0757300655412438 1.2751023921394757 0.9730081615376479
00000000: 44a7 235b ed91 f23f 7a17 ee08 5736 f33f
00000010: 535c 0220 0c55 f43f 139b 023b c0d4 f43f
00000020: 053f 173a 70ef f23f e235 3cb7 addc f03f
00000030: 6583 763c 0c2c f13f 0674 94a6 cea8 f33f
00000040: 501d 4792 c6ce f43f 855c 007a 708d f23f
00000050: c313 cd24 ccbf f53f 8135 0093 a83a f53f
00000060: 612d adba 3036 f13f 8ba5 14c4 d166 f43f
00000070: f572 1103 e222 ef3f

model.5.bias f8 [15]
-0.35428696360789985 -0.3873893342193761 -0.36159801509157385 0.4565435003799276 0.4183009915236138 -0.3969614924817323 -0.4368625352381679 -0.3529177449375184
0.4054963107009115 0.40347405359398064 0.4970880270281939 0.4558514231322517 -0.38275781605450304 0.3660653700669479 -0.332432542086188
00000000: a915 863a a3ac d6bf dba6 52a2 fcca d8bf
00000010: 0c7a 4700 6c24 d7bf 5f52 d53a 0238 dd3f
00000020: 609c 9e85 71c5 da3f b6be fe2c d167 d9bf
00000030: 5d84 6c47 8ef5 dbbf 4ed2 2b4f 3496 d6bf
00000040: 00fb 46cc a6f3 d93f eb1f 3ed6 84d2 d93f
00000050: b46e d44c 4ad0 df3f 7c09 8c72 ab2c dd3f
00000060: b384 8fa3 1a7f d8bf f5ae 2872 9d6d d73f
00000070: 7cb9 1824 9346 d5bf

model.5.running_mean f8 [15]
0.918843443360496 0.7228799348586813 0.5489566673073376 0.3768788696177425 0.6514613847612776 0.7292528682591879 0.8339858955385663 0.7437872788482873
0.539029409173368 0.2722549294877601 0.5871454205031208 0.47393793321004213 1.0040313788398316 0.5544086082551951 0.6303369579345028
00000000: 5213 6c5d 2a67 ed3f 7be2 e419 d521 e73f
00000010: 8632 a092 0d91 e13f 1bf2 e38c c81e d83f
00000020: 8a02 c58b c5d8 e43f 40ff 751c 0a56 e73f
00000030: b13a 5530 03b0 ea3f fcb1 bafa 1acd e73f
00000040: 0d6b 7f9a ba3f e13f 24c8 94f0 9f6c d13f
00000050: 88d3 6131 e5c9 e23f 4324 dec4 ff54 de3f
00000060: d765 0435 8310 f03f 4876 221f b7bd e13f
00000070: fe3d 7969 b82b e43f

model.5.running_var f8 [15]
0.7576302463431115 1.190484907711707 0.6496236732942747 0.28978443835436324 0.9912246073311034 1.0422569268099753 1.0283550754096755 0.8318920251616313
0.5559884080057459 0.17239923303105154 0.7010660426378386 0.2906736205296737 1.0598350288972438 0.3982850145643662 0.729321383115519
00000000: 7c21 50c9 813e e83f c30d 10e7 390c f33f
00000010: 9933 f095 b7c9 e43f 3bca 6707 d48b d23f
00000020: ef47 efaa 1cb8 ef3f 5bda 6a99 15ad f03f
00000030: 75f6 9873 2474 f03f d4ea 3b06 dc9e ea3f
00000040: 81df aa33 a8ca e13f 18a7 dc95 2d11 c63f
00000050: ace6 ae0d 226f e63f fe07 7f87 659a d23f
00000060: 524d 4493 15f5 f03f 119d 026e 807d d93f
00000070: 0426 18cc 9956 e73f

model.7.weight f8 [1, 15]
-0.29211203012207576 -0.36020998638528867 -0.420056768686054 0.5335559765235297 0.5227315188786963 -0.20331563690088914 -0.2388722730814686 -0.33383179839200006
0.6128445091637924 0.462432457623703 0.459558576177681 0.5514260065662189 -0.31169346711846385 0.509434062166327 -0.27165429587624584
00000000: 6e1e 09a8 f6b1 d2bf 36ea cd2f ae0d d7bf
00000010: 1e15 fec8 35e2 dabf fb1f b8fb e312 e13f
00000020: 5c84 4573 37ba e03f fb9a a02d 3f06 cabf
00000030: eb2d 67dc 5d93 cebf 2858 1d0c 805d d5bf
00000040: 7c88 8c16 6c9c e33f ce92 864e 7e98 dd3f
00000050: bfe2 d15f 6869 dd3f 90b4 0b27 48a5 e13f
00000060: 4fa4 e927 c9f2 d3bf 3921 8fa9 484d e03f
00000070: fdce 26b3 c862 d1bf

model.7.bias f8 [1]
0.15472927461592292
00000000: cdc6 1a3b 2bce c33f

exp_avg f8 [30, 33]
-6.006982374278093e-05 -0.0022694544857823273 -0.0014855263531762533 0.0016050237810758862 0.0008251399355475689 0.000981555919077596 -0.0015171936314868253 0.0002445756713583854
0.0003338468547999664 -8.041602736147589e-05 -0.0013132038692327999 0.0017017761080742263 -0.000892327610204471 0.0009617839763002606 0.0010428399329284227 -0.0005760550888650474
4.201114718460918e-05 -0.0005425269222922409 0.0017051800573952372 0.0002686836829928234 0.0006391114039043653 -0.00015072189035605913 -0.0015491504725581324 -0.0018147616771474896
0.00011696797978831457 -0.0014912381235871323 -0.00016879191546974643 -0.001317422024200354 0.00010021886073248817 -0.0001391263560016878 0.0012089643007858932 -0.0002891863624574403
0.002907099441541545 0.0007345108337168003 0.0007705239831580681 0.013089413169453945 -0.005598287604535322 0.001444623276199775 -0.011271727345044892 0.007312772738220302
-0.012497564411073615 0.006215451493735663 -0.011111823913859075 0.002478535909781559 -0.013036045305026478 0.0023100042512786086 -0.01334448238826572 -0.003495135663812133
-0.007521101490784421 -0.002718488187470613 -0.010013990723462578 -0.006701548891028181 -0.0052723486025997865 -0.009184115844515343 -0.0034262695393942216 -8.992516452822963e-06
-0.0012469683881606156 -0.004673368657867286 0.0005513122091287419 0.0006158222506914536 0.004597928954590915 0.010494246407741268 0.0004100623749487714 -0.00044905212489527345
-0.003982517027003831 0.007701922520859646 0.0006542641175494047 -0.0007454825373935849 4.912173136869655e-05 0.0002473440022858336 0.0003932125301420134 0.0005556472862145214
0.0010326989372772925 0.00018291883233598788 0.0006751516288795372 0.0007094252886137983 0.0005539637491800409 -0.0003061453181819613 0.0019328850092824672 -0.0011487245887201363
0.003226549376457928 -0.00137035202199903 0.003389199787703807 -0.002558836190389817 0.003076074718624921 -0.0028757569147841978 0.0004870970285924806 -0.003531986160597995
0.0012353057792841003 -0.0039003908969420884 0.0007562315735552908 -0.004377876451180724 -0.0017490075446909494 -0.003436185754966556 -0.0032526565189548583 -0.001703021415919085
-0.0034040047605571775 -0.0014522504418052848 -0.004299901962533376 0.0009068173296519905 -0.006052653322235611 0.002594268656297388 -0.00392724464928572 -0.001952623754362727
-0.007578082196161769 0.0010978545900764292 -0.007303622667384574 0.0003218467464846859 -0.0033377704729039485 -0.001723025278098356 -0.003937493162896392 0.0017040859199177053
-0.002897346271311381 -0.004838774213052273 -0.0024536154295111265 4.8502854587820706e-05 -0.004466166895109796 -0.0010128393268749986 -0.0040147745593344195 -0.00039867858087018937
-0.0023720128731915175 0.0018485621806598536 -0.00208455141528545 0.0025868255936867092 -0.0012953640234638093 0.00022408313123360274 -0.0010350181680609358 0.001043365660541386
0.001039373507447305 -0.0025692546809804907 -0.00035726867365733363 -0.00295627154682152 0.001021152057943148 0.0048691962228278275 0.005171393373767139 0.0026607776822104453
-0.0043971825677897826 0.0038670513682295573 0.0010489408611597788 0.006558228838648589 -0.0052912832273673315 0.006792491638890474 0.0010480266048900544 0.006507771689386816
-0.002606779336388573 0.005438978371540058 -0.0015854495972785977 0.009571873267272692 -0.00024063043823633416 0.008239363820328034 0.003925209670334314 0.007977523460374003
0.00034626321303114196 0.0067625777463154665 0.003161765771541609 0.011257894043318251 0.0001298724924448193 0.009509176928025203 0.0030790480452479734 0.010908648858571174
0.0021059639060350714 0.010614505408789079 0.0011534644043343382 0.012609016550841078 0.0022745884931361267 -0.0018373035399548833 -0.00556750013417931 0.01106154880015451
-0.010517624588739 0.0007372190348532096 -0.012050499810817404 0.008219462794512855 -0.014383081848416657 0.006814437643720336 -0.01410384765358177 0.005493189355145912
-0.016875950490427154 0.0028280852105320477 -0.01749359778723772 0.001856034760441819 -0.012127336744041612 -0.0026040388252504573 -0.014256217226878328 -0.002904028696465653
-0.012948122005834306 -0.007977251774556183 -0.012106909123269269 -0.0013030179668554532 -0.006681033317197639 -0.004818007254565657 -0.007591656412729074 0.0001196538044185677
-0.005427033506629472 0.007991561359464959 -0.011281914632313893 2.7272408094551667e-05 -0.013938716056048829 0.006784755853060782 0.0011177877108984374 0.0031342492870122074
-0.0004101435589823952 0.0012279582408907849 0.0033866916763812525 0.0007840221838860872 0.0012505832695302874 -0.0005087147444621478 0.0015638571625133976 -0.002337572726175307
0.002607365650190717 -0.0028612750622910082 0.0023842925063942595 -0.0028056249740155024 0.0011139509153590785 -0.003548023672665976 -0.0010224986634652928 -0.0024329908081466506
-0.0003953717882473651 -0.002177879996222347 -0.0020367133172817034 -0.0027418023733037237 -0.0022577913331577404 -0.001613488080024657 -0.002142240498000305 -0.0021868674122578714
-0.002621115232224196 -0.00011518015638346577 -0.003185729278008709 0.0008710989909960775 -0.001644829255634834 0.0009657810445949001 -0.0024667430234610395 0.0018185257081484584
0.001443245545284336 -0.004030492302723306 0.00209569973373457 0.002369627212450055 0.0023091422419945647 0.0005165519399561957 0.002482052740398189 -0.0024070907701259883
0.002091292166007587 -0.001347272934892143 0.002041958795802478 0.0011281747964354838 0.0017808149345886503 -0.0004039046089981175 0.0007000308184859766 0.002374229894231065
0.0020172594074755615 0.0034367904728974724 0.001072577573025873 0.0018053592813273734 -0.0009110952692655157 0.00020053986346670229 0.0011412781941878072 0.0015410406985608477
00000000: 8c19 786d 6f7e 0fbf 2e6f 7a19 6497 62bf
00000010: 81d6 abc6 bf56 58bf 9598 8929 f54b 5a3f
00000020: 5fa4 d684 c609 4b3f aaa4 95a4 f114 503f
00000030: d313 da41 92db 58bf 3798 8782 4c07 303f
00000040: 0dbf bf52 05e1 353f 8af0 92d4 a014 15bf
00000050: 5329 f7ea f983 55bf 65bc ac2e c4e1 5b3f
00000060: 164a 9af3 623d 4dbf 24e6 ac5c 0784 4f3f
00000070: 127e 0ada fc15 513f 0b2c 39e2 4ce0 42bf
00000080: a901 9b06 a406 063f 638e b8b1 0bc7 41bf
00000090: 2ab3 2325 0bf0 5b3f 31f0 a4a1 c39b 313f
000000a0: 79bf 044a 41f1 443f fd83 032e 63c1 23bf
000000b0: 8826 70a7 9b61 59bf c39e 6a83 a9bb 5dbf
000000c0: ba3b 6b97 96a9 1e3f bfae 2abe b46e 58bf
000000d0: 7996 7783 b71f 26bf 98f9 9220 ab95 55bf
000000e0: 1495 caea 9245 1a3f b7d3 4e4c 4e3c 22bf
000000f0: 53ee 9188 c3ce 533f 51bf 1df8 bdf3 32bf
00000100: f56e e220 a1d0 673f 9814 3301 8611 483f
00000110: a635 7ba7 9f3f 493f a0a1 e44b 9fce 8a3f
00000120: 2522 cde2 3aee 76bf 3500 7c6e 30ab 573f
00000130: 01fb 87a2 a115 87bf 134e 0f7c fff3 7d3f
00000140: f4d6 66b3 5298 89bf 53d7 538e 5f75 793f
00000150: 26b3 78c2 cbc1 86bf 3f49 95d5 dd4d 643f
00000160: 13bb 0862 a4b2 8abf 35c5 cf16 6eec 623f
00000170: d266 841b 5a54 8bbf 4f83 e0ab d4a1 6cbf
00000180: 66d0 ec4e 72ce 7ebf 7f0f 833b 1545 66bf
00000190: d61a 4715 3782 84bf adb7 1c55 1573 7bbf
000001a0: c1f3 234d 7598 75bf 6217 8f29 1fcf 82bf
000001b0: 65ad ce73 6811 6cbf f41c e40c d2db e2be
000001c0: bf1b 901c 2a6e 54bf 1058 c3d8 6124 73bf
000001d0: 0e68 3cf4 bd10 423f eda3 a336 e42d 443f
000001e0: a92b d427 47d5 723f df76 f0e8 017e 853f
000001f0: 299f 5e7d b4df 3a3f 87c4 cc30 d86d 3dbf
00000200: 1c1b 30c6 f84f 70bf efa3 7e15 0d8c 7f3f
00000210: 15eb 707e 5d70 453f b087 158f 8f6d 48bf
00000220: 7ded 87d6 01c1 093f ebec 9266 be35 303f
00000230: b40f 14f5 02c5 393f 2b49 1176 1b35 423f
00000240: b0cf 610a 74eb 503f d76c 2fce bcf9 273f
00000250: bd83 3b15 951f 463f 7842 ef34 173f 473f
00000260: f67f cb17 fc26 423f 0c58 2121 4410 34bf
00000270: 260a b779 1bab 5f3f 543d 9aa2 19d2 52bf
00000280: dd48 a081 906e 6a3f f364 9547 ac73 56bf
00000290: 0ff6 edc7 aac3 6b3f 700b 1db8 44f6 64bf
000002a0: ff25 210a ff32 693f 7bcc ce3c e68e 67bf
000002b0: f2e5 cace 21ec 3f3f c215 97a1 1cef 6cbf
000002c0: faa1 0b7b 3f3d 543f 54e7 016b b6f3 6fbf
000002d0: 4b2b 35f0 bac7 483f 94a3 f042 89ee 71bf
000002e0: 6229 1d8d dea7 5cbf 6016 192e 3426 6cbf
000002f0: a112 f8ab 50a5 6abf aae4 4952 fde6 5bbf
00000300: 6699 e723 b7e2 6bbf ad4b cd09 2ecb 57bf
00000310: faa2 e124 c69c 71bf 804e 1c63 efb6 4d3f
00000320: 181f 2bc1 aaca 78bf bf8f 2561 9340 653f
00000330: f12b 50b5 0316 70bf 06fb a5ca e5fd 5fbf
00000340: 22c1 2ef3 310a 7fbf c85c d963 bcfc 513f
00000350: e0d7 fa47 67ea 7dbf 682d 1f40 b117 353f
00000360: efc4 b9e0 cf57 6bbf ce26 0e4e e43a 5cbf
00000370: 114a cec5 c220 70bf bf72 eb52 74eb 5b3f
00000380: 7702 60ef 2cbc 67bf 2ff0 f68f d2d1 73bf
00000390: 9ed1 dac0 9a19 64bf ae0e cc64 f16d 093f
000003a0: ec2e 0c8c 1d4b 72bf b6f1 3df2 2798 50bf
000003b0: 0a33 eed6 cb71 70bf 5479 6977 b720 3abf
000003c0: adde e9b6 786e 63bf a25b 1387 6e49 5e3f
000003d0: 63b4 f904 9f13 61bf da2f 696a f730 653f
000003e0: 0813 8087 2639 55bf 5a75 c270 fb5e 2d3f
000003f0: b283 af4b 2ef5 50bf 6e65 f258 3118 513f
00000400: cb99 42ce 7207 513f 4897 8e1a 1e0c 65bf
00000410: 1b25 ed44 f969 37bf cbfe 9233 c037 68bf
00000420: 82e5 5bac 05bb 503f 3bc1 8ee8 b8f1 733f
00000430: f02b a456 992e 753f 638d 1024 0ecc 653f
00000440: 1bd2 2bb5 c702 72bf 676a 1265 cbad 6f3f
00000450: 7873 6cac 932f 513f 3a5c 1b26 cddc 7a3f
00000460: 458b a506 50ac 75bf 5980 2897 71d2 7b3f
00000470: dce4 92ff bd2b 513f ba46 36a9 e4a7 7a3f
00000480: 5ff9 ecff cf5a 65bf feaf aba3 2e47 763f
00000490: 627a dd8a dbf9 59bf 74b7 2715 6b9a 833f
000004a0: ebe4 acb9 378a 2fbf a46b 2fb1 ccdf 803f
000004b0: afdc 9f72 e113 703f e04b ec12 8556 803f
000004c0: 96b2 ff2c 55b1 363f 5802 1da4 13b3 7b3f
000004d0: 28a7 c312 b4e6 693f 4d30 e7f5 600e 873f
000004e0: 4e85 2437 cc05 213f 368b 571f 8c79 833f
000004f0: 4165 0755 3b39 693f 5d98 ba10 4657 863f
00000500: 8696 4bc3 8640 613f 4e70 c0cc 0ebd 853f
00000510: 07a5 32f9 fae5 523f 26c2 c38d c1d2 893f
00000520: 287a 1366 28a2 623f 39cd 7ba7 351a 5ebf
00000530: 21cb f26f f2cd 76bf 34da b7f2 6fa7 863f
00000540: dd35 1fad 438a 85bf d0fa 84d2 3d28 483f
00000550: bf0c b4b4 eead 88bf e01c 259f 5dd5 803f
00000560: 4db4 3c91 e074 8dbf 6366 20ad 74e9 7b3f
00000570: 8df4 5b63 7ae2 8cbf b4ee 18ca 0680 763f
00000580: abfc c7dd ed47 91bf 4848 aaaf ec2a 673f
00000590: 48d1 8a79 d7e9 91bf db61 2a26 c668 5e3f
000005a0: 2a3b a095 37d6 88bf 8760 f1b2 1055 65bf
000005b0: 0b6d 0816 5d32 8dbf e217 e588 30ca 67bf
000005c0: 8d37 7a84 8b84 8abf ed91 de9b 6056 80bf
000005d0: f8b1 ebd5 81cb 88bf 1f8d 70e3 4059 55bf
000005e0: 2815 9d39 925d 7bbf 3daa 71f9 0bbc 73bf
000005f0: 7e03 3ec0 6d18 7fbf 1e3b 10b5 d45d 1f3f
00000600: b0e7 cd36 a83a 76bf 6c89 7635 e15d 803f
00000610: 4c71 0ef3 f81a 87bf 761e 149d e198 fc3e
00000620: 5426 dfcc e68b 8cbf 54fc 0008 55ca 7b3f
00000630: 1726 616a 5750 523f d764 ed45 ffac 693f
00000640: 6398 282c 11e1 3abf 1319 121f 6e1e 543f
00000650: bdf2 bb3f 68be 6b3f aefc ced1 dab0 493f
00000660: 8471 968f 537d 543f d9ec 6098 68ab 40bf
00000670: 1350 97d7 4a9f 593f 1875 26cd 3e26 63bf
00000680: 17f3 47c6 0a5c 653f 8e24 285a 8770 67bf
00000690: e896 d94a 3988 633f 267b 4370 d2fb 66bf
000006a0: ad60 0db0 3f40 523f 6010 77b4 be10 6dbf
000006b0: 7e64 7794 abc0 50bf 328a 7afe 59ee 63bf
000006c0: 3efa 78e6 3ce9 39bf 3de9 776b 58d7 61bf
000006d0: d084 d922 4caf 60bf 625c d0f0 f975 66bf
000006e0: 12c3 fc7d ee7e 62bf 21f7 50a2 756f 5abf
000006f0: 5268 219c 9a8c 61bf 76d2 8580 31ea 61bf
00000700: 0a48 7286 e078 65bf 5243 ee04 9c31 1ebf
00000710: 9abe 0362 f518 6abf ffa5 c5d6 4e8b 4c3f
00000720: 84b4 11f7 e9f2 5abf a578 3500 8fa5 4f3f
00000730: d1fb a093 2235 64bf 4234 611c 73cb 5d3f
00000740: a8aa b11a 69a5 573f 5518 080a 4782 70bf
00000750: ea2e 323a 002b 613f 1caa 32ec 7769 633f
00000760: 6360 284d 9fea 623f d781 2ad8 26ed 403f
00000770: 6846 1aeb 3d55 643f b9b4 5b04 09b8 63bf
00000780: 3645 b3ee c121 613f 70ea 6c4c df12 56bf
00000790: e593 ed47 4cba 603f 850e b676 e87b 523f
000007a0: 0ad5 df79 472d 5d3f 5e12 1b16 6578 3abf
000007b0: 760a 5dbc 48f0 463f d50d f7f7 1e73 633f
000007c0: 2251 d8e5 7f86 603f 0ec7 e5d5 7827 6c3f
000007d0: 17f5 4e66 b792 513f 4d7f 88c4 3994 5d3f
000007e0: 96d9 4831 d2da 4dbf 42b2 6d4f 0049 2a3f
000007f0: 2059 4221 deb2 523f 9c65 bcd9 973f 593f
