kaggle_playground_smoking_prob/saved_models/_model.pth (torch, 228131 bytes, 72 tensors)

model.0.weight f8 [50, 22]
00000000: 09bf db17 ec63 c2bf 0623 a78a 7879 e3bf
00000010: 799d c301 665f c43f 7c60 76f4 5681 d0bf
00000020: 0b47 f34c c50c 8e3f a73f 0a8c 0d9a bb3f
00000030: 8de6 105a d29c 773f d163 184c e08e a43f
00000040: 3a8f cbcd a695 c43f 1738 11ba 2043 a8bf
00000050: 3fb6 a543 033c c2bf 72a7 1ab6 f282 9f3f
00000060: eac8 cd1d 9539 d23f ba15 28bc f66f 45bf
00000070: 5265 df6d dfab b3bf f765 98b7 f71b bebf
00000080: 0d8e ab3c d102 863f 5504 beaa 3da3 ccbf
00000090: ad53 f52e 9b80 88bf a845 9cb3 ea82 c23f
000000a0: 4b45 6ff1 1ef9 ecbf 76d2 7cc3 2647 aebf
000000b0: 156d 987d b0f8 aebf 884f 2bef c52d e1bf
000000c0: 059e af73 b09c aabf 386c 96a7 48c6 8dbf
000000d0: 5dcb e895 5da3 c33f a7cc 4ba9 c0be dbbf
000000e0: 5e09 b538 31af be3f 550e 68a3 957a bfbf
000000f0: c457 7acc 1d0c b83f 986b 18f3 2cf8 b0bf
00000100: b4e4 d315 27bb c5bf 892b 26a7 61ad b0bf
00000110: 13df 150d b726 a13f 038f 2900 81eb 953f
00000120: 9e70 c7b8 f523 b03f 1475 7d2b a0a1 e9bf
00000130: 5d86 0f7a 3c90 b53f 1219 4c47 d60d e2bf
00000140: 88bb 59e0 e820 90bf cbef ab06 7cbb d0bf
00000150: 6703 52d6 3b34 b3bf 86e0 9494 666b 933f
00000160: 8b52 416c 7a3b e03f 9a67 00cc 111f bc3f
00000170: 8d32 244e 4e4a b63f b12d 8a34 5ffe d7bf
00000180: 67cd af6d da66 993f 891f ef9c a6d4 c83f
00000190: ba1d 0eee 13d4 a8bf 7df7 7241 22c3 a1bf
000001a0: 32ff 509d 5fdb b2bf 26bc 8ae4 bda1 c43f
000001b0: 3f20 c0b3 945b dbbf 2faf ee2f c91c e13f
000001c0: 98e4 9ad5 31ea d2bf 04cc 353e f147 69bf
000001d0: af25 bc8e e188 d73f db49 c74b a42d be3f
000001e0: 4198 4705 67be d7bf 2aef d7b8 5643 c9bf
000001f0: acdf b51f 091e babf f766 ce13 a70e 8dbf
00000200: f11e 0717 7c5f e4bf d08c 50d3 578f b3bf
00000210: 7724 ff4d 47b6 8a3f a700 2b43 a293 b73f
00000220: b526 dd54 7e51 b93f ace0 855b a29e 77bf
00000230: 9bdd b617 a803 933f 2742 7ced 3ce3 c63f
00000240: 607f 1fe6 09dc bdbf fa86 b0e2 f357 aebf
00000250: b02b 2c78 1e20 c13f c540 0a14 c433 c5bf
00000260: 8081 03a2 d53a b23f 0ce7 e0ec 3b49 b93f
00000270: aeb8 764b 668c eabf fdca 30e7 665c ce3f
00000280: aeb6 ba3e bf61 bf3f 56ef face def4 83bf
00000290: a346 6cdc e864 b03f 8010 120a 8950 b0bf
000002a0: 76cf a2bc 9603 a33f 4ac8 671c ffab a23f
000002b0: 1e90 44bb de73 f0bf 93ea 1428 f7a7 b2bf
000002c0: 0628 8326 5eaa dbbf a33c 0f4f 3563 cabf
000002d0: 7812 5a23 8e55 b9bf 8033 be5f cdc9 a63f
000002e0: 07cb 5bbe 29c4 c3bf 8115 ed8b cca3 acbf
000002f0: 7311 18b0 9bbe b93f 77da 6862 82db 93bf
00000300: 03fe c401 2ec3 b03f 7f03 50c1 0b2e c33f
00000310: 47b1 5bb5 49e5 a43f 93f9 4a8b 59f0 c53f
00000320: 51fe 0cd8 6a45 bebf 6f07 b783 e32a a33f
00000330: debb d94a 7508 ab3f 0a40 907a 01e8 acbf
00000340: cf2d 3f70 10eb a3bf 4931 5791 287a be3f
00000350: 20cc 6e77 a407 32bf 4c57 9a82 fbe4 c13f
00000360: 3c2b b06d 80b6 f5bf 07a1 3d54 3ed7 abbf
00000370: 4bf3 f94a ee4e c63f ade1 6a49 4231 b33f
00000380: 8277 a854 6f28 c8bf fb64 02e4 2410 bd3f
00000390: ea42 b7ab d087 c6bf e871 3975 3c70 c1bf
000003a0: 18f8 6d9e aa81 b33f 2e39 024a e17b aebf
000003b0: 2718 1d4b 3b47 c33f 6be2 5e1b 08db b1bf
000003c0: 038a 3d1d 40e8 92bf eda1 9e93 514d c9bf
000003d0: 9e84 0a0c a2ca c43f 6d3b b3b9 7669 dabf
000003e0: 6b74 2563 1044 d23f fba0 6f78 fa22 d3bf
000003f0: 2858 2213 34d9 a7bf 143c 0ccc 53a1 d43f
00000400: 315b 398d 05f6 e6bf 534e 6ec7 65ef e3bf
00000410: 0b86 cc36 463d d33f 51b7 514c cc18 b83f
00000420: ad65 b28f 2b23 b1bf ec10 ac68 9f55 c53f
00000430: 349a f415 7b40 d3bf 9756 0919 c99c 7abf
00000440: 7cc7 4277 746f 5e3f 0680 cfd7 ba71 b4bf
00000450: 933f c0d7 39af b83f 2f47 a7c6 911e b0bf
00000460: df24 657f 5e4c bb3f 7d44 1c5c a090 ab3f
00000470: 15b3 677e c216 e0bf e10a 583d d83e d3bf
00000480: 0719 feda 8723 a2bf 8d6f 3f70 ae9e c23f
00000490: 9770 b5e1 a1ad d8bf 8315 db07 35b8 b5bf
000004a0: edaa 28b2 1ff7 afbf 055a 08fa 1a33 74bf
000004b0: 5f57 d415 9797 dbbf 8342 b5eb 168b e2bf
000004c0: c2d7 ec33 f550 de3f 78af 7dbe d35e af3f
000004d0: 34f5 f3ef c38a d33f 878d 0329 b85f e23f
000004e0: c926 e9e4 3f1b c2bf 7581 9f30 8f39 8a3f
000004f0: 3e6f 501a a406 d33f d798 5a37 03e6 c4bf
00000500: b7ab a017 aa0e cebf 7024 a60e a919 47bf
00000510: d2a8 4869 6e08 d03f 2031 fc96 e2ea 8b3f
00000520: 7a49 9624 03ba e03f 1b4b 432b aa04 cd3f
00000530: 3712 605f 37dc be3f c052 16b1 2860 d53f
00000540: 1f87 d5d3 52cf c03f ed19 33da a3d1 cabf
00000550: 71a5 0228 a332 ab3f d7cc 48fb 1188 c23f
00000560: 4227 0a5c 61cf a43f 6517 4e2a 2aad b1bf
00000570: fdd9 4703 21d6 a13f 9804 975a 32d6 c9bf
00000580: 66cb fcb6 9c58 d6bf ce2e 787a 3b55 f3bf
00000590: 6ae8 d7d7 be35 b33f f87b ae05 74af b03f
000005a0: 449d 9f23 2cde af3f 66db a18c 6af2 bdbf
000005b0: 79af 25e8 47dd a03f f650 4816 278e babf
000005c0: 0135 b1b9 3817 b7bf eac2 a16c edc9 bf3f
000005d0: afd4 9cf4 147f 95bf 94a8 0904 70d2 b33f
000005e0: a1a8 e668 7145 a0bf 7fd0 4cef a066 b03f
000005f0: 2ab9 72b2 6eac c73f 13c1 92d8 f818 e2bf
00000600: 9a55 ee13 4ec4 a43f 88e4 5830 1e40 d1bf
00000610: 5660 b16a 1c7e adbf 9b17 5957 e58d 863f
00000620: 5fb9 edbb f5c6 b23f f9a8 f010 feeb a7bf
00000630: 9e8e b5c1 d8fe f13f 640a 030b ef7e 99bf
00000640: ebb4 6428 642b d13f 101c 8a7b e9fa d4bf
00000650: b134 2bec ee0f b5bf 9189 aae5 bbd2 b03f
00000660: 764a 4c06 7708 a63f 3c4a 09f4 40e6 9c3f
00000670: cecd 1164 9108 bfbf 1d62 ee84 b337 c03f
00000680: e086 bf1c d07b 99bf 37dd 8dc6 83bf a5bf
00000690: 3969 1737 3af3 c1bf 60cb 85e4 9ac2 a6bf
000006a0: 1cc9 ef59 f301 a73f 8439 2a37 0c36 cb3f
000006b0: 78e8 1521 6f59 a43f c529 80c6 da2b e03f
000006c0: ddf0 b0b9 74ae a13f 8432 97bb 2834 bd3f
000006d0: 9e59 e5ef 9782 c8bf 7c27 375f a6f4 b3bf
000006e0: 3cf7 314c d975 d7bf cdea 0010 19fd ea3f
000006f0: ea2a 1c45 3f50 c03f 1128 cdda 74e1 babf
00000700: 07a1 2edd 2bbd 833f 0ac9 8a30 ca48 b43f
00000710: 5fe7 5a02 313b b53f 3652 5be4 36b3 bcbf
00000720: b08f 0a90 eb3b cf3f 8201 8f59 61ee 98bf
00000730: 85a7 1efc e77e d1bf e94c 4263 10bd c43f
00000740: 36b4 7cfb 7b34 b5bf 266b c74a d432 b43f
00000750: 9ab9 5b90 9899 e13f cd25 f004 60d6 a13f
00000760: 008c 3e83 c97a c1bf 39fb ccb7 e35b dc3f
00000770: 8d5c e4b3 4963 c33f 836c da9b 93bd c23f
00000780: 47c6 4c2c 0bbd e6bf e4b4 fe82 ac81 bdbf
00000790: 468a e524 529a cd3f a67f 6882 307c e5bf
000007a0: f6a4 eb8a 11a7 d33f 0dec ccfd 2ec6 c03f
000007b0: 2a15 45c3 56d5 d23f 9da1 87c3 4cd5 bd3f
000007c0: 6487 db21 b1df 8d3f 4b22 501e 0b82 b13f
000007d0: a36b 7d3a 1ced b0bf 3f28 0f0e c264 b93f
000007e0: 401f c9c0 b4ea c0bf 65fe 89a2 bd29 b83f
000007f0: f8dd 41c5 63f1 cdbf 5a42 f283 ce38 5c3f
-0.14367438473663466 -0.6085779865325953 0.1591613300908923 -0.25789426682741357 0.01467279568751991 0.10781941098161828 0.00576479118995511 0.04015255860230805
0.16081700371352686 -0.04738714476899036 -0.1424564438161031 0.030772964825394884 0.2847645560315316 -0.0006542162666966424 -0.07684132034718985 -0.11761425239856026
0.010747561134343742 -0.2237317165090952 -0.011964046831659159 0.1446202637676326 -0.9054102626343278 -0.059136592257719764 -0.06049109967372083 -0.5368375464699833
-0.05197669422323873 -0.014538352598540624 0.15342302150528556 -0.4335176137239593 0.11986072191669936 -0.12296424140372982 0.09393488161216995 -0.06628685889192665
-0.1697739464359863 -0.06514559107578867 0.033498497340529586 0.021406188616665222 0.06304870377738545 -0.8009796952643762 0.08423212032314482 -0.5641890900158464
-0.015750540440815836 -0.2614431443359961 -0.07501577360564014 0.018964388674448183 0.5072605242117602 0.10984908323771805 0.08707131774662909 -0.3749006283839789
0.024806416458841875 0.1939895883826888 -0.04849302559801623 -0.034691877831831676 -0.07365987387401843 0.16118596705698102 -0.42746465257414806 0.5347639022997778
-0.2955441080080816 -0.0030860626008517595 0.367729558362579 0.11788393831310577 -0.3709962417182205 -0.19736751580773532 -0.10202080749684111 -0.014188103954257054
-0.6366558503877667 -0.07640599164055861 0.013042981212395539 0.09209646358340483 0.09889974185821411 -0.005766519745854886 0.018568636367232477 0.17880975337949787
-0.11663877361524788 -0.05926477567869699 0.13379269473838695 -0.1656422708370028 0.07121024327671499 0.09877371342818381 -0.8296386217023348 0.23719488419154536
0.12258525163152953 -0.009744396869215837 0.06403975850505587 -0.06372887130607019 0.03713675549207 0.036468479363876385 -1.0282885852002503 -0.07287544945294604
-0.4322734237763374 -0.20615259514167858 -0.09896171916086327 0.04450837892281978 -0.1544239215359868 -0.055937187271903895 0.10056469964189833 -0.019392049080318743
0.0654782060928412 0.1498427099141075 0.04081182803006072 0.1713973932400675 -0.11824672484089517 0.037436590031133636 0.05279890574171707 -0.056457563601839025
-0.03890277261924845 0.11905149029116048 -0.0002751137284874878 0.13980049016088925 -1.3570560726827372 -0.05437655237511945 0.1742837778182554 0.07497038166446286
-0.18873397477812764 0.11352758947977641 -0.1760197485405322 -0.1362376758942354 0.07619730346593234 -0.05953887966562586 0.15061131637247735 -0.06974840801456998
-0.018464090141955946 -0.19767207820883873 0.16243386829322487 -0.412686997745303 0.2854042976594601 -0.29900991212208766 -0.04657900556155453 0.32234663893263016
-0.7175319441110785 -0.6229733367094447 0.3006148848672587 0.09412838805448344 -0.06694290407394617 0.16667549715942387 -0.30081059593286175 -0.006497178591038064
0.001857627617067397 -0.07986037987529934 0.09642373578412693 -0.06296645259797339 0.10663405046684059 0.053837786907146225 -0.5027782887314937 -0.3007107352315597
-0.03542732761620653 0.14546757202958496 -0.3855976776301388 -0.08484202806274337 -0.06243228006163357 -0.0049315503861380216 -0.43112733012946153 -0.5794787028954292
0.4736912734109603 0.061270348552027565 0.30534456665903353 0.5741844941189108 -0.14145659138949032 0.012805098220213232 0.29728033609147875 -0.1632694263727845
-0.23482252267544165 -0.0007049632525176885 0.25051460534690506 0.013631601555538497 0.522706576785182 0.22670485603756493 0.1205477340555 0.33399407666847125
0.13132701247655462 -0.20952270654943508 0.053120707162927945 0.1447775341963282 0.040644686208067174 -0.0690485337528038 0.034836799288246546 -0.20184926436744344
-0.34915845746870955 -1.2083086761439747 0.07503884095777527 0.06517720354757717 0.06224191603524301 -0.11698022778896941 0.032938239181787794 -0.10373157781606665
-0.09019808324338287 0.1241749181952049 -0.02099259131428671 0.07742977236344678 -0.031779808097170965 0.06406598894392522 0.1849497195557402 -0.5655483465143639
0.04056018822954428 -0.2695384475842464 -0.05760277559664988 0.01101283238234512 0.07334838712788415 -0.046722354476814894 1.1247184340253749 -0.0248982763739697
0.268273391195932 -0.3278144556465472 -0.08227437272872141 0.06571554524501823 0.043033332365799135 0.028222098250191716 -0.12122448628524937 0.12669986716061113
-0.024886371378562866 -0.04247676657444759 -0.14023521127712416 -0.044453468700246246 0.04493675682887696 0.21258690541840164 0.039744828022734546 0.5053533436742376
0.034534118335132404 0.11407713489388455 -0.19148539746920518 -0.07795181107135635 -0.3665679210752051 0.8433957398004509 0.12744894861710715 -0.10500269262152552
0.009638159453814866 0.07923568425284003 0.0829344397306193 -0.11210959506144821 0.24401611836685566 -0.02434684857485215 -0.2733707391840812 0.16201977583532504
-0.08283209695646651 0.07890059304865513 0.5499995059488356 0.03483867702750452 -0.13655966671385045 0.443108491413955 0.15146752628126983 0.1464104186059992
-0.710576616786235 -0.11525991628760185 0.23127199937433057 -0.6714098498377907 0.3070720535893793 0.1310480822811261 0.2942711741382761 0.11653594754864689
0.014586814733266791 0.06839055528701825 -0.06611801555611278 0.09919369548075084 -0.13216266072617522 0.09438691347349389 -0.23392912990287562 0.0017225281478979921

model.0.bias f8 [50]
00000000: 64a9 f7fa 4284 d8bf 48fd 71b2 e59e abbf
00000010: 7da5 c32e ae3e a2bf c11a 4fde 2128 e3bf
00000020: 3bf8 0b74 ff02 bebf 33db 714c e98e ddbf
00000030: a9b7 f9ea 8fc5 bbbf 7d19 f4c7 b8e3 ba3f
00000040: a021 8ef1 d1d8 913f 2d08 276b efae d9bf
00000050: f567 7d24 b0f4 d23f 88c5 eb50 006a b7bf
00000060: 69a0 5d11 66e8 c7bf 96f2 b26b f1d8 bfbf
00000070: b6e9 ef80 8171 d7bf e5ff 0737 00ff ddbf
00000080: 940d 70c8 02bf dbbf f195 9f18 0208 cdbf
00000090: 803a 3491 befc abbf caf6 7852 7ada debf
000000a0: c514 2726 510d ae3f f56f 457f 3d53 d1bf
000000b0: 8236 672a b58c dbbf 35e5 3610 5492 9f3f
000000c0: de25 53e6 0e8e e23f c5ff 8610 54e7 dabf
000000d0: bc7d 4add efec d4bf 35fc 35c0 f144 b7bf
000000e0: 1e5f e5ee 4eae d2bf e1eb 3983 5924 cb3f
000000f0: 8385 b287 9df0 97bf e37d af16 531c bc3f
00000100: f5f6 c6f0 d2b1 dcbf ec71 6b2e 7e58 c0bf
00000110: 95bf 0e5d 099f cebf 3a00 0cb9 84fd d0bf
00000120: e325 cbb6 217e e0bf 219a ca9d 82d9 e2bf
00000130: 7710 e90b 8fc7 b4bf a2f9 f18e 1077 cdbf
00000140: 8b27 47c7 6658 de3f daac 0ee1 0181 dcbf
00000150: b0f8 126a 9f17 e3bf 5ae1 c6d3 e06b bbbf
00000160: 4ce5 061d 8e5f a8bf 8c7a ee14 1f33 bdbf
00000170: f571 775a bcaf e5bf a659 80b2 f366 e0bf
00000180: c625 bdd8 2100 c23f eb1c a74e 592e cbbf
-0.3830726099828523 -0.053946664841527936 -0.03563446350910746 -0.5986489622090049 -0.11723324378178372 -0.46184761491115295 -0.10848330961900267 0.10503725892713152
0.01742866551242772 -0.4013021990214181 0.29618457377875923 -0.09146120048150952 -0.18677974555908186 -0.12440403823252164 -0.3663028487350418 -0.46868901609559394
-0.4335333783530697 -0.2268068905097347 -0.054662661767101106 -0.48208482793766605 0.058695350558573924 -0.2707055800326537 -0.43046311512885194 0.030831635942125863
0.5798410891085799 -0.4203691636466796 -0.3269614850086915 -0.09089575712822369 -0.2918889363258915 0.21204680354625707 -0.023378812224682754 0.10980719856114933
-0.4483535147991085 -0.12770058886134394 -0.2392284111388078 -0.2654735381220267 -0.5153969354807341 -0.5890515405524789 -0.08117002526074822 -0.2301960657095608
0.47414559803711914 -0.44537398317579646 -0.5966336318740755 -0.10711484117826356 -0.04760402778942793 -0.11406130085968352 -0.6777021185803834 -0.5125673757891505
0.14062903483345063 -0.21235195484607713

model.2.weight f8 [50, 50]
00000000: 056b 4556 dd1a d23f 92a9 7ffc 6b3b bebf
00000010: b9bd c6b9 735e b63f 1931 f498 2350 d23f
00000020: b562 8481 3fec c13f 7ca6 9dd2 d457 dfbf
00000030: b871 bf02 96e0 dbbf 7194 7238 482d cabf
00000040: c5b0 6ec8 91a4 b2bf 20d5 d58c 4626 dc3f
00000050: 8c76 c213 7869 d2bf 51a1 c023 0ef0 c73f
00000060: 9c21 d940 3036 d23f 0ecb a038 632a ab3f
00000070: 6b71 df59 9fda cfbf 3afc 319c c239 e1bf
00000080: 3cea 51e4 9301 a2bf fcd9 ff9c 77b1 77bf
00000090: 448b 0141 6be6 a5bf 98ad be70 a1f5 9d3f
000000a0: a52c e031 9626 dcbf 8353 1198 bdd9 d6bf
000000b0: 9050 32f3 6f49 d03f 6399 87ad 1b31 e4bf
000000c0: 6586 fb18 4143 d7bf a4a0 996d dfd4 c33f
000000d0: ffa4 fbbf 30d8 cabf a197 8715 737b e1bf
000000e0: 730c 92d2 cf3a bdbf 23a3 f327 6bc3 ddbf
000000f0: 5320 9ab7 f617 e1bf 8719 7a67 37d2 6fbf
00000100: 61d6 db2b 7214 c93f 275d dedb 7117 cf3f
00000110: 8eee b220 37a5 d0bf 01fa 9def 9b2e c63f
00000120: 7630 e981 fede d33f 7751 3388 4095 d73f
00000130: c95e 58cf 93ab dfbf 9367 7b1f a0d4 d23f
00000140: ddde 30d7 6542 883f 7325 39cb 393f b3bf
00000150: adcb 4e52 56f2 b93f e925 4044 15d2 c43f
00000160: 5220 d715 bf04 a73f d433 496b e71c cc3f
00000170: 5ea2 fe8d 0b3c c7bf 881d fd55 e3df babf
00000180: 3254 2702 0bc9 a3bf 1182 f962 2dec d23f
00000190: 335e e083 9f3c bf3f d9f2 c8ab ce39 9abf
000001a0: 08a7 e850 0bd1 c9bf 38eb 482a 5b91 a93f
000001b0: c0eb 5100 40da be3f 0aed 95d5 c7cd a9bf
000001c0: 7663 4096 43e7 d3bf 41f9 3d0b 34a9 b6bf
000001d0: c3ab c8cf d7a6 d03f 96aa 40ac 75a5 d03f
000001e0: 9dec a82b 8bdb a53f 2458 b573 cb0b 9d3f
000001f0: 4802 043e a051 b73f e93b fed3 e528 9f3f
00000200: 06a7 79bc 990f d23f 8da5 a9fe 4090 963f
00000210: ddc7 bfdc 3392 a9bf a1bb ba25 82dc 9e3f
00000220: 4a77 2bf1 310c a23f e2ef 5617 9780 b43f
00000230: 1a8c d89f e21f b2bf f9b0 d843 6ca2 82bf
00000240: b190 99a7 84e5 69bf 8665 1863 b567 a43f
00000250: cbc1 eb97 2d86 d1bf a495 4c96 bfab d63f
00000260: 62eb 729a 5b77 c0bf f24b 5926 009c 893f
00000270: efad d9ad 1949 763f 6c06 a336 3f35 d9bf
00000280: 594d 9b9a a6cb c3bf 27c2 fa77 c232 c03f
00000290: 1a3e 6f6b e66c 71bf e908 ef43 4af9 a3bf
000002a0: 4c00 1637 202c ccbf c10a 3b92 7318 cf3f
000002b0: cb74 1cd8 5a24 b13f 20e3 1937 e976 c2bf
000002c0: df22 5e4d 2ee6 c73f b54a 81d1 6d42 b0bf
000002d0: 7572 d9c5 8238 bbbf 7945 0031 3784 d43f
000002e0: ee26 1772 2338 de3f aa3e daa0 6d42 b33f
000002f0: d6e3 fa73 c8b4 c2bf 3825 3380 946c 9cbf
00000300: 2a14 2dca 02af b1bf b783 dade 95f9 b1bf
00000310: 3598 dc70 3eb9 cd3f ffa1 6534 a904 b53f
00000320: aa45 97c1 139e b8bf 6386 3ac0 409a c4bf
00000330: de47 ed1a def8 863f e9f9 512d f70c c93f
00000340: 0555 6e79 2dc4 b6bf c6b9 0fbc ef0f b6bf
00000350: 5683 f298 0ba2 913f 63c8 4873 d562 cc3f
00000360: 682c d5de 0792 d5bf a284 2f16 a08a c6bf
00000370: 7a7c 2f04 0122 c1bf 77ce a356 456c c7bf
00000380: 5d87 8a49 d85a c43f d466 496f aaa7 d3bf
00000390: d0a4 fb49 5b25 b53f 1889 327a 3702 9d3f
000003a0: 1449 24b5 e4a1 cd3f 5422 af60 df90 c83f
000003b0: bff4 d460 ddfa c73f d22f 1ba7 1b72 7c3f
000003c0: 0dc0 29ce 1c18 c5bf 9d24 91ab 9c59 b03f
000003d0: 4f2a 6330 cca2 bbbf c94b 54e9 8e2a c83f
000003e0: 4c76 4c94 a32c b9bf 6941 aa84 3336 c9bf
000003f0: abc4 bf99 896f b5bf 532e ba46 288a bc3f
00000400: a633 2de1 0f54 cf3f a07b d8a9 6618 ad3f
00000410: 1e08 76a6 4f8c b03f 7f0b 57c7 1187 bc3f
00000420: 83d5 f12d a888 a23f d1cf a5fd cb49 bd3f
00000430: 7eac 6f52 8880 ae3f 248f 456a e663 ad3f
00000440: 9552 c608 f5ef d03f eda6 5717 d789 e1bf
00000450: 2e6a 822f ed32 b73f 8621 dd6a 3704 c13f
00000460: 08ee 84ba 7748 c03f fb18 4f8a 69d2 c93f
00000470: 05bc b0f9 89ac afbf 43a5 5102 1db0 dbbf
00000480: c8ad aa56 577f b4bf 2e1f 094d a53f 863f
00000490: b468 dc49 53fc e0bf cd81 50a6 a337 d23f
000004a0: 8431 520c 7a1d 8bbf 8d7a 8615 e27a c93f
000004b0: a85b db2a a5a2 bc3f 35ae 45c6 be40 d2bf
000004c0: 6303 5ce1 940e b23f 528d abfa 8df8 c2bf
000004d0: 0087 be81 fc4a d5bf 1569 e525 962d b03f
000004e0: 17d6 928e 3348 d23f 48f6 5fc8 a992 d73f
000004f0: 0874 2ef9 ed3b d8bf db1d a51d a2da ddbf
00000500: 6407 9193 5a50 bbbf d819 98a8 35c0 debf
00000510: e084 a975 bc10 d9bf 2598 2aa2 6a73 b7bf
00000520: 0df9 1e00 2d41 b2bf db74 d894 892c cbbf
00000530: d1c2 f97c ac36 bcbf 223a 3830 1061 b6bf
00000540: dd03 3218 1dc4 e0bf ada4 8906 a896 bcbf
00000550: 1cdb b03c 01a0 a0bf 942a 07d2 f48a c1bf
00000560: 2b39 94c0 42c2 c2bf bb2c 77f3 a949 d73f
00000570: a4a1 8947 191b d03f 0214 2132 ed84 c7bf
00000580: 4f0b e1b8 9c15 bebf ff97 f305 3cfc c03f
00000590: 98ba 26d0 b930 d9bf e28e b171 b468 d13f
000005a0: b8e0 3590 3c69 b83f ac06 2570 672b d9bf
000005b0: 5fea b78a 6c04 c2bf 6616 e7d2 6a45 d2bf
000005c0: c6c8 2284 4172 d63f 4483 e468 ec4f a43f
000005d0: 9b34 ed00 81dc c13f bfac 0494 3e4f b6bf
000005e0: 1a47 f988 e273 cd3f c47c 89b0 302b b93f
000005f0: 93d9 65b0 4bae c33f b59f 39e3 43b2 c3bf
00000600: 2863 8acc dd0d cebf 775c 65f8 8ed9 ddbf
00000610: 77f9 c631 54bd d8bf 9859 36ed 9e73 c23f
00000620: 1616 f058 d5a2 cd3f 550d a402 99eb bb3f
00000630: 4bb0 71c1 d891 c5bf 3e37 a324 4e13 d2bf
00000640: fd3b 7c67 de01 afbf f6f4 83bb 9847 eebf
00000650: 7540 4135 bc10 d8bf e4a0 8bb1 6e4f cd3f
00000660: 8376 f746 5c30 d23f 6001 54f0 6d9f c63f
00000670: b6e5 d1ed eaa1 c2bf 369b 60e1 d93e c43f
00000680: d62e 5db3 5180 d23f 7eef c658 6edb d03f
00000690: 3754 bb8a 5d4a d13f d5d2 16aa 08af b3bf
000006a0: 92c3 1c75 c937 c0bf 6b6c 06af 7622 d4bf
000006b0: 2dd7 8351 7298 bcbf 81f1 a590 2a96 bcbf
000006c0: f302 ef16 6721 d3bf 7602 6128 6f0c c1bf
000006d0: f49c 80b4 ecdf d93f 78c4 1679 28f9 ddbf
000006e0: ed40 638c a23d b03f facf 6a91 5613 b03f
000006f0: d97e 55ca 2b61 cb3f a259 faa3 e0c2 b7bf
00000700: c84e 4fea 2213 cabf 88c1 3729 b532 db3f
00000710: 3543 654e a5c0 753f 8cfb 11d9 b691 c1bf
00000720: e915 1eb1 56ee c53f 613b 00dc 9edb bebf
00000730: 6ceb cc49 29f5 c03f f2ce 6607 dbca ac3f
00000740: c585 3593 7814 b33f 64fb 1581 1f68 a23f
00000750: 0ef8 ed9a bcae cbbf 5082 bdcc 6998 dc3f
00000760: 2f63 9bde cf2d bdbf a29d 3957 c81a c5bf
00000770: f3df d9e8 b7cc cbbf 533f 872b b071 babf
00000780: 6fed c199 9c50 d2bf df79 0c6f e973 acbf
00000790: a2f7 0d2b 93e6 d63f 12dd 103b f2ef d1bf
000007a0: bd43 aa1f 4102 9d3f 979a 224b 267f d63f
000007b0: 1f40 7b46 890b a2bf d233 19d8 5397 d0bf
000007c0: f92c 8684 fc67 c13f 3ee2 a9ba 2d23 c8bf
000007d0: 8fce 76d4 67cd afbf 2134 9178 2f14 c33f
000007e0: 5525 4376 07b4 bc3f 2e1e 56d2 c85d cd3f
000007f0: 5a51 168f 6164 ba3f 79c5 bceb f496 cebf
0.28288968491476424 -0.11809420504110893 0.08737872396044723 0.28614129959966444 0.14002221893385572 -0.48973579948378876 -0.4355826403459804 -0.20450690036992428
-0.07282363074654359 0.43983615640111573 -0.28768732003832365 0.18701340432859095 0.28455740292386067 0.05305776659260718 -0.24885932815858366 -0.5383008051575253
-0.03516828691586624 -0.005784480323191673 -0.042773582158381035 0.029257318979643537 -0.4398551451747131 -0.35703983164176395 0.2544822573629597 -0.6309946431399961
-0.36347987594317593 0.15493386127059694 -0.20972260831994302 -0.5463195248128053 -0.11417864695435913 -0.46505240346464144 -0.5341752611138965 -0.003884418689099781
0.19593646184482608 0.2429029773308937 -0.26008394425637327 0.17329739761403576 0.31048548399554166 0.36848462391687725 -0.49484725235514 0.29422762941759933
0.011845393781285402 -0.0751834984922846 0.10135402211635265 0.1626612265829828 0.0449580873642509 0.21963207949229846 -0.18151993211110357 -0.1049787602361133
-0.038643211377042866 0.29566511788837696 0.12201878518714508 -0.025611142382547 -0.2016920228064054 0.04993710414097169 0.12051773078739725 -0.05039810640570337
-0.31099023507118007 -0.0885193374105926 0.2601832894458164 0.26009885617774253 0.04269061000783234 0.02836530584075815 0.09108926309637255 0.03042945009616097
0.28220218091756555 0.022034659903885468 -0.04994356221858685 0.030138047745534306 0.03524929112403059 0.08008713073553467 -0.07079903032767768 -0.009098859615811682
-0.003161200610337721 0.03985373339328206 -0.2738145812609473 0.3542326896443575 -0.12864251176309965 0.012504578752816162 0.005440807637210095 -0.39387493453623423
-0.15465242909577162 0.12654906137824293 -0.0042542458313188595 -0.039011307518664946 -0.2200966137861563 0.24293369903724307 0.0669609811415796 -0.1442538756416747
0.18671206262322124 -0.06351362576360027 -0.10633103685672458 0.320569799282644 0.4721764196552688 0.07523236443580097 -0.14614205992782442 -0.0277579501387539
-0.06907670436801597 -0.07021462145577471 0.2322156954844005 0.082102370540845 -0.09616206623402115 -0.16095742593920467 0.011216864773505305 0.19570817673589083
-0.08893093313811924 -0.08618067113250225 0.01721971627250992 0.22176616791836343 -0.3370380092716858 -0.17610550959856136 -0.13385021881456166 -0.182991664223312
0.1590223654830493 -0.3071085058960368 0.08260126644349275 0.02832876857122199 0.23150309414683845 0.19192115994362047 0.18734328487508908 0.006944759386623605
-0.16479835573727578 0.06386737049719433 -0.10795284444172036 0.18879877465277975 -0.09833738680432552 -0.19696659066949998 -0.0837331772197724 0.11148311354389166
0.2447528695578544 0.056826790078267964 0.06464097799292332 0.11143599621486365 0.036198859795074 0.11440730040140969 0.05957437521268448 0.05740280196439887
0.26464582306770384 -0.5480761962801047 0.09062082681558856 0.1329411765857566 0.1272115383852539 0.20173377278678814 -0.06186324284532677 -0.4326241037984639
-0.08006807199369981 0.010863582051697653 -0.5308014338109133 0.2846459507145738 -0.013239816189774663 0.19906259585419087 0.11185676857290494 -0.28520173418539524
0.07053499700488212 -0.14821028461219982 -0.33270180387818016 0.06319559502791024 0.2856568233795271 0.36832661216599094 -0.3786578114903141 -0.4664693154813599
-0.10669485190103739 -0.48048154320022496 -0.391646494774319 -0.09160486659183727 -0.07130700352624704 -0.212296674421771 -0.11020925570643249 -0.08741856744038803
-0.5239396545949792 -0.11167383346186695 -0.03247073999266645 -0.1370531106498062 -0.14655336764594415 0.36387108589105893 0.2516539763078305 -0.18374409625735671
-0.11751727594041238 0.1326975850162739 -0.39359898879312416 0.27201567747964195 0.09535578270686329 -0.39327417327522585 -0.1407600095115695 -0.28548689456906684
0.3507236280812659 0.03967226772716129 0.13954174561732632 -0.08714667428710053 0.23009902656718212 0.09831528005587403 0.15375658143211676 -0.1538777217385793
-0.23479816901524342 -0.4664037156812308 -0.3865557180505656 0.14415346701271115 0.231531780649832 0.10906368555520392 -0.16851338811409486 -0.2824282987393082
-0.0605611325573747 -0.9462398207103024 -0.37602143479035216 0.22898658436975616 0.2842016881021225 0.17674040064594987 -0.14556633579540595 0.158168063209098
0.2890819789506457 0.26339300794256093 0.27016390369437054 -0.07688955452506303 -0.12670248239876664 -0.3146034917096531 -0.1117011498461948 -0.11166635543299287
-0.29891373862851295 -0.1331919619715511 0.4042922747343731 -0.4683324034222731 0.06344047477182686 0.06279507684922683 0.21390292529667113 -0.09281734469764172
-0.2037089962092209 0.424969949962382 0.005310674407454742 -0.13725934600003276 0.17133601806942458 -0.12053864356151457 0.13248172858751717 0.0562351652655745
0.07453111261340613 0.03595064593081679 -0.21627004208488682 0.44680256838004073 -0.11398028549900795 -0.1648798395064946 -0.2171850096672184 -0.1032972437162674
-0.2861701489961978 -0.05557183723998426 0.35782317356631144 -0.28027015464927374 0.028328912313160027 0.3515105947248371 -0.03524426446313122 -0.2592362985931774
0.13598591299919585 -0.18857356657442098 -0.06211399525218752 0.14905351054258723 0.11212202679884815 0.22942457456905302 0.10309419387187316 -0.23898183355917604

model.2.bias f8 [50]
00000000: 4d88 e5ce 588b d9bf b7a1 3f0e a226 9ebf
00000010: 094e 0d0c 62fc d33f a9ac 4e57 23c9 bb3f
00000020: 62d2 ec3b fe7b b4bf 03cb cc94 63d4 c4bf
00000030: 5ece 987b d7df cebf 5cef 92ac 3230 ad3f
00000040: 2e6f 4325 9486 bc3f b556 e185 be76 adbf
00000050: c899 0e23 81de c1bf f7e1 f52a b73e ccbf
00000060: 23a9 3004 7899 a83f 21c6 9635 359d c1bf
00000070: 7bb3 afaa 12af d53f e8ac 8fff 5da4 d8bf
00000080: 779a 5e06 7e0c c23f 6ff0 a7f6 c1b3 c6bf
00000090: be66 1b83 dc98 d2bf 4f11 a3b5 1500 d3bf
000000a0: 0579 2700 c31d d7bf ae54 0b80 c680 aebf
000000b0: 2d72 52fd 9933 d73f 4499 bc8e d8c2 ab3f
000000c0: 44ba 6db2 2158 bb3f eb2e 64e2 8987 c6bf
000000d0: de98 ea99 e28a c3bf 2f65 fe43 a872 b7bf
000000e0: b23a 103d f46e b8bf c50e e780 e9f8 d0bf
000000f0: 6a90 7352 94e5 d13f ff64 c8f4 abd4 bdbf
00000100: f9c2 a693 00be d4bf 12c0 89e0 3f55 a3bf
00000110: 4a2f 59c4 21fc 903f 8023 7ff4 eb63 bdbf
00000120: d938 3a49 7e0e d3bf 11aa fafd 118c e0bf
00000130: 4d7d f7cd bbc0 ddbf befe 176e 634a ddbf
00000140: d94e 4c48 5b7d d6bf ee91 db39 ab9c a5bf
00000150: 5dc6 9dc0 8ff7 cfbf b441 7241 78cf c7bf
00000160: e69e b337 211d d33f 234e f5dd fc5a d9bf
00000170: b3c7 7033 b8e4 bfbf 301d 84e6 4293 a0bf
00000180: c79d 39e6 841c d2bf 1df5 9f9a fc56 d1bf
-0.3991300602411954 -0.02944424831358258 0.3122792356200255 0.10853787309194964 -0.0800169845868566 -0.16273159757255237 -0.24120610747341947 0.05700834614387304
0.11142850789786671 -0.05754657158165114 -0.13960279666680564 -0.22066392514876984 0.04804587412975738 -0.13761010281227562 0.3388106028422084 -0.3850321765628011
0.14100623427403366 -0.1773607687354146 -0.2905799179403451 -0.29688017595278365 -0.36119151129777577 -0.0595762282661466 0.3625245069359007 0.0542209314574387
0.10681353193442883 -0.1760113101412267 -0.15267593875359514 -0.09159328136447152 -0.0954430245476299 -0.2651923903288032 0.27963741351982796 -0.1165263626684414
-0.3240968171985937 -0.037759777221140337 0.016586806878236694 -0.11480593413501872 -0.29775960112682537 -0.5170984230547352 -0.4648885260957812 -0.4576653075346079
-0.3514011579547805 -0.04221091347952553 -0.24974247841923872 -0.1860189742624364 0.29865293922055824 -0.3961784522591378 -0.12458373313782438 -0.032373514784973856
-0.2829906700412405 -0.270934248925032

model.4.weight f8 [50, 50]
00000000: be53 8d71 c20a cc3f 4217 a7b4 c3f9 b03f
00000010: f0f5 b863 e836 debf e9fd 297f f8e0 a33f
00000020: d966 cc72 7215 b13f 986e 355f 0d92 cd3f
00000030: ed64 1891 9eb2 82bf f53e d0fb 5d14 84bf
00000040: 81f7 6462 772c 9dbf 2b8a 2975 7444 d73f
00000050: 2385 db0f 5db5 c3bf 8905 a9d2 19ed c13f
00000060: 6926 f5bc f5ea ba3f ce67 3427 e9d5 cb3f
00000070: c2fc c28e cc33 d5bf 83ce 0749 0750 603f
00000080: d762 7d53 1e55 c4bf bc3a b54f 2ec1 9e3f
00000090: cffd ce56 3619 d63f f086 fdb6 5af7 d63f
000000a0: 41cc 3b56 82e6 c3bf 3b0a d798 8810 ca3f
000000b0: 4936 a84d 736d d0bf 1c7e 8b90 5bb7 9dbf
000000c0: be5d 4c68 3005 d03f a094 d0f0 0279 d63f
000000d0: 7e0e 9ade c0d1 b2bf 23bf 0ee9 0659 c1bf
000000e0: ea97 ec9f 7c4a b73f ff61 287e 7e08 be3f
000000f0: 84cf 18d6 6a9e e4bf 6546 25b3 727d d13f
00000100: 9452 a0ea eeb8 d13f 23c8 1f89 dcbc d0bf
00000110: 8c9e 7e4e 073d b13f 8858 57e1 32f6 e13f
00000120: da24 dac2 7582 d73f dd73 8f74 efcd d23f
00000130: f40e ac3b 9dcd db3f 5f79 60f0 123a cc3f
00000140: d0a3 94b0 b719 df3f a245 d7a2 8fbe 97bf
00000150: 4a3c 7159 fc23 c73f a942 6e0e d257 b73f
00000160: cc2d 07c4 9cf0 e2bf ec47 d849 64bf c03f
00000170: 1fe3 641d 8be0 cf3f 4441 1ffc b263 92bf
00000180: ed39 015b 3115 c83f b298 4ab1 ad84 d83f
00000190: 8799 8823 f542 8fbf 0d49 c7cd 7742 adbf
000001a0: 6bb8 9ef8 f025 a53f 192b 02e3 3256 e03f
000001b0: 21b5 eb47 85b3 b8bf d304 b8aa 3795 c0bf
000001c0: 93e8 5fda d8ed bcbf 1203 f2ad 127a c8bf
000001d0: 5df1 c8d8 439c d73f 5c04 c735 fac9 c03f
000001e0: 2aac d846 bc36 c43f 0a87 ef59 10e8 d1bf
000001f0: 8043 473c 45f8 d8bf 5d9a 5335 c1cd c23f
00000200: 43b0 b65b 7252 b3bf 0dc3 968b 8b9c c6bf
00000210: 87c2 b38f 8c36 b63f 2565 042e 7466 ad3f
00000220: b193 525a 907c c1bf 0949 86b7 d1b1 c13f
00000230: 6881 3e3c 4ca6 c73f 2ab4 b839 e341 d2bf
00000240: 548f 3951 3bd9 b03f 1152 12fc 4ad1 a7bf
00000250: 4107 8095 0055 ccbf a593 1941 965b b83f
00000260: dacb 3dec 1a25 cc3f cbda 9246 93ef 93bf
00000270: a108 3430 1a2c db3f 99a7 9156 3c8a c53f
00000280: 3fb2 39c9 e71e aebf 8cb3 23fb 8e65 8fbf
00000290: fa0d 7bb6 d612 d8bf 4d31 0390 1974 c43f
000002a0: fd4e 02f1 efeb e0bf 0f60 36ee 50e6 d33f
000002b0: 0248 9e1d 7c2a 943f 06a0 4a00 da17 bb3f
000002c0: 24a3 8420 3439 c4bf 5aa2 6e3f cc9c b8bf
000002d0: f42e 21d0 1ca4 81bf b2f6 9b6f b8bf b8bf
000002e0: 78f8 576a 46d9 d6bf dfd6 4b31 6014 d33f
000002f0: 40cd 5234 5e18 c33f 5c3a b2f9 55ae b9bf
00000300: dbaf 3d1e 0f44 c3bf da3e cd4d c003 c6bf
00000310: 465f 966c b077 8a3f 2441 adea b24f b8bf
00000320: 35a2 2c04 d46b e43f afaa f912 3b06 af3f
00000330: 02d4 f0cc f9ea 873f 871a 43f9 47e9 c5bf
00000340: eb8d e5df cab8 c13f e14a 3a90 6c10 e73f
00000350: e538 7bd3 de35 aebf 80ee 81e7 d840 bc3f
00000360: 5c20 e359 b3ca b4bf 6a84 3388 4ed1 e13f
00000370: add4 1fa9 8dfa a0bf 3ce1 0fd4 3d57 e23f
00000380: ce80 f4fb c636 d13f df4e 50a9 b759 e23f
00000390: 4817 017b 0c96 84bf cd9f 9dbb 2347 d43f
000003a0: b432 0ace d8c6 cfbf 80b4 2a51 fc9e b33f
000003b0: 9c32 de0e 08ba e03f 0f04 5b3f e65c e13f
000003c0: 7637 c4ed 5437 da3f bf19 9e58 9471 e13f
000003d0: bccf b0a3 cced 9ebf 24c3 aaad af04 9abf
000003e0: 953b 60b1 3ac8 d93f 79cb a0a2 1a19 e43f
000003f0: 0e91 0de3 f74c c4bf 2158 7024 de2b abbf
00000400: c94b 8252 aa4a c7bf 085e a708 d3d6 bbbf
00000410: 9470 5ac1 a439 cabf 7ace 65eb e5ba dd3f
00000420: b9e2 8480 9561 d63f 3b50 d00b 94ad b33f
00000430: 754e d5e9 0aee af3f 5951 1c06 26b2 b83f
00000440: c216 c01a f670 da3f 686f 725f f31b e33f
00000450: ad55 0983 7c17 e23f 9b3a 365f 135f e03f
00000460: 2b41 bf91 e668 e73f 9534 8f0e b514 bc3f
00000470: 917f 99fc 6ffe da3f 7b2d 932b fe78 cfbf
00000480: 48b0 97c5 b5f0 c5bf d1a8 058d 54cc da3f
00000490: 7207 f62b 4a23 c13f 3adc e654 a7ea d13f
000004a0: 1367 330d e1d7 e43f 983b 5c1a 8e05 e23f
000004b0: 5e4d 39c7 bafb da3f fc62 8c8b 287b b93f
000004c0: 90ef 4408 330d cabf e73e ec74 9571 d3bf
000004d0: 5d55 c04e b900 a7bf 07ef 17dc 00fb d33f
000004e0: e3de c17d 379d aabf a120 4182 c12a c03f
000004f0: a4d4 8e0e 9e6a d8bf 142f 678a ce51 dc3f
00000500: 11a3 9eaa 97fc dabf 383f 1196 53ea b93f
00000510: ccae ef2b 142a bf3f 8dc2 cae3 813f dd3f
00000520: 748c 44bf 2fe8 b1bf ba0f 1578 4703 97bf
00000530: 561c e94f 17e9 c0bf 683b 2343 3230 bfbf
00000540: bf0a e1fd fcf8 db3f ac90 53e5 daef e23f
00000550: e76c a9cb 2385 ca3f 6244 0aa3 28d5 cf3f
00000560: 6251 f192 8021 e0bf 13af dbdc 6cf4 babf
00000570: 4cd7 20b9 bf27 d53f 1926 3030 60f0 e23f
00000580: 73de abfa 8dd0 763f 3402 2331 6e1b a33f
00000590: 9133 9e7a 9378 b43f dfae faaf 9200 c23f
000005a0: 36bd 6c22 2258 bbbf 1f04 552f 3223 d33f
000005b0: c1bd 384c cf6c cf3f ea29 ed1a 7330 e0bf
000005c0: a9fa 72f8 1316 c13f 8daf 3823 bb0f b9bf
000005d0: 11bf 4f1c 7722 d03f 7fb0 9ba6 5bb5 d23f
000005e0: 1044 3f44 b7fb dc3f 1c3c b53f 2b48 d53f
000005f0: 6078 7e4f 1ee4 e63f 8ffb 1a5a 324b c6bf
00000600: 8350 373e 3770 d03f 1ed0 5d66 9444 d4bf
00000610: df2d f74c 1c8d e1bf 84f1 884f d779 d23f
00000620: e17d b0db 3550 c03f 90a4 6f17 0243 d63f
00000630: 3bd6 ef4a 1d57 e03f e6d5 11a0 17ba e43f
00000640: 4ed8 63eb 3d4a d13f 31f1 6ef9 5eda 723f
00000650: 75d4 7664 1bc5 cbbf 38d1 6bc1 6713 883f
00000660: 5461 ed50 ed54 c83f e30f 116d b092 bb3f
00000670: 4d2e 55d3 b19b ba3f 5da8 7948 8ad3 c63f
00000680: defb 0ad6 417b b83f 002d dd5e d757 b33f
00000690: 8b30 45b9 1d5e c3bf 7d07 594c 04c3 b23f
000006a0: 2c6e b01e 4375 c43f 4a2d 58c0 8c59 cd3f
000006b0: d6b3 ceb7 cc1f ab3f e174 406a d50b c33f
000006c0: 8e82 53a9 2c56 c33f c069 bec2 42ef b4bf
000006d0: 1c9b 4f76 9ca1 c23f 1282 868a a116 e13f
000006e0: 70c0 5afb a837 bd3f af6c 6485 74b0 cb3f
000006f0: a90b c545 64b1 c8bf c47a b272 9c66 c43f
00000700: 38a3 dbd5 c28d 60bf 39de d72b 5275 da3f
00000710: 2cb1 e4c9 9c8a d1bf ca41 e7ff a45d a83f
00000720: e41e 68ac 53be c4bf 15ef 9eba ca24 8f3f
00000730: bc12 f3b8 21d4 c7bf 07c7 b71e 827a d13f
00000740: 637f 1b7d fa96 e23f 340e 20e0 8aec cabf
00000750: 3d45 1fca ac99 ad3f 6253 9546 7040 bbbf
00000760: 6bc2 2ac6 3f54 b8bf ee95 fff4 35ad d23f
00000770: 8d23 93e5 f188 c63f 99fd d17f 8bd8 d53f
00000780: 27cf a806 680f e13f 27d4 8397 efcc adbf
00000790: 7a2a de8a 140b 9c3f 5fef 4c3d 304e a8bf
000007a0: 9f0b 669b 4c76 b2bf 9586 a4b3 e667 dd3f
000007b0: 26dc 32dd c79f 7f3f 479a 8437 5cea c43f
000007c0: 7b79 d973 55e6 d93f a0c7 2541 4a2c e03f
000007d0: 65e8 0627 e011 e23f 3ddb 115a 5a16 ba3f
000007e0: 6941 817b 77d9 d2bf 7a97 3469 4045 b23f
000007f0: e188 35d9 62ab c6bf c28e 10c8 3dc2 be3f
0.21907835526022085 0.0663111034437778 -0.47210130442166953 0.0388257651547937 0.06673350622841258 0.2310196604620287 -0.00912975197120366 -0.00980447220538803
-0.028489938145177533 0.3635531562960376 -0.1539722754887772 0.14004824434418264 0.10514770377371864 0.21746553816120556 -0.3312865633160521 0.00199128554253908
-0.15884760929727434 0.030033801665292556 0.3452888343562934 0.35884731168890394 -0.155472080332034 0.20362956488505 -0.2566803224916368 -0.029019766518898135
0.2503167170084132 0.3511359550196378 -0.07351308283437594 -0.1355293882347662 0.09098032860182995 0.11731710987113074 -0.6443380529003524 0.273281741091614
0.27691243088455875 -0.2615271891692165 0.06733747164127574 0.5613035584635933 0.36733764675643743 0.2938192976269514 0.4344246943221457 0.22052227723265624
0.4859446739597475 -0.023187870325107725 0.18078569762517055 0.09118378498375058 -0.5918716267273623 0.1308408127375168 0.24904002127893762 -0.01795844711142648
0.1881467527732207 0.38309805215466064 -0.015264430186175527 -0.0571477354711921 0.041305094098206784 0.5105223115691359 -0.09648926740529308 -0.12955375514869746
-0.11300425845539257 -0.19122537129808187 0.36891266031650166 0.1311638605675708 0.15792039355560067 -0.2797890547063707 -0.3901532257705682 0.14690413574062947
-0.07547678698637221 -0.17665237727990082 0.08676985271791625 0.057422285668687935 -0.1366138878849177 0.13823911152992022 0.18476250592812993 -0.2852714599310412
0.06581469281223679 -0.04651865317388027 -0.221344063757039 0.09514750565865755 0.21988235984062393 -0.01946859472510702 0.42456679065083774 0.16828111865043807
-0.05882953959812597 -0.015330426253479044 -0.3761498243368063 0.1597930863557714 -0.5288009364325884 0.3109323812764168 0.01969331675315545 0.10583269602886966
-0.15799571597860862 -0.09614254521023594 -0.008613801099407216 -0.09667542195162573 -0.35701141724701513 0.2981186372193018 0.14918115191322023 -0.10031640382860857
-0.15051449753388976 -0.1719894771472273 0.012923601449798771 -0.09496610860265214 0.638162620690372 0.06059441191321945 0.011678649489207164 -0.17118167563440442
0.1384519189115133 0.7207548920581212 -0.05900474864539421 0.11036449100532231 -0.08121796555053734 0.5568001423054174 -0.03316157044893351 0.5731495992504629
0.2689683399676256 0.5734518343837997 -0.01005182028178421 0.3168420154747736 -0.24825582562006832 0.07664467794048058 0.5227089205159987 0.5425902593052586
0.4096271821916767 0.5451146822750202 -0.03020400761688767 -0.025408501601023606 0.4028460247217763 0.6280644584970637 -0.1585988863618088 -0.053069059322453656
-0.1819661047817063 -0.10874670945428744 -0.20488414231374874 0.46453235614828936 0.3497060542172608 0.07686734474583627 0.062362996143431916 0.09646833085236518
0.41314461338366126 0.5971619476508581 0.5653669890695504 0.5116059169393624 0.7315552565214934 0.10969096761182791 0.42177962940149266 -0.24587990882569585
-0.17140838764260224 0.41872133037271647 0.1338894571927614 0.27994712153617096 0.651352430136486 0.5631781115388206 0.4216143556161195 0.0995354977316189
-0.20352781204007586 -0.3038076059174117 -0.04492739759749995 0.3121950291967867 -0.05198071870921497 0.1263048063285668 -0.3815074102561289 0.44249309078144106
-0.4216670194824 0.10123178876642391 0.12173582146322842 0.457001182988315 -0.06994913501380201 -0.022473446563949763 -0.13211337472805224 -0.12182916773893526
0.4370720366752429 0.5917791823417438 0.2071881050531836 0.24869258843367265 -0.5040896291707606 -0.10529213325542867 0.3305510814565096 0.5918427411244834
0.0055699869214930085 0.03731865262807724 0.07996484511950387 0.14064248650298958 -0.10681355801056189 0.29902319547915285 0.24550811025390654 -0.5059142614275605
0.13348626738839656 -0.09789628610513841 0.2521035934905607 0.2923192145378905 0.45286351837882055 0.33252984258155194 0.7153464844339048 -0.17416982078244955
0.2568491084650832 -0.3166857719108992 -0.5484754088624263 0.2886865879734375 0.12744782664320467 0.34783985413248164 0.5106340850458716 0.6477163435326332
0.270156364319864 0.004602786057997841 -0.21695272832372195 0.011755762663121602 0.19009176684881857 0.10770704901466348 0.1039382115315501 0.1783306936152397
0.0956307551923454 0.07555910173430291 -0.1513096956863403 0.07328822006186715 0.15982855795378847 0.22929534332102214 0.05297698730223714 0.14879863441539157
0.15106733577615156 -0.08177582983481724 0.1455569818201291 0.5340125756811764 0.11413055550178952 0.2163224841432103 -0.19291356474613267 0.1593814430279591
-0.0020207219484870385 0.41341070443693045 -0.2740852328886543 0.0475894510633484 -0.16205831449791852 0.015206893749442988 -0.18616124659287958 0.2731023120860389
0.5809299891952658 -0.21034370368589494 0.0578130718928471 -0.10645200465417085 -0.09503553951322778 0.2918219463884658 0.17605422696786058 0.3413418529744035
0.5331306581560725 -0.058204161878088016 0.02738601777631764 -0.04747153042123275 -0.07211760324393744 0.45946662467222527 0.007720738142942307 0.16340210638846228
0.40468345940998746 0.5054065010465258 0.5646820795293591 0.10190357874840301 -0.29452311574006856 0.07136919563762759 -0.17710528951562934 0.12015138754264412

model.4.bias f8 [50]
00000000: 2d76 5e52 0721 c0bf 7ab1 61d6 f9a3 b5bf
00000010: a206 d151 5d2d c5bf 36f1 5928 59bc 8a3f
00000020: 50d2 9637 2286 b9bf 8e8b 70e0 197d c2bf
00000030: b66d 13ce d95c c9bf 0cb5 60fe 7167 bc3f
00000040: 2344 f6b4 aa99 b53f 0c45 bc2c c9fa ce3f
00000050: b313 0b79 c82a 313f 7a2a 2692 d6f5 a2bf
00000060: 7cc8 a9bc b69c cdbf a910 4f7e 0707 c7bf
00000070: 0c4b 18a7 fd73 9ebf a2a6 7351 476f c93f
00000080: 66ea 7141 9eb8 c2bf 67bd 3607 d867 9cbf
00000090: c15b 93f4 39cc c1bf 5de4 9b5a e9ea b8bf
000000a0: 1a80 c8f1 4b75 b1bf 0231 b545 ebb5 bbbf
000000b0: 13fe 078d 9904 5b3f cd9d 0590 fa98 c4bf
000000c0: 9b4b f2e4 fbd8 ad3f f46c ddfd 6118 c2bf
000000d0: c80e 8696 acfa bcbf 89ae 2544 c6c3 c6bf
000000e0: 6805 4777 94f8 b13f 48ee e89d 4388 b6bf
000000f0: 3f90 08f7 e9b0 d1bf 712c 9e20 0f58 b2bf
00000100: 4110 f729 f1b3 ab3f a33a 8816 85af 8d3f
00000110: 1b37 74fb 5da5 b3bf c55a 0bdc 36d9 a7bf
00000120: 651c d4c1 b42a c2bf e08c 9465 a7a0 c3bf
00000130: 0b99 412e 9596 bbbf 7373 57dd c964 ab3f
00000140: e412 f4d1 c37d a5bf 41be 4e18 6657 b3bf
00000150: 5120 55b6 b89f c13f c445 b450 063e af3f
00000160: b547 a726 eadc b4bf b74e abca 9029 c2bf
00000170: 2fa8 d106 c496 af3f c957 a8d0 acc2 893f
00000180: 9ab1 2898 95ee a13f cd8b 58b7 cd89 c1bf
-0.1260079528992021 -0.08453332408834582 -0.1654469155783334 0.013054558319020342 -0.09970296723515415 -0.14444278201071054 -0.19814608156489805 0.1109534498252353
0.08437601964966794 0.24202837643000696 0.0002619494853600093 -0.037031846371140056 -0.231345026131354 -0.1799020163290426 -0.029739344905531914 0.19870845296036516
-0.146259099917944 -0.027739882889077274 -0.1390449947564019 -0.09733446561939858 -0.06819605496320982 -0.10824461414194178 0.0016490458984889142 -0.16091854126282926
0.05829608125454585 -0.14136910339116293 -0.11319998431104772 -0.17784956290721635 0.07019927894636668 -0.08801672558996032 -0.2764229690967603 -0.07165617510161028
0.05410722386616885 0.014494933843733298 -0.07674205197346533 -0.04657908855522445 -0.1419282862118251 -0.1533402677533564 -0.10776646022131701 0.05350333048747915
-0.04197513521106602 -0.07555234998175654 0.13768681433635035 0.061020085670076024 -0.08149589008033227 -0.14189348121600684 0.06169712622870837 0.012578344457363404
0.03502337915810756 -0.1370179314845629
