kaggle_playground_smoking_prob/saved_models/cls_model_3.pt (torch, 950019 bytes, 62 tensors)

model.0.weight f8 [100, 21]
1.8062289336684192 1.5309482896288673 2.62377784835626 0.12604164372946003 -0.33900610301229006 -0.29424616139503057 -1.093296114164536 -0.7257263506410541
-0.100765413635222 -1.450613956013565 1.331837080282291 0.20093564291095956 0.483964525633774 2.440598824739461 -0.35246303321872086 0.7692018412848463
-10.072124540719829 -6.954139673778461 5.891975944387238 -0.1874455674763513 0.5156373017203033 3.314621463888567 -4.7279973388222905 1.4189897334124988
-0.800665626715253 -3.0351450514787195 -2.1170070292484087 -2.2083546679932464 0.8045331378548362 4.137778153431206 -0.740485091437834 2.79513253223307
-1.0427981996526139 -1.357693276904823 -2.2943808347638646 -1.5862251954349764 2.8036564988552732 2.0737304296239643 2.5363874927244083 -4.269948270392513
-4.333975649191897 2.128439707874956 0.5169778316209364 -3.6932405578084038 1.7389921475434102 3.0205542731088886 1.6970052751462432 0.9865425448011407
-2.638782169425702 -3.466809064110572 -3.0048276494498283 -0.5624654954709757 -1.3688592352927633 1.4026755011768686 1.6313627041781458 -1.85059902230318
-1.1145089315236503 0.242638289805248 -2.213324211470208 0.009567199086965995 -3.6409114577949806 -2.047536699487586 -3.96430573973327 8.543315460783033
1.227829326705306 3.8712217866820064 0.17021754951898999 -4.360988120090123 -3.5011429810059242 0.3484444678653625 2.351546935736743 0.8797806569416096
-1.0277090009385454 -2.0812147422504204 -1.5497150089976783 0.31251318824138846 -1.5099117053756559 0.09459319676049457 0.9263811913867231 1.6840555776026618
-5.02099303970867 -0.7899698482694992 1.4751682533087314 -3.0771053757807523 0.17823576141812708 -0.08994045905654202 -1.319157515669869 -0.08711680150793524
-5.477228275959028 -2.640158287755141 -1.1350180415700817 0.23659955723858575 1.7880459652457108 -4.637655449114747 -3.542884167213148 -4.024249814880471
-2.768817834297517 -0.5618166114161205 1.1029134333784543 2.423091814546691 1.8338334701332333 1.0134078676210587 -1.3612295792074225 7.007014006541317
2.5088226025557674 4.565796868129056 -0.7175625188234125 1.9742518687154174 5.335119523489635 0.23715690604831807 -0.7997046214467418 -0.8185861237358211
3.7232498777427367 -3.364494651308045 2.7386119896131795 -4.862956000177771 -0.9145200712402917 1.0705894087789343 2.1997177562033823 -4.615210123470418
-3.3710849567419032 1.3696234809970569 0.8230438415304094 -1.1723568027370193 2.2059333688967344 0.6687358714344251 -1.4793016540230128 4.385596663332212
0.40000495069903147 0.9892097523693746 0.4618958168124718 4.635594090162287 -2.5618120374608337 -1.4825360441354718 1.354696680875831 1.4481168086445715
2.4096005842466184 1.6103857547066984 1.1769824320530886 -0.43456482694898624 -0.32209142722159295 2.290218979537304 0.6738436908552957 1.4390695291947544
-7.19637540926999 7.010733992691198 -2.077570237296462 -1.6869884567048667 -0.6921458793773826 5.919464489740777 -4.62996923401343 -0.9830111035347477
-1.9848961278395114 2.4412095532351215 2.79711567637871 -2.6633660740529623 1.442929416916635 1.6301138347227964 4.256404980081177 -1.1601834932688055
1.858404655745765 -2.6590563025048177 3.553910319624598 -1.523346131159761 0.10290259623403573 0.4881028083910613 1.1241931616790133 -3.1205686532287356
3.1592406441523915 4.3606936839531665 5.679046091736847 -1.246904859682475 -6.1074809955572515 -2.709935232892152 3.1418900871117783 2.1508115785359156
0.9215675020995961 2.926410238056697 -1.652687242418135 0.7026718446650526 0.9446988207514103 -0.5459342559514877 0.24795883887501344 0.05315457736231149
-0.716702741842379 -0.10952234316626641 1.2574207853079744 -3.19879018657919 -0.1293585964520061 -4.108890828658465 -2.7332581168306795 1.8608624757162073
1.6209083820276653 -2.47899806449051 -3.8207926114507336 -1.466930114817849 2.637721341027828 3.4297948641308644 -1.0736087330726642 -1.4475764786571246
1.6081853586905144 -1.7695145277137632 1.5819388922164126 -0.19343610944386347 2.0934955864203797 1.9336656737281703 -5.580868070972345 -1.7458643510688703
6.756994099817184 -0.6361443409711218 -3.753869364856135 -1.8359106537792167 -1.0668329232188667 1.0094074734335141 -4.833425506330858 -4.718589523281967
0.33903409589072453 0.6584549807599688 -4.107880126228377 1.9895257628735283 1.1577700563326374 -3.766522516199815 2.0407916854417105 1.0264900352805386
2.570820459045443 0.3270405935615497 0.023069550442018482 1.8630159816041123 -3.3041390689455157 -2.6726766719410415 3.109602620736408 3.624430610654229
1.5376326305849453 0.785112017030814 1.5858702405866452 -1.94863313239883 -1.5672555562715653 -4.174743247163596 1.720497226524163 1.285995197228215
-0.22113954618548615 3.2361474951209313 2.178525075910486 -3.4744780988133503 -1.6279625734970242 0.5230459867784938 3.577879635120195 1.3690364758937075
0.9516537310228913 1.302915256957546 5.358348186012885 -5.797879484258189 -2.3120172820748417 -3.9530478042049593 1.2200730994867288 3.9793724081794615
00000000: f51d 734f 50e6 fc3f 812b 3da2 c37e f83f
00000010: 6b46 953d 7ffd 0440 4845 e0f0 2122 c03f
00000020: a642 65a7 46b2 d5bf 8a92 0ada edd4 d2bf
00000030: 98e3 f210 247e f1bf 0229 bb77 2639 e7bf
00000040: bb95 211c c3cb b9bf ec30 c3fa b635 f7bf
00000050: df99 f665 344f f53f 849f 7357 42b8 c93f
00000060: 8e5b 8158 46f9 de3f d24b 37ad 5886 0340
00000070: a84b 2e1c c18e d6bf baec 0a2e 4d9d e83f
00000080: e942 ff81 ed24 24c0 45c7 9afd 09d1 1bc0
00000090: fdd8 5724 6291 1740 d7a8 0b63 37fe c7bf
000000a0: 7c90 6fcc 1980 e03f 172b 1042 5884 0a40
000000b0: 5f44 6722 78e9 12c0 f1dc 2594 2eb4 f63f
000000c0: 54bf 3885 0d9f e9bf 1bbd f520 fa47 08c0
000000d0: 3731 a061 a1ef 00c0 dcff 27da b5aa 01c0
000000e0: 2050 7447 bcbe e93f 785c 5cb7 158d 1040
000000f0: 8ad5 5cca 0db2 e7bf e269 ef71 6e5c 0640
00000100: d85e 3d2a 4daf f0bf 75e2 e495 1cb9 f5bf
00000110: 320a cf56 e45a 02c0 3cc0 a7ab 2d61 f9bf
00000120: fb68 5e75 e36d 0640 c0a3 bffa ff96 0040
00000130: d0e0 9986 854a 0440 5aca c351 6d14 11c0
00000140: 1ec2 6bb6 fd55 11c0 56a5 c665 0b07 0140
00000150: 9034 f217 158b e03f 1562 a0b4 c18b 0dc0
00000160: 3132 1b6e e9d2 fb3f a75d d65b 182a 0840
00000170: 1348 de00 ef26 fb3f 8c12 c1ab c191 ef3f
00000180: 4e9c 77d3 391c 05c0 73a6 fe63 06bc 0bc0
00000190: 4d07 2414 e309 08c0 0fa4 85a3 b7ff e1bf
000001a0: 4f8f 06f1 d8e6 f5bf ed47 c7dd 5b71 f63f
000001b0: 86bf 65c7 0f1a fa3f e6d3 6cb8 0d9c fdbf
000001c0: 59e7 3f51 07d5 f1bf ca46 bc7f c50e cf3f
000001d0: 1fad fd52 e3b4 01c0 b4ef 8ab9 f797 833f
000001e0: 96e3 b62f 9620 0dc0 8e45 cdeb 5a61 00c0
000001f0: f1fe 7bed e5b6 0fc0 d7f2 ae71 2d16 2140
00000200: c74d 345d 30a5 f33f 2fe5 ca20 43f8 0e40
00000210: 52d5 314c b0c9 c53f 5b20 a8de a671 11c0
00000220: ba52 5040 5702 0cc0 f50b 7d06 ea4c d63f
00000230: 92fc ffd6 f7cf 0240 a6f6 a6c3 2927 ec3f
00000240: ca5f 4dfe 7e71 f0bf 5859 2fea 53a6 00c0
00000250: f93e 1cf7 a1cb f8bf 6b30 c450 3700 d43f
00000260: faf9 262d 9928 f8bf b6aa 827e 4237 b83f
00000270: f555 142b eaa4 ed3f 7932 e742 e4f1 fa3f
00000280: 2ff8 0b33 7f15 14c0 3898 e4d8 6e47 e9bf
00000290: 64ef c006 4a9a f73f cd97 5a6c e99d 08c0
000002a0: ae5e 22ef 6dd0 c63f e02d 3c82 5606 b7bf
000002b0: f331 41e9 441b f5bf eaa0 6865 494d b6bf
000002c0: c8e1 7787 aee8 15c0 9e5f f14e 0b1f 05c0
000002d0: 929d 8ead 0829 f2bf 393d 4bf0 e448 ce3f
000002e0: ee99 0716 d69b fc3f 9141 d08c f58c 12c0
000002f0: c692 7da7 d357 0cc0 f961 87f1 d418 10c0
00000300: 751d f7f6 8926 06c0 8637 8cd4 66fa e1bf
00000310: 61df 6a8e 88a5 f13f 7877 15f6 7d62 0340
00000320: d584 c8c3 6157 fd3f 9110 0f2b eb36 f03f
00000330: 15b3 d0aa 98c7 f5bf e6d5 02ae 2e07 1c40
00000340: 808a ab95 1112 0440 912c 1341 6043 1240
00000350: 76d2 e5ab 45f6 e6bf 9331 a320 8996 ff3f
00000360: 6d8e 8692 2957 1540 c8c0 bf51 285b ce3f
00000370: b45c 7225 2e97 e9bf cdf3 cc86 db31 eabf
00000380: aded 5d3b 37c9 0d40 d57a f72b 7cea 0ac0
00000390: a893 1e67 ade8 0540 1c9a dabc aa73 13c0
000003a0: 9267 b098 bf43 edbf 5864 225c 2221 f13f
000003b0: 9c97 7a9f 0599 0140 efe4 81a4 f975 12c0
000003c0: d0f3 c963 fbf7 0ac0 e374 ab4f fae9 f53f
000003d0: 9b83 d109 6056 ea3f 5afa ef34 f9c1 f2bf
000003e0: 5a88 e464 c0a5 0140 2222 2fc5 4866 e53f
000003f0: 2729 0f36 38ab f7bf 94d5 09da d98a 1140
00000400: 3f63 5f5d ae99 d93f 70f1 e935 9ba7 ef3f
00000410: fc99 d778 b38f dd3f 911c 5b2d d98a 1240
00000420: b325 3b4f 977e 04c0 c03f 0bb7 77b8 f7bf
00000430: 78c8 456d d6ac f53f 44a9 de87 7c2b f73f
00000440: 0018 ceab dc46 0340 828d 66da 23c4 f93f
00000450: 2627 da87 ebd4 f23f 0a38 effd e8cf dbbf
00000460: f546 8f5c 259d d4bf 6854 0e54 5e52 0240
00000470: 9bdc daa4 2090 e53f 43fc 48c5 6d06 f73f
00000480: 8036 a2a2 16c9 1cc0 bd41 0eda fd0a 1c40
00000490: 6ea6 0225 dd9e 00c0 3e6e a49b e7fd fabf
000004a0: a995 7f1d 0f26 e6bf 7214 6519 88ad 1740
000004b0: a04b a6a7 1685 12c0 ec2b a9b3 d374 efbf
000004c0: 9c71 3071 22c2 ffbf f69e cedf 9887 0340
000004d0: 6267 092f 7e60 0640 c7aa 4adf 924e 05c0
000004e0: 247e 0128 3d16 f73f d443 8e3e f214 fa3f
000004f0: b6eb ef06 8f06 1140 492d 0f91 1c90 f2bf
00000500: 5e98 3285 06bc fd3f d5d8 8b4f bf45 05c0
00000510: eea2 9d88 686e 0c40 da1b 5d31 a05f f8bf
00000520: 3fa9 7f15 d357 ba3f f105 c88f 133d df3f
00000530: 70c5 fcf7 b1fc f13f 4c52 b4b2 ecf6 08c0
00000540: c2a0 76f5 1f46 0940 79cf 61af 5971 1140
00000550: 0cf2 d1db 57b7 1640 87f4 9882 52f3 f3bf
00000560: 8e70 837f 0f6e 18c0 4566 fc85 f2ad 05c0
00000570: 662c 1e45 9722 0940 f15b 6db3 dc34 0140
00000580: a85f 5221 7b7d ed3f 9110 59c5 4969 0740
00000590: ad3c 8b2d 6871 fabf 2c01 15aa 497c e63f
000005a0: 6d4e 7605 f93a ee3f ca7c e21d 4b78 e1bf
000005b0: db74 dc7f 1dbd cf3f c7c2 cea6 1337 ab3f
000005c0: 5e54 a596 3aef e6bf 5095 1402 a809 bcbf
000005d0: 8e55 e341 651e f43f a4fc 304f 1f97 09c0
000005e0: c8e1 9b8e d28e c0bf 96b0 cf13 816f 10c0
000005f0: b883 7a6e b6dd 05c0 12e0 38bb 17c6 fd3f
00000600: 03f0 a9a0 3def f93f 1dac eeef fcd4 03c0
00000610: aed5 77b7 fb90 0ec0 2090 4ab6 8b78 f7bf
00000620: 0268 7da5 0d1a 0540 5572 2b4a 3870 0b40
00000630: 11f4 d359 802d f1bf b9a8 24f4 4529 f7bf
00000640: 68b5 1792 20bb f93f 6f3d 2577 ee4f fcbf
00000650: 7b70 e527 9f4f f93f b0a3 f6b1 83c2 c8bf
00000660: 8cf7 2f9d 7abf 0040 fbf6 e06a 4bf0 fe3f
00000670: a277 6014 cf52 16c0 2d7d 3175 0fef fbbf
00000680: 47eb 1776 2907 1b40 c434 8060 4b5b e4bf
00000690: 6d1b 5ca9 ec07 0ec0 64c1 85d9 e35f fdbf
000006a0: 7956 3866 bf11 f1bf 48c2 6b73 8826 f03f
000006b0: 845f f57e 6d55 13c0 24fa 96ee d5df 12c0
000006c0: 0018 8510 bcb2 d53f 7513 082e 1012 e53f
000006d0: 2c28 b820 786e 10c0 c875 61f7 18d5 ff3f
000006e0: c0c9 03e5 3986 f23f 83ce 958e d621 0ec0
000006f0: ef5d 5797 8a53 0040 6132 b3d0 806c f03f
00000700: 30e7 1b51 0a91 0440 14ec 73ab 3bee d43f
00000710: d341 ba52 8b9f 973f d7a3 8ed8 e9ce fd3f
00000720: 7d74 d476 e06e 0ac0 b226 964e a461 05c0
00000730: 3af3 bc56 77e0 0840 be0c db79 d5fe 0c40
00000740: 23ff 59ac 249a f83f 9101 9b3c a31f e93f
00000750: 064f 3079 b95f f93f 55e1 78ef 992d ffbf
00000760: 1192 ea8f 7a13 f9bf d60e cfe4 efb2 10c0
00000770: d07a 8c19 2887 fb3f 3588 2eb3 6f93 f43f
00000780: 6006 5cf7 4c4e ccbf 1f9d 444c a1e3 0940
00000790: 6169 148e 9e6d 0140 a192 682c bbcb 0bc0
000007a0: e881 c47b 220c fabf d490 f0ef cabc e03f
000007b0: daec ae5b 7f9f 0c40 bee9 afca 92e7 f53f
000007c0: a782 7b86 f273 ee3f 3a79 21ab bdd8 f43f
000007d0: 6b06 aed3 f26e 1540 3027 cc51 0731 17c0
000007e0: d262 b2ea 027f 02c0 e6ad f486 d79f 0fc0
000007f0: ce65 d05e 6b85 f33f 68e2 7d33 c1d5 0f40

model.0.bias f8 [100]
-0.14962998600081243 -2.211481467930195 1.9852462309520236 0.4070011799881855 -4.113172447068787 -0.0024098119137480633 -4.8573811474879856 -1.003758119835956
-3.039124092148297 -1.4145234489130079 -4.651788626455139 -4.003583078539052 -2.7301808755973154 -5.503157545275619 -4.833190430483041 1.7219824284086978
-4.123188982386238 -3.366846896392692 -1.85330150164657 -3.0843249973471774 -1.2447672330407427 0.21561623799684512 -1.0721193083647609 -0.7519633103174834
-3.343427902397974 -1.2846510892799228 -3.02449663211397 -5.032507512905626 -0.13445621106307265 -4.178127013367009 -3.2951333097348154 2.539058417094109
-2.9820400507569973 -4.878269843638431 -0.022176628493279706 -1.318648015041874 -3.0636114431495485 -3.337414171305147 -3.2194222838450393 -2.8925644241676625
-0.8691108241275276 -0.34355925457093484 -3.0705025830337993 -5.806958245369931 -1.3804223460907685 -3.521123074236036 1.22471759149936 -2.65083265894393
-0.23085634205036248 -5.76050356720815 0.5225321941167681 -2.6193278166607823 -1.6766067578514257 0.8068254913943165 -3.726701117330315 -3.824293232094817
-1.5173579274176063 -1.0595764318798155 -3.1290135041255382 -4.886718995180409 -3.1880311362008458 -0.17860771853296784 -4.20897942738006 -4.681606181535759
-3.2823257970108424 -2.243348935774729 -2.2100607501564284 -1.9067974081568089 -3.1301470286382322 -3.0217530755677027 0.09289882750297714 -1.0487911321402803
0.3601263447273486 -1.9655360233494397 0.29278842793648324 -4.496356362506135 -2.934411168162231 -1.644274531032788 -1.394638546220467 -3.895785207096021
-4.370082451562969 -1.4745859102748633 -2.7199032755541133 -2.582804820263558 1.3960725311382212 -1.06864646319836 -3.3313041331072912 -2.1581657712919053
-2.227333768352542 -3.7675778195235914 -3.289297172232286 -6.116957975769649 -1.1665255416357543 -1.9939368938650859 -1.927271958217301 -0.33173385899099916
-4.999655636512563 1.165497020401158 -3.179434368923778 -0.8590144364639771
00000000: 3bed 2f4c 1327 c3bf 18c3 2332 1db1 01c0
00000010: a723 478d 91c3 ff3f 02e4 5ead 4e0c da3f
00000020: fbdf 5b7a e373 10c0 8569 7deb bdbd 63bf
00000030: e1ab d252 f56d 13c0 59a3 9cac 640f f0bf
00000040: dc19 c24a 2050 08c0 9b1a 0857 e3a1 f6bf
00000050: 4b1e 4a7a 6e9b 12c0 b093 5448 ab03 10c0
00000060: 46d7 2612 69d7 05c0 17c7 46bb 3b03 16c0
00000070: 2e0f 49df 2f55 13c0 11d5 6472 3d8d fb3f
00000080: 3f4e aa40 257e 10c0 6b2a f56c 4def 0ac0
00000090: 0132 b379 1fa7 fdbf 37bb 8e95 b2ac 08c0
000000a0: acad d00b 91ea f3bf 9f6c 5719 5099 cb3f
000000b0: 7b63 6d93 6627 f1bf 2e60 335c 1510 e8bf
000000c0: 59aa ca20 57bf 0ac0 12a6 f34c ee8d f4bf
000000d0: 4a55 4e4a 2b32 08c0 4237 43a6 4921 14c0
000000e0: b646 a172 dc35 c1bf 26c8 83ed 66b6 10c0
000000f0: 902b 4ada 6e5c 0ac0 fb6b 00dc fd4f 0440
00000100: 6ae8 6ad0 37db 07c0 dbf5 7d2b 5983 13c0
00000110: 1aeb 7458 78b5 96bf 84a4 38a9 2e19 f5bf
00000120: 53d4 5fb7 4682 08c0 4cb3 7733 06b3 0ac0
00000130: 4b06 6978 60c1 09c0 47fc 1ad1 f823 07c0
00000140: 5c46 c780 c1cf ebbf 0eb3 a7f4 dffc d5bf
00000150: 3e4f 83a8 6390 08c0 d567 2443 533a 17c0
00000160: 030a f2bd 3516 f6bf 2e47 0893 422b 0cc0
00000170: d135 2579 7198 f33f c8a9 cac0 e734 05c0
00000180: 821a 975b b38c cdbf f399 7672 c10a 17c0
00000190: 29d6 9a6f 95b8 e03f 397d 7024 62f4 04c0
000001a0: 6897 939b 61d3 fabf 5ac4 63b1 83d1 e93f
000001b0: f133 e7ac 48d0 0dc0 804a d10c 2798 0ec0
000001c0: 005c 291b 1947 f8bf 3194 a86a 06f4 f0bf
000001d0: 40b1 673b 3808 09c0 d82a 7410 008c 13c0
000001e0: 1ae6 e477 1681 09c0 43c5 f422 9edc c6bf
000001f0: 6289 f8b3 fed5 10c0 44ca 89f8 f6b9 12c0
00000200: 62d4 0707 3442 0ac0 d659 45ed 60f2 01c0
00000210: bdc2 a054 34ae 01c0 d018 c2ff 3d82 febf
00000220: dc61 7d86 8a0a 09c0 a234 61e0 8c2c 08c0
00000230: bd47 f6b1 37c8 b73f 7f09 ce35 d9c7 f0bf
00000240: 080c 425e 4f0c d73f ef54 b6e6 d572 ffbf
00000250: cd9a a8ac 0bbd d23f 6180 a0d7 44fc 11c0
00000260: 0731 0290 ac79 07c0 ade7 86cf f24e fabf
00000270: 5120 1c82 7050 f6bf 75be 456f 912a 0fc0
00000280: 5525 e9e4 f67a 11c0 ea5d 3c65 e797 f7bf
00000290: 384e 06a6 5cc2 05c0 78dd d792 95a9 04c0
000002a0: 5652 8126 5056 f63f b5c4 a608 2d19 f1bf
000002b0: b7cd 05c8 82a6 0ac0 e05c 786a ec43 01c0
000002c0: 0bce e25d 94d1 01c0 18e9 ffd6 ff23 0ec0
000002d0: eb80 2c09 7b50 0ac0 7ebf e3d4 c377 18c0
000002e0: 5563 b4af 16aa f2bf 8d03 575f 2ae7 ffbf
000002f0: b3a8 f01e 1bd6 febf e2e6 d5a6 203b d5bf
00000300: 8755 28ba a5ff 13c0 af55 2334 e0a5 f23f
00000310: bd72 5249 7b6f 09c0 e8f2 ecd7 0b7d ebbf

model.2.weight f8 [100]
5.068458111006641 2.730309114276645 -0.09838340250492297 4.162644054265975 3.2226324904421157 2.9456103013229233 2.4934253028239963 3.346331522860877
1.8579280694240554 3.5011408989976536 -2.094566723612865 3.9802916703644224 3.628854507486265 3.8051260345783815 3.3703592056489224 -0.1307430404946721
3.3329160280230923 3.5292915736281696 2.65212465778554 3.2129256943554196 3.264902839485059 2.5758299509096227 2.7651261574063057 2.4691248698193347
4.157738585742391 3.3816312972058493 3.654035371941729 2.8511388817884082 3.6153902637706907 3.280657383206125 3.2787545746195956 4.5678464466314095
3.7028166245854353 3.8796047223603787 3.0276213636065616 3.741253319001576 3.750412720679734 3.535294205366278 3.4640208232532927 3.028301095363004
3.4127547207089233 3.718731076690247 3.714776446706047 4.534535006386611 3.6106816537643427 3.8603049304666452 3.192056379372244 3.1913523498834366
2.989341259212718 3.7097514155613287 3.4889711316172773 4.7224827122835835 3.1624850470338752 2.528441132813977 3.946621894944924 3.313728151511476
4.365517003306307 3.4857146868897293 3.1343284673950116 3.3228325686681477 3.156447511634699 3.0799213988225205 3.695220298007991 2.911356182151209
4.308943395371774 3.607685795538431 2.998282318939208 3.6594564669748557 3.347671049908619 2.589405057108731 3.7360089357087465 2.8295049725515993
3.045714972357905 2.932994827624026 3.0810512338315696 2.6604452551699524 6.205934769224071 2.91217797740595 3.5626964710282647 3.3067789865773545
3.0656088871472735 4.029514640975653 3.9598439101652145 3.4570236799556673 3.41849392897345 3.644392241123318 3.123269258239255 3.6656291194049033
3.2746008225782504 4.440322324164868 3.3105478031042286 2.929879270218117 3.9004187362022056 4.45584502389978 5.169109993251868 3.852481403181879
4.403856538499447 3.0917015954513536 3.939194633636384 3.6439906074881443
00000000: 87ad 0fe2 1946 1440 b44f 0e4e acd7 0540
00000010: 4a54 3a98 a72f b9bf 48d8 b729 8ca6 1040
00000020: afce 0b8b f3c7 0940 928a 3722 9c90 0740
00000030: 062f 15f7 88f2 0340 3b17 2276 49c5 0a40
00000040: a1f2 87c8 12ba fd3f 4e10 df28 5602 0c40
00000050: 32a8 c932 acc1 00c0 1f0d c628 a3d7 0f40
00000060: fcc3 3cdf e407 0d40 e660 1deb e570 0e40
00000070: fc46 20e3 7ef6 0a40 1857 8d1d 30bc c0bf
00000080: 2063 e5e0 cfa9 0a40 3c40 7638 fd3b 0c40
00000090: 2bd5 f021 8d37 0540 80e0 ed62 12b4 0940
000000a0: 9da5 4161 851e 0a40 82b6 b9bb 4c9b 0440
000000b0: 6dfe 7a76 fa1e 0640 16ea 2c8a c4c0 0340
000000c0: cd52 4c39 86a1 1040 8f08 a5b5 940d 0b40
000000d0: db55 a7e5 763b 0d40 f014 ede6 21cf 0640
000000e0: 1d60 09bb 51ec 0c40 8e02 524c c93e 0a40
000000f0: fccf acad e33a 0a40 13ba f589 7945 1240
00000100: ba6f 8d52 5e9f 0d40 558f 5f33 6e09 0f40
00000110: 8ce3 aa8c 9138 0840 494e 5938 16ee 0d40
00000120: 2193 6e62 d800 0e40 b24a 0e54 4848 0c40
00000130: 8049 a48c 50b6 0b40 5d33 b8ec f539 0840
00000140: 2cb7 d558 524d 0b40 2007 2814 f6bf 0d40
00000150: b06d b4b6 dcb7 0d40 97fd 0b25 5d23 1240
00000160: fa7a 1910 ade2 0c40 cc88 278d e7e1 0e40
00000170: ba22 e3da 5489 0940 cd18 a6bd e387 0940
00000180: 7737 07c0 2bea 0740 4101 7126 92ad 0d40
00000190: e2df 57b2 69e9 0b40 c5bb 1482 d2e3 1240
000001a0: cfcb d8f5 c44c 0940 b760 3a58 3f3a 0440
000001b0: 5cba 0380 ae92 0f40 4f9c b4e7 8382 0a40
000001c0: 7e54 dd16 4a76 1140 b106 bb61 bee2 0b40
000001d0: 2811 b3cd 1a13 0940 611b e43d 2995 0a40
000001e0: c817 908d 6740 0940 e08b 91d4 ada3 0840
000001f0: 75ad dba8 cf8f 0d40 5fc6 2a1c 754a 0740
00000200: 74bf 4da8 5b3c 1140 83a6 d05e 8adc 0c40
00000210: ca26 c070 7bfc 0740 7857 b61c 9146 0d40
00000220: effc 68c2 07c8 0a40 3708 a3ff 19b7 0440
00000230: 7176 23a7 58e3 0d40 f6d3 c780 d3a2 0640
00000240: cdb7 b9cf 9f5d 0840 dadb fffd c576 0740
00000250: 38db 7430 fea5 0840 cd06 9e85 9748 0540
00000260: efb4 6b90 e0d2 1840 49b8 a8f7 234c 0740
00000270: c920 e501 6780 0c40 1c99 938a 4874 0a40
00000280: f7fe c4f3 5d86 0840 75f9 0616 391e 1040
00000290: 1665 dba4 c2ad 0f40 de41 f707 fca7 0b40
000002a0: c61f 5458 1359 0b40 cb5d 8b1e b727 0d40
000002b0: 11eb c597 74fc 0840 eddf 185c 3553 0d40
000002c0: 206d 83ea 6132 0a40 81f2 f7da e3c2 1140
000002d0: 216b 917c 007c 0a40 7285 f68a 6470 0740
000002e0: 918d 05bd 0e34 0f40 8cc6 b609 c9d2 1140
000002f0: 33c6 892b 2bad 1440 36ea 18c5 e1d1 0e40
00000300: 0886 8491 8c9d 1140 fea2 cb0b cebb 0840
00000310: 3260 e079 7883 0f40 f5bd 308c e426 0d40

model.2.bias f8 [100]
0.12042635994993363 0.2296838434134592 0.05389848941154322 0.980041008101448 -0.3748682886691451 2.8163718732050866 -0.5942438548382794 0.8846716424256622
-0.1357252628644365 -1.0169016696459006 -0.4901391747082458 1.2553359641282105 1.51965889763261 2.0142194509042577 1.1187200665712447 -0.041373893695210544
1.0880435410005362 -1.0073191376439312 -0.23004342171275843 1.0034071646973912 0.6734568020923957 1.6127753685295398 1.758437643386047 -1.066835710792696
2.0572678983309167 0.46880463732653854 1.8169718655412046 -0.21358160943948584 1.3178367194456406 0.7804252007384945 0.32902971937383246 1.3229080298256783
-1.3978955081269144 0.23501309554699398 0.18604004180369663 1.1434193660087177 -0.7088807142802279 0.19594046601314113 1.426713541873362 0.4286456766782538
-0.014392633573360125 0.9821414654352577 1.2063356034562993 1.1492711072561066 1.181662265089014 2.5445106546103347 1.5975682347404483 1.7273823896612468
-0.8842124449040633 -0.7532175216586579 0.507177222984679 2.1799132006941946 0.9362527279130249 -1.1139714207615823 2.4329690195475187 1.204926503616493
-0.5001578367062046 0.06032733964691676 -0.4683125740201759 1.6488674575266011 0.12012373839922309 -0.47067691923366417 1.6504226908674293 1.240729426285186
1.3837091866897409 0.62361225075885 0.07223473038360093 -1.5369684471314407 2.204518709893032 0.7978060575364864 -0.24633050909455378 -0.02148017285449367
0.5137047555590545 0.29904540135223673 1.010339132221424 2.326326751490482 2.7944742305561237 2.1764439194617107 1.479055886023103 -0.18006281346391656
0.41654379303933425 0.8012281667576693 1.6918097502994958 0.5532049873300352 1.5811798718076755 3.1696523854222036 0.684028442071751 -0.1112094861467761
0.9142355180727674 2.5320420841454836 1.2884946724208883 1.7182004766259034 1.9103081806956164 2.4480586776903515 1.214696351426605 0.5569353279754895
1.4590244192692414 1.3876508220276644 0.9024725835068962 1.9739697756137646
00000000: a5b0 8f0d 43d4 be3f b2b0 f0b9 4766 cd3f
00000010: 551b a732 9598 ab3f 5d1b d1f5 7e5c ef3f
00000020: c60d 0990 d7fd d7bf 2352 06fa ed87 0640
00000030: e423 4cb0 0b04 e3bf a256 7de7 3a4f ec3f
00000040: 7733 9f06 725f c1bf f107 66af 3a45 f0bf
00000050: e90f 77b3 705e dfbf cfc5 f629 db15 f43f
00000060: 0185 26d9 8550 f83f 92ce 6416 1f1d 0040
00000070: cad6 3403 47e6 f13f 1781 a880 f52e a5bf
00000080: 9a8a 1358 a068 f13f ba0c 0dac fa1d f0bf
00000090: 2647 7516 1072 cdbf 7928 cfab f40d f03f
000000a0: be2d 8847 f58c e53f 3e0f 7a8b edcd f93f
000000b0: c65f a682 8f22 fc3f e4f3 8052 c211 f1bf
000000c0: 1889 33df 4875 0040 bef5 612a e500 de3f
000000d0: 7c06 4417 5112 fd3f dae9 c865 a456 cbbf
000000e0: 90ca b7f4 db15 f53f 99ac 4445 3ef9 e83f
000000f0: cbd9 07ab d20e d53f 2a79 3b9c a12a f53f
00000100: 1e16 2aae c75d f6bf a7c6 c0bb e814 ce3f
00000110: 7d8c a5fb 28d0 c73f 8eed e91a 724b f23f
00000120: 8b28 939b 26af e6bf fea5 bec2 9314 c93f
00000130: e2b3 3194 d1d3 f63f b8e9 b946 ee6e db3f
00000140: 60d4 0194 e279 8dbf d7e0 42f0 b36d ef3f
00000150: 1086 cd8f 264d f33f 6771 be19 6a63 f23f
00000160: f497 f7b0 16e8 f23f e0ff ee66 285b 0440
00000170: 386b 95b5 a38f f93f 8c80 74b7 5ba3 fb3f
00000180: 6d88 b2e5 774b ecbf 188a c9a1 5b1a e8bf
00000190: 77d9 3fba cb3a e03f 50cd 0855 7670 0140
000001a0: dbab e547 c8f5 ed3f 2c98 4db2 d3d2 f1bf
000001b0: 2b1a 1976 b876 0340 08dd 7103 6147 f33f
000001c0: 61b8 ef01 4b01 e0bf 7527 ad9d 39e3 ae3f
000001d0: 1839 6e4d d5f8 ddbf 2a3f d8d7 c261 fa3f
000001e0: 41de e5e7 6dc0 be3f bccc c515 921f debf
000001f0: 7ea1 9d9f 2168 fa3f 8546 5119 07da f33f
00000200: 791d 803e ac23 f63f 629d ccad a1f4 e33f
00000210: 9608 a2ac f97d b23f 769d f639 6c97 f8bf
00000220: 1549 93b4 daa2 0140 d96f b591 a087 e93f
00000230: c8b8 4814 c287 cfbf e29d b0ff e5fe 95bf
00000240: 43a0 9df4 4470 e03f 67ee b452 8f23 d33f
00000250: 1b29 ac5d 592a f03f 3cb1 2b33 519c 0240
00000260: ca06 2e4e 155b 0640 2f54 fd6d 5b69 0140
00000270: f9ce 3681 36aa f73f 8ed1 865b 4c0c c7bf
00000280: bb2a 1d4c a7a8 da3f 9276 9b40 a9a3 e93f
00000290: b571 c919 a711 fb3f 8d21 12f2 dab3 e13f
000002a0: 781e e843 834c f93f 309d b8b5 725b 0940
000002b0: 8d6c 879d 8fe3 e53f d35f 0192 3978 bcbf
000002c0: 57da 5ed8 6a41 ed3f 1701 bc47 9f41 0440
000002d0: 1ee3 f196 ac9d f43f 2347 71c8 bf7d fb3f
000002e0: 24e7 954f 9f90 fe3f d8f3 bac9 9f95 0340
000002f0: 272a ff70 656f f33f 4f89 7409 6ad2 e13f
00000300: 823a 4dfd 2958 f73f 7805 2e59 d133 f63f
00000310: 255c f62e 0ee1 ec3f 74db d854 6195 ff3f

model.2.running_mean f8 [100]
4.133220220055206 0.6494704356671904 8.886312142799918 1.5015993491569908 0.623173672129293 4.141600079624031 4.2120414480131725 2.201133234368263
0.3816162736360157 1.5582445819042232 0.07385385540782526 1.109755416080861 2.4814135659685315 2.400839271020313 0.11093880410668479 8.808415464112167
1.1932090576348782 2.3772422618307756 1.43890787049103 0.3340347281569159 2.092202862818979 3.3339700473822083 2.999116718442404 4.452731161352325
1.0824505309621875 3.2774442203078133 0.8053527869628698 1.120278908339637 0.8673217193779797 0.3694593256986153 0.8431851671500986 10.770164317962493
1.2117955783321732 0.6379750524716361 3.566284901888677 3.350025030554548 0.8582220612252188 0.9580636635140638 3.8254269376212404 1.2783374301614205
5.431084645099669 2.578418926361371 1.6514155351124327 3.164702477431015 3.2100726237476938 1.457866117132095 3.6358552373116773 1.0400048940217212
2.394081749852135 0.703115977259098 3.1133004075254274 1.6733475054123856 2.816844937290015 5.113654887878727 2.1566346332822977 0.6348493401865368
3.5964912809183995 2.9594409579188334 2.8397555328179873 2.7259585145864436 1.747092639861478 5.859335285125094 0.5612205870602495 0.9440911860115256
1.392858948336897 2.576446296300091 4.532190239178763 2.678031655918417 1.1394089653379167 0.9434130378466747 5.15112267502484 0.404887024758357
2.2128755603654113 1.8709845941609948 5.517981603434426 2.2337583723361374 3.295404709779514 3.0078450563277013 2.2553805796853656 0.29599198803995946
0.24260818246923008 4.471518525924718 1.5675663227615846 0.9366739794709656 3.984386149749086 2.9592027899796802 0.23072238356636782 1.9725327785934272
3.598503355230245 0.6367450322581174 5.540269853284893 1.8867046277176303 5.841237825582115 2.0203845162511613 6.211439932068907 2.0768298960557536
2.2283559283287073 4.074875227546685 1.4860543345425972 3.672575080784413
00000000: 4e36 a1e1 6a88 1040 411a 1d39 76c8 e43f
00000010: 25bf 86b4 cac5 2140 c32f 050a 8d06 f83f
00000020: d7c0 b0e9 09f1 e33f 8562 7c9c ff90 1040
00000030: c673 b264 21d9 1040 ce00 bebd eb9b 0140
00000040: 36d6 b8a9 666c d83f 522a e7de 91ee f83f
00000050: c5fd a815 16e8 b23f cb04 2ae5 8ec1 f13f
00000060: 127c 0d5b efd9 0340 b7e0 3f38 eb34 0340
00000070: 21dd 7e47 7c66 bc3f 85e2 b7a1 e89d 2140
00000080: 1253 7d61 6217 f33f a6db 4997 9704 0340
00000090: a574 5b42 c405 f73f 8e61 4a32 d360 d53f
000000a0: 9f3d c3da d4bc 0040 1ecd fa7c f8ab 0a40
000000b0: 96c6 f4e7 30fe 0740 a88d efc1 98cf 1140
000000c0: af53 e0a5 b751 f13f 7f7d e5ac 3438 0a40
000000d0: 76ef 3735 73c5 e93f 277a 9b93 a9ec f13f
000000e0: 5fd8 7a7a 19c1 eb3f 1afa 44ba 38a5 d73f
000000f0: 1339 ac75 5ffb ea3f de63 3cfa 528a 2540
00000100: 46fc a5c2 8363 f33f 2af2 40a8 4a6a e43f
00000110: bca4 ee60 c087 0c40 001b 58ec d9cc 0a40
00000120: 7560 b51c 8e76 eb3f 5cec c820 75a8 ee3f
00000130: b690 3270 799a 0e40 5bbc fcf2 1174 f43f
00000140: 1b0b d240 6eb9 1540 4ce0 201a 9aa0 0440
00000150: b8a0 36b2 326c fa3f 5217 5188 4f51 0940
00000160: 0440 468e 3aae 0940 2f76 f06b 6b53 f73f
00000170: a8f3 4945 3b16 0d40 440d f82b dca3 f03f
00000180: e285 1c55 1427 0340 d8ee f313 ed7f e63f
00000190: bc8f 470b 0ae8 0840 196e a908 08c6 fa3f
000001a0: a282 9cff e588 0640 f4e0 69f2 6174 1440
000001b0: 87f2 9aa8 c940 0140 99a0 3f90 af50 e43f
000001c0: 3f26 7f38 9dc5 0c40 69a2 8561 efac 0740
000001d0: dcb4 b0bf d1b7 0640 4d36 7356 c3ce 0540
000001e0: 0099 7469 17f4 fb3f fba4 c796 f56f 1740
000001f0: 8d80 68e0 84f5 e13f 3990 0bb8 fe35 ee3f
00000200: 4ec4 f076 2649 f63f e012 34e0 8f9c 0440
00000210: c317 627a f620 1240 2094 5edc 9b6c 0540
00000220: 2c54 2ee5 043b f23f c07c 058a 7030 ee3f
00000230: b3a9 0be7 bf9a 1440 555c 7a44 abe9 d93f
00000240: d018 0f1a f8b3 0140 63dc b38a 8def fd3f
00000250: d5b8 fac4 6912 1640 99cc a2b5 bcde 0140
00000260: f6b2 fc24 fd5c 0a40 ece6 a211 1110 0840
00000270: e141 2ef9 040b 0240 179e 2061 88f1 d23f
00000280: 8f42 b9f0 c80d cf3f 1b38 a1c0 d5e2 1140
00000290: db26 a96c c014 f93f 71f1 9ab5 3bf9 ed3f
000002a0: 2276 7ed8 05e0 0f40 b68e 2983 72ac 0740
000002b0: 36b5 efa1 4f88 cd3f 688c e587 7e8f ff3f
000002c0: d514 8a20 bcc9 0c40 f00c 2e1e 3760 e43f
000002d0: 4b7e 1b80 3c29 1640 2e25 1431 f12f fe3f
000002e0: 2322 d472 6d5d 1740 ed25 755b bf29 0040
000002f0: b937 a5b5 83d8 1840 fb50 17fe 589d 0040
00000300: f927 e045 acd3 0140 d15f 7617 ac4c 1040
00000310: 2f08 efe8 e0c6 f73f c296 400b 6f61 0d40

model.2.running_var f8 [100]
38.075234009418715 7.999047554632141 124.77014446923206 20.216100919111483 6.484604962245252 47.082301265218916 27.558506121980624 32.04775632281932
16.295617699933583 18.36697650447921 2.18373240366007 11.360211005100618 24.93508683523241 19.65355093164082 2.55506260399928 106.07455447466288
10.557901821885048 24.0040716348643 38.377244778745265 3.756767600891331 22.829378942646493 30.713251666405096 24.650664571745914 46.12583525647443
14.98684230000632 34.721221200764276 8.995158419284301 26.068953381307207 6.7606969243114206 4.499519172528103 8.777182384050109 101.02983139621892
15.820365042115478 12.827547245248248 31.78693358366798 32.87529228479311 30.633369652684017 20.53168655593887 34.47051134788277 12.806304599822566
29.75643331235679 28.966472226095597 17.18225522916909 36.410396074019516 35.548828914020575 16.28951703526017 46.65350069908179 16.607064728049313
26.00318759116729 7.582053152070086 38.76791889571993 19.15927752719531 27.247591364829724 49.390999653414006 29.064432934558898 10.743604270648172
22.320565605547152 31.163575887297316 26.17557359628032 27.88888339741604 16.601442753181395 37.00304205349806 16.73507506592877 8.775929277215246
14.759256932066858 28.059286134424262 29.927618083039803 12.907365414850364 11.726598040286127 9.32156549350916 81.06788163027662 3.5813553651999253
23.03268832897161 18.51267965002572 49.1972931334435 23.416016571233115 52.357427578111164 26.30223772813119 29.373308242443798 11.04876811140129
2.8682524477614812 43.40584333383954 17.268378593385197 14.080241391097818 34.49038850563361 27.222198869877367 2.2501301802129765 27.84180527723548
34.87212173478518 18.86542135558587 74.56635643102072 17.328733934762305 87.56699417849362 28.89464464254336 100.7130258218917 19.530816620907295
26.516590653907517 47.74934117976265 15.005509497051097 52.07912503441985
00000000: 0b00 9d44 a109 4340 df2c 7952 06ff 1f40
00000010: 0223 070c 4a31 5f40 2838 cc63 5237 3440
00000020: 6b4a 8148 3cf0 1940 7044 0dd9 888a 4740
00000030: c785 d841 fa8e 3b40 d557 12e1 1c06 4040
00000040: 5f55 019a ad4b 3040 7c23 152c f25d 3240
00000050: d87b c7b1 4878 0140 0522 ad93 6db8 2640
00000060: 4c3e d0d9 61ef 3840 ebaa 251d 4fa7 3340
00000070: ab46 9ba9 c470 0440 a49c 2180 c584 5a40
00000080: 0dc0 be4e a51d 2540 5b95 b2d6 0a01 3840
00000090: 1aa6 918e 4930 4340 5301 042c dc0d 0e40
000000a0: 62a8 aa2d 52d4 3640 0307 45a9 97b6 3e40
000000b0: 8650 10f4 91a6 3840 e89e a35e 1b10 4740
000000c0: 52ac d964 43f9 2d40 723b eff9 505c 4140
000000d0: 8c54 8267 85fd 2140 bfa9 c5ed a611 3a40
000000e0: 6357 7022 f40a 1b40 c8ee 36f4 81ff 1140
000000f0: 890b 75d9 ea8d 2140 e0c9 f1c1 e841 5940
00000100: d555 05e3 06a4 2f40 e478 c445 b4a7 2940
00000110: 62fa b57a 74c9 3f40 53d0 dc93 0970 4040
00000120: 868e 7883 24a2 3e40 f67a 319c 1c88 3440
00000130: d5c6 41b7 393c 4140 5fb4 ddf4 d39c 2940
00000140: 682d 129d a5c1 3d40 aa92 4bb9 6af7 3c40
00000150: 65ce 5847 a82e 3140 0a29 cadb 8734 4240
00000160: a668 9e06 40c6 4140 cb13 d6c9 1d4a 3040
00000170: 163c 31e9 a553 4740 e586 1198 689b 3040
00000180: 08d1 e7e6 d000 3a40 edb2 d2bd 0554 1e40
00000190: 7c8c 972a 4b62 4340 a74a 7a69 c628 3340
000001a0: 36b7 ce25 623f 3b40 8b14 d246 0cb2 4840
000001b0: 3db7 42ad 7e10 3d40 1d33 efb2 b97c 2540
000001c0: 260c 6896 1052 3640 2d5b fe1b e029 3f40
000001d0: a910 2664 f22c 3a40 f9db c1dc 8de3 3b40
000001e0: 8e54 fb26 f899 3040 b824 98ae 6380 4240
000001f0: e444 28e1 2dbc 3040 fb4b 2b9a 468d 2140
00000200: 16fa 1853 bd84 2d40 5e75 4860 2d0f 3c40
00000210: 8cd5 f160 78ed 3d40 8a9b 1c33 92d0 2940
00000220: b4bb 88a8 0474 2740 b349 7c3b a4a4 2240
00000230: 6282 312c 5844 5440 3f1a 47a4 9da6 0c40
00000240: dae4 2743 5e08 3740 692f 3af9 3e83 3240
00000250: bfee c1e6 4099 4840 500a e00f 806a 3740
00000260: 8556 d72f c02d 4a40 d8f0 a573 5f4d 3a40
00000270: 949f 0421 915f 3d40 ca1c 4722 f818 2640
00000280: c875 de56 2ef2 0640 fa11 a3ac f2b3 4540
00000290: 3189 a175 b444 3140 f219 4d66 1529 2c40
000002a0: ed03 f10c c53e 4140 da54 6f06 e238 3b40
000002b0: fe0e 7e40 4400 0240 9c53 f78c 80d7 3b40
000002c0: 3e84 5caf a16f 4140 5580 0341 8cdd 3240
000002d0: 4047 0b2f 3fa4 5240 b6e3 3ae8 2754 3140
000002e0: c269 f3a1 49e4 5540 ed43 696e 07e5 3c40
000002f0: 9e8e 0e37 a22d 5940 56f8 1a99 e387 3340
00000300: b9f3 fb48 3f84 3a40 3650 6a69 eadf 4740
00000310: c24d 0b24 d202 2e40 6790 e5c4 200a 4a40

model.3.weight f8 [150, 100]
-6.498041620493609 0.8812919574219489 -1.730726097307668 0.8707221780084998 -0.4881193092146626 1.7591901180411562 -2.3716306743619002 1.702160462942218
1.412954176403635 1.8240723965294061 2.372806628791899 1.0886486202568022 -3.5484302707330433 -0.10864783299404306 -0.5606507026188764 1.7417660187582704
0.5979707669592567 1.903184052579622 -0.029491308616268083 -5.730519077208187 -1.351444171774008 -0.5844964134242605 -1.4285627533286633 -5.256624850540576
-3.146998851541549 -0.4911801850411939 -5.84436262887304 2.0176545207860985 0.12775478582376806 1.499333177482755 2.714119703814455 -4.53820220743884
-0.06443264916003236 0.9140238339315149 2.0423833328646057 0.5580053743014026 4.164217656568187 2.719893580712624 -4.11667490439115 2.090229792074609
1.2759150953520801 4.614826449128053 3.8447280277239586 -5.094865703142073 -7.789396225302617 -13.52402013087227 1.2061473503526399 4.171857456261571
-1.1247896333687235 0.5469053194694543 -2.1565989509244554 1.3978945257255482 -0.4410035023707094 -1.316688636837661 -8.581783762092 -3.9033445953387367
1.5538497333533015 1.9499896238218866 -2.9269315977642627 -0.5212721370091943 -1.7103831793234971 1.5922203894767395 -0.35924509189216364 -1.9260305802000646
2.0095852121873614 1.9320546811757315 -3.511500948670858 -0.898281779854125 0.9281196607357463 -0.4810480449521067 0.2679919934401588 -0.8655318325024642
0.8825327569249279 0.20599946963588026 -0.30392501016523504 -0.7017777243199708 -1.2088646600310993 -4.280132513833846 -3.94856154900617 -1.1458139436954544
1.9537985112699043 -1.407652813117279 0.04981345272831562 1.9039262275867714 0.6924244667957143 -6.267687892478918 1.1355218924281307 0.6413917745646746
0.8190003424421569 -4.76327840949517 -0.9102502800167012 -0.6588218054126749 0.7791296568960734 0.2730938277399364 -2.2676112846104792 0.5947089989973919
-0.8292446005807329 0.6097667826890406 2.3076948665838493 1.1526818444956104 -2.8235647978860796 1.9385290495286838 1.4332386692359826 -2.2099745827894974
0.6985202764267401 0.7758567474482618 2.0843221933361367 -2.479689651551057 -1.4796099708079997 3.3813321043327864 -1.5586672003254098 0.3360576912863394
-2.6823164820134915 0.8266176907182926 -1.4321129476822647 0.5560561879787635 -0.22362671271859566 2.4026944706439948 0.39816689245383696 1.7627755087262424
1.7173540430069505 0.9364940284392104 0.5168837035692617 -0.32453662071926576 -2.7569099765438705 0.8917231216021326 -4.376297474331268 -0.706566814131197
-4.394771227453611 0.04779619741118328 -0.5241769227356712 -4.961333964135239 2.1761402877662106 3.864824032995602 1.8169818088396463 0.9025779590446725
2.869025119625794 2.558693866233779 2.1496600977229834 -1.869872088038251 1.5932506041951309 0.9019972949612078 -5.989376847995736 -2.165247997481614
-4.374470444652677 -2.467555556660618 -13.733547085583192 -4.473293978201404 -3.7206173243587846 2.7855104312648042 -0.7875944323559083 -0.5554728982366449
-4.553397801553552 1.8715248472898853 1.5588461893306793 2.7950168504560917 3.2270348982987325 0.7400301623249508 1.7215429620697005 0.4106715961037768
-5.863835142616514 0.5839422312045761 2.6076500439683863 1.3305312608625184 -4.501348515180429 0.10337953809284413 -0.11967446576274453 0.02509672565012279
1.6017215491896322 3.0577278301614466 -1.4134748087606992 1.1051524662957832 2.7379090455368544 0.8720210286457935 -1.0868123943768642 2.705991119821261
-4.717909203610242 -2.0195448586799767 -4.276297197896394 2.7977849957432803 -1.0850247164910767 -0.5707935935989846 -1.6544770101276542 -3.6844393945175655
2.6072813707121454 0.5488453523813803 3.0850474120083344 -1.923875323069248 -3.683504109923159 -4.3672074708983395 -0.47420574670962273 0.14037092133539142
-1.4421342790628022 -7.696406442494513 -3.7279540721443314 -0.7513744020319449 1.7806497795466334 2.114818279337278 -3.352674750557828 3.056883084132222
0.6697722393943266 -0.629779278008114 -0.7145135356946395 0.6582129049566405 1.0671145189857083 -3.7896777701254822 0.9933142920077367 4.069207385007276
1.0506539663537806 -1.7206970309145369 -2.429004236753295 -4.180880043427508 1.323130804401791 1.4299746520412722 0.5241530840812727 -0.3876463464275174
1.2073202950733908 -2.5336914363844953 2.748384821854244 0.8702139903146716 -5.243072689308745 1.82855807880188 -6.507233652313058 -0.06457196195399068
1.8015037932980829 0.8446621566582819 -2.155034900063346 -1.3835280834456165 3.698315382153442 -9.18215899023617 0.19522821106019841 0.0250895123750337
2.8338750805651456 -6.317690286316671 -4.082743732835544 0.7682929172796813 1.9206785200399459 2.9635407153973885 -2.2038723709276438 2.1096487012413845
-1.4033786178943926 2.1494183097753763 0.9190271027315864 1.8196014103572609 2.5329030444811576 -4.175732688299232 0.11338708052038547 -1.1077487784324813
-3.856480900611175 2.729447555651665 -3.0108868663024566 1.0851992318674524 -1.6377316240545567 -5.127246485166038 -2.0037479438885177 0.6757794407580701
00000000: 8044 609f fefd 19c0 f05c eb30 8b33 ec3f
00000010: 8652 24d9 0db1 fbbf 4559 cec1 f4dc eb3f
00000020: aae0 67c5 583d dfbf 2aee 8689 a425 fc3f
00000030: 2a99 c480 19f9 02c0 c418 0e9c 0c3c fb3f
00000040: 5567 a6d6 759b f63f 1115 8a89 662f fd3f
00000050: 5025 b30a 82fb 0240 736a cdd0 1a6b f13f
00000060: 917a e768 2f63 0cc0 839d 7d29 58d0 bbbf
00000070: a547 07be d9f0 e1bf 439d 7d0b 46de fb3f
00000080: bcba 0197 9322 e33f 5092 011f 7173 fe3f
00000090: 4fab 1738 f832 9ebf 61da 6631 0dec 16c0
000000a0: 0b3a 82ec 839f f5bf f62a 89d2 31b4 e2bf
000000b0: 0249 1d9e 64db f6bf 91a6 31aa c806 15c0
000000c0: 355d dfbb 0d2d 09c0 707d cc03 7f6f dfbf
000000d0: ade5 d398 a060 17c0 0739 ab0d 2824 0040
000000e0: fba1 82d1 445a c03f 058a 31c9 44fd f73f
000000f0: 927f 2a64 84b6 0540 dd56 be7a 1e27 12c0
00000100: fadd ef78 a87e b0bf 3503 50e9 ae3f ed3f
00000110: 4764 a412 cd56 0040 86bc 3316 2edb e13f
00000120: 648b 61ac 28a8 1040 a516 ce90 57c2 0540
00000130: e47e 4aa0 7977 10c0 bfae b065 cab8 0040
00000140: 9328 70f2 256a f43f 18e2 8e10 9575 1240
00000150: 3db6 a8c4 00c2 0e40 6c07 9279 2461 14c0
00000160: d80a ed7b 5728 1fc0 8615 d95d 4c0c 2bc0
00000170: 0cbf fe29 614c f33f 69de a866 fbaf 1040
00000180: 0c2d 236a 23ff f1bf d126 a495 3f80 e13f
00000190: b277 66f3 b640 01c0 83fa 73a6 c65d f63f
000001a0: 4aa2 06c1 6639 dcbf a0b8 a31a 2811 f5bf
000001b0: d70e af8f df29 21c0 5ffc 2fbb 0c3a 0fc0
000001c0: 7969 ba89 91dc f83f 66ab dd51 2833 ff3f
000001d0: 5836 101d 5b6a 07c0 1ba8 98e7 42ae e0bf
000001e0: b22a adc0 ba5d fbbf 4e3b 4d16 bc79 f93f
000001f0: 0f39 3b20 dffd d6bf 07e2 1071 05d1 febf
00000200: a2f5 6669 a113 0040 4fbc 5b2b b2e9 fe3f
00000210: 8250 33cf 8d17 0cc0 cf1d 626e b9be ecbf
00000220: 044f b400 28b3 ed3f 35f0 37bd 7dc9 debf
00000230: be94 dae3 c726 d13f 51d7 47d0 6fb2 ebbf
00000240: 6485 1456 b53d ec3f 712b 8acc 305e ca3f
00000250: 5b27 c6e2 8173 d3bf 9e7f e08e f674 e6bf
00000260: ccfa 4178 8257 f3bf bdd9 c50e db1e 11c0
00000270: fccb f96f a796 0fc0 6f90 7700 4155 f2bf
00000280: 2b0b 4e3a c242 ff3f b860 c7f4 be85 f6bf
00000290: 01e8 bc1c 2681 a93f 9ab5 1759 7b76 fe3f
000002a0: 83cf fa5a 5728 e63f b0ed 5ec6 1c12 19c0
000002b0: 02ef fd00 192b f23f c3b7 f50a 4886 e43f
000002c0: ad75 c634 4035 ea3f 3e19 fada 980d 13c0
000002d0: 2217 fb31 c520 edbf a073 8477 1115 e5bf
000002e0: 75cb 7651 a1ee e83f a07a b888 5e7a d13f
000002f0: 5b8a 9b62 1124 02c0 0e95 aa2a db07 e33f
00000300: 611f fcf8 2b89 eabf 2bc5 baa0 3583 e33f
00000310: 6bff e8b9 2876 0240 5fd3 8c84 6271 f23f
00000320: e375 0824 a996 06c0 8625 6109 3704 ff3f
00000330: 9db2 bbab 8bee f63f bc93 7027 07ae 01c0
00000340: 3510 db31 475a e63f 9a7a 9587 d1d3 e83f
00000350: 44a5 351d b1ac 0040 a421 2d87 67d6 03c0
00000360: 424b 3781 7bac f7bf 8431 a8d8 f70c 0b40
00000370: a2ed ab04 4df0 f8bf cd38 691e f881 d53f
00000380: 6228 fe57 6275 05c0 75c3 7df1 a673 ea3f
00000390: 6693 2744 efe9 f6bf 546e c358 36cb e13f
000003a0: a3b5 d1d4 cc9f ccbf 6391 ede0 b738 0340
000003b0: 821b 5cfd 907b d93f 1eb4 8217 5434 fc3f
000003c0: 45e4 a53b 487a fb3f 6576 2153 c2f7 ed3f
000003d0: 724a 55b1 4f8a e03f 95fd 153f 35c5 d4bf
000003e0: 292d 5ad1 260e 06c0 38c8 8bed fe88 ec3f
000003f0: e147 0720 5481 11c0 a33c e401 329c e6bf
00000400: 9942 9de8 3e94 11c0 7625 8241 be78 a83f
00000410: ccf6 8eae 0ec6 e0bf c4fa 41ee 67d8 13c0
00000420: 13b6 3b3d bc68 0140 6516 d4dc 28eb 0e40
00000430: 914a 6684 5b12 fd3f 54fe 052c ebe1 ec3f
00000440: eb8f 2171 c3f3 0640 5a99 5f7d 3478 0440
00000450: 1ae4 49fe 8032 0140 863d 9dfe feea fdbf
00000460: f19a 7558 f47d f93f 160b 5e6e 29dd ec3f
00000470: b83e 5634 1ff5 17c0 df4d c78a 6d52 01c0
00000480: 4568 242e 757f 11c0 0a5d 87c4 8dbd 03c0
00000490: d54f cd7b 9377 2bc0 3813 372d a7e4 11c0
000004a0: 816a 0804 d3c3 0dc0 f197 67b1 b948 0640
000004b0: b45e 2f3d f933 e9bf 07b4 7719 6fc6 e1bf
000004c0: 3967 cde9 ad36 12c0 e82e cc09 c4f1 fd3f
000004d0: 3db6 aab3 08f1 f83f 9cd2 63cb 315c 0640
000004e0: 2ff3 39ac f7d0 0940 d0a7 27bc 53ae e73f
000004f0: 2bf9 0ba2 708b fb3f a05b aa84 7148 da3f
00000500: 96b1 1a33 9174 17c0 92dc 389e a7af e23f
00000510: b50e 52a0 77dc 0440 d25c bb25 db49 f53f
00000520: 7564 5281 6101 12c0 ad31 2fd7 1477 ba3f
00000530: b704 9e5c fca2 bebf 24a8 9dbf f4b2 993f
00000540: 3916 71c6 a6a0 f93f 4fe6 3402 3a76 0840
00000550: 8c8d d5c2 979d f6bf 9a58 3d5a b4ae f13f
00000560: e406 90db 3ce7 0540 a0a7 eea4 98e7 eb3f
00000570: 02c7 ab64 9563 f1bf 9b30 17ac dea5 0540
00000580: 7a03 1c97 23df 12c0 fcae 8622 0728 00c0
00000590: 0cc4 13a7 ed1a 11c0 b5a7 8f19 dd61 0640
000005a0: bfe4 8ae0 425c f1bf 3bc4 28ed f043 e2bf
000005b0: d4b6 a7e2 bc78 fabf 3a60 7c5c bb79 0dc0
000005c0: 036e d555 b6db 0440 9a44 e120 2490 e13f
000005d0: 5c7b 6956 2dae 0840 269f a27d 31c8 febf
000005e0: 9769 b600 d177 0dc0 c46b 393c 0578 11c0
000005f0: 935b 6c0f 6359 debf 50f2 38a2 acf7 c13f
00000600: 8f3e d064 fb12 f7bf 57f3 3cc5 1ec9 1ec0
00000610: a7cc a695 d9d2 0dc0 99eb 7854 420b e8bf
00000620: b684 8c9f 8a7d fc3f 8fe4 95d8 25eb 0040
00000630: a82a be23 47d2 0ac0 1c59 501e 7f74 0840
00000640: 40f4 fe30 c66e e53f 74c9 57df 2627 e4bf
00000650: 2473 8b7d 4bdd e6bf 7401 9382 1410 e53f
00000660: 1216 82ac e612 f13f 8789 2894 4251 0ec0
00000670: ee52 da0d 3bc9 ef3f e2fd fc4c de46 1040
00000680: 4c6f 8e88 7acf f03f c3a2 219c f987 fbbf
00000690: 549b f5c5 996e 03c0 b114 3c9e 38b9 10c0
000006a0: 1bc6 d334 8b2b f53f 1805 ca19 2de1 f63f
000006b0: 5840 47b0 dcc5 e03f 167c 149f 32cf d8bf
000006c0: 5032 f215 2f51 f33f d369 0b04 0045 04c0
000006d0: 7e7e 752e b1fc 0540 a78a 9d02 cbd8 eb3f
000006e0: fe86 0c0c e8f8 14c0 91a6 b41d c641 fd3f
000006f0: fc75 3042 6807 1ac0 e4b8 d4c0 c987 b0bf
00000700: 055d 3da4 f5d2 fc3f 4c84 60ee 7807 eb3f
00000710: ea15 0cf0 823d 01c0 97f1 f757 ee22 f6bf
00000720: 6724 0560 2696 0d40 3579 73f1 435d 22c0
00000730: 314c e1ee 3cfd c83f 4e51 7eac 10b1 993f
00000740: 36d0 bfb2 c6ab 0640 aaf2 379a 5045 19c0
00000750: 16e9 e9c5 ba54 10c0 88de 2e07 db95 e83f
00000760: 5038 5b66 19bb fe3f 46f8 a7d5 54b5 0740
00000770: a689 6dd6 87a1 01c0 830b 8f7f 8fe0 0040
00000780: 8c31 3c23 3d74 f6bf 4d45 0f3a 0232 0140
00000790: 5ed5 cb86 ab68 ed3f add6 535e 161d fd3f
000007a0: 1ce2 dfab 6243 0440 5d55 1445 f3b3 10c0
000007b0: c7bc 9f8a ef06 bd3f c5d2 78c8 56b9 f1bf
000007c0: 6130 8ea8 12da 0ec0 4b5e 9d99 e8d5 0540
000007d0: c0cc 75da 4b16 08c0 8f3d a8de f95c f13f
000007e0: 5307 4f13 2634 fabf be46 11e7 4c82 14c0
000007f0: 6b6d 8300 ad07 00c0 bdae ab34 fc9f e53f
