kaggle_playground_smoking_prob/saved_models/model.pth (torch, 94337 bytes, 72 tensors)

model.0.weight f8 [20, 22]
00000000: eb58 8956 d4b0 cdbf bbd3 cd9d bd55 abbf
00000010: eb93 cadf bfd9 7abf 5f64 470f fd0a 603f
00000020: 8bcf 5998 a948 b0bf ae9a c4cf 02c8 91bf
00000030: 89fb 4cb6 906f ae3f c44f eb05 c11c c73f
00000040: f675 b0c6 e7bd 9c3f dc0c 2d21 23ff a9bf
00000050: 4fbb 95ff f6a5 69bf 45b6 1f14 0df4 b13f
00000060: 2c27 ff7f e003 bc3f b4a5 872d bd1a 9d3f
00000070: 3a54 7664 0317 a13f 4017 dcd3 fa2a 88bf
00000080: 2b94 f0ea 46dc 6d3f 615e eb10 8006 92bf
00000090: 878a 44b8 e21b a9bf ed3d 95ef 011b b2bf
000000a0: 9ff6 cc77 b2ec edbf c0e7 ae13 f6e6 91bf
000000b0: 5c2d 8cce a626 c9bf 0020 b180 af2d d3bf
000000c0: 80b9 f573 1d43 c0bf f03e 21d3 6e70 c7bf
000000d0: b723 cbbc 3fec bd3f 03c9 696d 8361 c3bf
000000e0: 28f7 8277 95fa bcbf c37a 1714 df3a c8bf
000000f0: 6359 c10d 67e0 95bf 3e4a 7d13 5a90 b6bf
00000100: cb37 c306 fb41 c5bf a52e 1656 73c8 9b3f
00000110: a1e1 802f 8012 933f 11d5 16a6 d745 aabf
00000120: 2cd3 063e 2f15 d03f 4adc e15b ea7a d5bf
00000130: 0360 b12e d965 623f 94a1 5e00 a2bc d2bf
00000140: 6b45 3f43 4b41 abbf 9953 0deb 7bdd bcbf
00000150: 8c84 944e e86f c9bf 0a76 3d57 c010 c5bf
00000160: 664d fb0a 6d33 da3f a789 6406 51a6 c73f
00000170: 3718 2356 0841 9bbf d819 4f45 b5e3 c3bf
00000180: a1f8 ba4a 6f27 d03f 2550 20ed e069 acbf
00000190: bdc5 ab88 3681 a83f b14d fbef d4c5 bdbf
000001a0: 5a52 593c 1712 a7bf cc3c b074 f338 ab3f
000001b0: 9fa6 26f7 ce19 b7bf e45d bea7 9b39 d83f
000001c0: 348c f2e5 efbe cebf 70e2 8b48 8bfa af3f
000001d0: 7437 b22c 9f99 d33f 2ce4 b422 d77f 47bf
000001e0: 36c5 a9fe bfdf a63f 2708 58cf 75ee 93bf
000001f0: 1111 7721 c0d5 b9bf 890e 3a3d a8f8 463f
00000200: 5075 216e 667c e2bf a425 965b 6c05 a8bf
00000210: 0709 1d20 9414 ce3f ae22 9e4e 1536 bd3f
00000220: aa29 4a06 26eb b83f 8c44 b1ef 4af6 c2bf
00000230: 6bd3 a7f2 85a5 68bf 9a99 5db7 7d69 b83f
00000240: a8c2 b7d4 1b02 b9bf 182b cc1e e16e bebf
00000250: bb37 993a 527b a13f ec75 d859 4aa9 c2bf
00000260: 25d9 35f7 5ac0 803f 0b67 822c e3ed 923f
00000270: ca2c e02f 609f d9bf 7649 6248 011f b23f
00000280: 9c09 ff43 4aee 8fbf a844 f049 aa5c a33f
00000290: 7b77 f55a 78d4 7d3f 6fcd 9f89 c981 723f
000002a0: 4958 f4b1 b8aa b43f f72d 4aac 3a07 aa3f
000002b0: 56e6 5c08 23d0 e3bf e0dd 7497 2e7c 7dbf
000002c0: 1991 6279 a8e7 c6bf bc6c 5f35 8670 a5bf
000002d0: 905e 0dd0 c7ad d13f ae20 26bb fbca 9a3f
000002e0: b8ff 122d 1934 afbf c5c3 19fb 20b8 ab3f
000002f0: 8260 42b5 df87 ab3f f0c1 3912 0221 aabf
00000300: 8a5a b477 259f 493f e042 6b1c 2bde b3bf
00000310: a241 5037 1781 9cbf e595 5c84 da38 c33f
00000320: 600e b649 d365 b83f d162 8115 6831 90bf
00000330: 0c00 fac4 39c0 ad3f 6be0 8281 df67 d13f
00000340: a59b d4da 9400 be3f feeb ffa5 80b4 c4bf
00000350: 12eb f7a5 8d8e c6bf c980 07da bc6d bcbf
00000360: 36cc 2b98 aacb ce3f 05e6 6193 8899 ae3f
00000370: 29bf eb6c 56e0 c43f 0a9c fe21 f38b cfbf
00000380: 1a0c f38c f0c8 8cbf 1d81 f558 fbde babf
00000390: 49e9 ee5a fed8 a2bf f4de e17e 0f58 913f
000003a0: 90f1 ab2c 4d4f c63f a6ca f839 39eb aabf
000003b0: 9b15 8cc8 0e3e 903f f64d 1916 3176 b3bf
000003c0: 2dae 14cf 2134 b43f eb5c 96d3 08be bcbf
000003d0: af54 9f93 06b5 e4bf 7ce9 c9f4 756b c03f
000003e0: 4df7 d656 071f cb3f a17e ab9c a6ed 44bf
000003f0: 89eb 4195 eaab a1bf 3978 d233 5312 cc3f
00000400: 7436 e073 d31c 67bf 2d42 0b1b aa20 88bf
00000410: 875d fad0 a55d b43f 923f 5936 0a7d acbf
00000420: 1422 1692 a253 a5bf d184 573a 9322 c2bf
00000430: e51f b130 fd6d c0bf 6ec6 2210 f541 c73f
00000440: 5228 9bc6 8d1a 8abf e0e3 6aee c0a9 a63f
00000450: aebc 4d71 4c0b 8dbf 1339 4150 4280 8abf
00000460: 6ae5 e463 9ae0 b7bf 4e38 7adc 18d2 b83f
00000470: 03be b41e b628 a4bf 7f26 03b5 1ddf b1bf
00000480: 7786 8def 50b3 dbbf bcc5 c85d c1f0 903f
00000490: 10ae dd14 2505 aa3f f02f d0b8 f195 b0bf
000004a0: 31ca 82b7 2b23 753f acf7 6d12 7e17 b43f
000004b0: 23ed 7a51 7480 b2bf 71b7 041c 7846 a8bf
000004c0: 8667 9d21 653b ca3f bced 569d b860 c2bf
000004d0: 90d5 2950 7b27 b13f 912f 237a 37d4 be3f
000004e0: dbb4 45d6 d942 99bf c16f 9815 7be5 bb3f
000004f0: b21d 6716 34b1 b93f 816d dd16 dadf abbf
00000500: e762 af4a c4e7 bfbf c529 1902 5766 b73f
00000510: fdc1 9fee a90f ae3f cedd 2caa 3030 c43f
00000520: 4fc8 3d67 3441 783f 7fa0 c944 c857 a63f
00000530: 1750 b203 dae1 963f 4190 b513 4f78 af3f
00000540: 4334 a109 ac6e 943f c169 fc5e feea c5bf
00000550: 4be5 bd46 7a7c 8ebf 44f9 2e4d 2e8a c83f
00000560: a947 5af9 2755 b03f c3ce 8068 3a73 b33f
00000570: 6cdc e1de 3c3a eabf 5ce3 2890 7d9c b6bf
00000580: dccf 298c e9f4 b1bf 3665 913b 1a81 803f
00000590: f29c 7368 9fd0 a4bf c306 2f37 4f5e 92bf
000005a0: 5660 e920 854c a9bf 6625 7c55 b2d2 88bf
000005b0: 1f99 d659 6943 b23f 5109 924b 0719 c43f
000005c0: cdc7 4ecb 4f1f b0bf 5048 5bd9 a5b2 a73f
000005d0: 1ce7 3fa8 99e9 bb3f 8ed5 5e34 dc6b c8bf
000005e0: 2a48 0a6e 7373 bb3f f8e4 6ca6 db24 c3bf
000005f0: 862f b36e 7490 c23f 4dfe 8dc8 749e c63f
00000600: 6189 2851 bca2 b7bf 969f 568d 2930 b4bf
00000610: 5885 b2d5 2ffd a6bf 91d3 029c cf1c d7bf
00000620: edc7 3cd1 8201 c23f 978a 7e95 ead0 a4bf
00000630: b511 a5a3 51bf df3f 5db4 f14e 166b cabf
00000640: 1f3e fb09 c50f d23f 2fff 74d2 ba63 c2bf
00000650: 68d4 f14c fcdd b1bf b93e 0e9d 4b47 743f
00000660: 725b 4451 7e31 c33f 9dd3 0650 1cc2 b03f
00000670: 2e24 c087 b86d 823f 8e31 abdd 0418 c93f
00000680: f99e 958e a88c ad3f e50d 6be6 3183 b73f
00000690: 8945 da77 c298 703f c839 27f1 3351 873f
000006a0: 1f40 a1c5 4fd4 91bf de51 a081 28e0 a73f
000006b0: ac89 ea8c c4c0 8fbf 2966 5228 363e c13f
000006c0: a5d8 26dc 1f42 bd3f f6ed 75b2 9e86 ba3f
000006d0: b4b4 18d8 f88b c5bf 6dcc e955 7f87 97bf
000006e0: 7757 f301 340c aa3f 14b4 3456 7bb7 c73f
000006f0: 2dd4 f2f3 02db a2bf c0eb 22ae 4154 c4bf
00000700: f0e3 fedb f351 c6bf 5fad d458 1c68 a33f
00000710: 3bdb d01d 7526 c63f f91e e963 25f8 c6bf
00000720: 56e2 8fad 0433 a5bf ef76 d910 5152 7cbf
00000730: 16be f1b2 56d1 c73f df16 fb28 42a1 abbf
00000740: 86ed c6ef fe09 ba3f 79b7 5209 8992 ca3f
00000750: 4c0d cdb5 1199 b83f 2afd f465 c2af c13f
00000760: 1ddb 8890 dcbc 93bf 6d70 7156 6b97 c0bf
00000770: 40c5 054d e006 d13f 135e f255 2e65 b23f
00000780: 4e2f 9f5b fba7 a3bf 35a3 a589 6221 9d3f
00000790: bf08 3105 b520 8b3f 40a6 292f 6cb4 e2bf
000007a0: c2a1 f2f1 01d9 c23f 034f e14c c680 b0bf
000007b0: ee93 a10c dcb9 c03f 2da1 265b ba80 bebf
000007c0: 29af 6760 6a15 99bf affc 040f dbe4 c13f
000007d0: c19b 7338 44e2 b1bf 9ded e805 409b 8a3f
000007e0: dfef df9f 500e b1bf 0d1f 1a25 36b7 89bf
000007f0: be3e 453d 2f3c adbf 156f 061b cf5f 8ebf
-0.23195890641608882 -0.05338852454489237 -0.006555318363699473 0.0019583647319732357 -0.06360874146940725 -0.01736454384913582 0.059444925549988765 0.18056500233671902
0.028068181516678302 -0.05077466754894441 -0.003130896013935048 0.07013017407708684 0.10943415760916925 0.02842231359855925 0.0333787021765279 -0.011800727453657012
0.0036450753318768756 -0.017602921517065776 -0.04904087542879148 -0.07072460269159082 -0.9351436939102377 -0.01748260970246185 -0.19649205289202143 -0.2996634251362593
-0.12704818880179047 -0.18311868008685606 0.11688612326828617 -0.15141337244455863 -0.11319860618365551 -0.1892966125587546 -0.02136384030776507 -0.08814013458076261
-0.16607606725886934 0.02713184559756478 0.018625262164478355 -0.05131410505729595 0.2512930017212962 -0.3356271645820398 0.002245830711711251 -0.2927632335290806
-0.053232528647309284 -0.11275457848144156 -0.19872764431878343 -0.16457371005792282 0.4093887908213304 0.18476307689804836 -0.0266152670453936 -0.1553865993902963
0.2524069051540981 -0.05549528975112165 0.047860817130537005 -0.1162999235050879 -0.04505989658051553 0.05316887664241107 -0.09023755582770797 0.37851611500943094
-0.24020193794157907 0.06245837460113968 0.3062513290868687 -0.0007171440569556701 0.04467582687073916 -0.019464340954080363 -0.10091782395381112 0.0007010289650257333
-0.577685561274544 -0.04691637628554737 0.23500300949132955 0.11410649461152886 0.09733808187062346 -0.1481412573216726 -0.0030086151284600036 0.09535966612529592
-0.09768842643075948 -0.11887938501255879 0.03414399113954355 -0.14579133402814592 0.00817938868452168 0.018485593406331307 -0.4003525226150485 0.07078559891878008
-0.015591221046524599 0.037816354299260724 0.007282705438539479 0.004518306022862502 0.08073000282851796 0.050836404353585544 -0.619157329877633 -0.0071985073075704065
-0.17894464423182724 -0.04187411691210616 0.27623172109222427 0.02616494493261772 -0.060944353821013875 0.054139166500028625 0.053771010280969214 -0.05103308174591692
0.0007819111773724335 -0.07760877078841188 -0.02783619189364262 0.15017253363582408 0.0953037314375762 -0.015813471138559635 0.0581071904134661 0.2719649090536282
0.11719637243787291 -0.16175850015119403 -0.17622538188864972 -0.11104946444493459 0.24059040479878185 0.059765117636697375 0.16309624021914118 -0.24645842704669035
-0.014055136968073301 -0.10496493265009517 -0.036811779594659706 0.016937486762315282 0.17429508858903064 -0.05257586319603051 0.01586173152010915 -0.0760222128822575
0.07892047219927951 -0.11227469602305333 -0.6470978625535703 0.12827944233488242 0.21188441982479347 -0.0006386817488781179 -0.034514742584142395 0.21930923490885038
-0.0028213624891638093 -0.011781052542034843 0.07955395080568027 -0.05564147866664294 -0.04165370972902252 -0.14168014858936442 -0.1283565986398109 0.1817003563679011
-0.012745959876515087 0.04426386747713429 -0.014181706626656822 -0.012939947199040824 -0.09327092112370897 0.0969558275484996 -0.03937310337857627 -0.06981073064084774
-0.43281958955603933 0.016543408726823236 0.05082050208769939 -0.06478796731988701 0.005160494583992079 0.07848346662464561 -0.07227255810987691 -0.04741263715764788
0.20493759290075902 -0.14357669527622174 0.06700869280924437 0.12042566997405248 -0.024669078543799166 0.10897034909470361 0.10036016032164843 -0.05444222954858003
-0.12463023017279405 0.09140533257701751 0.058713255289948287 0.15772064503992883 0.005921559048021121 0.04363847579662749 0.022345930553072515 0.06146475902167526
0.01995343025946662 -0.17123393667209366 -0.014885859760158346 0.1917169453499331 0.06379937970839812 0.0759769921431213 -0.8196091035050705 -0.08832535523914714
-0.07014331504780053 0.008058743422383868 -0.04065416479152785 -0.017937886946816983 -0.04941192652467012 -0.012120621904176242 0.07134111827199206 0.15701380910838705
-0.06297777856414584 0.04628484991339177 0.1090332065358805 -0.1907916312899655 0.1072303908970588 -0.1495623171447631 0.14503341107626627 0.17671069901187977
-0.09232689839749277 -0.07885989857334005 -0.044900412403203915 -0.36113348231747816 0.14067111221953557 -0.040656405209366024 0.496052179154755 -0.20639304022498353
0.28221250509975165 -0.14366851116391774 -0.06979348066836766 0.004950805058697654 0.1499479195415137 0.06546189264083897 0.008998338358667448 0.196045501934702
0.05771376362355158 0.09184562564319483 0.004051932946496869 0.011385350987350842 -0.017411467015620127 0.046632066558377025 -0.01550439410249712 0.13471104592172026
0.11429022908018512 0.10361663681936037 -0.16833410789096137 -0.022977819079141804 0.05087435268221346 0.18528691968222744 -0.03682717540633749 -0.15882130625490554
-0.17437599412895066 0.037903676837539584 0.1730486293397123 -0.17944781664322543 -0.0414048635356649 -0.006914440787651562 0.1860760091544626 -0.05396467924360392
0.10171502450878309 0.20759690242033083 0.09608565033436384 0.13817625025147012 -0.01927513725442075 -0.12962094994407228 0.26604468843205 0.07185639952000882
-0.03839097493582121 0.02844766583567378 0.013245977612431735 -0.5845242425104473 0.14724754632812959 -0.06446494461971146 0.13067198387867002 -0.1191517326866502
-0.024495756277175183 0.1397966216409023 -0.06985880258763101 0.01299142854724416 -0.06662467864219888 -0.012556479460968295 -0.05709979651385087 -0.014831178676835624

model.0.bias f8 [20]
00000000: 5fdb bf0c 16ad a5bf 6c92 22c7 8b52 a2bf
00000010: eabb 70ce 8043 a23f 10fd dab2 e504 d1bf
00000020: edc0 f424 cbb7 bf3f b8e7 eceb ec29 b93f
00000030: 046e 9968 0c8d babf 9cfa 413e e9f3 d23f
00000040: cf91 97df 085f ca3f 04b0 9f43 f72c a6bf
00000050: f05a 7a40 6fba b3bf c0c9 ab19 abe2 a1bf
00000060: 319c b5d7 3e62 bf3f 696c f5e6 871b c1bf
00000070: f4db d00d 5add cc3f 486f 73ab 9e5c ce3f
00000080: 5abd c480 6ef8 ad3f 580d c139 b18c bd3f
00000090: 572a 2b43 d9e5 b43f 1a35 a175 da19 c63f
-0.04233616738922907 -0.03578602605674494 0.03567125816368118 -0.26592390505170815 0.1238982167458322 0.09829598197839473 -0.10371472886748029 0.2961371524797103
0.2060252277143619 -0.04331181240544882 -0.07706351589363769 -0.03493246734969402 0.1225928570398629 -0.13365267541198314 0.22550512003519396 0.23720153209330364
0.05853600808984068 0.11542804393780182 0.08163221254214058 0.1726639818538523

model.2.weight f8 [20, 20]
00000000: 6a40 9529 9c98 d43f 9d49 eb92 c002 b43f
00000010: 5915 81d0 ad1d d03f e793 c730 ebc2 d03f
00000020: 0c65 e422 8f87 d1bf 500a c3b7 bfa6 343f
00000030: ad8b d325 c02e cebf 0c68 20fc 6542 d43f
00000040: f458 1a05 2b49 98bf c1c9 edeb 0ac5 b83f
00000050: f657 aff0 373b c73f c0ef 6f8e ac1e a6bf
00000060: b890 acb1 0f8b bf3f 4d93 4e7f 8724 abbf
00000070: 6204 be11 617b ae3f 4ba9 5016 aba8 c03f
00000080: 579b 5f0c 4be9 b5bf 12cf 0d6a 0279 c3bf
00000090: ef9d ecfc 365c a2bf 9df7 4a52 0ea7 a9bf
000000a0: 19eb d997 cf1a c8bf af2d 0e36 1658 d23f
000000b0: 121f 39f7 d5be d33f 5956 2cad 43fb babf
000000c0: bcca 12c2 5ab0 c33f 84fd aab2 0013 ac3f
000000d0: b1cd 0364 ebce d1bf 4132 fd97 38b9 8f3f
000000e0: a7cf aff2 76ea 91bf 188e 11ce 7f8b b0bf
000000f0: a05f bdcd df12 b0bf 9aae 0c0c f9c3 cebf
00000100: 1c82 3edd 464d d1bf 53f2 88bc a2f1 babf
00000110: 2ccf b918 4a1b b93f d240 ae2b 71f5 c13f
00000120: c417 6547 e78c 953f 93ca 28e7 77ea c7bf
00000130: 04aa bcaf aafc b03f bdf6 6e17 10f7 b33f
00000140: a7da 83a0 ec2e cf3f 9110 5561 baf4 ca3f
00000150: 7c9b 8cd3 23e0 d23f ab3d 6cd8 b09e c73f
00000160: 9523 01ee 1b37 bbbf 6b94 a6b6 88d6 c3bf
00000170: 4786 7b65 0554 bb3f 36fb 3ffd ba68 c33f
00000180: 9c93 cbd8 9f4d c6bf 2ac7 fa59 4528 a8bf
00000190: d972 a948 bdb4 833f 555a 4adc d702 b63f
000001a0: 7f12 2f84 3624 a7bf 90a5 87a2 e874 c73f
000001b0: 2099 af16 14ad a0bf 7242 6d8a 196c d83f
000001c0: 0be5 9c87 9e47 d43f e37f fec3 6e8a c5bf
000001d0: 8c24 f26e d53b d33f 500c 97d5 f24c ccbf
000001e0: db29 c80d 7daf aa3f 4779 803d 1e7e cfbf
000001f0: b4e4 1f3e 5886 bb3f 39e3 ee0b f55a b63f
00000200: 2abc 15f2 4b1b c33f 5cc8 a468 50a1 d43f
00000210: 3e63 71cd 6369 c63f 73ae 47dc 3cf9 d33f
00000220: efeb 0d87 a3d2 aebf 233f 749c ec2e d13f
00000230: 2d2c 1156 1afa ca3f 84f4 404d 72bc 9dbf
00000240: 6283 b749 5db0 c4bf 3c84 d37e c354 9d3f
00000250: 5048 8aa9 b8cc b03f 2a4b a40c 6f51 ce3f
00000260: b39c 47b9 4953 c1bf 3036 0df5 74b9 af3f
00000270: 90cd eac7 21b7 ca3f d4de 610e 9ebe b4bf
00000280: e5b2 adc8 7bde cb3f 4da6 266a e748 a6bf
00000290: 88c6 3ebf 9a5a 69bf 4dd7 f3bd 8f27 c33f
000002a0: 0e8d 46aa 09ec c23f 277d adf5 aeaa be3f
000002b0: b5bb 50fb 3d52 cc3f f9a9 27d0 ca8f a83f
000002c0: 49ee 111d e313 5bbf bdaf 4f0f a425 c13f
000002d0: 3784 90b1 0011 c2bf 8cce 6d4a a9c5 a7bf
000002e0: d4ec 2e16 8cf9 b6bf 079a b874 cd59 c53f
000002f0: e817 c8b6 05dc c8bf 6cda dc2d a9ac 8b3f
00000300: 6b53 d4ac 42a9 ac3f bedb 18ac 33ae ce3f
00000310: 3acf ac4a e7b3 c03f cd73 5fd4 2407 c0bf
00000320: 0f6d ce20 2174 c63f 83c2 6fdd 8a57 d0bf
00000330: a791 8853 9166 babf d134 b4b4 94f1 ca3f
00000340: bdfd e673 6355 dabf 02cc df23 4861 b6bf
00000350: 64c1 120c 0787 a63f c2f2 37eb 6cb2 ca3f
00000360: e129 2da2 e2d2 c43f 4c89 abdf a069 a8bf
00000370: 6906 6723 36d3 c13f e398 18ee 6e1f ca3f
00000380: eda9 6944 abc8 ccbf c6e5 d0e9 28c5 d7bf
00000390: fd26 adc4 ca58 b1bf 7273 d839 3336 9dbf
000003a0: 5d40 50ea f852 c7bf e8fa 7634 d0e6 bc3f
000003b0: 3fd2 dd6c 7975 ae3f 2a56 0923 fb27 ce3f
000003c0: b810 6f42 9045 c9bf 08b0 79ca a1c2 b8bf
000003d0: e0e3 3100 9b80 d03f bb3e 686b 1a66 953f
000003e0: 83f4 98be 67cb a7bf 8d64 4c7f 9147 c43f
000003f0: d15b 5bc6 f949 b5bf e9cf c48e 43fb c93f
00000400: 266d 40b4 f869 c7bf bb25 8bab 7102 bcbf
00000410: a55a 5907 83ed 9a3f 255c 1956 ef1d 90bf
00000420: 5dbe c7cb b0f0 c13f 5d45 45c8 3f0e c33f
00000430: 452a 394f 0c25 c23f 2e48 fd21 f690 94bf
00000440: c6a2 490a 0172 c2bf efc7 f9fe 8c1c d23f
00000450: 0b64 dc1d 7329 c33f f1b8 a760 292d c93f
00000460: e40e d8fb 9c45 d83f 6607 cc96 a0cb 9dbf
00000470: cc8c 1664 8f26 c13f 9b0d 25e8 e3d2 ca3f
00000480: dec6 521c 8b14 cebf 190c be8b 1e7c 7ebf
00000490: b675 97d1 e9a8 a1bf ff8d edf2 5c93 9cbf
000004a0: 8f6f 00a6 372a b33f 9f9d 7a68 329e d13f
000004b0: ae9e e150 7526 b9bf 2ec9 44ff b7c8 c1bf
000004c0: d411 9b0c c54d d53f d73f 5d5b 1575 b13f
000004d0: 2016 68f6 662a d2bf a0c6 f502 6aba d03f
000004e0: 77fd 8e01 d65b c3bf 93b6 6be3 b500 d4bf
000004f0: 3fde fd45 0507 c4bf b39f 4fea 6a2b 9dbf
00000500: 948b d3c2 2db9 ce3f bf6d a219 c232 bf3f
00000510: 5eeb 4b7c d03a cb3f 2717 15d8 4a0d a33f
00000520: 427c fcb5 9fef c4bf f7a0 1a87 5299 ac3f
00000530: 109a 1d15 fd66 8bbf 0700 053a bb69 d03f
00000540: 1ffd 166a a682 d5bf b9c3 421e 5840 d33f
00000550: 2034 ec84 ee11 d13f 41ff 874d ede8 883f
00000560: 2090 a522 9cfe d03f 123b d02f 360c c73f
00000570: 61fb 6e2e 12e7 b2bf df8e 8761 68cd a7bf
00000580: 046a ba5d 1a2d cb3f e98c 68ec 5d65 b53f
00000590: 519b 7ecc d615 b03f c8a9 6c61 1c09 a23f
000005a0: f2d7 27e5 43e5 b1bf 9a53 07b2 e324 ba3f
000005b0: bdcb 051c a608 b0bf 2f0c bcdf 8d0c c43f
000005c0: 6687 a366 2e79 bebf 3bd4 d696 3919 cd3f
000005d0: 6784 635b 40a4 cd3f dad3 942f 7703 cc3f
000005e0: 7f13 0c2b 1ec0 c4bf 02fb a216 0353 ca3f
000005f0: af7b 9a55 fc36 b6bf b951 0a9b beef d43f
00000600: 7283 cd60 75d0 c43f a5c7 c3ec 6cde c53f
00000610: 4b9b ebed 9f75 cabf 769b 7a47 57cf 8bbf
00000620: 4dd3 79b9 9386 b1bf 5b74 313d 6827 be3f
00000630: 443d 8897 e9f2 cd3f 8cf1 7773 df8c c13f
00000640: 5548 55b5 d14f a83f ee4f d15e 2f36 a23f
00000650: 31a8 d4f2 9b8a c63f e143 3a68 3a35 d23f
00000660: 47e7 98cc 2b80 c0bf 993f d3b2 ef85 cfbf
00000670: c458 0557 700d c03f 851b be3f 4bc0 b2bf
00000680: f759 5cd8 1da9 ccbf 66be 088d 95bf cd3f
00000690: cd04 4a3f f064 cabf 370d 028d 5aa2 c53f
000006a0: f03a f735 1b17 a5bf 0e07 b4af 6e2f 843f
000006b0: 9b15 dd36 3fd0 aebf b586 52cd ab06 d13f
000006c0: d834 5984 c580 ab3f 8c2a 6f59 386f c93f
000006d0: f680 97a4 2296 babf 316a 5205 14db 983f
000006e0: 7cf2 1851 197c b1bf 61e9 8dae 21b3 c2bf
000006f0: 7242 89a8 0de8 d33f 61f5 64d4 07f9 9e3f
00000700: 8358 8fd7 745b 9ebf 91ac 4e82 a8cf 793f
00000710: cd21 5950 6bf6 b03f 0658 ac17 f5f5 ac3f
00000720: 9e8c fc24 488b cf3f 83a1 19f1 2730 d0bf
00000730: adaa 9fdd f1c5 c43f 5afe e450 5962 a9bf
00000740: 5b6f 5b51 325a c53f 5004 be14 df6a b2bf
00000750: 54b0 5ada c9d0 93bf f2f8 463f 7ad6 c4bf
00000760: 0141 b3b7 62aa cebf 287d 60b1 deb5 b73f
00000770: b212 0fea 5428 d1bf 2dd4 16df ac89 b83f
00000780: 066b f5f8 8253 b03f f942 0a75 ca24 b8bf
00000790: df06 78c7 7c05 acbf f1f4 66da db54 c4bf
000007a0: 6e8e 34fc 5d95 cc3f cfa1 5a00 d1ae 6dbf
000007b0: fc43 2c50 afc8 c5bf f669 9654 cc37 8cbf
000007c0: 2f22 e773 0117 b03f d8b3 7f8b aeed b23f
000007d0: b877 c561 5456 d03f 1651 d360 7005 c33f
000007e0: 55d9 d825 11a8 be3f 828b 0ac7 3938 99bf
000007f0: 92b6 471e f448 b63f 04c0 942a ede8 b93f
0.3218145757755396 0.07816699587718863 0.2518114601301327 0.26189689410813205 -0.2738988724464242 0.00031511479006610544 -0.2358017143916106 0.316552635400172
-0.023716613947350987 0.09675663242322853 0.1814947056979574 -0.04320277441726672 0.12321565711733029 -0.05301307133712516 0.05953505841808561 0.13014734830478356
-0.08559102108084225 -0.15213041475691874 -0.03585979306654596 -0.05010266069937972 -0.18831820406543257 0.28662638930174017 0.3085226930893309 -0.10539648988591334
0.15381941295853163 0.05483247929577842 -0.2782543636996833 0.015489999903047226 -0.01749597412340589 -0.0646285894486528 -0.06278799794142609 -0.24035561645847708
-0.27034160238147975 -0.10524956801322931 0.09807265380532887 0.14030279763074432 0.021045316441153053 -0.18684290682866286 0.06635538855031348 0.07798863002877972
0.24361951673173118 0.21059350731423312 0.2949304166708584 0.18453035895843803 -0.10630964813857553 -0.15498455923549 0.10675080993271378 0.15163361898154343
-0.1742439087458053 -0.04718224261649902 0.00962207677837894 0.08598088386711684 -0.0451981579167624 0.1832552713015443 -0.032570483941343875 0.38159788625947677
0.3168712925285752 -0.1682871300699836 0.3005269607024921 -0.22109828404618037 0.052120120937690216 -0.24603631976146742 0.107518687407622 0.08732539693199905
0.1492705280356586 0.3223458310996017 0.1750912430896054 0.3120872641727381 -0.06020079635251096 0.2684890296813924 0.21075753405088574 -0.029039178815072578
-0.1616322145410108 0.02864366017900387 0.06562379969753462 0.23686016194604892 -0.13535424754011202 0.06196179858544004 0.20871374379713048 -0.08103359080439115
0.2177271585345785 -0.04352496310032148 -0.0030949613955833545 0.1496448209288083 0.1478283006118563 0.11979192255011083 0.2212598302007486 0.04797204771951508
-0.0016526906877335648 0.1339612078439795 -0.14114388151304677 -0.04642991097980795 -0.08974528829178335 0.16680305670998072 -0.1942145483482698 0.013512918197745104
0.05597885474904881 0.23969121840647561 0.1304902186035351 -0.12521801347511854 0.1754189882457031 -0.25534316658653483 -0.1031275586070196 0.2104974634498036
-0.4114616996630181 -0.08742190242610096 0.04399892828348831 0.20857011304169332 0.1626857082249691 -0.047680880835985734 0.13925816277155725 0.20408426881585404
-0.224873932270682 -0.3714086802825388 -0.06776110936803188 -0.028527069478616558 -0.1822196144207763 0.11289693146589352 0.059490007914892555 0.23559512339368044
-0.1974354099639919 -0.0967198485683981 0.25784945506126 0.020897305303207086 -0.04647373391751677 0.158434092671801 -0.08316002934166923 0.2029804656136769
-0.18292149354315618 -0.10941229284357849 0.02629666073183991 -0.015739192609853476 0.14015779447753376 0.14887234953725229 0.14175561779332405 -0.020084234070346145
-0.14410412790609523 0.2829926004407061 0.1497024436764892 0.19669072360506548 0.3792488536275711 -0.02909708900825283 0.13398926150430268 0.20956086001579596
-0.23500193484283377 -0.007442588157462481 -0.03449183162204454 -0.02790589554514433 0.07486293604637083 0.2752805729200762 -0.09824307655946526 -0.1389379497937368
0.33287168723134397 0.06819280129025117 -0.2838380247415859 0.26137781418865735 -0.15124011112309763 -0.3125433655649001 -0.15646425168573505 -0.02848593764420544
0.24002620709424305 0.12186825872270556 0.21273237294357278 0.037210787656063275 -0.1635627401928748 0.05585725688189485 -0.013380028921983672 0.2564533297154416
-0.33609924660045637 0.30080225901752616 0.26671946507195976 0.012163022926869995 0.265540155253122 0.18006017050398576 -0.07383836396819056 -0.04648901167436547
0.21231393410273836 0.08357798597039658 0.06283323757689387 0.03522576035750863 -0.06990455956096733 0.10212538811113206 -0.06263197120806203 0.1566331236318503
-0.11903657918767649 0.2273323046225942 0.23157505476322912 0.21885576079662777 -0.16211297132408828 0.20565832715325177 -0.0867765149109647 0.3271328462663195
0.16261164881418783 0.17085038719920678 -0.2067146217079546 -0.013579065197814915 -0.06845973280162561 0.11778880590414202 0.2339756002333876 0.1371115983782939
0.04748397196330304 0.03556964905206415 0.17610501629798272 0.28449878862835304 -0.128911471272483 -0.24627491218279543 0.12541012047831235 -0.07324667268959047
-0.2239110285233463 0.23240918528016435 -0.20620539751329262 0.16901714215428296 -0.041191912019362564 0.009856095063244943 -0.06018254799577535 0.2660321717358827
0.05371682396489924 0.19870666853815455 -0.10385338323931478 0.024273217034173015 -0.06829984884184087 -0.14609166167412993 0.3110384126530682 0.030246851290248403
-0.029645753533110508 0.006301553953487319 0.06626005851388257 0.05656400598506654 0.24643804365141347 -0.25293921036657013 0.16229079553098327 -0.049578467488114966
0.16681508038061107 -0.0719432283058421 -0.019351152374540284 -0.16279533471783442 -0.23957475633370254 0.0926188643502327 -0.26808665139496235 0.09585075804246009
0.06377428606121435 -0.09431138379501282 -0.054729365681863255 -0.1588396850983496 0.2233083230467971 -0.0036233980234394512 -0.17018691458409296 -0.0137783015550683
0.06285103873882102 0.07393923669560765 0.2552691416548174 0.14860348441892118 0.11975199865341797 -0.024628546498785216 0.08705068339596725 0.1012104252774862

model.2.bias f8 [20]
00000000: 58cf 790c 87b2 c4bf 6536 9890 911a a1bf
00000010: fcaf b9f5 7cb2 d13f 342d add5 74bb c33f
00000020: dcf8 1a93 ba09 c43f 37c5 227f dd9c b4bf
00000030: bbb6 a7aa 3de7 cd3f 40d5 a073 eb30 8cbf
00000040: f3da 1586 0622 cf3f f2cc d642 829b c03f
00000050: 5a3c 872c fc45 91bf 6e8f e5ec a799 c13f
00000060: c3b7 cdf9 e7a6 cc3f df6d 3d65 b083 cfbf
00000070: da05 eed4 dcd2 c83f 8327 c8c7 bc40 d33f
00000080: fbf7 2700 9b26 a3bf f46b a5f4 25aa 903f
00000090: abc9 f6f8 4b49 aabf 22d8 c977 c491 b4bf
-0.1616982279698458 -0.03340582742758328 0.27651905056586634 0.15415821488782344 0.15654689963225266 -0.08051857332136057 0.23361941178102605 -0.013765181986040376
0.2432258753503543 0.12974575294138152 -0.016868534295835104 0.1375017077181115 0.2238435716384953 -0.246206330712865 0.19393501660310514 0.3008262587542207
-0.03740391137033324 0.016274064118402223 -0.05134045995818622 -0.08034923481486136

model.4.weight f8 [20, 20]
00000000: 7d69 f2cf 794c babf bf43 8187 d00e 8ebf
00000010: d574 05e2 ffcd a3bf 0f03 7b40 0f0d b6bf
00000020: 4bfb 7496 0f73 b4bf c446 f18e 0c2a c93f
00000030: 7a2f e4e5 2fda ca3f ef01 397e 5427 c33f
00000040: 3451 6548 c9dd be3f 8359 516e 5f2a c1bf
00000050: eaba 5147 a67a b7bf 52a5 b20e 5f1e c03f
00000060: f823 39c8 c876 6ebf 0b89 d1c9 cdfc c1bf
00000070: f8d4 216c 1193 adbf b79d e430 d4f2 d03f
00000080: eb4d 9c52 877f a2bf 4e87 e298 e73f d03f
00000090: 5130 f99c 47e7 c73f f503 37f0 f234 b0bf
000000a0: a1bf ab38 f3c3 d23f 1f4a 635a f0b0 d8bf
000000b0: dc51 d499 f45a c63f 1fb3 c700 9d85 c5bf
000000c0: 1bce ca85 d5c6 acbf 83ce 53ec 3b83 b5bf
000000d0: dc86 b579 f654 c7bf 2005 ad47 eb2f aa3f
000000e0: 7f8b 97ad 30a9 a0bf fb9b c58a 91ac bb3f
000000f0: 1388 cc47 cffa d13f aab2 3715 966a a0bf
00000100: 6d6e 4ac1 9384 cabf f6a0 d77a c43d d13f
00000110: 5c13 6600 a443 c33f 006d c2e7 8b34 e4bf
00000120: 7263 27f9 f8cc b0bf d124 39d0 049e 92bf
00000130: 374d 88aa c4e4 cf3f 0b7a eff4 7fcc d43f
00000140: f736 8cbf 5c07 ac3f a210 8b62 b894 bbbf
00000150: 9b3b 05ac 9929 cabf 0e29 2e71 4fb1 c6bf
00000160: 3545 64cb 454e c33f 25d8 a262 e8a3 cbbf
00000170: fbf8 9cac 2d7b bcbf e81c 4372 deb0 babf
00000180: b28e 32c1 7547 afbf 0c2e 661a b0ce c3bf
00000190: 4ab4 88af 059d a6bf 0a1d 3d9c bc05 c93f
000001a0: 90a9 d176 686f c9bf 966c e236 94fc a93f
000001b0: 20dc f6ae 3cb5 a63f 38ab 3e52 f639 b53f
000001c0: 8289 497b 7cc9 b23f e157 5259 9463 7dbf
000001d0: c95e 4f57 3bcb c3bf f72b 796d d48d b73f
000001e0: 7ac6 0ac0 9694 a93f 65ae ac81 fd95 cbbf
000001f0: ab62 9439 7b48 b6bf 862b aa7c dbd3 b4bf
00000200: e989 e28f 155f c83f 479c e8d4 53f3 bc3f
00000210: 8da0 c831 17b4 bebf aa15 879c f630 c83f
00000220: be7b 2379 d0e8 c03f ec81 625d fc3a a93f
00000230: b2a7 fdb4 e505 cb3f f8dd ec1c 2cf0 b5bf
00000240: a5ab d21e edf1 c7bf e030 b0d3 a506 cf3f
00000250: e207 27ef 269c c43f cb99 23fa f986 d4bf
00000260: d087 8f0b 5053 c53f 2c92 95fb 13ce d1bf
00000270: 40ca 46fa d048 aa3f f88f 1f23 71dc bc3f
00000280: 5ab3 a129 0ee5 c33f d456 fe8a 369f dbbf
00000290: fce9 9fbc 8ac9 b23f 8e0b dcae 4870 a2bf
000002a0: 0860 4edd 392f a6bf d212 6af1 8927 c7bf
000002b0: 9326 b299 9a03 b43f 2a3a f199 de55 c73f
000002c0: cd0c 8cb7 5902 d03f 98f7 edfb d5c6 d13f
000002d0: f72b 375e 61a6 b2bf 3b5f 853d 87a9 d2bf
000002e0: 4a0b 1e88 306a c7bf 8338 205d 1c43 713f
000002f0: 7409 b4be ce45 ce3f 626c 398b 0f17 d9bf
00000300: 133b 1c5a 9b42 d13f a7a6 db9a 986c cfbf
00000310: 0134 2b99 e8c6 89bf 6ef1 2252 18cf a3bf
00000320: 7b95 b234 aa4c c73f b293 a85d 71d1 a7bf
00000330: 7400 06aa 95a5 6ebf d224 165a 6207 cf3f
00000340: 0385 0b3a 6bbf 8c3f 9a9b d3fe b39c a13f
00000350: 7d0a d50d 5c71 cc3f 3f7c 0fb1 f50c ce3f
00000360: 25e0 93c8 ae78 c23f cbcd e3e7 fe20 b33f
00000370: 4fb7 6dab b485 98bf 2ecb 505c 1ea8 9d3f
00000380: 6879 70a8 1452 b7bf ceb2 67ff be61 d23f
00000390: 3a60 dde0 0ad0 90bf ce37 1511 3e1a a6bf
000003a0: 4031 ab8f 8281 c33f 6d42 8e0d 995a cfbf
000003b0: 84e3 726a 91ad ccbf 5800 d37d 55b8 a13f
000003c0: 19d9 ad7f d905 c7bf 121b 4226 9e76 dd3f
000003d0: 850e c4f1 c6f0 bd3f bfe2 716c 8129 af3f
000003e0: ee6b 7c32 e356 c73f 0224 8bf1 edbc b0bf
000003f0: ae3c 440c 633b c43f bc2f 2338 0c21 cebf
00000400: b21f 0036 ea89 a6bf dba5 fc7c 64ed adbf
00000410: 913d 6faa bccc cabf 5369 4642 71bb d53f
00000420: cdd4 b3e6 2d3f 9b3f 8c2b 096a 494f b9bf
00000430: 22ed cec6 cb7b c8bf 5b92 98b1 2b7e d43f
00000440: ff18 3478 395f a83f 3141 e573 c22b 56bf
00000450: 0352 1967 5a52 d43f 2dc2 64d1 5952 a63f
00000460: 6165 bed0 9944 a03f b072 1fd8 ce41 c4bf
00000470: 16cd 2898 d334 a9bf 65eb a2be 6697 c73f
00000480: b8b4 47b8 9efa c93f 7d9e 06a0 ec91 ccbf
00000490: b6cc b689 e693 b33f 4bff 236e c414 c33f
000004a0: 4bf4 07d9 2af1 b03f 65ad e7df 6750 c43f
000004b0: 8255 c3c8 82bd cd3f e904 0b91 99af dcbf
000004c0: 5620 7727 c417 d1bf 5d5d a244 c918 d73f
000004d0: 50f0 add6 5d9d b73f 1f5c 66ad d3cc b43f
000004e0: 02ac ffbe 6e68 87bf 1421 019f a279 cdbf
000004f0: a545 eb52 cd8e c33f 5929 7e77 89fa c13f
00000500: 7040 3605 3c78 d53f 45a1 2469 66fc c8bf
00000510: 4dc3 269c 2a68 d03f e34d 0a72 0385 cc3f
00000520: 4469 7b46 ccf8 a63f 8df8 d973 eb6f cabf
00000530: 045a c2b5 b518 b9bf 791e e048 3694 d43f
00000540: 8365 011c 76e3 d23f abac 586c a463 ab3f
00000550: bb2e b427 2951 aa3f c132 7bad 5e1c cfbf
00000560: 6465 d9f3 a4b7 cbbf 8ddc 5e92 51aa d33f
00000570: 7c27 1f23 ded0 c93f a95e 73cd ef1f c9bf
00000580: 5c72 69d3 e52b 8fbf ec1b 7f1e 5c8b cebf
00000590: 3ed0 0d7c d70d b83f 429b 34d0 5957 c3bf
000005a0: 7e25 dc84 f037 85bf c3ae 8ea4 feb6 d2bf
000005b0: fb64 837e fe7f b33f 0c2a edbd b57c b93f
000005c0: ab75 4cb7 1196 d33f ec24 fdd7 3146 b13f
000005d0: 8d81 2b4a afa4 c6bf 5dc6 a9c5 7a2d abbf
000005e0: 22a9 f3fd 9c70 babf a329 f352 7b3b a3bf
000005f0: 5e96 42d9 b9d7 c83f 67cc b5ee 4e04 ccbf
00000600: 3264 536b 68a4 c9bf 7cf6 3bb7 1dda b23f
00000610: b39b d370 a14a d33f 9937 387e d608 d5bf
00000620: 9fab 64bf 7df9 81bf fe6d daa9 6d2b 8f3f
00000630: 4ea3 4985 4873 d33f a73e 2aea b2a3 a63f
00000640: 4ab9 f663 41af b63f f306 e1a7 ef70 d2bf
00000650: 487e cd4e ffe8 6abf a7e8 adfc 7f69 733f
00000660: 83ed 1a88 589a cb3f 87a9 1025 3a3d cbbf
00000670: 4440 514d 6364 b2bf 7beb 1fd2 1700 c4bf
00000680: 8ddc b030 40ed d13f 0a3d 89df 0ce4 90bf
00000690: 9090 adee dd82 d23f 35dd 36fe 27ef babf
000006a0: 7eb5 9e84 f220 98bf 4ad1 6fa4 572b d53f
000006b0: 630f 4264 4491 b13f 5074 8b28 0e29 b1bf
000006c0: c66a 0589 54cd 983f d989 4248 8a06 a53f
000006d0: 1f5b c29c abd3 833f 5f92 9dac da75 c6bf
000006e0: ca6e abe3 c88b c63f b664 cae8 f6e2 cabf
000006f0: eb40 8c20 4121 d43f 04dc 425c 80eb c2bf
00000700: 3fac b286 0188 b73f 939e 680c 506e d2bf
00000710: a87c 80ca 555c 853f 0f5d 552c 6044 d63f
00000720: a9ef 0db6 14a1 933f 028a 8e06 b089 bfbf
00000730: a896 c9ce 515b ca3f 6c18 5f76 0589 b2bf
00000740: 5bdf b77b 0541 b5bf f904 e648 d122 ce3f
00000750: dea9 ed60 b1a3 9a3f b528 0ed3 fc48 d7bf
00000760: 1104 9f74 7b64 bb3f ab7e 1271 9884 ccbf
00000770: 97d5 1f90 26a7 c63f 316b a0ae 3d8a babf
00000780: e780 8a9d e872 81bf f1e0 55c4 56e1 d0bf
00000790: 591b 9726 2302 c73f 409a 1a75 9b35 d03f
000007a0: f218 7627 610e d33f 15a8 613c 734e d0bf
000007b0: 7ae6 78f8 64c2 b9bf 5c28 521e 6cb2 c33f
000007c0: 82bd 1a96 e833 9cbf 43fd 8f50 adb6 ce3f
000007d0: d6fc 4c9c d120 bf3f c542 3b1f 8072 b8bf
000007e0: 3fbf 6255 82e1 c13f 577b aff8 ba4a d63f
000007f0: f283 9577 63bb 93bf e591 71c6 de17 b93f
-0.10272942854718355 -0.014676694045336334 -0.03868102678345912 -0.08613677334052404 -0.07988068984284984 0.19659573535550667 0.2097835419193606 0.1496377579042156
0.12057168977236615 -0.1341056145344731 -0.09171523324196654 0.12592685907047013 -0.0037187501455133685 -0.1405274615709192 -0.05776266522381407 0.26482109808645354
-0.036129216036126476 0.2539004319206598 0.1867455975028656 -0.06330793728467639 0.29320984396235344 -0.3857994921392293 0.17465074073028475 -0.1681400541123361
-0.056204483587318964 -0.08403372306548289 -0.18228035872294057 0.051146843432898104 -0.03254081839602118 0.10810193670259587 0.28093320857635823 -0.03206318863872089
-0.20717093408608225 0.26939498897856085 0.1505017282435358 -0.6314143683006535 -0.06562763293130816 -0.018180918892799994 0.249168952243602 0.3249816791484654
0.05474366987446715 -0.1077380409797706 -0.20439453982768616 -0.1772860815656902 0.150826191246361 -0.21593956772056902 -0.11125455345333883 -0.10426130570987235
-0.06109207137458607 -0.1547451142217685 -0.044166734387865406 0.19548757199138606 -0.19871240426739378 0.050755149554981546 0.04435147891802438 0.08291568286828699
0.07338693628256546 -0.00717504452508952 -0.15463964236436414 0.0920079009312501 0.049961768095624984 -0.21551483947529274 -0.08704347759010982 -0.08135768693516185
0.19040174031859117 0.11308788249935829 -0.1199354645292507 0.18899424212410781 0.1321049300667862 0.04927815093947516 0.2111174710983597 -0.08569598871405748
-0.18707050328279454 0.2423903735765469 0.1610153835045472 -0.32073831012385473 0.1666050011108937 -0.2782030064466052 0.05133679442532868 0.11273867709638796
0.15542771370692315 -0.4315925938948173 0.07338778596014345 -0.036012908311042854 -0.04332905603877185 -0.1808941296368603 0.07817999126759849 0.18230803028787196
0.25014346050757014 0.27776097872253436 -0.07285126257117712 -0.29159718521031025 -0.1829281487117334 0.0042143924674872294 0.2365053588074023 -0.3920325145351794
0.26969035911399536 -0.24550159036089278 -0.01258641927179305 -0.03868938448565272 0.1820271260559528 -0.046519797022745904 -0.003741066277314126 0.24241284750704623
0.014036977490322849 0.034398674828302236 0.22220946002387967 0.23477049966365546 0.14430794519262338 0.07472222482083805 -0.023947546923799575 0.028961634048935973
-0.09109620201386337 0.2872159475507886 -0.01641861913171303 -0.04316896399050983 0.15238983168672782 -0.24495232736491648 -0.2240468759316877 0.034609481439020484
-0.17986601576166875 0.4603648542037472 0.1169552173851632 0.06086353730001325 0.18233909573686397 -0.06538283488329458 0.1580623445410984 -0.2353835367306355
-0.04402095708070365 -0.05845178628653588 -0.20937307664869967 0.33956557724163366 0.026608197408639 -0.09886607016339449 -0.19127795417248544 0.3202008470855497
0.04760150520637473 -0.00135320653460631 0.31752643650295925 0.04359703713487693 0.03177338288441934 -0.1582583003318141 -0.04923115951933192 0.18430790241640263
0.20296081541110822 -0.22320325673830502 0.07647553312453934 0.14907126787147215 0.0661799220906271 0.1587037890707094 0.23234591296083457 -0.4482177654682134
-0.2670755753902133 0.3608878298050138 0.0922449730987307 0.0812504099215947 -0.011429658130472479 -0.23027451290023093 0.15279547261029083 0.1404582818470981
0.33546352871872553 -0.19520263799609885 0.2563578152576625 0.22280924862262372 0.04486692772271053 -0.20654051930245423 -0.09803329169731262 0.32154614559883715
0.2951331399431966 0.053494585252644576 0.05140045747438423 -0.2430532786442168 -0.21654188067149527 0.30727042478560734 0.20168663706709455 -0.19628713161249792
-0.015220447077063763 -0.23862792481506234 0.09396120814000228 -0.1511032358768834 -0.010360602430881324 -0.29241911001257054 0.07617178524687411 0.09955917250514562
0.30603449726353443 0.06747733615079071 -0.1769007789762437 -0.053081356648260615 -0.1032808418273459 -0.037563184619631394 0.19408343418506296 -0.2188814797951608
-0.20032983055605907 0.07364068721286715 0.30143009203168986 -0.32866442037708904 -0.008776647952421444 0.015219551797875926 0.3039113332402409 0.04421767338237475
0.0886116856624756 -0.2881430758899192 -0.0032849298935813433 0.004739284467058769 0.2156477608276469 -0.21280600366419497 -0.07184429776793971 -0.15625283966059186
0.28010563616721457 -0.016494942802009617 0.2892374831046789 -0.10521173435596583 -0.02356318411300639 0.3307704072788239 0.0686228508730529 -0.06703270425664809
0.024220772612674656 0.041065522499838365 0.009681072923098775 -0.17547162464610985 0.17614089123423177 -0.2100514065430496 0.31452968767645356 -0.14781193261089254
0.09191903627895302 -0.2879829522303023 0.010430021517150515 0.3479233200973377 0.019169162379952507 -0.12319469604566538 0.20591185185474115 -0.07240327968529109
-0.0830233981176866 0.2354375463437817 0.026015063801802067 -0.363829809292507 0.10700198743053614 -0.22279649277787902 0.17697603261300962 -0.10367188943238827
-0.00851995211388652 -0.26375359700570217 0.1797527254513749 0.25327192722253145 0.29775265554088926 -0.2547882165587237 -0.10062247339456035 0.153882517628804
-0.027541765367173017 0.2399498599406603 0.12159452501235832 -0.0954971386193036 0.13969449204659587 0.34831117902461045 -0.019269518064337583 0.0980204805833363

model.4.bias f8 [20]
00000000: 88df fc79 119e d13f da82 7d39 350d b33f
00000010: 7d3e 1ed5 2e6f c3bf ecad 0aab b533 c6bf
00000020: 5742 ac3a 98e8 79bf f197 4145 e75a a8bf
00000030: 5190 6dbe b676 ce3f 5f69 72d1 b7f0 c4bf
00000040: 7928 7639 95a2 d23f 6eb3 6a18 036c c93f
00000050: 8ee0 c0fc 03ec c93f 4139 7872 2640 c13f
00000060: 2cbd 370c 723e a5bf 415d 3047 4e07 c6bf
00000070: feb8 611f 540d c03f a840 eccb 6e5c ca3f
00000080: 7f62 d696 969b c9bf 0713 33c1 1c29 c3bf
00000090: 8922 0997 0e27 92bf a225 807f 53c1 ca3f
0.2752727214133235 0.074420286689484 -0.15183053404006222 -0.1734530530132895 -0.006325335164334498 -0.047568537906769744 0.2379978589843881 -0.16359613158131034
0.29117327319602954 0.19860876743532735 0.20251512376285458 0.13477020825707522 -0.0414920463480207 -0.17209795452138546 0.1254067567092036 0.20594582516833282
-0.2000606762419643 -0.14969214852876453 -0.017727115601049923 0.20902484632123924

model.6.weight f8 [20, 20]
00000000: 2776 f18b 4592 b53f d3ea 140f b071 afbf
00000010: 0935 5104 58c4 9cbf 67ef 2536 b926 a13f
00000020: 8a79 c8fe fbb1 c3bf 4e20 a6c9 6a05 bc3f
00000030: 0c4b f247 83e1 96bf 08ae 3ce1 f022 c93f
00000040: 9c3a 5737 3a84 c1bf f299 09b4 1bfa bd3f
00000050: 9093 35ad 2a51 c8bf 4b91 ed61 e259 a33f
00000060: 9548 4fca 913a 8cbf 70cc d52a dba6 c23f
00000070: c6ee a003 426b b1bf a9b6 eeaf a2ec c9bf
00000080: 414e 1da0 7f76 c8bf 27d9 8513 586e b7bf
00000090: 8a2b 34dc ca6b c2bf 20e4 0014 6524 a73f
000000a0: 7af4 09ec abe0 d2bf 25c3 453b a29d d43f
000000b0: 7cc6 4b61 e0fa a3bf 4b99 18e1 f256 d23f
000000c0: 294e 0185 2ade c13f 1199 9970 8044 d33f
000000d0: 8666 9e42 3aed be3f efcf 744a 08ad 58bf
000000e0: 7402 01ea 0171 b9bf 3973 544c 1731 943f
000000f0: 1b1b 57bb 21a0 9a3f bac1 caac d137 d33f
00000100: 2512 5936 ee05 d03f fe03 fb74 040c be3f
00000110: 8b7e dccd 8aec c1bf ee02 a3b1 f381 d03f
00000120: 09b2 c651 3b24 da3f 528d 71bc 16b1 d5bf
00000130: a6e1 6e04 82af ce3f 479e 0522 def9 bc3f
00000140: 7e6e 81b9 4f52 823f f8c3 f20c a11c c53f
00000150: 316c ec34 21d1 bfbf 7d24 3aff 9958 a6bf
00000160: 5bb6 00b9 7665 babf 7176 c23b ee97 9f3f
00000170: 9687 0dfb c0a2 bcbf 8f1c 4f29 9a51 d33f
00000180: 17b0 334f fdca c73f 7434 8121 9f6c aabf
00000190: f0fe 392b 481c c53f 70a0 93a8 38db b7bf
000001a0: 1e86 56c1 85c7 9ebf 8ffd e684 7c98 983f
000001b0: 1e4c 4976 efa2 9e3f 0cf3 65c4 7eeb c83f
000001c0: 7412 e671 a58a d93f 243f 540a 3ed2 b9bf
000001d0: e70d 3f23 cc82 d03f b486 9355 a7bc c8bf
000001e0: b7f3 4d48 2b97 c2bf ede2 c36a a627 c63f
000001f0: e0ec 2998 6c35 c33f 521a cb10 67f0 b03f
00000200: 925c f040 cb0f b33f 1ba8 a150 4f88 b53f
00000210: 0455 d479 43ce d9bf ea68 00ba 2ba0 c33f
00000220: cbb0 841c b968 d43f d408 1c6f 4839 b23f
00000230: 4312 3727 8bb2 a13f f0c7 090c 7c04 c83f
00000240: 9895 93ab 6d87 ce3f 899a be21 0b49 90bf
00000250: 16e9 bf75 124a b13f 1934 bdcc c5bb 883f
00000260: 1139 227e 52c3 e13f 58fe b8a5 c243 e2bf
00000270: 7793 a499 fcd4 c73f ef91 900a 5944 ccbf
00000280: f4ee 5dda 97d0 cf3f 8490 2b62 6070 b23f
00000290: 1930 37e2 7d6f b0bf a5ab b462 a878 bf3f
000002a0: 0a80 66a2 56cd cd3f 4d84 8546 0004 d23f
000002b0: d0d4 c917 38da b7bf 9f97 89e2 752a d2bf
000002c0: e69d 4cc6 cb05 c6bf c935 ec71 5b20 cebf
000002d0: be35 e249 5e62 b6bf b1aa 2dbe adee b4bf
000002e0: cc1a 575f 64f4 b33f cf14 908c 3fc3 9bbf
000002f0: 166e 4647 f5c0 a93f bde0 64e1 ae15 8e3f
00000300: 4733 636f f313 b1bf e372 7c4a 1699 bd3f
00000310: c9ee af04 8c1a ca3f cbc9 009a b516 ae3f
00000320: e3c9 6f3e 1df0 42bf 0497 8d28 4c86 d0bf
00000330: 9375 57fe 82b8 c6bf ca0c 5207 e436 e4bf
00000340: bca0 5a73 013a c4bf dcfb 24dc 5d6f cfbf
00000350: 31c1 3c68 4bdd d63f 8d9f 047e 38c4 c7bf
00000360: 2156 9eea 7546 c13f dca0 54a4 ef5c c0bf
00000370: 7b7c 76db a8e8 b03f 9652 5a6e c739 d6bf
00000380: 690d fd98 34fb 9cbf 6ed1 7d56 983c b93f
00000390: c48f f0c3 74f3 d83f 1838 559c b092 b8bf
000003a0: adc4 d82b bfef b8bf c671 cb43 f668 c2bf
000003b0: e49a fa7e 6d1a d4bf 9c2b 7dab 69b1 c73f
000003c0: d8d2 5a10 ecdf c0bf b4ce 6d33 d131 d63f
000003d0: 4bf1 726a cb89 c4bf 80c9 afb9 03c4 cb3f
000003e0: bde5 02ea 710b c83f a9d8 ee04 6f32 c43f
000003f0: 0512 6eb1 dd74 d3bf af78 2e99 acab 8dbf
00000400: a4f6 f00d 7378 d43f 24b8 ca80 4421 b33f
00000410: 2ed4 5bfb 0ac8 703f b39a 36bd e0e2 d53f
00000420: 3a4a a648 b3ac 8cbf b0f4 eba5 7fa0 d03f
00000430: 237a 2ac6 1336 b0bf dcad 23bd c59f b43f
00000440: 39bf 45c5 17ef d93f db68 14d0 61b9 e3bf
00000450: 1e4d ecbf f7f1 b23f fd37 7213 e3df cebf
00000460: 6868 5b11 2dc4 babf 35e8 462c 62fb bd3f
00000470: 1208 f69e 0ee5 73bf 4f2e ed46 51f4 cb3f
00000480: 572c 36e8 a970 d43f b3ed 4943 8f61 cd3f
00000490: 8d33 5f71 e788 a8bf d609 fe78 9717 b53f
000004a0: edd4 438c 1f20 c23f d6ad 7301 ac76 923f
000004b0: 512c 7872 3be6 91bf 0272 993b 5939 a63f
000004c0: e141 60cf aa5f b73f 6a29 8807 7d44 c53f
000004d0: 4ecf 3c6c 35fa 933f d1bc e5cd 5e9e c23f
000004e0: b6ad af21 60f8 c73f fc53 2355 8ca6 c4bf
000004f0: f8d1 e78c 040e c63f 2935 5ce6 0504 79bf
00000500: a86f b9e2 6f30 c1bf 2b88 4f98 8035 d33f
00000510: 510a b5ed 7b9b b6bf 88ba 9a11 836a 8ebf
00000520: d604 721d 3455 cd3f 3b53 c287 141e cf3f
00000530: bf83 c2fb 9d68 d5bf c2f1 8d9c 5d5a 92bf
00000540: 81c1 5ec9 45b3 88bf be94 96f3 11a4 a7bf
00000550: 34d6 32ff a044 b6bf 38eb 22dd 619f 933f
00000560: f6c0 9396 be70 9ebf e140 c883 d33c c83f
00000570: 6aa1 d11a be72 c03f 1602 e770 0d89 a0bf
00000580: 9aa0 b9e3 82eb d43f a4ea 127c f732 e5bf
00000590: 0153 f3c0 26f9 d03f 70b6 2e58 6d94 d7bf
000005a0: e3b4 d3bb bc5c ba3f 4949 d23e d607 b13f
000005b0: 9664 7267 591d c6bf 8a16 b226 bce6 cb3f
000005c0: 7b51 f712 a658 cc3f 0944 7d7f 928b b33f
000005d0: 3f7a d356 a16e c3bf a978 43c9 a212 943f
000005e0: f0af 4dcc f306 ce3f 2812 de21 e337 d43f
000005f0: 7f07 445a 97ed b43f b7b5 a789 148d b03f
00000600: a784 4acd e634 a43f 0b03 b80c 27ad d33f
00000610: 34f2 b80d 37f2 ab3f f8c8 7ab1 3d0d b73f
00000620: 2a4f 1123 e42b dc3f 3a0f d84b 437d d4bf
00000630: 7bbc b25b 4fe7 ca3f 0970 6e4c 1a56 c7bf
00000640: 5d57 1942 a600 cdbf f86b bd1c 8790 c23f
00000650: b004 e2cf ce61 7b3f c7d0 db9b 6657 cf3f
00000660: 5154 c894 97d5 c63f 9ea8 b74d a7e0 cb3f
00000670: 1001 8757 5527 c6bf 2cee f08a c521 ce3f
00000680: 4083 0a86 0d3f d53f 6ee8 4117 2bda b93f
00000690: a29d db5e 4fb3 d43f d1fc d736 5e3f ca3f
000006a0: 5629 b165 cbc0 d03f 5b4a a589 d6dc aa3f
000006b0: 0adf 6093 04e1 d63f 40b2 f97c 17c1 ba3f
000006c0: 6737 9e7a b33e c03f 9c85 948d 5917 d3bf
000006d0: a7bf 2b7a a962 c33f f6c0 84a4 d427 b63f
000006e0: 1993 97cd 3a06 c1bf 9c2d 00ed 6b94 d23f
000006f0: fc91 f927 b490 c5bf 21a8 9a00 8d14 c63f
00000700: 6b5c 72bb 30f9 b7bf 1547 681c 02c5 d03f
00000710: 57d8 77d7 e768 c0bf 9887 b2c4 3d96 983f
00000720: 6c26 ce24 85d8 c23f e864 a909 9fe1 a1bf
00000730: b479 5fdb 7f78 bc3f 84a0 3142 c1b4 d23f
00000740: c8f2 b975 af5a c43f 19e4 7ee5 6024 a03f
00000750: ab49 3298 9e7b c23f b118 dc4f a865 c23f
00000760: 2ecf 2abf 3402 e23f 727a 04e4 3939 a53f
00000770: 0429 fe07 f4fe bb3f b797 aedf fe42 773f
00000780: 9c5e a4ba f705 cebf 40e4 f9b9 e762 d83f
00000790: 6e33 0c8e 8958 c43f 7800 e97f 8ce2 b43f
000007a0: ed08 5b9c 3c7d bbbf 2d52 c79f 7ff0 5b3f
000007b0: 185f 2817 0e15 973f 4cce 2b76 6303 d23f
000007c0: 1b71 2384 c87b d13f ff3d 7697 07fd c93f
000007d0: 5693 4089 7196 b33f 5dd7 79bb 83b0 bbbf
000007e0: 757a af29 ef93 c63f c5b5 36e7 4652 d03f
000007f0: 0523 594b 4bf5 c0bf 9388 fede 8553 90bf
0.08426317850668195 -0.06141424354651339 -0.028092742217542575 0.03349856172550752 -0.1538691515024307 0.10945765898770896 -0.02234463812471703 0.19637881276990776
-0.13684776022133327 0.11709759850928217 -0.18997701127514377 0.0377951378384603 -0.013783587442876924 0.14571704474983305 -0.06804287518110205 -0.20253404226734986
-0.19111628835763564 -0.09152746655113174 -0.14391456367624428 0.045199545566397825 -0.29496286440537 0.32212119854289006 -0.03902341067977219 0.2865569303707118
0.1395924710692367 0.3010560130700393 0.12080730558809635 -0.0015060978856356007 -0.0993806072519961 0.01971851733570704 0.026001479205457572 0.3002819240018898
0.25036197001853316 0.11737087112398112 -0.14003119518109872 0.25793163630809957 0.40846140848114537 -0.33893364336673415 0.2397310754438539 0.11318767862905431
0.008946059082681087 0.164936190912641 -0.12428481618955868 -0.043644726186422546 -0.10311071411771293 0.030853006741941195 -0.11185842637271856 0.30185560258946337
0.1858822476127677 -0.05160996707909585 0.16492559538527685 -0.09318880191460877 -0.03005799286404997 0.02401918946429543 0.02991842421972645 0.1946867426849156
0.39908729670450005 -0.10086429359602939 0.25798324052831706 -0.19325725248841297 -0.14523831396573225 0.17308502400535222 0.15006787710067382 0.0661682525634231
0.0744597466985957 0.08411117285291463 -0.403214329694791 0.15332552511319558 0.31889179024689146 0.07118656838068499 0.034565304314615485 0.1876368578701313
0.23850794675597053 -0.01590363877735482 0.06753650068995784 0.012076897917404893 0.5550930465267659 -0.5707715260286461 0.18618733884900582 -0.2208358098588543
0.24855325853774668 0.07202722927792321 -0.06420122883645298 0.1229348412495442 0.2328289311381016 0.2814942063033115 -0.09317350941440172 -0.2838415825157145
-0.17205187971670383 -0.23536246359473825 -0.0874384813671076 -0.08176694767977712 0.07794787719385993 -0.027112000421784906 0.0503002786165007 0.014689794782143268
-0.06671067685529151 0.11561717337140069 0.20393514851445207 0.05876700882835769 -0.0005779402534911684 -0.2581968685175158 -0.17750585001969607 -0.6317005293825784
-0.15802019245643872 -0.24558614014855962 0.3572567480032545 -0.18567567971444668 0.13496278720838098 -0.12783618473009184 0.06605010374049584 -0.34727655197756613
-0.028302022779155864 0.0985808573876221 0.3898593820069858 -0.09598831001969221 -0.09740824528195687 -0.143828185179599 -0.3141130199459623 0.1851017081592915
-0.13183356092999676 0.34679060003621065 -0.16045515725807954 0.2169193894074617 0.18784927297910584 0.15778911343449423 -0.3040079338755109 -0.014487598824242857
0.31985164987041004 0.07472637314160174 0.004097025773934821 0.3419725272928346 -0.01400127473315137 0.25979605868617295 -0.06332515323672587 0.08056293361339989
0.4052180696953545 -0.6163796485955361 0.07400463519688968 -0.2412074894859301 -0.10455590890652078 0.1171170576189134 -0.004857117760709089 0.21839347804267326
0.31937644650378644 0.2295397833403122 -0.047919495190945495 0.08239123062052242 0.14160532330394152 0.018030822361579123 -0.017479828702601733 0.043406284833256606
0.09130351603403809 0.16615259998099968 0.019509157878203447 0.14545807889542187 0.1872673191531768 -0.1613326469147579 0.1723027885451669 -0.006107352300899018
-0.13429068155789747 0.30014052270974173 -0.08830999902151261 -0.01485159299349205 0.22916270673525813 0.24310547474729013 -0.3345103224365253 -0.017922842674566793
-0.012060685355977043 -0.04617363070000512 -0.08698469381746393 0.01916268264970286 -0.029726961079121282 0.18935626921348273 0.12850166615977382 -0.03229562762453868
0.326874468219566 -0.6624715255087108 0.2652069935113986 -0.36843427287644825 0.10297755799884416 0.06652583154417359 -0.1727706675635871 0.21797897233425473
0.22145534444883794 0.076348453641245 -0.15181366672091376 0.0196023402539757 0.23458716846232575 0.31591108615274033 0.08175035432580378 0.06465271340103738
0.039466106948802086 0.3074433922011372 0.05458232920179676 0.09004579146384006 0.4401789038140459 -0.3201454392112627 0.210184020781046 -0.18231514675142105
-0.22658231952180588 0.14503563788716156 0.006685073718586995 0.24485476122175084 0.17839331402561467 0.21779338164134726 -0.17307535909458993 0.23540562900767392
0.3319734391207483 0.10098523443039806 0.3234442163797785 0.20505883863368138 0.2617672436796473 0.05246611051793045 0.3574840010874004 0.1045088462939896
0.12691348540505062 -0.2983001597040926 0.15144842591643945 0.08654526726309428 -0.13300261534382044 0.2903089346370622 -0.168478507536875 0.17250216035364566
-0.09364609314285281 0.2620244290748002 -0.12820146580605993 0.02401062500997106 0.14723266884930142 -0.03492447846356034 0.11121367555413181 0.29228240455859855
0.1590174984775301 0.031527545942886266 0.1443975680491126 0.14372733973886434 0.5627692922339287 0.04145222576538722 0.10935902781617207 0.00567912635862016
-0.23455711949712998 0.3810366932080491 0.15895194469376456 0.08158186075979923 -0.10737971131587516 0.0017052885369725033 0.022541256106790447 0.2814568189635096
0.27318013099808675 0.2030343522605875 0.0765143356407639 -0.10816214873360992 0.17638959441588367 0.2550217874475858 -0.13248578242407674 -0.015943614707460595
