kaggle_playground_smoking_prob/saved_models/model.pt (torch, 450332 bytes, 48 tensors)

model.0.weight f8 [100, 21]
000000 7c 34 a5 08 29 e8 eb bf a0 16 55 bd 07 43 ef 3f
       -0.8720898789266722 0.9769324014566401
000010 38 c8 48 89 98 f1 07 40 a4 eb c8 5e 4b 76 c7 bf
       2.9929667210899673 -0.18329755905309952
000020 c7 25 cb 65 10 0e fb 3f 16 92 1e d7 70 6b 01 c0
       1.6909336067495688 -2.1774613195614263
000030 a0 47 c1 5c 21 76 07 c0 12 85 e7 3c 64 9a ea 3f
       -2.93268082108348 0.8313466252840576
000040 d6 bc 0f 14 98 7e b7 bf 0f c0 ff f6 f5 06 00 c0
       -0.09177542199880703 -2.003398828201177
000050 2c df 9f 6f 3d e0 f7 3f dd 1b 0f b3 00 69 f8 bf
       1.4922460899669643 -1.525635432671826
000060 a7 f4 f1 63 b8 df f4 3f c6 4e 1b 1b e0 7a e4 3f
       1.3046192077738767 0.6399994401385463
000070 ad a3 c7 0e 16 7b c6 bf 55 37 e9 2c f0 6f f2 3f
       -0.17563129159614502 1.1523286585174521
000080 bb 71 47 10 01 59 1b c0 dd f7 24 dc 36 50 26 c0
       -6.836918119774448 -11.15666854811928
000090 4c 6a cf a3 9a a2 e1 3f 8f 68 7f f1 66 a3 09 40
       0.551099128667667 3.204786192608544
0000a0 60 b2 84 e8 ff 00 f8 3f ef 33 17 67 53 18 0d 40
       1.500244053149025 3.636877828021617
0000b0 bc 62 b8 6c ef 13 0e c0 2f 5d 71 8e e6 31 f4 bf
       -3.7597340101022763 -1.2621827663586591
0000c0 eb 04 40 db 9d fb ea 3f ad fb e3 31 56 aa 0f c0
       0.8432149202564266 -3.958172216196053
0000d0 61 14 64 91 76 f3 bd 3f 86 37 63 45 7c 3c c3 3f
       0.1169962029417362 0.1502833689505076
0000e0 6c d4 2d d5 bb a8 f2 bf f1 f8 8d 9d fe a2 e6 bf
       -1.1661947562509125 -0.7073968007314574
0000f0 67 f1 fe d7 91 5a f4 bf 4d 48 d3 00 ee 6d 08 40
       -1.2721117436732017 3.0536766113737372
000100 ad 5c 62 d1 68 27 f4 3f f0 95 44 80 b2 73 f7 3f
       1.2596214465209343 1.4657464037385317
000110 47 59 fa 43 30 52 01 40 f6 b4 f1 78 28 dc de bf
       2.1651311217093823 -0.4821873837561975
000120 b9 2e d5 0d 74 62 09 c0 75 1b 8a 70 a9 28 10 40
       -3.1730729180033816 4.0397088608068445
000130 a5 56 7e 5d 01 75 08 40 4f fe 94 45 f3 d2 0d c0
       3.0571315101795613 -3.728003066644113
000140 1c 61 e9 1f c5 3b 0f c0 9e 13 2b c7 c1 26 e4 3f
       -3.904184579190895 0.6297310724263416
000150 11 90 a8 6f 70 20 f6 3f 7f ff f2 4c 51 db 07 c0
       1.3829197274835716 -2.9820886623055567
000160 8e e9 56 aa c3 8e eb bf 35 5a 6c a0 11 4d db bf
       -0.8611772849028954 -0.4265789095528903
000170 4c 2c 3c ff f9 8b 17 c0 57 e7 0e ff d7 39 00 c0
       -5.886695850417777 -2.028244011537861
000180 14 23 cf 16 61 18 03 40 29 ab 7c 07 04 d4 fb 3f
       2.3869039327586368 1.7392616550884645
000190 b5 da 72 04 7c 37 bb 3f 0e cd ab cf 07 93 0e 40
       0.10631537541017162 3.8217922424606803
0001a0 28 cb 45 94 36 49 89 3f e0 b7 43 85 8c eb f2 3f
       0.012346674346849065 1.182507057728337
0001b0 22 35 f2 c0 5d b2 12 40 e8 23 0b 5a ac 8a fc bf
       4.674185766966987 -1.7838557736706608
0001c0 7b aa 2b dc 44 c8 cd 3f 72 22 c1 40 f1 25 f2 3f
       0.23267422438160054 1.1342632798643106
0001d0 4c b4 6c 78 55 57 0f c0 c9 e3 13 87 b2 78 dd bf
       -3.9176434906171718 -0.46049178305798627
0001e0 df c1 ab c0 86 a6 07 c0 20 77 e8 fa b5 b3 ff bf
       -2.956311707727067 -1.98137472163166
0001f0 ec d5 0e 0d 01 8f da 3f ca 2f f5 44 ab 9d 25 40
       0.4149782779234943 10.807947306566252
000200 34 eb 6c 26 ba ee f5 3f 33 ae 2f 55 4f 53 fc 3f
       1.3707829953188595 1.7703393294895136
000210 7b b3 01 b8 7d ee ea 3f 98 0b 6d 9e 8c d1 e7 bf
       0.84161268175886 -0.7443297476059909
000220 0c 87 dd bb f0 3e 0e c0 c8 2c 72 f1 15 ad c0 bf
       -3.780732600877746 -0.1302821568427588
000230 53 f4 62 a0 c8 8d ff 3f 24 70 3d b4 fa 0d b3 3f
       1.972115160474705 0.07443205738439979
000240 1d 1e 8e 60 73 8d e4 bf 53 38 6a a0 0e a5 cf 3f
       -0.6422669301836695 0.24722464401969776
000250 16 f1 30 6a a8 c4 e6 3f 69 38 31 e3 ac 4c e4 3f
       0.711506087689062 0.634359782919785
000260 f0 59 8d 8b 7a 66 e7 bf 55 5b 24 a1 d5 75 f8 3f
       -0.7312596059444427 1.5287681860551932
000270 4b ae df 63 b6 8d f9 3f ef fa f8 72 2e a9 c0 3f
       1.59709776890931 0.13016300786872345
000280 3b 0f ac 41 9c f8 12 c0 4a 48 cb 12 3d 24 f0 3f
       -4.742783571364096 1.008847306646674
000290 40 de 8e f2 3f de fe 3f c7 e2 0d 99 af 22 08 c0
       1.9292602038311912 -3.016936488853705
0002a0 99 d2 c7 20 cf 4b 06 c0 89 ef 7b 64 1c f8 ff bf
       -2.7870161591511757 -1.9980739522133908
0002b0 55 48 4d 30 66 d8 dd 3f c7 11 a9 81 2c 96 d2 3f
       0.4663329574297042 0.29041588461066364
0002c0 0f db b8 5f 15 65 06 c0 75 6b 02 cc c2 78 09 c0
       -2.7993571737564547 -3.1839652956236315
0002d0 ea 94 24 07 d5 10 fe bf 05 14 eb 20 1f eb 02 40
       -1.8791094092387604 2.3648054668178724
0002e0 73 2e 3e 3b 50 17 0a c0 9c d0 24 6d 77 95 00 c0
       -3.2613834980345984 -2.072981693922044
0002f0 43 4f 4d 3b 68 e4 e7 bf 87 bb 70 c7 76 67 11 c0
       -0.7466317327730184 -4.351039043670318
000300 b7 26 0b e9 30 44 ff bf 59 d6 80 50 60 9a 02 c0
       -1.9541482070220988 -2.3253790177648566
000310 5f de e9 37 9d 93 f5 3f aa a9 97 38 06 27 e6 3f
       1.3485386070368788 0.6922637086220693
000320 0f 50 c4 90 00 11 97 3f 1d 35 c1 aa 74 70 16 40
       0.022525795780055143 5.609820049326371
000330 61 e4 6b 47 e3 3b c3 bf 76 ce f2 70 5e 89 05 40
       -0.15026513087630902 2.69207466355311
000340 c2 1b 9e 57 bd e4 05 c0 e9 85 9f 72 1b 93 f4 3f
       -2.7366892666936744 1.2859148480860034
000350 62 f0 06 89 10 f8 ea 3f 22 8b 01 3c a5 a3 0e c0
       0.8427813221274045 -3.8299050033541713
000360 ea 74 0a d4 83 f1 0f 40 e5 b9 bf df 33 6c 0e c0
       3.992927223748315 -3.802833316839712
000370 69 43 3e 53 6d 57 0c c0 a0 59 bd 0a 97 2f f4 bf
       -3.5426889899612672 -1.261618654205087
000380 d5 60 47 95 8a c0 e1 bf df 1d 17 16 54 8b 14 c0
       -0.5547535815813044 -5.136062951241427
000390 ae 31 1f e4 55 af d7 3f 92 5c 76 89 3a 13 19 c0
       0.370076630378004 -6.268777988290042
0003a0 6c 2a 3b ea 2c 12 bf 3f 5f 26 44 a7 09 11 e0 bf
       0.12137108534367663 -0.5020797984045194
0003b0 0f db 78 02 d8 5a 05 40 63 ea b4 f3 7c f4 05 c0
       2.6693573182232124 -2.74437895198689
0003c0 a5 c9 90 a9 b6 32 fd bf f1 99 0b 8b a2 6b f5 3f
       -1.8248812316565843 1.338778060098431
0003d0 59 8e 12 e0 ab b8 03 40 53 e9 6d 04 77 9f c3 3f
       2.4651715760863167 0.1533039828899044
0003e0 82 ad 3b 99 1c 90 ee 3f ba ef d3 fe 68 63 ef bf
       0.9550917618593504 -0.9808850266558615
0003f0 09 28 ca b2 7c 49 e9 bf e4 ba bd 33 8c 36 03 40
       -0.7902205936418351 2.401634601810075
000400 8a 6e 57 98 81 94 05 c0 0d 55 76 4c f3 53 12 c0
       -2.6975128080064836 -4.58198279831164
000410 c2 aa 19 85 7c bd e1 3f 1a 96 09 dc c4 d1 f4 bf
       0.5543806647886742 -1.3012131304943808
000420 4a 13 6f 4a db 6e f7 3f be 37 4e 42 99 85 04 40
       1.464564600713134 2.5652337246055756
000430 7b 72 13 95 e8 9c 8b bf 30 40 e6 f4 d2 47 00 c0
       -0.013482873010098864 -2.0350703366057346
000440 f2 41 a1 da a7 de da 3f f1 9b 4c 5d a3 ef 03 40
       0.41983982420518295 2.4920108117107636
000450 26 16 94 01 5b e2 e1 3f 4c 8f a3 d5 60 2d f6 bf
       0.5588812857465129 -1.3860786767263162
000460 80 29 14 35 2d 75 d0 bf b9 35 10 21 44 95 ff 3f
       -0.25715189155075535 1.97394192614898
000470 a9 89 4d ab 76 53 e9 3f 36 e9 d9 fd 08 2f dc 3f
       0.7914384217986498 0.4403707961097497
000480 09 45 62 c8 cd 0f 27 c0 a3 6b 94 6a 14 7f 09 40
       -11.530866872783479 3.1870506598038033
000490 ca 89 40 56 27 c8 d9 3f 4d d4 92 49 b2 3a c7 bf
       0.4028414099031151 -0.18147877304514495
0004a0 37 bb 27 d3 0a 5b 00 40 a5 5d e9 68 9b d6 07 40
       2.0444542404651673 2.9797886081903067
0004b0 21 80 4b 78 f6 5a 02 c0 ab 81 af e9 bb 45 f2 bf
       -2.2944154165306974 -1.1420249107687634
0004c0 18 97 a3 af c4 92 f0 bf c9 42 e9 b2 bb cb 06 40
       -1.0358321057223687 2.8494791009364673
0004d0 97 de 7d 65 40 eb 04 40 da 5e 20 16 5a 10 e8 3f
       2.6148689202344246 0.751996081557958
0004e0 76 d1 13 2f 6c c8 05 40 05 9a 0a 42 27 00 00 40
       2.7228625944064175 2.0000748786435474
0004f0 9a 57 cb ee 2f 69 1a 40 97 18 3e 17 da 66 f6 bf
       6.602721911583922 -1.40011033133627
000500 93 b8 de 87 0e 38 fa 3f 70 92 54 d4 7c 4a aa 3f
       1.638685732595637 0.051349545401795704
000510 70 73 d5 e8 8d ff 0c 40 48 32 8b 9e a1 1f c2 bf
       3.6247823896541647 -0.14159031144517287
000520 b2 44 0a 18 d2 d5 e5 3f 93 1f 70 33 f8 25 e2 bf
       0.6823511571439183 -0.5671349529884416
000530 02 64 5d ae c1 27 b0 bf 74 9a 5b ef 31 0c 06 c0
       -0.06310663706734945 -2.7559546184377783
000540 cf 6c fb 50 4e ee 06 c0 83 1b 88 ee 7d e4 f7 bf
       -2.8663603140572387 -1.4932841603892661
000550 3b e6 65 c4 4d f2 e2 bf d9 a9 12 05 a6 bf bd bf
       -0.5920780979060462 -0.11620557426309776
000560 05 30 29 1b 7c 95 02 c0 95 bf 44 f1 84 99 cb bf
       -2.322990619844861 -0.2156225374287685
000570 27 60 ce 49 69 07 02 40 0c f8 d7 79 3b 91 f8 3f
       2.253618790255149 1.5354571113125557
000580 9e 02 e9 31 d0 18 09 c0 df 05 e2 fe 02 e2 ce 3f
       -3.1371158503755643 0.2412723297639294
000590 bd 54 18 c6 a9 6e 02 40 48 74 a3 3a a3 84 e5 3f
       2.304034755342029 0.6724411149294918
0005a0 79 b9 a5 7a e9 cf 07 c0 98 6c 85 88 0f e7 0c 40
       -2.976519544775496 3.6128225961416085
0005b0 b9 0e 5d b0 ed 45 df 3f 2d b5 99 df b7 2f fa 3f
       0.48864309523581145 1.6366499647513806
0005c0 85 c0 58 ab 29 87 0b 40 70 5b 89 5f 81 7a 1b c0
       3.4409974466762514 -6.869634144552819
0005d0 cf 1b 63 40 03 40 f0 3f 56 99 01 89 30 85 ce bf
       1.0156281008837487 -0.2384396237350283
0005e0 20 42 b8 49 d6 17 07 40 e7 41 8c 56 b3 46 01 c0
       2.886639190612428 -2.1595217477372333
0005f0 bd 55 64 e5 d2 94 d2 bf f8 c0 71 44 9e e5 04 c0
       -0.2903334846644972 -2.612118277284136
000600 bf 5a 42 14 5d 99 0c 40 1b 12 60 01 8a 19 02 c0
       3.574884565615633 -2.262470255607935
000610 2f 61 44 f1 de 02 06 40 81 f5 31 49 be 3b fe bf
       2.751401791476517 -1.889585767668308
000620 6d b1 b1 36 e6 40 db bf 93 14 90 04 15 76 02 40
       -0.425836137211056 2.307657275816902
000630 3f 03 f8 d1 6a b6 cf bf ac 7f 67 b8 6a a0 d9 bf
       -0.24775443317778387 -0.40041606910926464
000640 51 d4 55 82 ba 65 0f 40 73 54 39 47 4c 80 11 c0
       3.924672144169144 -4.3752909783116705
000650 46 eb d2 d6 21 9e 15 40 c0 99 0c 17 31 a1 c8 bf
       5.404425961135365 -0.19241918206644293
000660 39 e6 1e e2 98 f0 fa bf f1 e9 86 79 cf 37 f5 bf
       -1.6837395508613453 -1.3261255976818769
000670 85 47 b7 a5 0f 3a cf 3f 02 b6 25 93 7c 1c fe 3f
       0.2439593848380889 1.881954741281675
000680 1a c6 6d de f9 dc 00 c0 35 58 5a 5f 76 d6 fb 3f
       -2.107898462033302 1.7398589825366007
000690 84 ec 21 82 4c 0f f5 3f 70 64 1e 7a 73 ea e8 bf
       1.3162350734044432 -0.7786195168620349
0006a0 c6 9b 3b c0 a0 86 07 40 cd 6b d9 be 85 f5 f8 3f
       2.94073629552756 1.559942002778132
0006b0 eb b0 a6 61 9d b9 0e c0 1d 1d 63 11 66 08 fc bf
       -3.8406322125430186 -1.752050464552503
0006c0 b3 df 75 0b f8 79 fe bf 3d d4 f0 67 29 f5 d1 3f
       -1.904777569548952 0.28058848524534935
0006d0 7a da cb a1 a4 c2 a0 bf be 8a 76 8e 38 e5 aa bf
       -0.0327350089555027 -0.0525300668625923
0006e0 9d da b3 1f e5 cf db bf f0 82 f1 d3 42 6f cf 3f
       -0.43456390472366896 0.2455829176788238
0006f0 9f 6a 52 fd 90 a4 f2 3f 79 9c cb 67 ab 74 db 3f
       1.1651773352993258 0.42899594436898486
000700 41 29 c2 2a 59 b7 f5 bf b2 6e 8d 4f 5a 4f 08 40
       -1.3572627706767693 3.038746472839045
000710 8d 93 bf 85 14 ef e5 3f e1 80 7f 8d 89 b3 0e c0
       0.6854345905563705 -3.837664704755398
000720 a3 08 2f 3b f6 ac 25 c0 52 d7 01 80 2d 81 12 c0
       -10.837816094867156 -4.626150131332752
000730 26 e2 52 60 6a 4e c1 3f 67 88 f5 89 1d 53 78 3f
       0.13520555213268998 0.0059386400092496855
000740 4a ed 28 03 7b b0 c0 bf 80 04 f6 3d 16 ed 11 c0
       -0.13038575796404422 -4.481530159130784
000750 bc 26 9f b5 0a 15 f5 3f f7 66 5e b2 f6 1d f2 3f
       1.3176371664616644 1.132315346482242
000760 32 2c 1a 8e 3f 80 07 40 87 1a c4 44 c1 3f 09 c0
       2.937621221708036 -3.15613034938298
000770 9f 92 71 dd 3b 2b e8 3f b9 17 6d 11 05 69 ff 3f
       0.7552775693007624 1.9631395989140243
000780 10 01 c3 3e 66 94 11 c0 ba c4 73 51 a0 36 d3 3f
       -4.394921284343823 0.300209121268448
000790 f7 2c ea 30 4c 7b 04 c0 d9 ad e3 90 1d e3 d1 bf
       -2.5602039166893706 -0.2794870295462864
0007a0 9c 47 3d da 58 dd ed bf ac 2f 43 f4 41 0b f5 3f
       -0.9332699072349331 1.3152484456540874
0007b0 b1 d5 02 7a 68 4e de bf 8a c7 b3 d9 d2 94 fb 3f
       -0.47353565135139336 1.7238338951105754
0007c0 a7 8b d0 79 67 3d e1 3f e1 37 0d cf f6 68 e5 3f
       0.5387456301872263 0.6690630001046395
0007d0 01 e7 b1 40 82 f1 1a c0 2e c2 97 b3 b4 6b 16 c0
       -6.735848437174128 -5.605181509149174
0007e0 e9 0d b5 73 db 6f 12 c0 31 80 ea af 9f a3 0b c0
       -4.609235580373459 -3.4548944228590917
0007f0 a0 a9 6b df 1a 78 da bf 95 2f 06 2b 14 0a d5 3f
       -0.41358062570966503 0.3287401600034568

model.0.bias f8 [100]
000000 ba b4 2c 94 85 00 e3 bf 5e 6b 31 81 bb 81 06 40
       -0.5938136953388018 2.813345918007527
000010 58 97 0f cc d9 61 0d c0 ca e9 f4 32 79 e6 f4 bf
       -3.6727786962755253 -1.3062679281707568
000020 34 21 1a 3a e0 19 02 c0 85 86 a7 66 5f 0e 08 c0
       -2.262634710237899 -3.007017900454971
000030 9e 8a 10 9d 83 2b ec bf 00 e5 04 d2 f7 e0 05 c0
       -0.8803117816608681 -2.7348476798766796
000040 eb 17 c3 e4 d3 10 f9 3f a2 e9 cb fe b3 5e 08 40
       1.5666083274859328 3.0462417512873836
000050 39 a7 35 b8 ca 20 fa bf ef 13 3f cb 17 7d 04 c0
       -1.633005828446086 -2.5610805395722234
000060 dd ad f2 69 2c 23 08 c0 57 a4 11 d7 a0 b7 0c 40
       -3.0171745564636994 3.5896622469195267
000070 03 a8 fd dc b6 c9 1a c0 18 9b 75 a3 4b d6 d9 3f
       -6.696986630422546 0.4037045570643598
000080 37 5c f7 52 ec 77 da 3f d0 5c bc fa 99 c3 01 c0
       0.4135695276467603 -2.2205085362180412
000090 e0 6a c9 ed 34 a5 00 c0 9c ac 09 aa f0 f1 f0 bf
       -2.080667360028528 -1.0590674059010672
0000a0 4e 5a d7 28 9a d2 fa bf 22 18 2a 5b 22 39 e2 bf
       -1.6764165492401335 -0.5694743900828636
0000b0 e4 09 49 ed ac f0 0f c0 ab 1b 11 4d 4e ce 0b c0
       -3.9925173318781493 -3.475735284885976
0000c0 e4 6f d1 de 31 4c e8 3f 97 2d cb c7 2d e7 f7 bf
       0.7593011238018303 -1.493940144008638
0000d0 cc 25 4c 60 e6 6a 06 c0 2c f1 2b 5a e1 fa fa 3f
       -2.8021972201574723 1.6862500688867597
0000e0 01 a3 f1 76 ae bf f7 bf 3e 80 55 50 4e 6f 10 c0
       -1.4842972418065872 -4.108697180956424
0000f0 0d 26 de d2 3d 91 fd bf fc 3a 1f 2e 64 74 10 c0
       -1.8479593503019516 -4.113663406997826
000100 3e 26 d2 b6 b4 dc 06 c0 e3 6b 47 92 70 5f 14 c0
       -2.857766559875727 -5.093202863320559
000110 70 65 b6 5e 6c 5d 07 c0 0a e0 b1 6a 06 d3 fe bf
       -2.920616855565349 -1.9265197913900942
000120 9d 68 a2 35 ed 45 10 c0 83 ef 24 7f 5d 72 fa bf
       -4.068287694966924 -1.6529211966107773
000130 ed de 50 ff 27 f9 11 c0 62 8b 2c 1d c6 71 01 c0
       -4.493316640196764 -2.1805536536425487
000140 43 99 b8 0d 21 69 08 c0 91 b4 e9 e2 85 2c 0c c0
       -3.051332575984959 -3.5217397430010995
000150 66 80 da af ae b8 04 c0 cb d8 31 6c d2 00 f6 bf
       -2.590176938872946 -1.3752006746631646
000160 2c 8d cb 47 1b 15 fb bf 61 48 7b fb 6a 1f ea bf
       -1.6926529697892176 -0.8163351928472019
000170 18 95 79 62 a7 85 cc bf 99 98 ed 61 6e 0a 05 c0
       -0.22282879169794323 -2.6300933504708834
000180 f6 53 0d 54 27 9c 02 c0 22 41 9e fb 51 d6 11 c0
       -2.326246887833345 -4.459297114881595
000190 ec 88 7b a8 91 6f fa bf 14 a1 f7 23 94 fe 0d c0
       -1.6522385197973177 -3.7493059930749357
0001a0 1e b4 87 32 d3 5b 04 c0 e9 0a ff 75 ba a8 02 c0
       -2.5448364207900473 -2.33238689598635
0001b0 98 6a cf 38 46 f1 11 c0 1f d5 1a 1a e3 1e f8 bf
       -4.485619437846843 -1.5075408000678363
0001c0 52 cc cb 42 5d ec 00 c0 75 d5 19 5a 51 6b 01 c0
       -2.115412256092477 -2.1774012602933746
0001d0 f8 b8 e0 66 d8 94 f7 bf 51 52 2c 82 b3 14 08 c0
       -1.4738391894020975 -3.010108010270678
0001e0 0b a2 97 90 a4 6e db 3f fa 21 09 63 b7 40 b2 bf
       0.42862810249656097 -0.07129999320853378
0001f0 24 b6 96 1b 16 18 0a c0 e0 b7 2b 49 0c d6 e1 3f
       -3.2617609172218796 0.5573789052120866
000200 78 3f 90 11 96 f1 0d c0 37 d2 e9 61 6b c6 0f c0
       -3.742962014402959 -3.97188450331512
000210 0e ea d6 e7 0c 6a f7 bf 13 27 46 d7 58 1b ee bf
       -1.4633912140112701 -0.9408382610865565
000220 ac 0c 94 d6 31 36 0f c0 35 1a c0 0a dc 73 e5 bf
       -3.901462246316063 -0.6703930101364849
000230 a4 9b 42 34 67 23 09 c0 1a b2 64 54 e3 6a 13 c0
       -3.142286690027918 -4.854382818838099
000240 66 6e 36 3d a0 42 fe bf 25 90 b2 be f5 3f 0e c0
       -1.891266097175412 -3.7812304399722216
000250 f0 db 97 62 8c 5b fb 3f cc c0 89 35 c5 02 0e c0
       1.7098506785675873 -3.751352709070579
000260 0f ac 17 d9 83 44 f5 3f 62 36 6c 54 7b 3c 0b 40
       1.3292273025679184 3.4045321078800024
000270 4d 80 cf e9 50 75 ff bf ad c6 84 a9 5e c4 06 c0
       -1.9661416180824915 -2.8458836787838977
000280 f4 23 34 da fb f2 fe bf 6d ca 2a a2 8f c6 01 c0
       -1.9343222163754463 -2.221953646593923
000290 81 86 8d d0 49 87 f8 bf ed 62 0b 76 d8 e5 04 c0
       -1.5330293795199454 -2.6122292730545866
0002a0 ee 94 a6 45 21 14 13 c0 0b 63 f8 e5 47 68 05 c0
       -4.769658172886222 -2.675918385164896
0002b0 25 49 e9 01 f1 b8 0d c0 ae b5 da 7f d8 db 06 c0
       -3.7153034352605965 -2.857346533643713
0002c0 a9 ad 7f 24 c5 83 fc bf ca 7d 95 d1 09 8f 01 c0
       -1.7821704316837474 -2.1948429464098114
0002d0 67 3a 64 0b 18 fd e6 bf 4c 70 0c a5 f5 64 13 c0
       -0.7183952543726492 -4.8485933102457
0002e0 5b 80 70 de ea 11 ed bf ae 35 20 c9 b8 6c 18 c0
       -0.908437189533298 -6.1061736513051255
0002f0 99 8e 4b 81 76 10 0f c0 f7 8e f2 79 88 9c 13 c0
       -3.8830385304625676 -4.90286436598739
000300 1c f2 94 8e d1 ce f8 3f 85 1a ad 08 22 dc 0a c0
       1.550492817840797 -3.357486789496138
000310 86 cf e3 7f d7 e0 02 c0 61 d4 52 87 6e c3 06 c0
       -2.3597860328099527 -2.8454256603386487

model.2.weight f8 [100]
000000 eb d4 fb 95 ba 22 11 40 33 e1 61 80 f9 3c 0a 40
       4.283914893622959 3.2797727613325605
000010 ed 29 cb 68 ec 0a 0d 40 14 dc 1a f4 ac ec 11 40
       3.63033372755057 4.481128515376458
000020 6a 1b 78 8c 5e 74 06 40 9e 41 88 38 73 ac 09 40
       2.806820962348344 3.2092041412908676
000030 c9 fb b6 fd aa 91 08 40 a8 04 c9 20 a0 a4 05 40
       3.071126920839991 2.7053835450502284
000040 22 88 a1 65 76 d0 08 40 d5 da d6 1c e8 22 0a 40
       3.1017883243485054 3.2670442822521673
000050 13 29 01 99 e0 44 09 40 39 85 16 f8 46 67 04 40
       3.1586315110663548 2.550428331553715
000060 23 c2 68 b8 6b 05 09 40 80 c4 06 86 7f 42 0c 40
       3.12764686650941 3.5324697943511296
000070 40 ef 12 1e 83 0d 10 40 b5 dd 45 0e 57 19 08 40
       4.01319548597877 3.0123730769225525
000080 58 e4 32 51 f6 bf 09 40 7e 95 2a 1a 5b 15 0c 40
       3.2187315314918514 3.5104276699300376
000090 86 e2 a6 1f 97 fb 0a 40 5d 9e 56 93 a4 a6 06 40
       3.372846839218542 2.8313685904320622
0000a0 f9 a0 ba 9f b2 00 0a 40 3f 17 16 2e 4e c6 05 40
       3.2503406981305685 2.721828804062994
0000b0 4e df 4f 12 51 a7 00 c0 e9 6f b2 40 5a 19 0c 40
       -2.081697600424298 3.512379174657316
0000c0 80 26 8c 72 e5 98 0a 40 09 33 73 7b af ae 0a 40
       3.3246563862820153 3.335295643284898
0000d0 0e 43 97 52 c2 b8 08 40 dd 71 c1 4c 29 2c 01 40
       3.090214390984676 2.1465631481680547
0000e0 23 8f e1 ce 1b 7e 06 40 95 cc 33 13 51 53 08 c0
       2.8115764772973235 -3.040681982057843
0000f0 e0 30 79 bd 56 2a 09 40 8f 4a 50 11 b9 be 0a 40
       3.1456732561692746 3.3431264259937232
000100 cc 3c 0f a8 2a 1c 0b 40 3a 87 3b 55 21 f8 09 40
       3.3887532357835877 3.246157327536733
000110 39 d5 40 34 c6 89 07 40 bb 8d c7 bf cd c8 07 40
       2.9422725755963737 2.9730486853383957
000120 6f a6 15 f6 ef a4 11 40 61 7b 5c 58 6e be 05 40
       4.411071629592342 2.717983904192281
000130 af c9 1e 1d 02 c7 05 40 54 fc d3 fa d9 7a 10 40
       2.7221720004101466 4.119972151936128
000140 4d ef 0b be 3f 03 09 40 b8 6a b5 a1 2e cb 09 40
       3.126586422671528 3.2242100366105113
000150 97 cd c8 57 1e 2c 06 40 80 6c bb de f2 ae 0c 40
       2.7715422495036353 3.5854241753527845
000160 76 ab e8 f7 9f 89 0d 40 f6 bf 5e 90 ef 3f 0c 40
       3.692199646747606 3.5312186507144316
000170 57 c5 ed a2 c1 39 0a 40 ad 38 94 ab b7 41 06 40
       3.2782013634502323 2.782088604412897
000180 13 3a 91 d3 fa c1 0d 40 32 14 0f 41 a6 61 05 40
       3.7197166947073668 2.672680385849639
000190 19 58 5c 04 ad 47 09 40 8a 49 2f 44 3c 6c 0b 40
       3.159997972553367 3.42784932393369
0001a0 6f 77 c4 8e 9c 1b 1f 40 70 cb cf 91 11 7c 05 40
       7.776964407674185 2.6855803863085654
0001b0 5f 2d 83 d9 87 fe 07 40 83 be 7a 86 85 8d 0d 40
       2.999282550159179 3.69410233556829
0001c0 b1 67 67 46 8c 21 07 40 21 e7 d0 fb ee 91 05 40
       2.8913808346087184 2.6962566064002123
0001d0 1b 54 3c e4 b3 ec 11 40 74 4e f7 45 05 eb 0c 40
       4.481154981786882 3.6147561517807905
0001e0 8a a3 78 6f 23 cc 02 40 a5 38 e2 ef 1b 8f 06 40
       2.3496769627276466 2.819877504435754
0001f0 6b d4 ca 1a ca 44 0a 40 fb 8a cb 5c 5c a0 06 40
       3.2835886090420465 2.8283011674515115
000200 27 ab f0 e7 85 12 0d 40 fb bc 7d 43 75 3f 07 40
       3.634044467956659 2.9059853813884025
000210 d9 a1 31 07 f3 f7 04 40 b5 8f 66 57 6e b0 06 40
       2.6210690080663253 2.8361479595350496
000220 ce 01 dd 2e e3 a4 05 40 04 7d 3d f5 db 47 07 40
       2.7055114422985076 2.9100875052823785
000230 d2 4d 36 33 35 9b 09 40 00 16 5a d6 a5 54 08 40
       3.2007850647876035 3.0413319345705077
000240 18 86 1d a7 0c 20 09 40 84 da 5b 15 fa 56 07 40
       3.140649133289809 2.9174691837936866
000250 6d 48 f7 b7 81 77 0a 40 7a 9f 82 78 1e d8 0e 40
       3.308352887376762 3.8555268683302844
000260 64 19 1a 23 ba b4 0c 40 b2 e0 3b 4e ee 2d 10 40
       3.58824565337561 4.044854376225134
000270 2a 76 28 78 e9 61 0c 40 94 db 00 21 2d 41 0c 40
       3.547808588728704 3.5318243578325994
000280 2b e4 2a f4 e0 80 0a 40 25 29 4b 34 0e 37 0b 40
       3.3129290652837162 3.4018825612485153
000290 b3 4a 17 53 9c dd 04 40 5b e2 03 00 e0 f4 0b 40
       2.6082083217127887 3.494567871206795
0002a0 b8 9a 23 80 01 87 03 40 a2 7e 6d 27 c6 b3 0b 40
       2.4409208308091728 3.462780292538654
0002b0 f0 9c 5e 3c 48 81 07 40 3b ae 0d fd 41 07 11 40
       2.93812606014 4.257087663612363
0002c0 19 5f 8b 3a 04 f1 09 40 a5 3c 1c d6 9d 10 09 40
       3.2426838468344497 3.133113548981401
0002d0 8f 29 04 c6 89 e9 04 40 77 2f cb 24 a1 e7 01 40
       2.6140323133487935 2.238100326014258
0002e0 c3 ad 2e ea c5 a1 0c 40 0b 45 e8 d4 02 17 03 40
       3.5789907737250544 2.38623586973029
0002f0 8c d3 ca 2c 5a ca 06 40 1f 8e 48 95 ee 98 0f 40
       2.8488048076055232 3.9496738112227514
000300 19 e5 79 79 d6 11 05 40 52 01 27 8e 77 9d 0b 40
       2.633709858925283 3.451888189854949
000310 f4 2e ab 06 91 66 08 40 6a 1a c0 db f1 54 07 40
       3.0500813027373344 2.916476933288597

model.2.bias f8 [100]
000000 73 1f a8 fd 82 00 e0 3f 5c bc a4 c2 76 75 b5 bf
       0.5000624613030439 -0.08382360698736718
000010 c5 a6 64 c3 23 2e f9 3f 2a f0 ac 31 eb e3 00 40
       1.5737645752473537 2.1112884407903225
000020 b8 a8 d1 b6 f7 61 e4 3f d5 66 11 d7 bb 0e e5 3f
       0.6369589396174637 0.658048553518905
000030 d5 df 5f 28 e4 fe fb 3f 14 ac 7f 03 b7 c6 eb bf
       1.7497293069009079 -0.868007189591824
000040 25 4e 96 78 3b b0 e0 3f d0 de d9 69 26 03 fd 3f
       0.5215127330033665 1.8132690558249358
000050 e0 4a 4e 2f a0 81 e5 3f fc 0c 12 55 65 85 e1 3f
       0.6720734523717873 0.5475336705716525
000060 2b 3e 46 65 6c b1 00 40 33 d9 dd 1b 29 3d 07 40
       2.08663252945532 2.9048635651662607
000070 81 2a 29 db 7e 8e ff 3f b0 5e 61 06 f0 c2 c9 3f
       1.9722889481514871 0.20126152335682468
000080 5d 19 f2 39 60 40 f7 3f 3c dd 42 9c 8b 2b cc bf
       1.4532167685989272 -0.22007889871540864
000090 4c 0c 8a 17 57 4b d9 3f 1e 43 bd 21 1b 37 ec 3f
       0.3952234010577669 0.881726804635125
0000a0 06 a2 9d 6d ee 52 fd 3f 6b b4 be f5 2d ff ec 3f
       1.8327469140878079 0.9061498450952404
0000b0 45 cd 7f 8c 62 5c f6 3f 8f 39 7f 5e 38 56 eb 3f
       1.397554920983411 0.8542749257701859
0000c0 52 a7 f2 42 c4 8c f3 3f 28 47 fb bd ef 21 ed 3f
       1.2218668570662499 0.9103926382615315
0000d0 3a 19 95 25 57 ee e9 bf 72 f0 57 c4 2b e2 cd bf
       -0.8103442892104689 -0.23346469008527354
0000e0 1e 4e 1f b3 6c ce e0 3f 8f c6 50 eb f2 3c f4 bf
       0.5251983164293426 -1.2648801033032304
0000f0 61 40 84 be f6 18 d0 3f fe a8 33 67 b5 f4 ed 3f
       0.25152367215287624 0.936121656003962
000100 8e aa cc b0 ce 1b d9 3f 00 74 e6 41 5b c3 f1 3f
       0.39232222810338946 1.1101944517351967
000110 fb ac ce 7e a0 a2 f1 3f 1c e3 b5 2a d5 68 f9 3f
       1.10220384153473 1.5880939167383934
000120 8f 58 78 46 8d 68 f7 3f a9 44 8e dd 6d 11 f3 3f
       1.463025355600198 1.191755166484919
000130 7c 44 0f 6c d8 ac f1 bf a8 e1 d5 bf 8a 28 fa 3f
       -1.1046985837058676 1.634897946698496
000140 bb a3 cf 01 38 c6 b6 3f 47 8f 2d 8f b4 4d f3 3f
       0.08896207851616016 1.2064710228814464
000150 77 7c 20 fb 62 60 e2 bf db 51 00 ae cd cb f4 3f
       -0.5742659478018045 1.2997566983150282
000160 dd 72 0e a9 6f 70 ed 3f 01 ca 87 43 6a 26 f8 3f
       0.9199751188167188 1.5093786847979802
000170 35 a4 cb 05 be 0d ed 3f 42 bb a8 95 95 d3 f2 bf
       0.9079275239174708 -1.1766563268717651
000180 65 e5 9a 03 bc ac fc 3f 1c 0f 0e d9 a9 32 d5 3f
       1.7921714917013898 0.3312172527005133
000190 a9 9d 97 a7 31 a3 f0 3f 2b 81 b7 59 24 56 f5 3f
       1.039842276246285 1.33353076024657
0001a0 c6 c7 ee 83 7d 30 08 40 09 da 1e ed 29 c8 f9 3f
       3.023676901554583 1.6113681089897247
0001b0 e8 17 b0 36 02 1a e5 3f 95 e3 dd d7 81 80 f7 3f
       0.6594248836634025 1.4688738281531404
0001c0 8f 2e 04 57 6a b3 f5 3f 3d ab 11 a5 73 62 f1 3f
       1.3563025855136492 1.0865360687264023
0001d0 35 40 ed ad 67 96 ed 3f b9 f7 ed 7d 17 48 ef 3f
       0.9246099850661326 0.977550264316725
0001e0 10 1b 20 79 1d 3e e3 3f 07 33 1a 2a 4b 20 f5 3f
       0.6013324132662508 1.3203841824171734
0001f0 7c 9f 82 97 0c f2 ee 3f 2b 60 b6 ca 8a d5 f4 3f
       0.9670470198807233 1.3021343153432194
000200 9f c0 ed c3 31 ea e3 3f 6c cc 7d 47 e6 43 e7 3f
       0.6223381830914326 0.727038516646997
000210 c4 56 48 69 d0 32 f2 bf 93 8e 4d bc 1d 0c f0 3f
       -1.1374057877159638 1.0029580455383538
000220 15 5c 42 63 bc 18 a3 bf 30 2c 21 79 4a e9 62 3f
       -0.03729809486065264 0.0023085073999360647
000230 05 29 ee cb 99 f0 d6 3f 77 80 8a 35 cf 91 f0 3f
       0.35843510546750706 1.0355980006643486
000240 7d 52 83 52 b4 6d e0 bf b3 de 3c 4e 86 90 f1 3f
       -0.5133916484433737 1.0977843338168156
000250 a7 ee 2b 02 a0 cf f7 3f 6f 56 f3 c0 a0 fa bd 3f
       1.4881897053555038 0.11710552893358693
000260 48 d2 a3 c7 e3 84 04 40 4f 4c d0 c9 10 be fa 3f
       2.564887580573018 1.6714027293535485
000270 0b 2e 80 27 84 23 e5 bf 86 ee af 8d ff d2 91 bf
       -0.6605854770181748 -0.017406456969168115
000280 48 ff fd ce b1 05 01 40 2c 6d 1a e5 3b f4 e7 bf
       2.127780549169902 -0.7485637163803509
000290 72 7e 0f 92 b1 e7 ed 3f 24 e2 f4 66 18 8d ef bf
       0.9345329144234269 -0.9859735499258631
0002a0 da 34 6e ef 2b 36 fa 3f 6f ac 93 51 98 97 e1 bf
       1.6382254936937017 -0.5497552483842706
0002b0 59 f3 fb 10 f7 1a e0 bf e3 39 f3 b8 1e 84 fd 3f
       -0.5032916385385803 1.844755861722313
0002c0 3e 26 05 f0 24 e9 e1 3f f0 a8 7f c1 93 40 e4 3f
       0.5597099960224978 0.6328829554816178
0002d0 63 ad 1f 4a 1e 51 d4 3f 5d 18 36 60 78 6e be bf
       0.3174510692467349 -0.11887314175518911
0002e0 a4 8b 78 36 5e 90 d9 3f a5 f0 95 bf 7b 2e e5 bf
       0.39943652457639645 -0.6619242422016397
0002f0 9a b8 3d 90 99 48 c3 bf 8c 75 cd 5b 4a b1 c0 3f
       -0.15065307181379667 0.13041047556445695
000300 ea 54 08 a2 03 8d d4 bf 2c 13 ab 90 e1 0a f2 3f
       -0.3211068231915549 1.1276565219024617
000310 14 ff c1 37 78 78 f5 3f 8f a3 8b 75 d3 26 d4 bf
       1.3419115236319543 -0.314869751730435

model.2.running_mean f8 [100]
000000 6f 6a 1c 9a 3e 9e 13 40 ce 70 02 12 14 4b 02 40
       4.904535682663307 2.286659374904139
000010 63 95 68 84 c0 93 e9 3f c8 7f 13 84 dd 73 03 40
       0.7992861353019801 2.43157485184199
000020 fd 00 f1 94 1e 44 ed 3f 00 15 79 6f 5c d7 df 3f
       0.914565363789762 0.497519596920327
000030 30 8e aa 8c e2 0c 0d 40 7e 7f 05 27 02 6a fb 3f
       3.631291483836115 1.7133809589649611
000040 33 01 b6 b0 0a 06 08 40 b0 0e d7 42 ce 32 15 40
       3.0029500775855467 5.299614948631344
000050 16 ff 6e 15 08 8a ed 3f be 57 57 83 67 be 0f 40
       0.9230995577454191 3.9679708729772463
000060 e6 84 6f db 65 5a fd 3f b6 6c ec 85 cc 78 21 40
       1.8345697948173494 8.735935387716705
000070 72 17 eb b6 ad de f9 3f e6 1f b4 c4 9e 56 0f 40
       1.6168648858306054 3.9172950141400973
000080 f9 2d c5 65 72 2d 10 40 aa 5c a4 b7 61 bd 00 40
       4.044381704482924 2.092471537307195
000090 ba 89 80 15 5f 12 f0 3f 20 a6 d7 30 63 8b f5 3f
       1.0044852104116289 1.3465301425843634
0000a0 50 3e a0 69 d8 d7 02 40 1b 9a e5 a1 40 ce 0c 40
       2.355393243029347 3.600709214038273
0000b0 31 ae 60 0d 01 21 a2 3f 6d 2f de 06 12 e2 db 3f
       0.03540805137921799 0.43567324324316453
0000c0 74 35 ab c4 55 a1 0b 40 e1 7f 5f 7e 0b d9 05 40
       3.453776871180418 2.730978953637518
0000d0 4e 5d f2 53 46 13 ce 3f 2e aa 5f ff cb 50 23 40
       0.2349632177253888 9.657806377818897
0000e0 79 6c b8 b1 95 e2 f1 3f 8f 33 bf c9 2a fd da 3f
       1.1178185407832457 0.4217020960029964
0000f0 fc 33 71 07 99 f7 fe 3f 8a db b3 ef 11 89 ff 3f
       1.9354486742697636 1.9709643710500324
000100 5b 55 dd f9 9e 6d 09 40 f0 c1 e7 88 b7 84 fa 3f
       3.1785258789702033 1.6574015949118994
000110 4e 3c 70 b9 c6 8e de 3f b3 d6 96 2a b8 69 ef 3f
       0.477464371769149 0.9816552001782014
000120 92 20 27 77 df e2 ea 3f 4e 44 99 94 9f 05 0b 40
       0.8401944472507401 3.377745781829197
000130 1c d6 2e 0f 26 be f7 3f b7 b5 b8 6e 5c 69 06 40
       1.4839230149349367 2.801445832263848
000140 be ed 4d 3f 0c 4b f2 3f ee ed f7 e7 0e ad fa 3f
       1.1433222267940972 1.6672505437153364
000150 d6 c7 30 69 d2 ed 05 40 8c c1 d1 31 5f b5 e3 3f
       2.741123983193556 0.6158901188883177
000160 6b aa c8 91 5c 1e 17 40 c4 74 58 41 bd 80 fc 3f
       5.779649999497091 1.781430487876876
000170 c8 8e c1 03 fa 16 0c 40 f3 08 e8 f6 5b 58 17 40
       3.5112190526432165 5.836288316643038
000180 e7 d0 a8 ee e5 d3 f4 3f 31 59 d5 b7 a4 93 e4 3f
       1.3017329523691445 0.6430228796478216
000190 c6 f4 d5 43 df ce 05 40 86 59 6a 52 14 d6 e8 3f
       2.7260117816609606 0.7761327371288622
0001a0 05 6e 3e c3 fa b1 08 40 b2 5d e8 06 f5 a5 07 40
       3.086904073088365 2.9560337581312632
0001b0 0a 2a f1 f0 f1 c6 df 3f 2d a3 46 2b fe 66 00 40
       0.4965176442098317 2.050289476483519
0001c0 cf 1c ff 49 cc 97 f6 3f 20 e8 ed 85 9a 98 f1 3f
       1.4120600595941146 1.099756739770335
0001d0 c1 f4 d1 73 fb b2 07 40 22 40 bd c2 7e 56 02 40
       2.9623936699341304 2.292233964348285
0001e0 f6 68 8c b1 d0 53 1a 40 36 32 f7 44 ab f4 03 40
       6.581850790209719 2.494467295450046
0001f0 00 54 79 66 89 62 d5 3f ba b8 70 72 27 3b 02 40
       0.3341392040941287 2.2788838329934977
000200 65 68 11 91 e0 7d ec 3f 2c 86 38 b0 a1 ed f1 3f
       0.8903658707961425 1.120515526163568
000210 a9 ee 24 74 83 02 fd 3f 29 ed 96 37 33 7b 13 40
       1.813113645256559 4.870312565409486
000220 6f 0a 7e 1c fa aa a9 bf d0 92 11 1a c7 2a 15 40
       -0.050132575967855135 5.291775138208962
000230 1b 8b 3d a3 0a 4c f0 3f 9d 2b d6 6a 8b a0 a3 3f
       1.0185648323610568 0.03833423308522941
000240 b7 dc 04 fe b2 60 04 40 27 d9 85 b5 d7 e5 cc 3f
       2.54721640064562 0.22576423991603997
000250 8b c9 e3 1b 82 b5 11 40 c8 2e 91 d8 12 0a e5 3f
       4.427254138734848 0.6574796895815433
000260 a8 e0 d0 73 ad 36 10 40 11 0c a3 b2 4f 1f 24 40
       4.053396043418765 10.061154920962538
000270 68 d0 e2 5e 0b 17 03 40 05 0c b2 83 64 0f f6 3f
       2.386252156540696 1.3787579674105939
000280 74 06 fc cc e8 de d6 3f d9 60 94 4f 4f 67 0c 40
       0.35735530870451915 3.5504442422062366
000290 a1 39 1f e7 dc 14 00 40 f4 34 45 a4 b4 d8 06 40
       2.010186963692107 2.8558132966633085
0002a0 58 55 fb 6a 2c 2c db 3f f9 71 23 b5 1f ad e9 3f
       0.42457113692701887 0.8023832834110741
0002b0 cb 92 2a 3f 0a d7 07 40 a7 4c a1 99 eb 88 f0 3f
       2.980000012861955 1.0334278107809867
0002c0 3f 9d 83 21 21 fc 01 40 ed 5d 1a 46 6f 3c 03 40
       2.248110067204521 2.4045091130062617
0002d0 56 6d 99 16 87 c0 1a 40 f4 24 87 cc ea af 03 40
       6.688015320887038 2.460897062181738
0002e0 40 07 4d 82 30 21 0c 40 e4 5a 84 6f b2 65 5f 3f
       3.5162058048016718 0.0019163363013540652
0002f0 d2 f2 f6 3b 02 e2 fc 3f 0b cb 76 16 be 68 12 40
       1.8051779119843343 4.602287627220686
000300 f0 b6 d9 16 23 c0 10 40 b3 43 f7 ac 97 45 e0 3f
       4.187633854902501 0.50849517614744
000310 c6 b6 f7 75 0d 94 ec 3f 8e f3 e1 c0 ed 27 fe 3f
       0.8930728248648954 1.884748223731751

model.2.running_var f8 [100]
000000 12 43 1a bb ec 39 44 40 f0 5b 1a e9 ba 36 33 40
       40.45253695280384 19.21378952878507
000010 16 70 00 23 6e f8 2a 40 b8 3a 8f 3c 81 3d 3c 40
       13.485215276530692 28.240253243415935
000020 ba 65 71 ad 0b 5c 22 40 1c 1a ae 77 fc 2f 23 40
       9.179776592342808 9.593723049166378
000030 b0 b4 1b 48 26 0a 3c 40 87 97 f5 18 c4 3b 33 40
       28.03964663196956 19.233460960349046
000040 64 7f c7 03 26 e2 35 40 39 96 cf b9 ab 48 47 40
       21.88339255924747 46.56774065624308
000050 f2 26 68 b1 af 06 22 40 87 b7 1b 51 51 09 41 40
       9.013059181178935 34.07279409268727
000060 b1 29 d3 87 88 83 30 40 cf 6c 36 42 9b 7a 4e 40
       16.51380204110473 60.95786311776612
000070 69 7e d7 d9 d2 8d 24 40 98 89 eb b4 ac a4 46 40
       10.2769992900423 45.2865205907903
000080 96 13 e5 cd bc 09 40 40 27 f9 ae 75 12 f6 32 40
       32.07607434926392 18.9612191726857
000090 81 69 af 2e 72 47 32 40 64 8c a5 24 0b 43 36 40
       18.279086034608103 22.26188878099164
0000a0 06 b1 ee c9 e2 61 35 40 9d 5b 22 15 c9 05 40 40
       21.38236677243642 32.04519905259733
0000b0 87 d9 0b b4 95 eb f1 3f ca fb 6a 8b db bd 0e 40
       1.1200158150728343 3.84270390434492
0000c0 c6 7f df c2 d1 51 38 40 1a f8 a4 61 28 ca 40 40
       24.31960695225259 33.57935734324583
0000d0 4c 09 53 73 71 15 09 40 ee 87 c7 1e c7 3a 4a 40
       3.1354702958789513 52.45920166723941
0000e0 2a 5a 77 37 07 46 27 40 31 09 34 fe c8 17 13 40
       11.636773808783875 4.7732276648769565
0000f0 23 9e f2 cf c0 e6 31 40 3a 81 04 54 8d bf 30 40
       17.90137958215031 16.748250247096827
000100 0b 64 4f be c9 8f 45 40 b2 e2 7b d5 28 e2 2e 40
       43.12334421993736 15.441717788098092
000110 da 2b bd d5 5c 68 16 40 77 41 ac ff 0f a7 22 40
       5.60191663710699 9.326293935563383
000120 92 5a 49 22 75 90 29 40 62 66 62 73 e5 7d 40 40
       12.782143660978623 32.98356478027996
000130 12 c4 85 50 24 18 28 40 32 2e 58 ff 20 b5 3d 40
       12.047152057961316 29.70753475096553
000140 b6 92 fa 24 13 fb 34 40 d0 e6 8c 1e d2 d3 31 40
       20.980760871100493 17.82742491664868
000150 00 dd ab 2b 72 98 32 40 55 df f2 39 74 b6 22 40
       18.59549210496789 9.356355486772069
000160 1e 79 92 9a 4b dc 46 40 f6 1d e1 bc d1 ff 29 40
       45.721057244796825 12.999647047500712
000170 76 1d b6 de e7 30 49 40 dd 72 1c 40 2a 92 4a 40
       50.3820761098131 53.14191438092323
000180 2a 78 d9 f0 85 9e 29 40 b7 18 d8 d4 42 a7 19 40
       12.809615637346798 6.413340879144179
000190 41 bb 98 1f 15 a6 31 40 84 01 d6 d3 1a ed 22 40
       17.648759817874865 9.463095302461404
0001a0 e6 22 7c a0 af e5 47 40 d0 5d 8d df aa 1f 3f 40
       47.79442220746368 31.123701068890853
0001b0 e7 db ec 12 41 d6 0d 40 1d c0 0c cb 78 df 31 40
       3.7296163061650875 17.872936907399083
0001c0 45 ab dd 3f 8b b0 24 40 48 ea 1d f7 b1 e6 15 40
       10.344812389191825 5.475288258744122
0001d0 b4 e3 84 1d ce 69 38 40 4d bd 88 bd 02 8e 35 40
       24.413301320022313 21.554729314693123
0001e0 ba 0c 10 ef 62 8d 46 40 d4 4a 37 61 f6 1c 35 40
       45.10458172115018 21.11313445663366
0001f0 ba 36 ae b3 19 67 0c 40 e9 1f 50 07 f7 ae 34 40
       3.5503419911900354 20.683456856786425
000200 78 49 95 eb 94 55 25 40 fd b2 e9 5a b5 e2 2c 40
       10.667151796315679 14.442789879825336
000210 fb 12 9c b4 9c 9c 31 40 f4 f3 0f 1f 9b c0 41 40
       17.611766136268653 35.50473392752602
000220 31 b7 68 c9 3e b3 fd 3f 31 c3 0d be 09 67 42 40
       1.8562610499897796 36.80498481437679
000230 8c ae bc b9 e9 03 28 40 aa 51 7f 3b 65 4e f2 3f
       12.007642559320878 1.14413951150082
000240 07 91 48 79 c7 6f 39 40 d6 d3 7e be 9f 81 2c 40
       25.436637478081163 14.253171875936385
000250 e0 6c 87 1e 10 7e 44 40 0a f6 9b 2e d4 b8 18 40
       40.984866920591 6.180496910351858
000260 04 91 71 0c 89 8a 42 40 6e 8a c9 6e e2 65 56 40
       37.08230739159811 89.59194535905564
000270 7d 95 a0 1d 3c 9a 38 40 0e 9c 07 97 c9 5e 2a 40
       24.60247979326731 13.185131759337335
000280 e8 cd 83 18 40 ea 13 40 bb 86 4c a1 4d 3d 41 40
       4.97876013092489 34.478931581846574
000290 8a b0 14 45 8d 4f 34 40 37 00 80 2d cd 55 3a 40
       20.310749356795476 26.335162013769345
0002a0 37 d9 11 1f 97 9d 11 40 80 ef 9f f6 64 13 22 40
       4.403896794762026 9.03787966444338
0002b0 a3 32 30 5f 3d 2e 3e 40 7e e4 c2 01 e5 ca 2b 40
       30.18062395979599 13.896278433838457
0002c0 7c 69 f6 ed 86 2c 32 40 62 71 0c f3 ef 28 3a 40
       18.173933861407463 26.159911337411707
0002d0 ac 7f 5c 81 d7 41 5c 40 80 23 d6 c8 ba 4a 3a 40
       113.0287784007366 26.291912605552625
0002e0 d8 7c 1b 8a 13 5b 43 40 a8 3f 60 c1 1e 06 f3 3f
       38.71153379766628 1.188994174361122
0002f0 c9 ec 89 07 dc 1f 2a 40 92 7c 8a 27 51 05 51 40
       13.062225566469708 68.08307827495653
000300 29 dd 9a 6b ae b0 40 40 d9 d4 3b 10 58 3a 14 40
       33.38032288610186 5.056976560260602
000310 ae ca 9c f7 4b 51 29 40 a4 fe a1 70 d0 2f 33 40
       12.658782709016432 19.186774291562543
