kaggle_playground_smoking_prob/saved_models/model_0.pt (torch, 426722 bytes, 48 tensors)

model.0.weight f8 [50, 21]
0.26409996759245874 0.10995750028983503 0.007107642111674275 0.1392316760221932 0.09944705976374223 0.1346077895350426 -0.026311795412120823 0.02776324718901721
0.035849816617262976 -0.017893798062313147 0.017316116108319367 -0.07720550638979833 -0.03295458609569163 0.1878026925197918 0.007626850047834535 0.07233281044991083
-0.0018344249907416364 -0.12306402232102667 0.17045217680394367 0.17241178201624277 -0.16023939866368733 0.049807253915963495 -0.1521239034699382 0.011928886762445063
-0.11323462040511424 0.03994443390408214 0.049730791853698525 0.016324443024807286 0.11945715355960833 -0.1854413474082393 0.1794933768117932 0.09111272532179028
-0.08613832473437308 -0.12779304592567095 0.01697740704791441 0.11743203679501012 0.046158551306348536 -0.026790484989696915 0.205807136272618 -0.07520033260064354
-0.15016404669181657 -0.2012840013736822 0.1339538685102653 -0.048611156888774036 -0.000164693796314198 0.01903545506282877 0.18613994200926326 -0.17667787790524414
0.18117992059149698 0.055381855164282935 0.1414039593149222 -0.16056561065945435 -0.30532667563113147 0.1917685766711345 0.14451204894301942 -0.11174522258283343
0.0006285597799471013 0.08858537034164712 -0.10087276930435235 0.11510845851939108 0.016143398248503152 -0.2730310098448822 -0.09509081068664932 0.28420576162017547
0.03496623122271719 -0.11937996306299874 -0.02091322404757013 0.23137680722273166 -0.14438874859494533 0.04740896437765163 0.10722483489446342 0.06729804224452057
-0.0023441707959913132 0.11045113825782518 -0.210031225770845 -0.054601842471589446 -0.23700135446885753 -0.1322352490457803 0.0003319343529773415 -0.1835594666895492
-0.005031227924811376 -0.12633209669754605 -0.03805995217252508 -0.10726883298118134 -0.07014076329276704 -0.026516746473640985 0.038504488213605026 -0.03934733566033396
0.03194133960013518 -0.10864448132901387 -0.03509955950303933 0.1660101916566149 0.19203268201748092 -0.2117879242349006 0.06357641489455299 -0.114385239407079
-0.16754725619511981 -0.10360069184290673 0.04405092436813221 0.09406702824332695 -0.11353037755944709 0.20037287433615314 0.1370964427525651 0.15929654228013285
0.0005244792145825016 0.18506926897914 -0.01306330711448293 0.20063566786965248 0.11140215356547323 -0.09273723453651764 0.1288001259378267 0.013886810527531464
0.0438053164912239 -0.19762757170705533 0.03769124211939468 -0.18455314875172615 0.06714141902164461 -0.09410206585700989 0.16303483173202074 -0.09573511907618625
-0.0653551847301818 -0.04592602111667188 -0.19957566641293323 0.24542674856248242 -0.23911934501147417 0.08790722664424086 -0.10080213136371942 0.13840984636219825
-0.10600552721346548 -0.1161210941690848 0.10314131093170494 -0.14074941885711162 -0.031170147395039007 0.12786751466067275 -0.07801161715805348 -0.132714768859771
-0.1718206716058544 0.1307087478451805 0.06766617882924114 -0.034986665564921256 -0.11023727438021784 0.10913257423056463 -0.0028607375251204505 0.09984803611824045
-0.4064064984504824 -0.03800078501591045 -0.08786825400689394 -0.08782444751889887 0.19065196465828893 0.08841330103175003 -0.09445188510751107 0.19077422835513416
0.14270369993010892 0.036165841306830114 0.006996612569037074 -0.006502086840181861 -0.14834745689519352 0.06782131331757513 0.05056944359282839 0.012231537659700443
0.1463077726277635 0.12311103852970853 0.2040286599126437 -0.030096332056652252 0.09071384109617808 0.1307883007838624 0.20752241000073746 -0.2183130851626085
-0.1996930517827904 0.10582309541724254 -0.07634259494359469 -0.01825261101116218 0.042260750725396715 0.18909331938819968 -0.010632900573614611 0.014992779407264692
-0.04501699499100768 0.06208401487151873 0.024223763134540235 -0.1181724945333449 -0.12602163812969017 0.28185805698457006 -0.10612795370064694 0.03495625994831011
-0.012348270430550723 -0.07980247431605828 0.2716997314154854 -0.012559150035366031 -0.13666489697333575 0.2581091783957213 0.01967043721057291 0.046387746350911085
-0.03843796143474757 -0.15885001522215123 0.05680062749122203 -0.10411172534597356 0.08121475833136935 0.17193504191665088 0.12660440753895696 0.06717086226553803
0.025293610657846192 -0.16724291698087682 0.11592912627875494 0.06295808670559068 -0.020732607352451887 0.11260841792931854 -0.029206797080979185 -0.05610941129387678
0.22690557872076245 -0.047326219860563706 -0.10652165511023648 -0.1550215888288331 0.10102996809082017 -0.08440483644499656 -0.034700523334909014 -0.13303522877309362
0.012606588614892143 -0.05318948557782555 0.13075468864686296 0.2409073126594518 -0.09147136144481273 -0.05979619839130009 -0.15076368263738246 -0.1749776239792009
-0.07393574150462752 -0.18178979374271825 0.24962450329875796 -0.12857664524054174 -0.3366570062719913 0.08471792086388491 -0.03320619398761252 0.16999655655421214
-0.1120174788762171 -0.009251880046385203 0.255713059650051 0.10175424437990921 -0.01935450688879202 -0.04461076592184944 -0.008012824332941268 0.08394556323215041
-0.15942006256652902 0.05150804088269836 0.018615298587201567 0.014523567043829406 -0.18695344091426455 -0.05976671975051079 0.13666543398302583 -0.08315595601205242
0.06947604951290354 0.011448299632676143 -0.2382506281723541 -0.2571079811461945 -0.07987259039752209 -0.04900300864354063 0.20142291948806643 0.1441450888510426
00000000: 15cb eb8c 03e7 d03f 44db b1bb 2c26 bc3f
00000010: 1cb3 bd26 e71c 7d3f 3792 8af3 57d2 c13f
00000020: 8f5e 5ecd 5c75 b93f 8080 ebfa d33a c13f
00000030: 0429 2db3 7af1 9abf 3893 d4fa f76d 9c3f
00000040: c5a2 e03b e85a a23f 195b ea75 c052 92bf
00000050: d610 84e1 50bb 913f e3ea 0375 bdc3 b3bf
00000060: 3884 116b 6cdf a0bf 7193 3c2b eb09 c83f
00000070: 435e 6ef8 543d 7f3f f264 4f2f 6784 b23f
00000080: a39c e6d5 220e 5ebf a2da 2eaf 1f81 bfbf
00000090: 55d5 737e 60d1 c53f 5138 9ada 9611 c63f
000000a0: 7547 6580 b982 c4bf 1c63 581d 5680 a93f
000000b0: 78ef 2bcb cb78 c3bf 37da 2d14 2c6e 883f
000000c0: 8139 6aaf f1fc bcbf b7ef 8cca 9873 a43f
000000d0: 8c4c 3b79 5076 a93f 3ff8 aad3 5ab7 903f
000000e0: 03d0 cf77 be94 be3f 6ae7 38c5 8abc c7bf
000000f0: 3fac a093 a3f9 c63f 51ab 81df 2953 b73f
00000100: 9696 aa47 290d b6bf 0318 74c4 855b c0bf
00000110: 24ac 2a80 8662 913f 5f88 89a5 0610 be3f
00000120: 2640 95f8 17a2 a73f 79b8 7f03 f76e 9bbf
00000130: fb82 c963 e357 ca3f ba07 2b39 5440 b3bf
00000140: 77c6 c952 9338 c3bf 6cd2 8d95 acc3 c9bf
00000150: 9a4e 367e 6625 c13f 6fb3 1dc2 8fe3 a8bf
00000160: 58db 23f0 3496 25bf de59 d6c3 077e 933f
00000170: 1e5e b401 6fd3 c73f 5ccd c375 619d c6bf
00000180: 0ff1 d054 e730 c73f edde 71b1 025b ac3f
00000190: 2329 6462 8619 c23f 1683 52f7 698d c4bf
000001a0: b0a7 9be5 788a d3bf 9efb 996a df8b c83f
000001b0: c94a 0bee 5e7f c23f 1c3e 7abc 559b bcbf
000001c0: c5ee 66d9 bd98 443f f67b 85e4 87ad b63f
000001d0: f419 383d ccd2 b9bf 1e71 d578 bf77 bd3f
000001e0: 1431 181e e587 903f c7f7 840e 5779 d1bf
000001f0: 049e 0c12 df57 b8bf 4994 df5c 6d30 d23f
00000200: 78c3 2107 18e7 a13f 8b3c 276d af8f bebf
00000210: 225a 5ab5 466a 95bf 2b8a 0956 c19d cd3f
00000220: 8015 909c 547b c2bf a017 14df fc45 a83f
00000230: 07d3 3037 1673 bb3f 2c69 86ca 713a b13f
00000240: 8eee f51c 1534 63bf ca92 9f9a 8646 bc3f
00000250: 908b e99e 4de2 cabf 1803 6fcf c5f4 abbf
00000260: cd95 4675 0f56 cebf 67d8 03ab 15ed c0bf
00000270: 8dc3 c130 efc0 353f a6c2 2669 e07e c7bf
00000280: 8c24 55f6 9f9b 74bf 0f23 e06f a62b c0bf
00000290: 5b94 bc13 987c a3bf 44c5 8861 f875 bbbf
000002a0: 3d7b 75bc bef4 b1bf dd39 9abb 3427 9bbf
000002b0: 68d8 403b dcb6 a33f bb15 b17f 5525 a4bf
000002c0: 682e f281 9d5a a03f 7bf1 32ee 1fd0 bbbf
000002d0: 8fd0 56c8 91f8 a1bf 9ce2 fb6b d23f c53f
000002e0: a09d 83e4 8694 c83f 6968 23e0 dd1b cbbf
000002f0: 4edf c43e 8b46 b03f 5f06 66de 5948 bdbf
00000300: d53f f240 3072 c5bf 05ea 4e2f 9385 babf
00000310: c415 0abf d78d a63f 13df efd9 c614 b83f
00000320: 5a69 b8aa 5310 bdbf f4bf 237f d1a5 c93f
00000330: 0696 0251 608c c13f 36c2 ba3f d463 c43f
00000340: 99ea 7a89 a62f 413f c848 e18c 59b0 c73f
00000350: d6a9 ac66 efc0 8abf aca4 f4f7 6dae c93f
00000360: 8086 44fe d984 bc3f f2b0 749d a0bd b7bf
00000370: aad3 4fc4 857c c03f b1f1 7d28 b070 8c3f
00000380: 5304 7183 a66d a63f 7385 a23a dc4b c9bf
00000390: a130 7f38 444c a33f 2d99 2105 709f c7bf
000003a0: d0ad e716 2e30 b13f 7a86 57af 1217 b8bf
000003b0: 21ee 324b 53de c43f 67c9 82c5 1882 b8bf
000003c0: 8b48 0a0d 1ebb b0bf a088 768d 9d83 a7bf
000003d0: 0415 2908 b28b c9bf 62da 51c9 246a cf3f
000003e0: 0126 5573 769b cebf 0ee2 8487 1681 b63f
000003f0: 6903 9321 2bce b9bf 9df6 c8f1 69b7 c13f
00000400: 02bb 93a0 2d23 bbbf 09fb d4ad 1cba bdbf
00000410: 2d78 510d 7867 ba3f ee0d 76b3 1304 c2bf
00000420: 4759 b12e 11eb 9fbf 2a1d d874 f65d c03f
00000430: b7e3 66c0 91f8 b3bf 1176 f92b ccfc c0bf
00000440: 9275 a942 38fe c5bf 98e8 a572 10bb c03f
00000450: bceb 1d19 9252 b13f 717b cbb0 c5e9 a1bf
00000460: 0362 4390 8238 bcbf 1ea2 3fc5 1cf0 bb3f
00000470: 8352 9cc3 666f 67bf 789a b211 a48f b93f
00000480: 3282 ee66 9002 dabf 1438 bbc1 d674 a3bf
00000490: 7af4 50ad 887e b6bf 4a08 e2b9 a97b b6bf
000004a0: 5810 9098 4867 c83f 0f78 760c 41a2 b63f
000004b0: 3c12 95ad ff2d b8bf 613b da37 4a6b c83f
000004c0: ede7 1b66 1d44 c23f 9352 4a43 5484 a23f
000004d0: 1833 abe2 7aa8 7c3f a36d 59a5 eea1 7abf
000004e0: d2a1 e7a9 0cfd c2bf 90b6 abd2 bc5c b13f
000004f0: 68f4 d0f4 3ce4 a93f 8d5d d331 d90c 893f
00000500: d81d 4b8d 36ba c23f 62fe 427c 3484 bf3f
00000510: dfc0 e272 9c1d ca3f 73c9 a6a7 92d1 9ebf
00000520: e078 cdb4 0539 b73f f875 48c9 abbd c03f
00000530: 64f4 1126 1890 ca3f 58f8 87e4 aef1 cbbf
00000540: 60a0 52bb 8a8f c9bf df81 faed 3817 bb3f
00000550: 5c13 9334 308b b3bf 272e 70fd cfb0 92bf
00000560: c23b 8a7c 33a3 a53f 120b 55bb 3534 c83f
00000570: 2667 cdc1 b3c6 85bf a8be d7c9 88b4 8e3f
00000580: 364b 80b2 770c a7bf 8381 f4da 79c9 af3f
00000590: a4ac cb39 1dce 983f 61b5 4e77 8d40 bebf
000005a0: a17c 2d1f 7a21 c0bf a738 3760 f609 d23f
000005b0: 2def 559a 332b bbbf 7374 8972 c9e5 a13f
000005c0: 2d81 4acd 0c4a 89bf 3acd 5359 ef6d b4bf
000005d0: 50bc 3045 8763 d13f 4ef2 5695 9cb8 89bf
000005e0: f17e 813f 3c7e c1bf 8d73 005c dc84 d03f
000005f0: b9d9 11b2 7c24 943f 084d 067b 22c0 a73f
00000600: 5505 93f6 23ae a3bf 2f93 2c82 3255 c4bf
00000610: bc24 efca f814 ad3f 1fb8 7de7 10a7 babf
00000620: be5b fc8a 7dca b43f 7cc1 08ab f701 c63f
00000630: 2863 f4be 9234 c03f 00b3 ac10 1c32 b13f
00000640: a1f6 4a7a 91e6 993f 3dd3 7545 3768 c5bf
00000650: 3f67 05fe 87ad bd3f 9953 6b6b 051e b03f
00000660: 488a 28ba ed3a 95bf c1be 42c0 e7d3 bc3f
00000670: e385 22f9 62e8 9dbf 2c91 026d 5fba acbf
00000680: 445c f1f3 3d0b cd3f 1cbf 166d 243b a8bf
00000690: 58a6 03d1 0045 bbbf 58ce 1857 bfd7 c3bf
000006a0: edb1 dd98 19dd b93f 23ce 272c 8e9b b5bf
000006b0: 2e4a c159 44c4 a1bf a9ed 6562 4c07 c1bf
000006c0: b24c 85ae 7bd1 893f 717c 18fa a63b abbf
000006d0: 6aba c4d3 91bc c03f f6aa 9e02 0dd6 ce3f
000006e0: a912 edc9 aa6a b7bf eb11 0879 9b9d aebf
000006f0: fb10 2d6f 394c c3bf c0df 42b2 aa65 c6bf
00000700: 1d94 c4e7 73ed b2bf 4a8f 6f51 e344 c7bf
00000710: 7c65 f91a b2f3 cf3f e233 2b13 3375 c0bf
00000720: fb13 fad3 c98b d5bf 34d9 7edb 12b0 b53f
00000730: 8521 67fa 6600 a1bf 4a9e 6a79 72c2 c53f
00000740: 9c8d 5a70 2dad bcbf 7750 ce51 a6f2 82bf
00000750: 2cda 164f 9a5d d03f 5845 d7ef 900c ba3f
00000760: dc63 78f8 aad1 93bf 3222 5ee9 38d7 a6bf
00000770: c529 ab13 0769 80bf 70f4 b9d8 747d b53f
00000780: 8a56 8669 e067 c4bf 13fa 240e 435f aa3f
00000790: e099 8c8a e30f 933f 44cc cb2b 88be 8d3f
000007a0: cffb 4c21 17ee c7bf a86e 6f55 be99 aebf
000007b0: f2b1 b9c0 407e c13f ca14 8a6f b549 b5bf
000007c0: e860 83b0 2ec9 b13f 0821 23c4 3472 873f
000007d0: 4438 2020 ff7e cebf 3810 a408 7574 d0bf
000007e0: 4caa 9ab3 8772 b4bf 5929 0f1f ec16 a9bf
000007f0: ebdb eee9 39c8 c93f 5443 3fa5 5873 c23f

model.0.bias f8 [50]
-0.1055221556602446 0.10499467922194594 0.1386568899692109 0.0026255404894350485 0.2379335281291091 0.15352895283548001 -0.16078954386415398 0.07655127341783832
0.18628431838793919 0.25799966863725476 0.10221666172888225 -0.03291058662932712 0.2642164816889324 -0.045576867675902806 0.12400745765935929 0.07654074765761229
0.08229033110334326 -0.005150790158245597 -0.1492761641585539 -0.07065712280109498 -0.03883151092804948 0.031660955825920434 -0.2146425233347301 0.2967562461799154
-0.06789462395839445 -0.18993115918995196 -0.18753130475545887 0.25445963581907627 0.1068694613136047 -0.09887206148001777 0.23108853886824934 -0.09167510205200437
0.0907523323542842 -0.14752557776036548 0.049705322420837306 0.17209544037612443 0.21124934769821468 -0.10614255878716934 -0.008102902973121015 -0.06535349035055606
-0.08450389065946332 -0.05817232151162733 -0.11334521895260534 0.08860000601442049 -0.02089317513806503 0.0201360065741984 0.15080622104223348 0.03149896436424217
0.03576283566824821 -0.020861625008005993
00000000: 916d 90ff 7f03 bbbf 0824 8369 eee0 ba3f
00000010: d133 e44b 82bf c13f ab93 2a51 2882 653f
00000020: 99dc f718 9b74 ce3f 1271 b533 d6a6 c33f
00000030: dfb7 3774 c094 c4bf 1af9 cb3f dd98 b33f
00000040: ceee 9d1f 2ad8 c73f 1041 cb0a 1183 d03f
00000050: 225a 3b03 df2a ba3f c1bf 870a a8d9 a0bf
00000060: eec2 fa3e ece8 d03f c986 3ee8 d955 a7bf
00000070: d167 1be7 f3be bf3f 9e36 00a8 2c98 b33f
00000080: b7a9 dda8 fa10 b53f 7d9a 73b4 fe18 75bf
00000090: 8310 9139 7b1b c3bf 2c00 a9cf 9516 b2bf
000000a0: 9f00 fb4a b9e1 a3bf 2034 aa63 dd35 a03f
000000b0: ccdb 06fd 6779 cbbf 597e 0ee9 0dfe d23f
000000c0: d3bb 79c5 8a61 b1bf d029 9b0a aa4f c8bf
000000d0: dc50 739a 0601 c8bf 20ae 7f11 1149 d03f
000000e0: 3c77 4809 cc5b bb3f 8d76 8bee ad4f b9bf
000000f0: 01b4 752a 4f94 cd3f f1ba 2bfd 0478 b7bf
00000100: dc53 7f7b 8b3b b73f 79f2 e63d 1ee2 c2bf
00000110: a821 78dc f972 a93f db63 1a30 3907 c63f
00000120: 2024 d5f7 370a cb3f ed63 b4a2 282c bbbf
00000130: 8b7f 2d3a 4198 80bf d92e bc9f 01bb b0bf
00000140: 4264 c406 0ca2 b5bf 3184 d934 c3c8 adbf
00000150: cb34 8f38 3104 bdbf fde0 4170 7dae b63f
00000160: 0cda b53f 0565 95bf 7138 d586 889e 943f
00000170: 5b72 b445 9e4d c33f b2c5 9adb a120 a03f
00000180: 5df6 36a3 814f a23f b46b 9af4 bf5c 95bf

model.2.weight f8 [50]
0.9895298063068302 0.9186489324739746 0.9820432567611833 0.9993126555993874 0.9954443731648924 0.9962002793349081 1.021389538760703 1.0466153007470822
1.0570625634374897 1.0436750077329062 0.9951146883258435 0.9942094415239461 0.98814661619764 0.9930588866226648 1.0186585967857709 1.0265719787349683
1.084968878422691 0.988436442626053 0.9846149733513541 0.9338983703132523 0.9511366946094123 1.0398664565515405 0.8840896477080056 1.0621761333587303
1.0441851984493227 0.9981965471599598 0.8787489669292441 1.0344400127815991 0.9657709747385566 0.9151924011510667 0.9880781795441204 1.0530133342697783
1.027845462077875 0.9340597392778526 1.0040582550402573 0.9809928181797023 0.9705922127632914 1.0000952048808391 0.998186660132711 0.996678338513643
1.0193281193440287 1.0255991522068144 0.968356770735376 0.9498042670009031 0.9905551767306666 0.9963002214202268 0.9925076630414402 0.9501987270621605
0.9708076090010351 1.047706885777923
00000000: 5f29 9069 3aaa ef3f a064 2f72 9265 ed3f
00000010: db7d e1fa e56c ef3f ace7 c888 5efa ef3f
00000020: b55f 7728 aeda ef3f c84d 8068 dfe0 ef3f
00000030: 8942 978e 9c57 f03f 133b 83af efbe f03f
00000040: 9ca3 3c6f bae9 f03f 98d8 9d90 e4b2 f03f
00000050: 901e 44c2 fad7 ef3f 6108 9751 90d0 ef3f
00000060: 081a 07a7 e59e ef3f 127d 216e 23c7 ef3f
00000070: 06bf eff4 6c4c f03f d481 3abd d66c f03f
00000080: 580d a053 085c f13f 7e1c 6876 45a1 ef3f
00000090: 7245 b642 f781 ef3f 490f c9d5 7ee2 ed3f
000000a0: 55ef ab38 b66f ee3f 548a 7102 4ba3 f03f
000000b0: de6a 745f 764a ec3f 34e1 b566 acfe f03f
000000c0: ede9 e489 fbb4 f03f 5d07 a1e2 39f1 ef3f
000000d0: 405b 4b27 b61e ec3f f521 89f8 108d f03f
000000e0: 58b3 fd87 98e7 ee3f bbba 0f93 4149 ed3f
000000f0: 1510 6121 569e ef3f c10c 8f82 24d9 f03f
00000100: b576 4f15 0e72 f03f 5fad 1640 d1e3 ed3f
00000110: e5d3 8a63 9f10 f03f 902a f60c 4b64 ef3f
00000120: 7142 7266 170f ef3f 0f98 5dd4 6300 f03f
00000130: ca59 9226 25f1 ef3f df86 91f8 c9e4 ef3f
00000140: d49c 8700 2b4f f03f 9a89 18a8 da68 f03f
00000150: 4065 a556 c7fc ee3f 1dd8 0beb cb64 ee3f
00000160: 8422 1ec5 a0b2 ef3f f8ea 7f00 b1e1 ef3f
00000170: 205b 396e 9fc2 ef3f 93d9 2d29 0768 ee3f
00000180: c0c1 6b1e db10 ef3f ed5c a34b 68c3 f03f

model.2.bias f8 [50]
0.00461639732241651 -0.031048185818308104 0.05625112530877979 0.016564611685184683 0.10467265016352927 0.14937052173930027 0.08751398780311835 0.08169404371759238
0.01904845561500583 0.012845509248570926 -0.07247236498116287 0.008952625663550578 0.08864123907429042 0.015445641610348405 -0.0057320450147257595 0.09564830482776855
0.031838946392182786 0.08497524215477673 0.021433215368679044 0.008762562647008053 0.030134505299890365 -0.07241658410470031 -0.025777823448137067 0.12129134837580569
0.08565005656639152 0.03191376685399643 0.07743278577683753 0.07255568524230664 0.012528896399960002 -0.049428109707319576 -0.018559082325783398 -0.04333896924613066
-0.059304796779574974 0.07549785539958583 0.048899698027576724 -0.09425302095362803 0.07375726389664557 0.12902875589435486 -0.06728790492941854 -0.041020298611246724
-0.011512456858175204 0.034656460423122044 0.010178033823481555 0.03591226166999364 -0.02012496266147722 0.013549457209843758 -0.06745533837105394 0.03532355656653122
0.06295010385982455 -0.024122551548014053
00000000: 26e5 66b8 a4e8 723f 9351 c27a 18cb 9fbf
00000010: f8f9 208f f2cc ac3f add1 d545 50f6 903f
00000020: 0bee 3ca9 d3cb ba3f 0aaa edc0 921e c33f
00000030: 5f93 8e13 5167 b63f a188 0b9e e6e9 b43f
00000040: ec7e 9f37 7081 933f 2410 fc10 bf4e 8a3f
00000050: fb36 7585 8c8d b2bf f698 8113 c155 823f
00000060: 96a7 e636 31b1 b63f a74f a8ec f6a1 8f3f
00000070: d705 0a1e 7c7a 77bf e131 2745 687c b83f
00000080: f3ae fcc2 314d a03f 2242 06fe efc0 b53f
00000090: a2f5 39bc 96f2 953f 0c02 fc3f 1bf2 813f
000000a0: 1f07 fa6a 94db 9e3f c8ef 6aac e489 b2bf
000000b0: 22ef af72 8065 9abf f8d3 8f26 f30c bf3f
000000c0: 6c6b da7f 29ed b53f e733 dc51 0057 a03f
000000d0: 8fb8 8c92 a2d2 b33f f32b 4167 0293 b23f
000000e0: b5a7 5702 c0a8 893f 0e5f 6425 a44e a9bf
000000f0: 1e34 88ee 2601 93bf eee4 1b7f 8630 a6bf
00000100: 1b12 54c5 325d aebf e5fe dbd3 d353 b33f
00000110: 8a1c a097 6109 a93f 6c87 8b4a f720 b8bf
00000120: 054e 478c c1e1 b23f 3aa8 67a7 0384 c03f
00000130: eb94 16b7 c739 b1bf a7d1 03d2 9c00 a5bf
00000140: 61aa 9ecd d793 87bf 1990 39d8 7dbe a13f
00000150: eb85 4693 38d8 843f e3c8 cb8a 1763 a23f
00000160: 7d68 db61 a39b 94bf 6a36 c25c d1bf 8b3f
00000170: d489 3ec8 c044 b1bf d49b 76e0 ed15 a23f
00000180: 7e95 5b7d 7f1d b03f 6bab fa07 95b3 98bf

model.2.running_mean f8 [50]
0.24541159375993793 0.2811699840836102 0.2750134678467916 0.27245764741238 0.32731730314496443 0.2453945861626206 0.09299516375156025 0.5105320981225472
0.4980103143268891 0.24434702319540105 0.21469422923305134 0.20795024300866868 0.5221909704167983 0.24446220310770025 0.2654976490870907 0.43387556146543826
0.30440187522774165 0.2401057990102219 0.053191704162057506 0.4301692567957291 0.1286355822222968 0.14641525508275988 0.05637245199311399 0.6773330150495911
0.31548515476943667 0.13831319934197658 0.058495181711900664 0.6427197035128698 0.18721175935820378 0.019442159151353285 0.20341328991654742 0.47202017490521936
0.408357358447553 0.05601559709729695 0.3244321132894079 0.38092261971091834 0.22871684035426482 0.0892797081594114 0.264504902242159 0.13416956714099182
0.4176957705659249 0.26496906718857327 0.16654500997340543 0.17863122236470474 0.17949346880308312 0.22863151382565655 0.35503960432877446 0.14793921551708103
0.29525623359276887 0.17565217131597768
00000000: c00b a1a8 a569 cf3f 6d61 9063 b0fe d13f
00000010: 1a23 9716 d299 d13f f299 4b33 f26f d13f
00000020: e60a 1b46 c4f2 d43f 5a8a 17fd 1669 cf3f
00000030: 10c6 fff2 87ce b73f cad3 1f69 4756 e03f
00000040: e5b2 46a7 66df df3f d1e5 bf64 c346 cf3f
00000050: af12 99ba 197b cb3f 2370 7512 1d9e ca3f
00000060: e59c 86d6 c9b5 e03f cb53 ba97 894a cf3f
00000070: b29c ffd9 e9fd d03f c2c5 c100 9ec4 db3f
00000080: 266e bc00 527b d33f d417 2a6d c9bb ce3f
00000090: 7bce 966b f13b ab3f 83aa 6ba2 e487 db3f
000000a0: 5593 5f79 2177 c03f 4ca4 1b2e bcbd c23f
000000b0: ab58 699b d9dc ac3f 4273 8449 b6ac e53f
000000c0: 39ed 86a5 e830 d43f 97b3 e335 3fb4 c13f
000000d0: a935 da98 14f3 ad3f 98a4 62e9 2891 e43f
000000e0: ac5f ef0f 8ef6 c73f 22f0 df36 a5e8 933f
000000f0: 0db5 e159 7209 ca3f 9949 911b 9435 de3f
00000100: 7f3e e7e6 8622 da3f 4c96 328b 13ae ac3f
00000110: 4069 16e9 7ec3 d43f 34c3 7d44 0961 d83f
00000120: c2d9 aeea 9746 cd3f 7db8 bdf2 08db b63f
00000130: 83c0 30f8 a5ed d03f bc98 7ee7 772c c13f
00000140: ce85 900a 87bb da3f fab2 81d1 40f5 d03f
00000150: 22ea 92cd 5851 c53f a4ea 0c4d 63dd c63f
00000160: 576b 2d59 a4f9 c63f 5aab 5b25 cc43 cd3f
00000170: 941e 5808 f8b8 d63f 8d8b 3816 acef c23f
00000180: 2826 ce66 7ae5 d23f 7d02 a335 c57b c63f

model.2.running_var f8 [50]
0.0994235876434815 0.08770693175559484 0.12197946478135135 0.13570680729123802 0.16445660891856334 0.10922610531358327 0.02834364849361129 0.17310886481208876
0.19545045980036566 0.0809419170507702 0.11689670203761778 0.10951133512656515 0.3481818353268524 0.13815731412650425 0.10162541388071815 0.14071746145512726
0.10413252794318069 0.11598794766704829 0.0223674781909509 0.18989681102526598 0.07798519726180658 0.05593363629686263 0.041695933152975415 0.3465684250338125
0.171090978816436 0.06253676358851892 0.04659235275585463 0.23518144460271692 0.07747711527262521 0.012657385933870753 0.09798418194495816 0.16462585841320798
0.22187337580437014 0.024378211334620026 0.12007510702255109 0.17215633431902394 0.08762048744665198 0.06001176547841117 0.19626030350301626 0.06536964867248264
0.20312619554733585 0.11529962833508067 0.09496961347586955 0.07746517515676135 0.07681588193925577 0.10446544177930489 0.1274649906429389 0.09274387883448548
0.1526359115124415 0.09851007997427287
00000000: d236 6101 d373 b93f 27d5 8523 f673 b63f
00000010: 28fd 04d4 0b3a bf3f 5a89 9435 d75e c13f
00000020: 0a49 7506 ea0c c53f 83f8 30f6 3df6 bb3f
00000030: 0849 510d 1e06 9d3f 64ff 8168 6e28 c63f
00000040: 7755 6a4a 8504 c93f 64cd 9b06 9cb8 b43f
00000050: f506 4338 f1ec bd3f c5ee e852 ef08 bc3f
00000060: cf90 f276 9c48 d63f 4932 f08c 23af c13f
00000070: eb65 0f85 1f04 ba3f 4a84 769f 0703 c23f
00000080: 853c f7e9 6da8 ba3f 34cb f5d9 62b1 bd3f
00000090: 0be8 4b0d 80e7 963f 4bee 7be8 894e c83f
000000a0: ecc2 cf7f d6f6 b33f 6c63 4865 55a3 ac3f
000000b0: a655 895a 2b59 a53f 472c d654 2d2e d63f
000000c0: d51f 5427 4fe6 c53f 2a0e 69ca 6802 b03f
000000d0: b401 a9ee f3da a73f 17ec 98f2 6c1a ce3f
000000e0: feca 484c 8ad5 b33f 7150 1c95 1dec 893f
000000f0: c799 fac8 7d15 b93f bcf6 faca 7512 c53f
00000100: db68 77c6 5866 cc3f 7d2e ab11 9af6 983f
00000110: 18be b901 3ebd be3f 9687 d900 3809 c63f
00000120: b1fe 0ad8 4b6e b63f 45c2 35b4 dcb9 ae3f
00000130: e434 86c0 0e1f c93f d106 33b7 10bc b03f
00000140: 4219 6b07 0a00 ca3f 20ac f0c4 4684 bd3f
00000150: 621c feb7 ed4f b83f 4a90 e0f9 c1d4 b33f
00000160: 8514 bea4 34aa b33f 3c1a 0148 3fbe ba3f
00000170: 9b22 19d7 c550 c03f b490 7f16 10be b73f
00000180: 1c0f 12d4 9289 c33f 51db d0e3 f437 b93f

model.3.weight f8 [100, 50]
-0.10249886820411823 -0.041910506261459125 0.029689913752803443 -0.0928680873960468 0.011444106006714498 -0.03357193030092446 0.07902237178008599 -0.10559809292288448
0.023717382793099637 0.04990241412426485 -0.0978801600657011 0.032636304543874714 0.019673603550194155 -0.033337149650876974 0.13646888619659397 -0.06716897584874097
-0.08353009245779028 -0.19920518785708555 0.08278109816970722 0.11915324979066533 0.041434212160554824 -0.0350569871433145 0.10891645116716443 -0.09841008919799342
0.11692621912425158 0.12120044128561787 -0.10363226383949502 0.029288343849282472 0.00758945128961841 -0.027270593024765505 -0.14699475273040127 -0.031122585704386318
-0.11567011747987713 0.12247646530853055 -0.012424687046382601 -0.10001945984068321 -0.1444240687653985 -0.19245446782474016 -0.11616621488972487 0.037708607529151436
0.04490097969892619 0.034243825409873765 -0.08177542171217352 0.006251194695575355 0.13049057825412883 -0.12262407985984891 0.05794829349036955 0.12963606879125883
0.028671279389991106 0.07062122817989062 -0.017700143744066373 0.03343787202183522 -0.08320392437170496 -0.05507399295399853 0.04668344928862175 -0.1719591430140569
-0.06822143097190003 -0.05387751919421874 0.14626613436660807 -0.0614065716713117 -0.05966329483732918 -0.0138687860423035 -0.03249092918394634 -0.09728057735058358
-0.08596976683414562 -0.05911302581363817 -0.014414266768569118 0.12828975821328537 0.08778284711696119 -0.0716912766557341 0.04385595561732106 -0.027572000512386945
0.05624625454972345 -0.033017024964839374 0.147061303548773 -0.1779076063198036 0.007096256872785216 -0.1821261814644913 -0.037517626603984194 0.03858999983296383
-0.09733819165562396 -0.06545369108279556 -0.11472858902737346 0.13242883883908876 -0.014225696529124025 -0.011134333088044448 0.032575442967172706 -0.08895480260098898
-0.07976486068133382 0.007314101017612875 -0.02119323996957369 -0.008091943807306037 0.1639050806137055 0.04263451605535514 -0.14647794783552753 0.08385661306271283
-0.006302781511461261 -0.04321534149395022 0.1464232457430514 -0.009190914667906884 0.06503931960345309 0.030202970258579327 -0.10963992909348987 0.022960993902526036
-0.09593069648256124 -0.14601341103277057 -0.23236217970741335 0.02718029118114654 0.07739118092778698 0.04084431708071795 0.041044425041222375 -0.09966339874530922
0.12343451539506202 0.05262550962312211 -0.021678544747740367 -0.1672076708888296 0.07000021546192868 0.10502413466728193 0.034232459412447756 -0.032608858476693696
-0.12783138917562298 0.05531978760495674 0.08974235990024042 0.12489348531831533 0.035444923648572504 0.004579779434085121 -0.030293335276551973 -0.1700304816431912
-0.20307704466133183 0.10336682133018335 0.0909508619151144 -0.012803274672144045 0.07076515743876019 -0.05511215265326157 -0.03535353439024039 -0.08896235408277324
-0.09265018766476656 0.03641949943524543 0.04247774392913475 -0.019973617326831804 0.00658543279578782 -0.011483187808963652 0.024651398484408567 0.03854064566745407
-0.05253694483208678 -0.07435016821099126 0.07469798428241664 0.09554431610413248 -0.08639418259451734 -0.08960210797539324 0.0018870267079861209 -0.09040405101104834
-0.04631287206133992 0.039410721711471204 -0.0018274750441119216 -0.016845598539850088 -0.08608134269963136 -0.010358688254917283 0.0034250917754448497 -0.023290975710948944
-0.11454584847001861 0.057891123871949654 0.13885761523156387 0.12337779225110279 0.13168957087875627 -0.024577817789548397 -0.016467912444293107 -0.012695969476683121
-0.1033706272402389 0.12368444028223892 0.021138521022569662 -0.15787001208336324 -0.06372536002013889 -0.08627277640944979 -0.15890191286803612 0.1496971282820072
-0.026989187650054487 0.09390789201712459 -0.17462918149141346 -0.13334957085723323 -0.03805306521747175 0.08421617406851539 0.11020418922145622 0.05529645903137839
0.07394280967794199 -0.0685233620007841 -0.09778546922118053 -0.12291373192714317 0.0923728586012454 0.016918129266730184 -0.14604351381490854 0.012117916701257572
0.09754651662751475 0.11088729884975432 0.08080855002428926 0.07505199532502198 0.12824508272093182 -0.1278960762375112 0.12571009648352816 -0.06552496537275644
0.11292950858022524 0.02572316350673411 0.04386007250680793 -0.00853319151773232 0.00022042132067751302 0.08060462595657017 -0.02402203360050414 -0.12214252780991132
-0.16360320592804878 -0.1019058263787196 0.006844332576230231 -0.04015438540146628 -0.013483409689874723 0.12904565926446207 -0.13101982529714365 0.08141997079738206
0.05411035696617221 0.0181911071507407 0.03492646794568403 -0.027246809017344442 -0.1745959885056271 -0.2643370648506858 -0.07917078575169494 0.049659936193342344
-0.017446032413517176 0.10810377239707653 0.07821428633063678 -0.01982079444354983 -0.04249299899116969 -0.04403769848323227 0.06910023073786431 0.0700057469743561
-0.16265270323799713 -0.06986723059440142 0.06358411564763498 -0.09367250511801184 -0.03127475318876833 0.052191152465531604 -0.020298287797313658 0.061789417729002975
-0.006795358039187467 -0.018329073082574882 -0.05451968082739949 -0.07758076037431282 0.085104712735149 0.18268066165195276 0.1260433244217477 -0.12368113367804447
-0.027806947194022366 0.02069502349475891 0.058223113669393534 -0.038466732693161004 0.11277606249594131 -0.01021493568871936 0.16828127151539662 -0.13754520785592908
00000000: c74e d0a6 5d3d babf 05e8 803b 4b75 a5bf
00000010: f07e 5b62 0867 9e3f 7045 35f6 33c6 b7bf
00000020: ef11 3fe8 0170 873f f580 690d 5730 a1bf
00000030: 81a4 7266 cf3a b43f 99ae 9f03 7a08 bbbf
00000040: bcb5 c59d 5e49 983f eb71 4f29 cf8c a93f
00000050: 80d0 6896 ac0e b9bf 0642 5ba9 b4b5 a03f
00000060: 51c6 5e2f 5125 943f 8018 fc1e 9111 a1bf
00000070: ba65 91fd cf77 c13f fb7e 936a fc31 b1bf
00000080: 768b 5667 3a62 b5bf 8115 853b 8e7f c9bf
00000090: dea8 5d5d 2431 b53f 8022 10cf d380 be3f
000000a0: 1989 5474 dd36 a53f 6ebc 8d4a fdf2 a1bf
000000b0: e964 c2d3 f2e1 bb3f c7aa b352 6731 b9bf
000000c0: c6ff 2e6f e0ee bd3f 851e 95fb fd06 bf3f
000000d0: 6b46 00e0 a487 babf e059 f27b c3fd 9d3f
000000e0: 0000 56d1 1d16 7f3f 984e bc84 d2ec 9bbf
000000f0: 2b91 d45b b9d0 c2bf 23b6 115f 99de 9fbf
00000100: 4257 b38b 8e9c bdbf 1ba2 071d 9e5a bf3f
00000110: dbcd 3744 1d72 89bf b3b4 fa14 e09a b9bf
00000120: 5d23 0de6 7c7c c2bf 375f a316 59a2 c8bf
00000130: 5efa d9ad 11bd bdbf 5616 3be8 8a4e a33f
00000140: c601 bbde 42fd a63f fa5f 731c 6888 a13f
00000150: 1dd2 dee9 3bef b4bf 976d 744c da9a 793f
00000160: 79d0 044f eab3 c03f 983c b3ac 4a64 bfbf
00000170: 0ee0 cc12 66ab ad3f 4a94 eb29 ea97 c03f
00000180: d509 42fd 005c 9d3f a39c 6f99 3b14 b23f
00000190: 62a1 0f8a fc1f 92bf ee2f 90cd c41e a13f
000001a0: d648 1336 da4c b5bf 23f3 318d a832 acbf
000001b0: cc0f eb9f e4e6 a73f 042d bfd7 c102 c6bf
000001c0: 301f e9ae f576 b1bf 4889 db8d d595 abbf
000001d0: 58f7 ce43 d9b8 c23f 61ef 2ca2 ae70 afbf
000001e0: 7724 32f8 2f8c aebf 9733 e5f3 3c67 8cbf
000001f0: bdfd 85ac a6a2 a0bf afba 4142 61e7 b8bf
00000200: aa55 ff58 1d02 b6bf 6c3c 4601 1044 aebf
00000210: 6741 ef22 3a85 8dbf 180a f87d cc6b c03f
00000220: ba61 84c9 ef78 b63f f415 a508 5c5a b2bf
00000230: 04f2 38ae 4974 a63f 3ea9 f1a1 d53b 9cbf
00000240: 138a a01f 4fcc ac3f 9fd2 de84 9be7 a0bf
00000250: cce2 9fa0 e7d2 c23f a335 6d2b adc5 c6bf
00000260: d200 15f3 f610 7d3f 3353 9124 e94f c7bf
00000270: 1447 93a6 8235 a3bf 6d6f 7886 11c2 a33f
00000280: 200c d0dd 27eb b8bf 5a64 9ab6 92c1 b0bf
00000290: 5eee c951 da5e bdbf dd39 ee9d 6df3 c03f
000002a0: 5ce0 d7aa 5c22 8dbf fbaf cee3 98cd 86bf
000002b0: 7bb8 647c baad a03f 604e feef bdc5 b6bf
000002c0: 280f ff4b 786b b4bf 827f b90a 64f5 7d3f
000002d0: 652c 4342 aeb3 95bf 3b8b 1b50 8292 80bf
000002e0: 7a2a 7178 d7fa c43f 5bee 46f8 30d4 a53f
000002f0: e6f6 c415 cabf c2bf 965d a882 a077 b53f
00000300: 96ee 7207 f2d0 79bf 5ed1 cd3c 5220 a6bf
00000310: 0798 eb35 ffbd c23f bc15 5aaf afd2 82bf
00000320: dfa2 a6b6 6aa6 b03f 02b9 0206 87ed 9e3f
00000330: 09d4 cac5 5c11 bcbf 1f7c 9437 1683 973f
00000340: ef39 1304 ea8e b8bf 45e2 9444 91b0 c2bf
00000350: b8d6 553d 0bbe cdbf 4908 e076 26d5 9b3f
00000360: 016b 158f e8cf b33f 78a3 2ddc 8be9 a43f
00000370: ab68 785e c603 a53f bc24 385e 8a83 b9bf
00000380: 31c4 d186 6799 bf3f 6685 8815 bbf1 aa3f
00000390: 899c dd82 e632 96bf 2cce 0d9b 0f67 c5bf
000003a0: 4737 1fbc 88eb b13f fbc9 af97 dce2 ba3f
000003b0: 6bb6 46bb ea86 a13f df40 6fb9 1bb2 a0bf
000003c0: a4ad f469 c75c c0bf 457f 2b0d e052 ac3f
000003d0: 7b5f d6f4 5af9 b63f 77f5 ecfa 04f9 bf3f
000003e0: da79 c247 d625 a23f d0d0 462e 3fc2 723f
000003f0: 3ebe 3251 3705 9fbf 6f85 fd0e 8fc3 c5bf
00000400: 9dc2 b1b8 6dfe c9bf e6c7 1a7d 3f76 ba3f
00000410: eaea 7741 8e48 b73f 040f fd6f 9a38 8abf
00000420: ee50 e554 aa1d b23f d60d 84fa a837 acbf
00000430: 9418 02c4 db19 a2bf bb55 5ca1 3cc6 b6bf
00000440: 130a fd35 ecb7 b7bf eaaa 059e 93a5 a23f
00000450: d38c f791 a4bf a53f 2666 cec4 f673 94bf
00000460: 787f cea7 53f9 7a3f 1021 bf60 7f84 87bf
00000470: 0230 2a59 373e 993f 8fb8 6a79 99bb a33f
00000480: 4a69 c557 1fe6 aabf 1f16 ebd4 9c08 b3bf
00000490: 2cf2 9137 681f b33f 3f66 fca0 9775 b83f
000004a0: eedf cedc ed1d b6bf 7f2f 68eb 29f0 b6bf
000004b0: dfb1 d67f c3ea 5e3f cab3 844a b824 b7bf
000004c0: 7d4a c61d 52b6 a7bf 019d b961 a42d a43f
000004d0: 532d 1e63 fcf0 5dbf 75a5 3dfb f83f 91bf
000004e0: bcd0 b047 6d09 b6bf 4e4e 469a ef36 85bf
000004f0: 5aa6 2925 f00e 6c3f 3cbf e1eb 96d9 97bf
00000500: d240 1271 e052 bdbf 7675 84c7 e7a3 ad3f
00000510: d62c 1c1a 16c6 c13f 506b c5de af95 bf3f
00000520: 1a03 1330 34db c03f 87df 736e ed2a 99bf
00000530: 19ca 86e5 f6dc 90bf a604 8c2d 5800 8abf
00000540: 2624 5d57 7f76 babf b949 0992 c8a9 bf3f
00000550: 0836 e921 56a5 953f d365 75a5 1535 c4bf
00000560: c35a 3621 4e50 b0bf 83b5 3601 f915 b6bf
00000570: 9420 85db e556 c4bf 085f 2387 4629 c33f
00000580: 72da 35b9 0da3 9bbf f1c2 0cfd 580a b83f
00000590: 4368 b7bf 3f5a c6bf d93b e246 9911 c1bf
000005a0: df41 3efd b07b a3bf ec23 6bf1 308f b53f
000005b0: 1e9e 967c 5736 bc3f f4ad 3f46 d14f ac3f
000005c0: 3153 577d eaed b23f 8e2a ce3e bf8a b1bf
000005d0: 5c38 54f0 7708 b9bf 703c db3a 4677 bfbf
000005e0: 45fa ba66 bfa5 b73f fcf2 a36f fc52 913f
000005f0: e060 d0c9 8db1 c2bf 28a1 6b3f 47d1 883f
00000600: 55ff c0fa cef8 b83f 26fa 192a 1c63 bc3f
00000610: b36c 977f deaf b43f d3a6 6b89 9b36 b33f
00000620: 3861 14ba 556a c03f e008 5d0c e65e c0bf
00000630: b43d 96b8 4417 c03f 29f7 587f 3ec6 b0bf
00000640: bafc 1ac2 f2e8 bc3f 8559 0b48 2c57 9a3f
00000650: e4aa 08d2 d374 a63f 2d4a fe93 d979 81bf
00000660: 5478 30ba 1ce4 2c3f bac8 6338 81a2 b43f
00000670: ff51 ca62 3b99 98bf 71f3 6492 bb44 bfbf
00000680: 18a9 7d29 f3f0 c4bf 4186 910f 8016 babf
00000690: 37e6 3e89 cd08 7c3f da38 2e98 1d8f a4bf
000006a0: c5ad 409d 309d 8bbf dba5 1d73 9184 c03f
000006b0: ddb1 63f4 41c5 c0bf 68e7 d06f f0d7 b43f
000006c0: 36d5 164b 5ab4 ab3f 256f 2989 b0a0 923f
000006d0: c5d9 2ecb e1e1 a13f e072 9966 96e6 9bbf
000006e0: ad7d 524e 2959 c6bf 7de0 2902 e6ea d0bf
000006f0: ab26 9a5f 8944 b4bf 6663 bef3 066d a93f
00000700: 63e0 a46a 5fdd 91bf 2c09 0557 b0ac bb3f
00000710: 91bc def9 d905 b43f 8ec3 a9ff e64b 94bf
00000720: d6ba f371 a4c1 a5bf 639d 8df5 1b8c a6bf
00000730: 5049 2a7f 8db0 b13f f672 c989 e5eb b13f
00000740: 3eb0 81c4 cdd1 c4bf 2c0d 779e d1e2 b1bf
00000750: b76d 4071 0c47 b03f 3029 04da ebfa b7bf
00000760: 29c0 4594 3e03 a0bf 9cc3 f579 ccb8 aa3f
00000770: 385c 0409 13c9 94bf 3718 c5d0 dca2 af3f
00000780: c8cd af08 73d5 7bbf b596 d245 dbc4 92bf
00000790: 57b9 48ec 00ea abbf af42 9b2c 55dc b3bf
000007a0: 22d5 ee25 6cc9 b53f 5111 b475 1462 c73f
000007b0: 8ca0 220a 3022 c03f 1987 4718 91a9 bfbf
000007c0: 8c1f 33a3 6c79 9cbf f956 6684 1331 953f
000007d0: d8a4 2982 6bcf ad3f 0c5d cd5d e9b1 a3bf
000007e0: 9114 315c e4de bc3f 0cd9 b575 91eb 84bf
000007f0: ec0d d89e 3d8a c53f fd3a bbd4 149b c1bf

model.3.bias f8 [100]
0.04510116389842849 -0.08065800201614699 -0.04399503073409941 -0.04437872124099498 -0.04587478063796912 -0.2390569095525254 -0.03171629589819423 -0.018261999011904895
-0.03765359223667331 -0.006732375121915104 -0.1374536393842431 -0.12425921189531175 -0.020424548228083313 -0.17165697677964456 -0.15288734064975995 -0.052406269062080055
-0.19504246219406393 -0.007639099519046605 -0.15595261891170922 -0.058139926059278514 0.11214542986415875 0.016435576943563207 -0.12989272636897156 0.04985718273248061
-0.06422358943289268 -0.10912584082296775 -0.1552082474624712 0.022185303620216607 -0.1689153886240567 0.013223173441645022 0.015996208534983163 0.019192020110330128
-0.10898022875980144 0.031226289825944564 -0.0009232961653128547 0.014232212713009765 -0.11446774579489336 -0.03840039101959755 -0.11830507044596106 -0.1492972331046544
-0.06934575482797711 -0.03732458587119497 0.10780692157766332 0.005187238439966502 0.030497492308897752 -0.010154423473768954 -0.02444415997267014 -0.06997375426183612
-0.10244501926511386 0.06906059057292908 0.10214079945103248 -0.09036456053026595 -0.1457561089111593 -0.08331239715848732 -0.195343633265415 -0.09147315968832447
0.010514827694674834 -0.12752281779557803 -0.00491895293310416 0.17619807587570946 0.041468369414028546 0.07303818214640784 -0.1389543018011115 -0.19381575033586668
-0.06207973507586095 -0.030839068213819376 -0.025948956841955917 0.05552758835871934 -0.028884266573150887 0.049336127645530366 0.044645041607619326 0.00815891395543955
-0.13134364770758195 -0.12311936159550077 -0.14516504156080098 0.044340758633737515 -0.19045271205284606 0.01700382733478689 -0.01228752809541301 0.12382746518748015
-0.06890577228446683 0.008453189507191143 -0.10792782169107132 -0.15482017552585842 0.15003716327177402 0.03986952118280709 0.03576783534024039 -0.0782957229187659
0.08601416206922183 -0.014036405305032045 -0.0560360654545296 -0.208852141700847 -0.06544144200783551 -0.005806392399946146 -0.1998593892367217 0.11874606041331821
-0.0234633447802476 0.0013798984136757782 -0.12988522742796216 -0.11521081720588354
00000000: 471b e9ef 7f17 a73f 05ef d1b8 00a6 b4bf
00000010: 7402 6144 8486 a6bf 839b bcc8 ceb8 a6bf
00000020: 9f3d 1a35 e67c a7bf 3e99 34b4 6a99 cebf
00000030: fe18 444b 1e3d a0bf d017 1002 46b3 92bf
00000040: 5184 77e6 5447 a3bf 4387 912f 6893 7bbf
00000050: 5e8d efb2 1498 c1bf 582d 51a3 73cf bfbf
00000060: af65 b33a 2cea 94bf 090c b316 dbf8 c5bf
00000070: a814 08f8 cf91 c3bf b63a 7497 fed4 aabf
00000080: 9337 3ac2 26f7 c8bf 6de0 ae29 2d4a 7fbf
00000090: 95c5 f962 41f6 c3bf 5d6d 0832 84c4 adbf
000000a0: 9794 a919 90b5 bc3f 989e dae5 7cd4 903f
000000b0: f11a df29 53a0 c0bf cd07 9d72 e186 a93f
000000c0: 33fa 3e08 f570 b0bf 9aaf 7bcd abef bbbf
000000d0: 68dc 7525 dddd c3bf 35ad 0086 beb7 963f
000000e0: e239 f7fa 049f c5bf fb7f d94b c014 8b3f
000000f0: bb2c 1262 4f61 903f 7546 dfaa 12a7 933f
00000100: 1317 6fd6 20e6 bbbf c3b7 4fd6 c8f9 9f3f
00000110: a43c d26a 2b41 4ebf 357c 3741 c725 8d3f
00000120: e6ca a218 c24d bdbf 9c62 2a4f 37a9 a3bf
00000130: 6831 84b8 3d49 bebf fdac c8f6 2b1c c3bf
00000140: b843 1ab5 a4c0 b1bf f89a 4e47 351c a3bf
00000150: 4d60 7502 3c99 bb3f 0da3 4cb7 363f 753f
00000160: 9f91 4e10 bc3a 9f3f 0a2a d6a5 d7cb 84bf
00000170: 82ab a4ce e307 99bf 7d07 22ca cce9 b1bf
00000180: a1ba 6137 d639 babf 5d03 f471 f4ad b13f
00000190: 27bf 3a41 e625 ba3f 46e5 31c0 2122 b7bf
000001a0: 349a 7bdc 22a8 c2bf 24a6 2515 f653 b5bf
000001b0: cfaa 2d2a 0501 c9bf 3fb9 52f5 c86a b7bf
000001c0: 47d9 9248 cc88 853f c77f f6ed aa52 c0bf
000001d0: e7e4 a65f e525 74bf dc8c c096 a88d c63f
000001e0: 2145 e794 573b a53f cc98 ad5b a1b2 b23f
000001f0: aae8 ef2a 41c9 c1bf 3235 925a f4ce c8bf
00000200: 5053 ca3f eac8 afbf 907c abd5 4694 9fbf
00000210: 708d 0104 5d92 9abf d78a 0db0 1c6e ac3f
00000220: 1ad8 3351 d693 9dbf 3967 7fbd 9542 a93f
00000230: d63d 4403 b7db a63f c03c e0e4 9eb5 803f
00000240: 1e80 b85f decf c0bf 6a9c 8e1f c084 bfbf
00000250: ef57 03a1 c494 c2bf 2c68 6cf8 d4b3 a63f
00000260: 0fca d924 c160 c8bf 9f2c 3d89 7369 913f
00000270: 443f 8c1a 342a 89bf 8ba9 5321 28b3 bf3f
00000280: 11a8 7706 cfa3 b1bf 1c9b d7e3 e74f 813f
00000290: 22de 7d60 28a1 bbbf 5680 52c3 25d1 c3bf
000002a0: beeb b7f2 6a34 c33f 43b7 2c23 c769 a43f
000002b0: 7cf1 1166 2950 a23f 9b4f 5a41 300b b4bf
000002c0: ce84 142d 0605 b63f c979 e86d 1ebf 8cbf
000002d0: 0725 0c59 c2b0 acbf 4500 27bf aabb cabf
000002e0: 3f0b 3a35 c5c0 b0bf 58bc 7297 71c8 77bf
000002f0: 16fe 4812 fe94 c9bf e508 014e 2466 be3f
00000300: 2499 f169 c606 98bf 7e1d bfa3 b69b 563f
00000310: f4af 0442 14a0 c0bf b771 0bc4 747e bdbf

model.5.weight f8 [100]
1.0637864962452013 1.0331793921086123 0.984494185704934 0.9789975418358328 0.977656484908636 0.9786295631246931 0.9955952405868044 1.0197025554318313
0.9980867964519778 0.9673191322827639 0.9978156347371677 1.004356199622662 0.9996424078371104 1.0086399829984587 0.9871470774552837 0.9923204898327892
1.0229595116677892 0.9929203435352352 0.9479245527279945 0.9576850609428263 1.0458432566830766 0.9491879091842372 1.0047092545752623 0.9095327282119878
0.9281894513952934 0.9757445348734739 0.9702112726171165 0.98638864077759 1.083873485115534 0.9407685626300898 0.9959609275114897 0.9959422387039841
0.9993642854330147 1.0127743963158016 0.94183051310517 0.9355795295724281 0.9888273491662444 1.0015416419507521 0.9656956315147955 1.0131903399886808
0.967444604036337 0.9498414058335247 0.9907541211670149 0.9898671704428393 0.9791721328043478 0.9983528941254584 0.9654805705808154 1.0335432129884026
0.9682836983816566 1.003953150790826 0.9717350970920283 0.9631536012935313 0.998299182068168 0.998265450636123 1.003884647506666 1.0165591079296483
0.9796702197885563 1.0186357316536236 0.9869761376427869 0.9750537243651273 1.0111183996386643 1.0280525465006491 1.0511078454168594 0.9909278185092455
1.0061226991425125 0.943747948043563 1.0034212824031317 1.036008428622272 1.0265120227153854 1.0315576141264107 0.990559846172992 1.0061821353081164
1.011923163833446 0.9445726775291938 0.9650455823377617 0.9716736561547329 0.9690157274635979 0.9928231738258869 0.9799969410110551 1.0088453840900407
0.9979266075122987 1.0118468709334736 1.0031518267253687 1.0233394667356823 0.9472671826249892 1.0558073812057904 0.9973678075804618 0.9612216386649608
0.9346783491919158 1.0158841302626511 1.0115123855144827 1.013044598896739 1.0178330917875376 1.007510639798309 1.0679661048567464 0.9723425686297414
1.0043651885245446 0.9859666927373243 0.95659007826645 0.9973235845596823
00000000: 06cb 34fd 4405 f13f 561f 401d e787 f03f
00000010: 118e 56f3 f980 ef3f d093 21a7 f253 ef3f
00000020: 04f5 ac40 f648 ef3f 4e9e 10f2 ee50 ef3f
00000030: 57f4 cb8c eadb ef3f 32a3 73a0 b350 f03f
00000040: b794 aab8 53f0 ef3f de62 be40 47f4 ee3f
00000050: 9746 d40d 1bee ef3f 7ca0 6ece d711 f03f
00000060: d85c 2b13 12fd ef3f 7aa9 c6ad 6323 f03f
00000070: c465 c077 b596 ef3f e370 5fe6 16c1 ef3f
00000080: b0ec fbca 0a5e f03f 9c8a 60e2 00c6 ef3f
00000090: 6859 21df 6555 ee3f 27c0 1324 5ba5 ee3f
000000a0: 9a22 8323 c6bb f03f ae8e 7652 bf5f ee3f
000000b0: 883a e602 4a13 f03f 16fd 4961 e41a ed3f
000000c0: d984 475d bab3 ed3f 9e08 519a 4c39 ef3f
000000d0: d93b c382 f80b ef3f f923 29e9 7e90 ef3f
000000e0: 082a 39b9 8b57 f13f bb3c 33ac c61a ee3f
000000f0: 7d2e 7873 e9de ef3f 5109 fe41 c2de ef3f
00000100: e634 57cf cafa ef3f af70 e6ec 5234 f03f
00000110: dd2b 85be 7923 ee3f b642 4a7b 44f0 ed3f
00000120: 8be6 c140 79a4 ef3f 822b 5c87 5006 f03f
00000130: 2ae0 6786 fae6 ee3f f9fd ed12 0736 f03f
00000140: 39e3 e062 4ef5 ee3f 0422 cecd 1965 ee3f
00000150: ff43 99fc 41b4 ef3f 25f4 8dea fdac ef3f
00000160: 6593 f1cb 6055 ef3f 6d58 c4c4 81f2 ef3f
00000170: 3c2d 7282 37e5 ee3f 739b ac9b 6489 f03f
00000180: 9592 3918 2efc ee3f d7cd d52d 3110 f03f
00000190: 3757 cc33 7418 ef3f 2692 5280 27d2 ee3f
000001a0: 1167 5320 11f2 ef3f e8ae e662 caf1 ef3f
000001b0: 3ff6 1f59 e90f f03f f023 b07b d343 f03f
000001c0: 646c 5b5c 7559 ef3f 5cd4 1ffb 544c f03f
000001d0: 1576 23fb 4e95 ef3f 13b8 3fde a333 ef3f
000001e0: 8d4f ad7c 8a2d f03f 0da3 1c3a e772 f03f
000001f0: a526 ca75 56d1 f03f e133 a641 aeb5 ef3f
00000200: 1149 891d 1419 f03f 6974 90e5 2e33 ee3f
00000210: 6182 8079 030e f03f 1502 f592 7d93 f03f
00000220: d836 e8de 976c f03f b5cd 898e 4281 f03f
00000230: bd66 0190 aab2 ef3f 237c 4f70 5219 f03f
00000240: 09ac eb57 d630 f03f 7adb d57a f039 ee3f
00000250: 5e47 e945 a7e1 ee3f ed37 f259 f317 ef3f
00000260: 7381 5845 2d02 ef3f 2361 c91a 35c5 ef3f
00000270: 1b52 7a8b 225c ef3f 5032 b60e 3b24 f03f
00000280: 875a e2c7 03ef ef3f da81 3358 8630 f03f
00000290: 7354 0bee e80c f03f 955f 6534 995f f03f
000002a0: 3259 3e44 0350 ee3f e977 d247 96e4 f03f
000002b0: 9185 74e4 6fea ef3f cec0 c8e1 53c2 ee3f
000002c0: 9ddf c191 e2e8 ed3f 4c0e c0b7 0f41 f03f
000002d0: d289 749c 272f f03f 376a da40 6e35 f03f
000002e0: 8239 205a 0b49 f03f 72e4 047a c31e f03f
000002f0: 2b8a 59a0 6316 f13f 7dbf 9829 6e1d ef3f
00000300: bd42 5f3b e111 f03f 1c11 8805 0a8d ef3f
00000310: b4a3 bacb 629c ee3f 91d3 6626 13ea ef3f

model.5.bias f8 [100]
-0.25267372553385026 0.11246099718853582 0.08038608024978516 0.02114013663514218 0.07742725146348114 0.1602399946771141 0.01562824029680949 -0.19920459878430904
0.03800998955976711 0.06253547619365504 -0.2512000729294794 0.002785164281922965 0.1147975421176049 0.06551348055888359 -0.34145384555191693 -0.020397121279924033
0.08205922803001156 0.1150673382837866 0.04730932277309448 0.2591470024632998 -0.07483454131287315 -0.12176763608699569 -0.12017605091882275 0.22647465855367402
-0.18201032077181542 0.17186248000954923 0.0331337678980924 0.08499187738821469 0.18796133564013515 -0.17580025788016354 -0.01805060179783558 0.11662844622029424
-0.05900721938008815 -0.18581918281333548 -0.24313176407925802 -0.0015247727092435883 0.02993010574949617 -0.1433150543877288 0.22724247687794683 -0.04863498535863698
-0.02386972081662296 0.045180477394707576 -0.31061442093703057 0.03611534707784176 0.13460504787208669 0.06566867523694107 -0.2592100748988336 0.10705360370008059
0.017436024530504832 -0.08209924367428544 -0.08459427370497871 0.03430637743041205 -0.1002932765245659 0.006907826375392321 -0.11365855986346315 -0.21787840931993638
-0.02909300623617259 -0.10537658492671477 -0.25257562419028196 -0.10782540378403273 -0.004168241631602651 -0.04584037314624012 0.0734045895097918 -0.015891299918957272
-0.0049885685344417076 0.10636513923347256 -0.30081842271968207 -0.13107167277702042 0.12462635829339692 -0.08782774009619758 0.05324409322142073 0.08206913945219307
0.13668081610949231 -0.1510573302626869 0.14704744382350776 -0.09106769919496785 -0.3056630514428071 -0.2203491622019053 -0.12550154738833058 0.016122449490299874
-0.08775572812263693 0.06580239554195692 -0.10774949696590294 0.13449003175199917 -0.05090715499939267 0.18667293359198212 -0.07497855078572106 0.12130258890571466
0.053276765978907736 -0.1617538074879449 -0.06991532297406408 0.0635538865281852 0.088209692680955 0.0587063961202678 -0.015438027565338843 0.1964196144317957
0.15527230741417605 -0.10546991517391657 -0.12630719087030262 -0.1281745152278107
00000000: cc7c ee6a ce2b d0bf 4514 0071 3eca bc3f
00000010: 34f9 b9a1 2e94 b43f ec72 ec8d c2a5 953f
00000020: 76d5 dab8 45d2 b33f 2b20 5380 be82 c43f
00000030: f213 e073 d900 903f 7be6 7e4a 897f c9bf
00000040: 7337 299c 0b76 a33f d66e 1731 5302 b03f
00000050: 1309 7f78 a913 d0bf c3b3 27b0 e9d0 663f
00000060: 6469 0e29 5f63 bd3f c691 72d0 7dc5 b03f
00000070: 704a ef3a 61da d5bf 2cbc 51a3 fbe2 94bf
00000080: ea51 b964 d501 b53f 0242 c496 0d75 bd3f
00000090: 5a73 3674 ed38 a83f 68ec 1b4f dd95 d03f
000000a0: 98c9 8c43 5b28 b3bf bf72 b4ee 292c bfbf
000000b0: 3e72 7590 dbc3 bebf 952e ee21 1ffd cc3f
000000c0: e3ec 9f3b 1d4c c7bf ba75 86f9 96ff c53f
000000d0: aef7 07c3 e8f6 a03f a9da ce15 07c2 b53f
000000e0: 6b51 bef6 1d0f c83f 2da1 1c73 9f80 c6bf
000000f0: 614c 9461 db7b 92bf 51a9 4ca2 5cdb bd3f
00000100: c345 eeba 3136 aebf 5e8c 9348 ecc8 c7bf
00000110: ee6a ab0f f11e cfbf 81d8 e13a 5cfb 58bf
00000120: 9f8b 7065 ffa5 9e3f 2e54 cfcf 2558 c2bf
00000130: eff5 390f 4816 cd3f e112 1d4f afe6 a8bf
00000140: 3c93 16d9 4d71 98bf 45e7 a741 e521 a73f
00000150: 25cb e54e 1be1 d3bf 8981 2af5 b57d a23f
00000160: 2b5a 3efb bc3a c13f 9fa9 838c a9cf b03f
00000170: 25fd 9eda e596 d0bf fb8f cf6e dd67 bb3f
00000180: 19e9 85cc bfda 913f f77d 9bbe 7404 b5bf
00000190: bee3 fd66 f8a7 b5bf 6a38 3702 9b90 a13f
000001a0: 9283 aef6 d1ac b9bf f16c e685 614b 7c3f
000001b0: fe26 8635 ba18 bdbf ef4d 4491 70e3 cbbf
000001c0: 9986 4e99 8eca 9dbf 813f 06ba f5f9 babf
000001d0: c17f 6af3 322a d0bf b12f ee16 729a bbbf
000001e0: e33b d5d7 b712 71bf 70c3 ffae 6378 a7bf
000001f0: e923 52a7 a4ca b23f 317a c515 cf45 90bf
00000200: db37 59ab e46e 74bf 5f37 71ea be3a bb3f
00000210: b261 e7e9 9b40 d3bf 4631 01e2 f4c6 c0bf
00000220: c5f7 1655 83e7 bf3f c30e 65f7 e07b b6bf
00000230: cbae 2e4e cf42 ab3f a041 f5ad 7b02 b53f
00000240: 6726 97c9 c17e c13f d54f a6ba d855 c3bf
00000250: ac57 175d 73d2 c23f 9aac c375 3650 b7bf
00000260: 0bb7 62c2 fb8f d3bf eed8 adbe 6634 ccbf
00000270: d2ac d048 6f10 c0bf 8a43 2b45 6782 903f
00000280: e4c9 52ce 2877 b6bf b3e5 d900 6dd8 b03f
00000290: 6e06 a195 7895 bbbf ada4 0128 f836 c13f
000002a0: 9da7 b5ab 8010 aabf 80b8 6910 e6e4 c73f
000002b0: 93b1 8657 cb31 b3bf 502a 45bc af0d bf3f
000002c0: 4038 089f 1747 ab3f 9d04 9548 59b4 c4bf
000002d0: aeb2 a979 f8e5 b1bf 9a18 2c48 1145 b03f
000002e0: ef41 4111 e994 b63f d91d cec6 c30e ae3f
000002f0: bb21 10fc f89d 8fbf dd84 2326 4724 c93f
00000300: 83bf 2885 f6df c33f 0845 628c 1300 bbbf
00000310: 68cf 0483 d52a c0bf d2c3 8ac3 0568 c0bf
