kaggle_playground_smoking_prob/saved_models/model_all_data.pt (torch, 427319 bytes, 48 tensors)

model.0.weight f8 [50, 21]
0.23823223348372688 0.1708281948659945 0.017851032487440435 0.11889000619631365 0.11703889658758704 0.13330681452975482 -0.051975861018540424 0.010961579819356419
0.037156271682117416 -0.07230683810155795 -0.021252583925888753 -0.0642535936196925 -0.02192013197724736 0.13436009513380556 -0.006498871038175002 0.09074161764585639
-0.01133088139155374 -0.11793617076055381 0.10791652147617263 0.20899645052300733 -0.1791407628235994 0.08215315060561089 -0.16773224261516784 -0.03102885346788447
-0.11039986926184792 0.01977960059733514 0.047156487325902635 0.09508672232611312 0.07056369527163837 -0.08797853153351928 0.1424435760451422 0.11981513171526455
-0.14193361687412367 -0.1264857838324992 -0.09592510938970486 0.14689280686290482 0.012521095978418181 -0.01936374523985885 0.225194023155637 -0.06641237945542895
-0.09227671659083517 -0.1324332228998905 0.1570799044712144 -0.03729431846308245 0.06393375321400736 -0.011343505239201947 0.21927862341636795 -0.22929385175378542
0.15475804925918218 0.07215088339774785 0.13861849731815934 -0.11703195497672847 -0.21678726817509303 0.24282778128526167 0.11652433316010988 -0.1495014641115848
0.0040245352244365476 0.10808182176488998 -0.07398770821323997 0.06750837893912451 -0.05603023744324969 -0.19577233141048112 -0.07981955639761393 0.31090727752368547
-0.008555017962300054 -0.10315038508923362 -0.05589612802677295 0.21304719428205654 -0.10739510692772186 0.09623193607830374 0.11432476724780766 0.1870544032868791
0.019654063006911967 0.07584009820089914 -0.12335695156223128 -0.056114382413935834 -0.18202409370554073 -0.1468495228025871 -0.024176972489794907 -0.1270295152228577
-0.07261031342091331 -0.19488623825714793 0.023255998983897724 -0.10864401825070656 -0.07717226346646287 0.01194567802343284 0.01991709346678615 -0.02687742453957593
0.03499420065411908 -0.12117563615604604 -0.0029789886222748472 0.15741770961563806 0.10748290780630956 -0.19780180967961578 0.08967036153754289 -0.1698202657375023
-0.09986957162544283 0.01371346234354155 0.05295573486211994 0.14794051532524033 -0.1117127153481356 0.21230854368727273 0.19325315440802418 0.09242435980363121
-0.04325369846473534 0.12576127099094667 0.03281849996205732 0.1730902002582849 0.07363766408616247 -0.09677091872719239 0.1046207447440935 0.035805977024670595
0.01811808184381226 -0.22738304251462868 0.014239201739695631 -0.23327320792866346 -0.052002586239466096 -0.026542672792253485 0.08805379294932589 -0.017528450146670035
-0.010591145405099594 0.008729969201233206 -0.23348837007398962 0.3314645857228067 -0.1074244884081069 0.0719437392684607 -0.09972256848880802 0.10042767159185692
-0.09544146094898455 -0.15675211378059206 0.17754744424416435 -0.12572935056101492 -0.02331464380665399 0.10681138590072756 -0.0535732830289935 -0.15157705477471825
-0.15752748385351892 0.17343652466323406 0.08033297952695242 0.00844889346440716 -0.12463497583946798 0.08945795596242942 0.056402179243990165 0.09673984169386786
-0.3405914309716416 0.010665105029534876 -0.08671071544534241 -0.2434674810379615 0.15021102519415191 0.0714980674507855 -0.1389245039387445 0.13331083508003766
0.10943887629648882 0.0936923549031073 0.056424849902924 0.06917156902297081 -0.08887035326083333 0.055189556900821314 0.11036451920269327 0.04558418146393731
0.0707810563812921 0.049376536136078494 0.16636753291115028 -0.01094408748623143 0.0935682037645888 0.15057522712312119 0.18008159305602595 -0.2239325478722463
-0.17600839185770936 0.02098095880514122 -0.08289138775028983 -0.08591807950167757 0.037522193586621684 0.2036563448355518 0.004951626391561723 0.05396753302045163
-0.08334283299190319 0.07946308620122733 0.057785409342227013 -0.1687281463982894 -0.12452834926086025 0.2524228237917294 -0.09476540379019759 -0.052175523395678186
-0.0723196989095307 -0.007975596040575841 0.2285093096600503 -0.07470318554077818 -0.1362898925410205 0.3015523395728257 0.0305388855722192 0.10193597372744204
-0.011653007529841029 -0.1101580046401376 -0.01279686727568253 -0.055914943553841974 0.058337827285058944 0.12054798714947658 0.12552019289722946 0.018720391770428103
-0.004723711172944258 -0.16096417539910307 0.09515770074951088 0.03171079987976501 -0.005130707838109404 0.1254847651038591 -0.025676013899367245 -0.05706507442809639
0.21114464995553797 -0.09097162562348422 -0.1128705009416614 -0.180975059900679 0.09136037528199344 -0.10913800159961916 -0.09014475486642055 -0.11792310777420371
0.006507047798304638 -0.07138704808193629 0.14940684053370482 0.26586429137352646 -0.14916869568481647 -0.1171167980006779 -0.10329660914287628 -0.09218651081912889
-0.096199710077794 -0.1431906868372027 0.24935070517270688 -0.10703376068353906 -0.2607805704268565 0.052862723090165195 -0.10296079791769357 0.21428076006774563
-0.09151697103920156 0.014658116464636014 0.17778056858470212 0.09292080258801369 -0.018268798465222284 0.0008801479422946642 -0.012669760240864164 0.09346935244299437
-0.16318492638773785 0.02486644416318334 0.009479278217939693 0.018371090308286004 -0.21452792586587643 -0.07645257533615064 0.14496619823904963 -0.08101891387364245
0.060743752851251 0.0175677002737897 -0.22471038161465987 -0.2314570716684606 -0.05573032750845721 -0.03463946081705917 0.13133092732222298 0.06334727358338484
00000000: cb33 d5d1 647e ce3f 9a92 17c3 b2dd c53f
00000010: d7fd ee82 8a47 923f 2235 6f50 936f be3f
00000020: f01f 34d9 42f6 bd3f 3d9f 5e9c 3210 c13f
00000030: eb1b 837e 949c aabf c26a b156 0673 863f
00000040: 9d95 6e97 2506 a33f 3361 ec70 b382 b2bf
00000050: 3233 abc3 3cc3 95bf e73e 3f6b ec72 b0bf
00000060: d378 dd27 3b72 96bf b95a 3e2b b632 c13f
00000070: d93d 1e69 8f9e 7abf aed2 2cb8 d73a b73f
00000080: 5bb6 1728 a534 87bf d59a 6e9c 1031 bebf
00000090: b330 70ca 6aa0 bb3f a1fa fc4b 65c0 ca3f
000000a0: e59a daa2 15ee c6bf 574d 1d27 fd07 b53f
000000b0: 3c29 4208 4078 c5bf 8efc 811b 07c6 9fbf
000000c0: 1c5a f673 2a43 bcbf f223 c686 1a41 943f
000000d0: 94cd b725 e524 a83f 4eab ac7a 9a57 b83f
000000e0: 3d02 7a5b 7610 b23f 0ec3 afd3 c285 b6bf
000000f0: 7bd0 5152 973b c23f 4572 4858 34ac be3f
00000100: 91b3 5679 e12a c2bf e418 7ca8 af30 c0bf
00000110: 4eaa b147 8c8e b8bf 8335 bf2c 62cd c23f
00000120: 2b29 e60d a9a4 893f 6211 22f2 16d4 93bf
00000130: eda3 5a62 28d3 cc3f 1d84 cfd5 6600 b1bf
00000140: 229d f067 729f b7bf e623 a164 92f3 c0bf
00000150: 9205 48be 311b c43f d747 40ac 3d18 a3bf
00000160: 8d29 2a63 f65d b03f 94ec 3180 433b 87bf
00000170: 7081 246a 5211 cc3f ae6a 3a3d 8059 cdbf
00000180: 6e33 2e9c 1ccf c33f 5522 92f4 7a78 b23f
00000190: 8413 4d3c 40be c13f 3045 3663 cef5 bdbf
000001a0: 8627 8069 afbf cbbf a618 9711 fb14 cf3f
000001b0: a662 1ce8 89d4 bd3f a71c 882d dd22 c3bf
000001c0: df97 baf2 077c 703f aeb5 c511 40ab bb3f
000001d0: 88f4 14c3 dbf0 b2bf 36e0 bfa7 3a48 b13f
000001e0: 77ce cfca feaf acbf 0052 6f58 110f c9bf
000001f0: 4619 4ff0 0d6f b4bf 355e 43a3 e7e5 d33f
00000200: 360d eb12 4b85 81bf 3b2f 874a 1068 babf
00000210: 862f b2d3 6a9e acbf 3c16 f965 2145 cb3f
00000220: ec46 01e8 3e7e bbbf e27d 49fa a7a2 b83f
00000230: d4bf 7350 6344 bd3f fa4f 5810 66f1 c73f
00000240: 3f91 64d7 3120 943f f38f 7fb5 416a b33f
00000250: 92ac b138 5294 bfbf de2e 9b3a 06bb acbf
00000260: ac50 c6c4 904c c7bf 9366 ef14 f7cb c2bf
00000270: c5cc a328 d9c1 98bf e523 c1ce 8042 c0bf
00000280: 02c1 7ee9 9696 b2bf 09a1 e041 08f2 c8bf
00000290: 9b5e 49ac 6bd0 973f b7f5 4a29 18d0 bbbf
000002a0: 3f2b bfbb 8fc1 b3bf 0876 83c3 f976 883f
000002b0: 5dee 4884 2565 943f 32be 976d c185 9bbf
000002c0: 62dc b786 c2ea a13f fcb9 5cd2 5d05 bfbf
000002d0: e683 a656 6467 68bf 4421 4e75 4326 c43f
000002e0: 9236 e8f5 ff83 bb3f bbef d4d7 9151 c9bf
000002f0: fd67 3906 a3f4 b63f 7032 c5a3 abbc c5bf
00000300: b62e ff5f 0d91 b9bf 8756 3ec2 cd15 8c3f
00000310: c5a5 bc9a 031d ab3f 3ca3 89fd b6ef c23f
00000320: 9cb4 f75a 3499 bcbf 312c e625 ed2c cb3f
00000330: b501 04f5 84bc c83f 63d8 b572 1fa9 b73f
00000340: 3c96 ac48 5925 a6bf 9b37 0101 f218 c03f
00000350: 7fe5 1420 96cd a03f c307 afd6 d127 c63f
00000360: b1ff 00ff ead9 b23f 431d 239b fac5 b8bf
00000370: 34b7 28d5 6cc8 ba3f e102 a538 2955 a23f
00000380: 4313 f1e3 8b8d 923f 9bf5 a135 e31a cdbf
00000390: 4859 584e 7129 8d3f 4816 8b7f e5db cdbf
000003a0: 336f 693e 15a0 aabf 7358 5d9e 002e 9bbf
000003b0: 6e90 0181 b18a b63f 5f9f 8460 faf2 91bf
000003c0: a3fc 2279 cfb0 85bf e30e b7a1 04e1 813f
000003d0: a168 bb68 f2e2 cdbf 908b dd3c b736 d53f
000003e0: 069a 80d8 2b80 bbbf 7c5b 4fa7 e76a b23f
000003f0: 0922 5512 6b87 b9bf 56b7 19bd a0b5 b93f
00000400: 6956 7501 da6e b8bf 201d 2209 7410 c4bf
00000410: 542f 42e9 dfb9 c63f ca47 673c e617 c0bf
00000420: b07c ab42 cbdf 97bf 2eb8 48b1 fd57 bb3f
00000430: a806 1915 f56d abbf d36b 8a7e e066 c3bf
00000440: bd9e af4f dc29 c4bf 7624 ae04 2b33 c63f
00000450: 8ac6 dbbf b390 b43f 8da6 ef48 a74d 813f
00000460: 6c13 2be9 13e8 bfbf b6c3 3973 b7e6 b63f
00000470: c158 8d16 bfe0 ac3f 019e 4b38 f1c3 b83f
00000480: f48b 5400 40cc d5bf 3c68 7b2a 96d7 853f
00000490: 13ee 0c67 ac32 b6bf 2649 5942 f129 cfbf
000004a0: d68f 5a68 1d3a c33f c3a6 6d85 b24d b23f
000004b0: c6d4 8334 47c8 c1bf da83 6f56 5410 c13f
000004c0: 8eba 9aaa 2f04 bc3f a5ae 31e0 38fc b73f
000004d0: 968f 07ca b7e3 ac3f 3e44 c45a 3ab5 b13f
000004e0: d5d8 d61c 35c0 b6bf 3584 f03b ce41 ac3f
000004f0: d644 9d60 d940 bc3f 2480 3451 cf56 a73f
00000500: d37f 5512 b51e b23f 1ed7 c99f e147 a93f
00000510: a91b 7c04 884b c53f fd12 b48e da69 86bf
00000520: 8c47 1df7 15f4 b73f 2371 0a8e 0c46 c33f
00000530: 5ec3 64e4 e90c c73f 3285 cf5c d2a9 ccbf
00000540: 61da 6c67 7187 c6bf 6e91 a04f 087c 953f
00000550: c9ee 81b7 5e38 b5bf fc46 982d bafe b5bf
00000560: 214e a8e4 1b36 a33f 2386 583e 6911 ca3f
00000570: 4acb 9e16 2848 743f 5dbe bcea a1a1 ab3f
00000580: 0b64 0eb6 f455 b5bf 5037 795c b157 b43f
00000590: 2526 9f96 0c96 ad3f 5501 5947 e298 c5bf
000005a0: 1311 8003 17e1 bfbf c4c3 3c0f b227 d03f
000005b0: c735 12a6 8b42 b8bf 9cb1 450d c0b6 aabf
000005c0: cf49 ac35 8b83 b2bf 7b75 4861 8255 80bf
000005d0: 5f25 e905 cb3f cd3f 5afe cd7a bf1f b3bf
000005e0: c798 9e7b f271 c1bf 3cd8 1f2f a24c d33f
000005f0: 27e7 27eb 9545 9f3f cafd 71d9 7918 ba3f
00000600: d2f8 ec31 88dd 87bf 116f 52a3 5033 bcbf
00000610: c5c0 8573 3e35 8abf a1c6 d72b e2a0 acbf
00000620: 7a38 9ea8 74de ad3f 61d7 679e 3bdc be3f
00000630: 5b98 bdb1 0b11 c03f 6d6e b039 702b 933f
00000640: 9c85 0e90 2b59 73bf 3e58 955e 799a c4bf
00000650: 2684 ae4c 415c b83f 42c2 d3e0 653c a03f
00000660: 6590 ebe5 ef03 75bf 7137 2281 e20f c03f
00000670: 802b f51f d04a 9abf 9130 d328 a237 adbf
00000680: 5567 24b3 c906 cb3f bdb4 ea9c ea49 b7bf
00000690: 3842 3ac6 14e5 bcbf 9920 d5d5 302a c7bf
000006a0: e587 fcbf 6463 b73f 5704 9fd3 77f0 bbbf
000006b0: 85a5 0e06 ba13 b7bf 2b38 5573 3530 bebf
000006c0: c6ae cb57 22a7 7a3f 7fb1 deec 6b46 b2bf
000006d0: a10a f26a c31f c33f 9be7 27a9 eb03 d13f
000006e0: 53d1 c6b6 f517 c3bf 6aa3 39d1 5dfb bdbf
000006f0: d66c 0e86 a571 babf f1ba 1901 8999 b7bf
00000700: ed36 ab50 8ba0 b8bf 3c5e 878a 1254 c2bf
00000710: a9c4 f951 b9ea cf3f 1625 b485 9066 bbbf
00000720: c198 5afd a0b0 d0bf 3614 b3a5 d210 ab3f
00000730: 5b99 d38b a35b babf 2f95 534c 8d6d cb3f
00000740: 0a71 a4fd a76d b7bf 0b4c b116 1305 8e3f
00000750: 1bc1 f77f 83c1 c63f 9ecc 3b60 a8c9 b73f
00000760: 7108 c84f 0eb5 92bf 45a9 5b50 37d7 4c3f
00000770: b0b6 0f6f 9af2 89bf f0c3 eb83 9bed b73f
00000780: 508b 0461 3ee3 c4bf 6f73 cbd1 9676 993f
00000790: 3b63 7c2f df69 833f a588 4300 dfcf 923f
000007a0: 7419 d6ac a675 cbbf ad84 c35e 6592 b3bf
000007b0: 6b28 3b9c 408e c23f 27da 71d1 a7bd b4bf
000007c0: 7067 dd1f ce19 af3f f742 9168 44fd 913f
000007d0: 81a6 0d4e 4fc3 ccbf 4b3a 9fa4 62a0 cdbf
000007e0: 73a0 167c af88 acbf d27e b86e 43bc a1bf
000007f0: c9b1 e6aa 73cf c03f cdd6 54e4 8637 b03f

model.0.bias f8 [50]
-0.10272435306843146 0.14272921627125412 0.1740575007849585 -0.008610337701758545 0.28979336024813573 0.13400600965422607 -0.15430484674607345 0.03878055568754966
0.19186221674745607 0.275513060663923 0.0739474737168573 -0.0050880935782152545 0.21719796223355015 -0.03349461971958763 0.23043971233460542 0.2071713043166176
0.11458556266333546 0.010498576864920837 -0.1550650822792163 -0.059055104450253255 -0.033414495440352174 0.07273564146640243 -0.1621603744196502 0.1955659230001486
-0.10928393536478816 -0.14770725084758635 -0.2029374021064348 0.22746774205982287 0.08439793972769306 0.027259305083583363 0.2527016703575563 -0.05567604330570672
0.1280460879424566 -0.17201422506881642 0.018510016879459794 0.310504854864488 0.22675111469571754 -0.10327689977801915 -0.04976596353307267 -0.0856671230461703
-0.11988423871396414 -0.01774755611090302 -0.18745497772699662 0.06951277555159414 -0.045892573884261066 0.0425770941933251 0.2247724681410087 0.0472730257124388
0.04986288484656276 0.06565416519162641
00000000: f381 eea8 244c babf b8cc 0872 f344 c23f
00000010: 9758 bf24 8447 c63f f54a b1f6 4ba2 81bf
00000020: b046 3773 f98b d23f 9d57 77e2 1b27 c13f
00000030: 2fc0 31df 42c0 c3bf ad26 cc84 0bdb a33f
00000040: 845a 22ed f08e c83f d208 4b88 01a2 d13f
00000050: 4158 3cbd 38ee b23f 6f5c 47b8 40d7 74bf
00000060: 3c85 4690 24cd cb3f 6a3e 93f0 3426 a1bf
00000070: aaa0 166a 0c7f cd3f 15d2 5adc 9684 ca3f
00000080: c397 3bbc 7a55 bd3f ffa4 5022 4780 853f
00000090: 2f05 9230 2cd9 c3bf c928 8d7c 783c aebf
000000a0: e6de 416a b41b a1bf 400e 5a91 cd9e b23f
000000b0: 2675 6bd0 abc1 c4bf 63b4 bfdd 4d08 c93f
000000c0: 95b4 5e30 08fa bbbf b2df e239 12e8 c2bf
000000d0: e256 9750 daf9 c9bf 135d 85b8 a91d cd3f
000000e0: c1ef fa76 1a9b b53f 2df9 61ff dce9 9b3f
000000f0: 4223 75a0 432c d03f 8c5e 5602 9281 acbf
00000100: cafa 0b70 d063 c03f 5205 8fe7 8f04 c6bf
00000110: 2e2f 9534 4af4 923f d819 39c1 4fdf d33f
00000120: 318e f936 2e06 cd3f b296 fada 5a70 babf
00000130: f92d a8a3 ec7a a9bf b061 d3d3 47ee b5bf
00000140: c813 95c4 bbb0 bebf f42d 5254 6a2c 92bf
00000150: 75a9 6753 86fe c7bf 05f6 a5d9 96cb b13f
00000160: e3a0 ec3f 3b7f a7bf 2ef3 3c36 aacc a53f
00000170: 8c79 da1f 58c5 cc3f e8f5 d586 2b34 a83f
00000180: c080 66c7 a087 a93f 9b1e 581c b6ce b03f

model.2.weight f8 [50]
0.9658015885587728 0.9343465365566184 0.9533626814112495 1.0178744663911314 0.9889362410549241 0.9832457210862624 0.9652104478893224 1.0925528315948323
1.0288633961271225 1.0786058911074887 1.0284179783106169 0.9398640075114213 1.0108900030860912 1.0004736134372907 0.9970152320597708 1.0515588113928531
1.0587736313651643 1.0239994907327994 0.9622330865003976 0.9760865147182275 0.9726596267645824 1.0132862739971122 0.9202413578753653 1.0218927134631133
1.0144931726212565 0.9736099151326858 0.9288556658173568 1.0486764412005847 1.014857182249555 0.9261228863616295 1.008813652701035 1.058667363896214
1.0233242023391018 0.9355245696095663 0.988802261463623 1.0349667255968629 1.0290859976730116 0.9783078545904116 0.9697263734634308 1.0106243885193102
0.999841652596446 0.9567919205413387 0.9633802898988081 0.9776454984571845 0.9884972326840984 0.9969772519395829 0.9952861519262843 1.0384314049142032
0.9216791829280703 0.96331901491265
00000000: e51c a9bb d8e7 ee3f 8887 34b5 2ae6 ed3f
00000010: 006c 3c74 f281 ee3f 7255 89bc 3649 f03f
00000020: 4e1f a59d 5da5 ef3f fcea ffba bf76 ef3f
00000030: 1c26 6e05 01e3 ee3f cba1 8dad 187b f13f
00000040: 04ae e676 3976 f03f 0c46 3940 f841 f13f
00000050: 8d66 f768 6674 f03f a45e deae 5d13 ee3f
00000060: c8ba f1fe 9a2c f03f f495 a39e f001 f03f
00000070: 29f0 e97c 8ce7 ef3f 070c 0c55 2fd3 f03f
00000080: e549 899e bcf0 f03f a516 3d4a 4d62 f03f
00000090: 42bf b40a 9dca ee3f 4f01 59c9 193c ef3f
000000a0: 86fd e214 0720 ef3f 49da 04ab 6b36 f03f
000000b0: dd0a 1001 9e72 ed3f 2e84 852c ac59 f03f
000000c0: fbc6 6631 5d3b f03f 90cc 11fb cf27 ef3f
000000d0: ac79 6c84 2fb9 ed3f c3ac b0f2 60c7 f03f
000000e0: f7f5 7de2 da3c f03f a602 a076 cca2 ed3f
000000f0: 7abf e1c8 1924 f03f a76d 9430 4df0 f03f
00000100: 1507 e432 895f f03f 657b e238 d1ef ed3f
00000110: a94e e6a3 44a4 ef3f 0e30 ee44 398f f03f
00000120: 126f 0ce1 2277 f03f fe57 1c46 4c4e ef3f
00000130: 0303 839a ff07 ef3f ddaf 937a 842b f03f
00000140: 0e92 e2eb b3fe ef3f a4aa f916 0a9e ee3f
00000150: 813e d7e6 02d4 ee3f 3691 5e36 df48 ef3f
00000160: 1012 d2f2 c4a1 ef3f 7df7 7dd6 3ce7 ef3f
00000170: 2aec 1558 62d9 ef3f f2ee b33f 6a9d f03f
00000180: e18f 8257 657e ed3f c845 1566 82d3 ee3f

model.2.bias f8 [50]
-0.0049758151768569195 0.03120884510949844 0.027460388300178617 0.056759706408799994 0.034152050397584933 0.01898397843742261 0.05922206571191163 -0.016750157601539983
0.03795049663458777 0.05706623314596817 0.07095393648408047 0.019431059897362313 0.053015244034450675 0.01626659917786858 0.029136723942330973 0.07482027191017991
-0.006075825749382939 -0.01158142179218199 -0.027371276607777082 0.02136205806286748 0.10626134179676106 -0.015189614048866193 -0.026860673375146832 0.09004320670269769
0.08314971587658322 0.015506206264716339 -0.02757748160624525 0.042821887986493466 0.00374526444296792 0.0909774899240284 -0.042802716793417295 -0.016699396117427878
-0.05272164945963308 -0.019030322827064548 0.021905487133910058 -0.1393677423127482 0.059135933693297754 0.026238105837074248 0.014264067969285551 -0.0963599446774746
-0.06738861617379832 0.02008548880232052 0.0007431669931011711 0.0014547347293619214 0.01210967794031303 -0.042156373724074554 -0.14523874992914598 -0.013603756900705784
-0.03605213103808977 -0.026925483031084142
00000000: 48e5 4937 8561 74bf 2d6a 5d24 36f5 9f3f
00000010: 6329 bd76 931e 9c3f 4d41 83b5 9b0f ad3f
00000020: bd12 19a7 607c a13f 8094 253a 8970 933f
00000030: 8852 dec6 5a52 ae3f 23e5 670c f426 91bf
00000040: d834 d35b 3f6e a33f 83bc 220a c937 ad3f
00000050: eab9 b884 092a b23f ada5 245b bce5 933f
00000060: 7f85 a266 d024 ab3f 8ac0 f1fd 30a8 903f
00000070: b291 c771 04d6 9d3f d79a eedc 6b27 b33f
00000080: 1299 3c0e f7e2 78bf ad75 b51e 00b8 87bf
00000090: e94b 8547 3707 9cbf 3865 0573 efdf 953f
000000a0: 609e d87b f133 bb3f b843 a17c bb1b 8fbf
000000b0: f877 c746 5d81 9bbf 9eda 0354 120d b73f
000000c0: ed92 5cbe 4c49 b53f 47fd 55c6 b7c1 8f3f
000000d0: b461 6b76 453d 9cbf 23f1 e820 c0ec a53f
000000e0: 9674 8489 63ae 6e3f d657 e5ff 4c4a b73f
000000f0: e087 9dd9 3cea a5bf 20cc bf80 a519 91bf
00000100: 2ecb 7000 55fe aabf 09c1 b258 af7c 93bf
00000110: a253 5f5b 646e 963f c1e0 ac5b cdd6 c1bf
00000120: c457 76aa 1047 ae3f ceb8 ea79 29de 9a3f
00000130: ebee 7ccb 7a36 8d3f 43bc 089b 0bab b8bf
00000140: 38d3 965e 6140 b1bf 3edd 1e56 4a91 943f
00000150: e4a3 25f7 225a 483f 13d5 9085 99d5 573f
00000160: 3df9 bf75 f5cc 883f 31fb ec2c 8595 a5bf
00000170: 945f 87f0 2e97 c2bf b11c ee57 49dc 8bbf
00000180: acf7 84c7 6c75 a2bf 4aa6 3094 5a92 9bbf

model.2.running_mean f8 [50]
0.2580411213079905 0.27296261099949326 0.29447244311909876 0.31248526662978354 0.3775427673128087 0.2305778079970285 0.14026302945325556 0.3951487728125538
0.48538083424737777 0.2421881195028321 0.16664580346383037 0.2154789120428859 0.36350618946128027 0.20478460527103065 0.3680201748800037 0.5022907056734877
0.3146607006232056 0.27403504672623985 0.05579082693614391 0.4061812213114662 0.15495226904323323 0.16227889382584387 0.06648910455918416 0.5141024395889787
0.26010069221077003 0.15111567914093663 0.07364523564919612 0.6936077134369817 0.1918350225647839 0.09822482888409206 0.29711809704851816 0.49699050361777886
0.35393079871235616 0.06811427338983886 0.317250578258815 0.606442218413363 0.3166480992285845 0.11763728192601006 0.2609745789358995 0.11226940304515984
0.4241488772434482 0.31258147777664486 0.15611119840965604 0.1737866123247523 0.1552317409532017 0.22640812466984897 0.43067100853154044 0.16151847545441303
0.42069132763135464 0.21757374733259321
00000000: 8c9f 42e8 be83 d03f 8e82 d12b 3878 d13f
00000010: 9343 31f2 a2d8 d23f 5d08 2a34 c2ff d33f
00000020: 5dca 9c23 a929 d83f dbea 43d8 9283 cd3f
00000030: 9578 2b92 23f4 c13f 7834 1214 1e4a d93f
00000040: dca6 4cc6 7a10 df3f 9e48 5f32 0500 cf3f
00000050: 1b47 f251 a654 c53f 67d6 1920 d094 cb3f
00000060: 4b4e e876 af43 d73f 1e82 2ec7 6136 ca3f
00000070: 262e d87d a48d d73f fd79 3ef5 c312 e03f
00000080: e0d6 a0a2 6623 d43f f968 e94a ca89 d13f
00000090: b10e 3782 9d90 ac3f b10d 7285 dffe d93f
000000a0: b0a7 fdd7 79d5 c33f 3612 e806 8ec5 c43f
000000b0: bc3c 9f11 6e05 b13f e782 9af5 8673 e03f
000000c0: 0095 ad5f 7da5 d03f 0d5d e931 c257 c33f
000000d0: 4098 9e06 6ada b23f b9e2 aecd 0832 e63f
000000e0: 5c53 12ce 0c8e c83f fc5d b62b 4325 b93f
000000f0: 85e1 779f fb03 d33f e07f dd41 b1ce df3f
00000100: 1512 615d cda6 d63f 26a4 99e0 ef6f b13f
00000110: 868e 905e d54d d43f 7df8 df82 f967 e33f
00000120: d4bf a163 f643 d43f 8e9c a916 7a1d be3f
00000130: e47d 67b8 ceb3 d03f 9e9f 6b06 b0bd bc3f
00000140: 9e53 1955 4125 db3f e3b4 18be 5501 d43f
00000150: 44bb daa5 73fb c33f ba6e 35c4 a33e c63f
00000160: 84fa 5839 a2de c33f 85ba 8001 f1fa cc3f
00000170: 859c 3e22 1d90 db3f c963 e32c a3ac c43f
00000180: a0cc 7851 9bec da3f ea7d a1e0 74d9 cb3f

model.2.running_var f8 [50]
0.09073413268126165 0.09375313783518528 0.1408645259712078 0.18281326975706522 0.19147463906697942 0.11772429879487811 0.04841874119720307 0.1559308208890403
0.17642368048718043 0.0779489173501049 0.08425216862180732 0.09788922875882057 0.2523125675541874 0.10117077234592373 0.1467118412478732 0.1495178686155915
0.10751051155124167 0.1362448743659349 0.04316908946780902 0.2004829755392453 0.08947121059818747 0.059400925710666894 0.0408678985614776 0.28543769107610706
0.1429633542485727 0.058893734186624115 0.029833424653129118 0.23870730870766144 0.07739072461081271 0.05851297356918796 0.12407885625610031 0.24235039217030038
0.1607360023503439 0.04274820303870616 0.13143427959713885 0.2105409076994101 0.13254583708222012 0.11215231744986054 0.18724212858094746 0.055077285799633106
0.20096628049596396 0.1480085106456638 0.08611381887903614 0.07854118117152895 0.07437922335017012 0.11736809773290219 0.17378238176500307 0.08786216932578758
0.14516828611997412 0.11034591527935451
00000000: b237 7f24 5a3a b73f b345 e6a4 3400 b83f
00000010: a83f 1b4a d907 c23f 67d2 70db 6c66 c73f
00000020: a62d 67b0 3d82 c83f a0be 44fd 2d23 be3f
00000030: 0734 e95b 57ca a83f 0c14 1488 8af5 c33f
00000040: aa58 f718 0d95 c63f a0fd c6d2 75f4 b33f
00000050: 7a05 d9d4 8c91 b53f 1959 26bc 440f b93f
00000060: 2ef6 809c e325 d03f f66b 89e6 53e6 b93f
00000070: 493b 0c20 74c7 c23f 4590 efc9 6623 c33f
00000080: 76bc 1613 cf85 bb3f e41c d3d7 7870 c13f
00000090: 8ab7 ec46 421a a63f 0b44 ac17 6da9 c93f
000000a0: 04e7 73d3 95e7 b63f be12 8f52 cc69 ae3f
000000b0: b83a 8e1f a3ec a43f aaed 0d73 9c44 d23f
000000c0: 2215 8389 9f4c c23f 2daf 8acc 5127 ae3f
000000d0: 84fa d93c a78c 9e3f 3098 1b0a f68d ce3f
000000e0: 4d99 37e7 e0cf b33f d224 be97 69f5 ad3f
000000f0: abba bec5 a1c3 bf3f d3a8 4570 5605 cf3f
00000100: 8037 b150 ff92 c43f 6c2c 07ac 17e3 a53f
00000110: 41b5 38a6 d6d2 c03f eb01 8524 01f3 ca3f
00000120: 289a be11 43f7 c03f 9825 9ea7 03b6 bc3f
00000130: ec23 58d1 8cf7 c73f bf13 860a 1733 ac3f
00000140: 4f1a 2a59 43b9 c93f 8d5b 6060 f1f1 c23f
00000150: 59b2 d123 8e0b b63f 865b 855c 461b b43f
00000160: d175 ca4b 840a b33f a446 5bed d50b be3f
00000170: 499d 2647 803e c63f c653 cf97 227e b63f
00000180: c89c a6d8 df94 c23f 553c 5f41 a13f bc3f

model.3.weight f8 [100, 50]
-0.10762703510953962 -0.07196045615204215 -0.01732514281443617 -0.10184745230284177 -0.019277605464490366 -0.00724354965156464 0.06735583961165313 -0.06693680531591323
0.04037842662048217 0.03556374020797151 -0.0664636165514375 0.02476654222996211 0.046900843595220974 -0.013756383264470793 0.10563443500344587 -0.05466384272724368
-0.14152516247602948 -0.2413953656017042 0.05167712448466871 0.09747206791573632 0.004544999306842055 -0.01368020728689787 0.13664162140860525 -0.1048932462704615
0.09125599703970108 0.07048321948702331 -0.08739859283176653 0.07117298163062068 -0.00411720848821538 -0.06106436209863695 -0.0468281764168303 -0.09772817743144524
-0.09863562665323018 0.08349784593959522 -0.05098933818175633 -0.07170142493998773 -0.08662105899538135 -0.2072484894997926 -0.13012726991525841 0.038938632708712985
0.06267988093853367 0.004909025507816565 -0.11795687911177473 -0.015031081908747536 0.11382758699451519 -0.15676600126058424 -0.04131463583744995 0.13494188120776407
0.06897432887145263 0.04287819874095707 -0.04138382119739119 -0.0735419744294709 -0.0899902743089718 -0.06129854573797819 0.13355679720538655 -0.10417095191504597
-0.0774111704161969 -0.007972325336508001 0.07575657734514436 0.0021311739159539126 -0.011920960263636555 0.07013826712272554 0.08098027739607319 -0.0401452399930826
-0.04578272223929573 -0.08445992661545652 0.03199585537128091 0.18219846645073967 0.04101773533331208 -0.1032734838323356 0.01257048753164677 0.01264782263038874
0.15108198194165393 -0.08770818802307048 0.12596683688555796 -0.13874182395285495 0.0016692884078103514 -0.10678438839829857 -0.007876169564732877 0.026836892323847943
-0.14441645856656707 -0.15806516362735237 -0.03642744759523798 0.019423632291783552 0.015356897297151218 -0.07603648316384093 0.06870181046566005 -0.07670951153659046
-0.08938634961314858 0.03666651254812643 -0.06416754823065814 0.0182146406624367 0.08797595567355904 0.013218129346603678 -0.06797836667421225 0.05640872543457659
-0.04036817727242237 -0.18593362104666308 0.06639315192220775 0.014625693468240428 0.04117719843300201 0.02272628124210335 -0.148765330808026 0.05599809826452152
-0.014905946636562558 -0.06717973106971875 -0.17274521194280767 -0.019960135603123652 0.10928547742454225 0.07189236774216974 -0.024370784632978322 -0.1511004838139431
0.18425235464142303 0.03054266128517417 -0.040371688514101195 -0.12277172890976809 0.09406830712392385 0.13355958123880424 0.005074979529871056 -0.039706201406340784
-0.17663120917172676 0.029102532889272992 0.06346984285509492 0.06629442206085819 0.08436654900345122 0.10088176932897268 -0.029003186550498394 -0.0762828388507176
-0.1726488560055101 0.05021152070829158 0.053208393110672166 -0.023283303684531832 0.03155865309595072 -0.026738118747333815 -0.07103847465206647 -0.11555942913792352
-0.08131032319013182 0.03630155710815945 0.05481159160910046 -0.01492835888653191 -0.006018302788057405 0.0547696876793952 -0.017774539025070323 0.07769928684396886
-0.10264290776066937 -0.05484764254306011 0.1143206027815085 0.06992932750235126 -0.11346646031784839 -0.10066020529950216 0.05789824882134966 -0.061495113362336484
-0.12620814977955577 0.06519218360250154 -0.01499430486135421 0.03486230249386089 -0.0845129849523495 0.010415565333695911 0.012698273434770813 -0.08938177981174907
-0.09084575235390865 0.11366481434070122 0.15013077811440098 0.0871454009421237 0.1431531969160536 0.011956271486220159 0.007471203254597041 -0.02120476773128325
-0.10663999173893865 0.060758987956633585 0.030850631632015606 -0.11595625557150306 -0.14132069302275174 -0.09229485252009917 -0.12093431437141647 0.11629092087237278
-0.09633406318518634 0.1096694102916567 -0.08746538169614812 -0.03389907376207719 -0.018638977994494946 0.048276008025313975 0.04723344835411979 0.05579194702677673
0.02290123021772344 -0.07168528624479387 -0.13493358413275805 -0.08558263263555646 -0.0032123509471789907 -0.023218826310163466 -0.09201647924934744 -0.08527073468682134
0.1719004160536274 0.17016658111996794 0.03789042362671231 0.11729582612003991 0.08357534616807583 -0.11556285598613741 0.11084643679723351 0.03249056091131549
0.12519363964270416 0.017742982267723598 0.004378561598558263 -0.06813631491740327 0.05467317916073719 0.0032498330615941384 -0.043687439578901 -0.13432476514311223
-0.0869034072346732 -0.1296688853591175 0.10043378368913375 -0.1165521302819789 -0.029686350375424126 0.0955413624858252 -0.11063728831329518 0.06984654504455709
0.0249206906095913 0.016281938600040815 0.06950328668675833 -0.042804269828612566 -0.1456343989219766 -0.18349244112776825 -0.07759152174271962 -0.010823235104561752
-0.022284462668870124 0.09992966116325194 0.10825973149483006 -0.05318567138189992 -0.0797893642706828 -0.04158232375423182 0.05116850063558073 0.08524098469242432
-0.13057217823746753 -0.07567101547242117 0.06258482783266923 -0.15782811702010371 -0.046204592134474504 0.07927378860622358 -0.033503592100278395 0.03855264317096623
-0.0011454257694648567 -0.08420552108899737 -0.1255737534316461 0.003466219098853426 -0.060103945961117886 0.14973755319734058 0.05404362834576096 -0.11699490743278057
-0.02259706416673763 0.041368655504734134 0.03028708690890664 -0.006946361285193984 0.10911895330099465 0.03291233860518376 0.13405641473531402 -0.09732860393923383
00000000: 9ffe f503 728d bbbf 3f3c c71d 006c b2bf
00000010: d768 25a7 aebd 91bf 0956 d2b4 ac12 babf
00000020: 908a 0f34 82bd 93bf 334a c48d 69ab 7dbf
00000030: bfa0 5378 3b3e b13f 6406 bb3d c522 b1bf
00000040: 4d0a 992b 7bac a43f 34bd 3b1a 6935 a23f
00000050: d759 7673 c203 b1bf 4198 a683 665c 993f
00000060: e3e5 ca2a 6303 a83f 326e db81 4e2c 8cbf
00000070: 3bd6 abbb db0a bb3f c10b 9331 e6fc abbf
00000080: 1aa4 321c 7f1d c2bf fd27 5518 0be6 cebf
00000090: 98d7 398f 6c75 aa3f 5cb9 f8ef edf3 b83f
000000a0: 0bb5 21f6 c69d 723f 32a4 3257 5e04 8cbf
000000b0: b876 9cff 787d c13f 418b 4da6 48da babf
000000c0: 8e71 d992 8d5c b73f f111 9d32 300b b23f
000000d0: 97c9 ed11 c15f b6bf e75a 767c 6438 b23f
000000e0: 6e55 ecbc 34dd 70bf cd59 54fc d343 afbf
000000f0: 99b3 7bdc dcf9 a7bf e83a f7bd b604 b9bf
00000100: ed32 b236 2f40 b9bf 82d5 9865 1d60 b53f
00000110: 40e3 de47 461b aabf e59f 314b 065b b2bf
00000120: 53b1 8737 cc2c b6bf 6104 4656 1e87 cabf
00000130: 4e49 4da8 02a8 c0bf 8ddb 11b4 c3ef a33f
00000140: 7588 bfe6 c90b b03f f14a 2e80 7c1b 743f
00000150: 7590 1f0a 6c32 bebf 67c5 c5a9 9dc8 8ebf
00000160: 5527 8603 ce23 bd3f cffa 4488 e810 c4bf
00000170: eb36 8923 3127 a5bf c0f3 528b c645 c13f
00000180: 4235 c436 4da8 b13f 8b8b 9b9a 21f4 a53f
00000190: 46ab 409d 4230 a5bf fbce 0e97 a5d3 b2bf
000001a0: 6277 1d45 9a09 b7bf fc54 79e2 8562 afbf
000001b0: feeb 139e 6318 c13f 6e16 ab8f f2aa babf
000001c0: a55b 48ed 37d1 b3bf e63a bf64 cb53 80bf
000001d0: 857f 2776 c864 b33f 86ef ac48 6575 613f
000001e0: 0afe c033 046a 88bf f17e 7ddb 94f4 b13f
000001f0: 2a82 099b 1fbb b43f 3e81 b8b9 ea8d a4bf
00000200: 65b0 7a3d d570 a7bf 57cd a26e 2a9f b5bf
00000210: a0b9 dac0 c261 a03f 98c5 6483 4752 c73f
00000220: bd07 a0cf 4600 a53f f996 9a8b 2170 babf
00000230: eede be46 8ebe 893f 6e49 8104 1ae7 893f
00000240: 6525 ba85 a756 c33f 9a87 2637 0b74 b6bf
00000250: b7ea 666a ae1f c03f e481 3bc6 4ac2 c1bf
00000260: 59f2 9fc7 8059 5b3f bce0 e4bf 3856 bbbf
00000270: ea12 9695 6121 80bf eec5 6d5b 217b 9b3f
00000280: f115 460f 3d7c c2bf 854b 35b2 7a3b c4bf
00000290: 8154 3250 9ea6 a2bf 7cd8 d9e5 c9e3 933f
000002a0: 9a3c 46dd 6f73 8f3f 50d6 7d80 2077 b3bf
000002b0: 9141 201d 7196 b13f 997f 570b 3ca3 b3bf
000002c0: 8d1b 4c18 06e2 b6bf ba51 8100 f4c5 a23f
000002d0: 657c 1dd1 486d b0bf 5a71 d0d7 dba6 923f
000002e0: bcc8 739c 9785 b63f ac4d 104a 1b12 8b3f
000002f0: 5484 b3bd 0767 b1bf 78ae e6bd 9ae1 ac3f
00000300: 704d 5e42 23ab a4bf b7a6 cf42 accc c7bf
00000310: 792a 2f40 24ff b03f 58f1 0459 13f4 8d3f
00000320: 9aa6 3881 2d15 a53f 6f33 c7ea 8e45 973f
00000330: 14af 4c0b be0a c3bf 715e 5e61 c8ab ac3f
00000340: d145 8f4a 0287 8ebf 3805 e6db b032 b1bf
00000350: 90df eadd 831c c6bf 107b 8e06 6e70 94bf
00000360: f455 770f 22fa bb3f 25dd 48c8 8967 b23f
00000370: f2ef e7ab a7f4 98bf 3e01 32ba 4257 c3bf
00000380: 0aad b2c6 9495 c73f 6b17 694d 9346 9f3f
00000390: fc68 b413 99ab a4bf f273 8ad0 f76d bfbf
000003a0: 4df5 af4e dc14 b83f b27a bef8 7a18 c13f
000003b0: 2f18 bd71 80c9 743f c72c fa08 5f54 a4bf
000003c0: 6639 6cf9 d99b c6bf ddf4 f5eb 0dcd 9d3f
000003d0: d74a 5843 8f3f b03f 759a a8d6 abf8 b03f
000003e0: daa0 d8d0 0b99 b53f 5bd2 073c 63d3 b93f
000003f0: 6351 dbe6 02b3 9dbf 7620 1caa 4587 b3bf
00000400: 2e24 1e93 5b19 c6bf fd29 a60e 53b5 a93f
00000410: c1eb 9068 213e ab3f eaba 780f 94d7 97bf
00000420: cde4 e7ad 7428 a03f 2932 4ec6 3c61 9bbf
00000430: f06a 63d5 932f b2bf ba4d e480 4d95 bdbf
00000440: 44c6 edda c0d0 b4bf 7697 2521 1e96 a23f
00000450: 143b ced2 4310 ac3f 12d7 9a69 c292 8ebf
00000460: 2522 6fda a5a6 78bf 554f cac2 c50a ac3f
00000470: 43b1 411f 7d33 92bf b7d8 eab7 19e4 b33f
00000480: 6c98 ff3b ce46 babf 7664 f87d fd14 acbf
00000490: 43a1 3472 1d44 bd3f 2864 a76e e3e6 b13f
000004a0: f30e 4250 230c bdbf 391f c501 dec4 b9bf
000004b0: 53e2 5dda d6a4 ad3f a095 8299 497c afbf
000004c0: b95b e5b1 9627 c0bf ee0e 8758 6fb0 b03f
000004d0: 38d1 0b88 55b5 8ebf ad16 26c2 78d9 a13f
000004e0: 992a 759a a4a2 b5bf fb12 d283 c154 853f
000004f0: 40ad f168 8d01 8a3f 0d55 266d b9e1 b6bf
00000500: 762e 57cf aa41 b7bf ea99 4c24 2319 bd3f
00000510: d7eb 0f3f 7c37 c33f 0c11 0b37 294f b63f
00000520: 1241 890d d852 c23f cc90 1f98 877c 883f
00000530: 7984 3eda 1f9a 7e3f 4a57 b3df b3b6 95bf
00000540: 4ee6 f62c c24c bbbf ef70 6c54 cd1b af3f
00000550: 7b8a aed7 4e97 9f3f b33b 7225 4faf bdbf
00000560: 68f0 63e5 cb16 c2bf 58b8 29ad a2a0 b7bf
00000570: 9a7d 301d 8df5 bebf def3 f7e5 3dc5 bd3f
00000580: 3005 df62 59a9 b8bf 7203 9362 4b13 bc3f
00000590: eec7 ea99 2164 b6bf f97a 582a 385b a1bf
000005a0: 943b aba3 1816 93bf 63e1 4c07 a2b7 a83f
000005b0: af9f ea87 fb2e a83f 4468 b817 c390 ac3f
000005c0: 4f0c 4b8b 6b73 973f 109a 0688 f759 b2bf
000005d0: b5ba 7df1 8045 c1bf e279 4650 bee8 b5bf
000005e0: 2075 5dc8 c950 6abf 1d58 9d0e adc6 97bf
000005f0: a2aa 1159 648e b7bf 9029 c988 4dd4 b5bf
00000600: 6d3f 8f34 d500 c63f 7725 64be 04c8 c53f
00000610: 7adb 9da4 5f66 a33f 6493 2469 1907 be3f
00000620: 2834 8ba2 3165 b53f ecc2 17ff 8695 bdbf
00000630: 8118 ec9c 6e60 bc3f 5be9 1551 9aa2 a03f
00000640: 3560 f75d 5806 c03f 5424 4b62 372b 923f
00000650: c2c5 e82d 41ef 713f 027e 3dac 6171 b1bf
00000660: 0c6c ed78 1ffe ab3f 5cb7 f1d6 649f 6a3f
00000670: b386 7938 335e a6bf ed90 aacc 8d31 c1bf
00000680: 4be0 fb3b 4d3f b6bf 298d f672 fd98 c0bf
00000690: fcbd 5b48 07b6 b93f 5b19 d743 5cd6 bdbf
000006a0: 850b 0040 1966 9ebf feb9 4a13 6675 b83f
000006b0: e512 06af b952 bcbf 7e78 b492 76e1 b13f
000006c0: b3d0 a53c cf84 993f 47eb 3567 36ac 903f
000006d0: 59bd 48a7 f7ca b13f b70a 16f6 70ea a5bf
000006e0: e070 45e2 25a4 c2bf fe7d da28 ae7c c7bf
000006f0: 5df4 54b8 09dd b3bf caf3 7c06 7e2a 86bf
00000700: cea6 7cf9 bcd1 96bf 16b6 9882 fd94 b93f
00000710: 2a79 3ee6 e8b6 bb3f c4f1 66fe 263b abbf
00000720: 7d78 1c66 136d b4bf b872 3b41 474a a5bf
00000730: 8c5e a1f9 c132 aa3f 8565 8869 5ad2 b53f
00000740: 6611 a6d1 96b6 c0bf 708b b5f8 2c5f b3bf
00000750: fd60 c42c 8f05 b03f 31cc 7e34 b633 c4bf
00000760: 2401 49d8 20a8 a7bf 4066 7e79 494b b43f
00000770: 5c0a bd00 6227 a1bf e7f3 2f0b 2cbd a33f
00000780: f8f9 118e 43c4 52bf 304a 3837 7e8e b5bf
00000790: 1fc9 1cfe cc12 c0bf 9279 7335 3065 6c3f
000007a0: 5ef0 86c4 f1c5 aebf 079a fba2 992a c33f
000007b0: d4bc 9a40 9bab ab3f 44eb 38d5 60f3 bdbf
000007c0: b2b6 534e af23 97bf 62d4 f1bc 452e a53f
000007d0: 7138 0fff 9303 9f3f 77dc bca8 c973 7cbf
000007e0: a130 cd3f 38ef bb3f a566 e3d3 e2d9 a03f
000007f0: 47b8 8db6 c228 c13f 8164 e202 87ea b8bf

model.3.bias f8 [100]
0.0480140695037245 -0.1456608975996614 0.09509463647901624 -0.08598998365262644 -0.1414759819845366 -0.03550513634488132 0.004195141363221033 -0.012388541400477725
-0.04586388116405542 0.08291519134652098 -0.07174285946559672 -0.002577666203884361 0.07154573163394279 -0.08135152005805117 -0.09848316833594484 0.13114942723001136
-0.11482144301542875 0.06177086393164132 -0.11485775456918251 0.030051234219098517 0.07247333522949786 0.1820033613491741 -0.1608418414946426 0.017798056035094947
-0.025252511988854743 -0.09676489329678842 -0.20892060768835286 -0.0003185497783155426 -0.1652322855078757 -0.013052956555350357 -0.049172373322452646 -0.03434770205374012
-0.12866756073454122 0.1432463649881349 0.16186382288199802 0.05127994504164653 -0.09440210043232 -0.02986850352426941 -0.15061574846988285 0.001396053062970516
0.012851866032506484 -0.047152725219508335 0.12442275793879452 -0.07549539375451506 0.04263683294274297 -0.06869174924197878 -0.08785175528046116 -0.17641351932098892
0.007858735925888899 0.10269502558688165 0.031170639570389787 -0.08225507168508532 -0.13949787587489756 -0.08977630253674158 0.04078571152104248 -0.04329004570279873
-0.04498522584505771 -0.08834166217221992 0.03902803894152341 0.14572069545208952 0.0841235008358658 0.0781799145498178 -0.12711323494926347 -0.08890648025670575
-0.08675604565006315 0.03296180518896256 0.07354347827243421 0.03243068007980362 0.03306569041831395 0.13524524089610834 -0.054716165962343036 0.005424589964104454
-0.1868610034556932 -0.10673874007065733 -0.10593794441206393 0.06752869858525046 -0.13969761378169296 0.0716234075515041 0.14037587104782387 0.09047538660455177
-0.05216318319051166 -0.012623130947259698 -0.13238572715510993 0.009051289497769595 0.07411550153611045 -0.023538110071832184 -0.04478343300733258 -0.04113485502152084
0.017543701045355995 -0.11508576042152288 -0.06279853704499193 -0.22006666554251123 -0.0927662863682521 -0.004175318666164365 -0.18482608786273447 0.00893479049386164
-0.05580379027892699 -0.0005830854629816419 -0.07530221342008302 -0.11584168982067053
00000000: 5861 88d4 4c95 a83f f88e bf2b 04a5 c2bf
00000010: 65cf b341 1f58 b83f b854 9287 7003 b6bf
00000020: 5083 e58d e21b c2bf 45f0 e1ae ba2d a2bf
00000030: cd68 50af ec2e 713f b913 48e1 295f 89bf
00000040: 96a1 557b 787b a7bf 94c5 2c13 ee39 b53f
00000050: b452 2073 bd5d b2bf 4246 7601 c21d 65bf
00000060: e442 8931 d250 b23f 6b14 2106 74d3 b4bf
00000070: b097 3563 3136 b9bf a9c7 6b22 81c9 c03f
00000080: b97b a126 f064 bdbf af37 dd40 6ea0 af3f
00000090: e40e 915b 5167 bdbf e5ac b330 c0c5 9e3f
000000a0: 7a8a a4cc 9c8d b23f f2dd 60da e24b c73f
000000b0: c621 8628 7796 c4bf 3495 6952 a739 923f
000000c0: cd31 8964 cbdb 99bf a252 1c84 95c5 b8bf
000000d0: 9caf bd14 e9bd cabf 4f8d 48e1 60e0 34bf
000000e0: e3f4 3fdf 5426 c5bf 92b3 2b2c 82bb 8abf
000000f0: 15c2 920e 1f2d a9bf 1af2 06a2 0596 a1bf
00000100: f499 b4ba 2d78 c0bf b38c 729a e555 c23f
00000110: 1284 d728 f4b7 c43f 5a02 ca6d 5d41 aa3f
00000120: 48d0 076e bc2a b8bf 84cf 4457 d995 9ebf
00000130: 2669 f878 6047 c3bf d29d ee8f 78df 563f
00000140: dee1 6a42 1452 8a3f 245a 78e9 6624 a8bf
00000150: c7a9 397c 2bda bf3f ee9d 2c87 aa53 b3bf
00000160: 6a2d 30b6 7ed4 a53f 33d4 7f50 c895 b1bf
00000170: 0e66 d3df 737d b6bf 1c28 07dc b794 c6bf
00000180: 3016 51ae 3d18 803f bc87 5ba0 384a ba3f
00000190: df6e 3336 32eb 9f3f bb4c d11a ab0e b5bf
000001a0: 6340 5fff 10db c1bf 25e2 596b 94fb b6bf
000001b0: ef01 4162 dde1 a43f 035d 12e5 1c2a a6bf
000001c0: 708a 9db3 4d08 a7bf 3e6a e725 8f9d b6bf
000001d0: c1ff c2ad 7bfb a33f bf96 a8ca f9a6 c23f
000001e0: 2d42 ea24 1e89 b53f 0b0f 3250 9903 b43f
000001f0: 0a78 7f19 3f45 c0bf a6e2 1a39 93c2 b6bf
00000200: 221c ccea a435 b6bf d580 9ba6 5ee0 a03f
00000210: 0ea2 03d2 bed3 b23f ebda a80c c19a a03f
00000220: 5cc1 ee75 fced a03f 9451 4b4f b74f c13f
00000230: cad5 bdde c103 acbf 8d32 d747 1838 763f
00000240: 87b6 5eb5 0feb c7bf 09d9 d1e5 3a53 bbbf
00000250: 77c0 a7c6 bf1e bbbf 4810 f78f 8f49 b13f
00000260: 1fc4 4285 9ce1 c1bf 71d1 0f61 e955 b23f
00000270: 2322 a627 d6f7 c13f cf3b 8f1a 6529 b73f
00000280: e78d b7fb 21b5 aabf e09b bbf4 27da 89bf
00000290: ea4f 4bf8 03f2 c0bf d150 0983 7b89 823f
000002a0: 4767 39c7 3bf9 b23f 4967 dfd3 5f1a 98bf
000002b0: 5394 56a8 daed a6bf 9415 16b2 a00f a5bf
000002c0: 2961 f6d8 f9f6 913f 4ae8 3ea9 4276 bdbf
000002d0: 5f4a d89e 9013 b0bf 09f1 b8fd 242b ccbf
000002e0: ce7d 1f06 88bf b7bf e9e2 f191 231a 71bf
000002f0: 6cb6 6899 61a8 c7bf 5ef2 bd47 674c 823f
00000300: 9d4e 7b7c 5092 acbf 348a 447f 461b 43bf
00000310: b7a6 f47f 0147 b3bf 460c 4b0d cda7 bdbf

model.5.weight f8 [100]
1.0187507353078722 1.0099992523634744 1.0384993265792852 0.9599336796518999 0.967667102425735 0.9765523473190114 1.0472247043268312 1.026117044733532
0.9837593910549252 0.9427340499120721 1.0328358343083857 0.9774428253971699 0.9987973883851653 0.999047749134519 1.0277338039377837 1.049083824471559
0.9939232394107987 1.0084261846383893 0.942194514032842 0.9900924570942196 1.0231578566440402 0.9693792818588968 0.9413528231786583 0.9928589359695906
0.9666218070299735 0.9589879674514853 0.9844023924288832 0.9496026084842479 0.9668020750668886 0.8977194967234072 0.9887340565748899 1.0438818775317757
0.9580386752401931 1.0094348756818656 0.9786616152765654 1.0085190414204868 0.9857647828038425 0.9736902896757924 0.957511754085158 0.9991632641076107
0.9554015992356208 0.9723814777412327 1.0085421644839758 0.9667650001253456 0.9738659200652906 0.971388724427819 0.9745298793730918 0.9638477376775814
0.995605992428051 0.9620226861908704 1.0139968184048587 0.9540319528903165 0.9548759512717754 0.9952485106670073 0.9499692678484268 0.9882057629991108
0.977869507893644 1.0010586782033115 0.9953645694032531 0.9886363145785064 0.9919935706258517 1.0190053780722919 1.0090470761329504 1.0257112502486239
0.9817192227432899 1.0306424747816705 0.9153210244361646 0.9809441148380079 0.9681130401366865 1.0280267248484085 0.9868865675985901 0.9678904926898487
0.9782361482854492 1.0163524575109175 0.9970348637359179 1.01050991637672 1.0135876434376112 1.0028161973706018 1.0165361583618446 0.9552191251646474
0.9925300614512103 1.0305604842007365 0.9315788824195377 0.9748683194670583 0.9850322000447541 1.0051064387390038 0.9718758602715845 0.9795616549789107
0.9312024708917451 0.9488987960641699 0.9659423508649704 1.0413480730176599 0.9741565102278491 0.975730694449672 1.0706652058184154 0.9628506832882393
0.9988317268395903 1.0338859206112883 0.9782198861885768 0.9573000723921928
00000000: b0c5 2e92 cd4c f03f 4f2b def9 f428 f03f
00000010: 8437 4978 b19d f03f 1be2 0dd6 c6b7 ee3f
00000020: f7ac caff 20f7 ee3f 6626 52b5 ea3f ef3f
00000030: 275a 0ab1 6ec1 f03f a1fa cfb4 f96a f03f
00000040: 46d7 76f9 f47a ef3f dd55 2699 e02a ee3f
00000050: bddc 27de 7e86 f03f 464d 192d 3647 ef3f
00000060: 4e39 cef0 25f6 ef3f 019b 35fc 32f8 ef3f
00000070: d980 4e00 9971 f03f 20e3 cd1e 0cc9 f03f
00000080: cb1e 001c 38ce ef3f 253b b77e 8322 f03f
00000090: c2bb 071c 7526 ee3f f48c 6760 d6ae ef3f
000000a0: dfe7 cec5 da5e f03f 2d20 20b3 2705 ef3f
000000b0: 6496 b1f4 8f1f ee3f e7fb 701a 80c5 ef3f
000000c0: c069 19db 90ee ee3f c5c5 ae88 07b0 ee3f
000000d0: 3ec2 3272 3980 ef3f 3c5b 7402 2563 ee3f
000000e0: 4cc0 c3e7 0af0 ee3f 5c13 ed3c 1eba ec3f
000000f0: 32c7 ad9a b5a3 ef3f 472d ce7b bdb3 f03f
00000100: a3b6 4eb9 40a8 ee3f 51ed 272f a526 f03f
00000110: 07d4 ee29 3251 ef3f 4ab5 c4dc e422 f03f
00000120: 0e1d f695 628b ef3f b2e3 d289 7828 ef3f
00000130: 679a aab0 efa3 ee3f 189e d63c 25f9 ef3f
00000140: 3c6b e85f a692 ee3f d84f c4c2 bf1d ef3f
00000150: 1b88 d11b fd22 f03f e095 4e27 bdef ee3f
00000160: e8d1 abdc e829 ef3f 46dc 63ce 9d15 ef3f
00000170: 6d3b 1c49 592f ef3f f6c2 f435 d7d7 ee3f
00000180: 67c3 2519 01dc ef3f 3f65 e6cc e3c8 ee3f
00000190: 2ec0 54ba 5439 f03f f017 a004 6e87 ee3f
000001a0: 8f5f ce02 588e ee3f dea3 9667 13d9 ef3f
000001b0: 5ca6 33f3 2566 ee3f d898 39b1 619f ef3f
000001c0: 0315 85fe b44a ef3f d329 c41a 5604 f03f
000001d0: 1ae4 25cc 06da ef3f bc15 d89f e8a2 ef3f
000001e0: 03c5 f54c 69be ef3f 394c 5495 d84d f03f
000001f0: dcd8 018c 0e25 f03f 5450 2f33 5069 f03f
00000200: db2e 716e 3e6a ef3f 79e4 b0f6 827d f03f
00000210: e76c 2951 4f4a ed3f 6bda 8de9 e463 ef3f
00000220: 87fb c632 c8fa ee3f dc34 aa26 cc72 f03f
00000230: 0c53 9623 9394 ef3f 91ca 867b f5f8 ee3f
00000240: 15d5 14e5 b54d ef3f 787f 63cb fa42 f03f
00000250: 72f6 96a8 b5e7 ef3f 83f2 3172 0c2b f03f
00000260: a51b 43ad a737 f03f 6cb1 39ff 880b f03f
00000270: 7fd9 356b bb43 f03f 8a11 e3b2 2791 ee3f
00000280: ac5a 4767 cec2 ef3f cb12 83fd 2c7d f03f
00000290: 4a5b 3484 7ecf ed3f 538f c00b 1f32 ef3f
000002a0: 6d5f 963f 6285 ef3f f820 367d ea14 f03f
000002b0: 206d 7467 9b19 ef3f 119a 11af 9158 ef3f
000002c0: e9e6 cd1f 69cc ed3f 78e6 0902 615d ee3f
000002d0: 3b2a d9ee ffe8 ee3f c5d0 d598 5ca9 f03f
000002e0: b8a6 1346 4a2c ef3f b4ab cb93 2f39 ef3f
000002f0: 8348 bfd6 7121 f13f 8cef 743c accf ee3f
00000300: c076 1ff4 6df6 ef3f 1820 8df6 cb8a f03f
00000310: c741 6fca 934d ef3f b940 ecc2 33a2 ee3f

model.5.bias f8 [100]
-0.08844953063653474 0.20411255837710854 0.048422487051059 -0.2247007416000446 0.040170517491743676 -0.016924573367905135 0.14263600917295646 -0.057205773052217156
-0.04747185037835145 0.0719286286749638 -0.1145593672470865 -0.01974052976953542 0.12597731460587758 -0.00027810032483036544 -0.08638163992941608 -0.10659316137383121
0.18350606524853774 0.029857153313794318 0.04471551134094698 0.2952768533241916 0.029976547665322442 -0.057261006593419914 -0.1369159540148322 0.23515898259257187
0.027343500193651924 0.08922325333568658 0.10798797866030795 0.21689808968760904 0.20269119670940558 0.08015349682384772 -0.1401479431557074 0.130645216663726
0.08920069161207962 0.019553685093796583 -0.18951026142499544 0.10782444911161909 -0.02803968758073476 -0.054442829763548674 0.2474606439243396 0.06973609647442897
0.0346460571611958 -0.03737807449871757 -0.22881089465922874 0.10612745929830703 0.03180528401627011 -0.04842869159999904 -0.1797849878974907 0.2888489854592587
0.11467316167203527 -0.11213297176407887 -0.11138698808249194 0.16486410225243245 0.11895746275817319 0.06931712753525555 -0.04977533544991543 -0.08107156477400813
0.1817093831240358 -0.08925945154412665 -0.1795306982546472 -0.0015932472870484491 -0.04086916153508905 -0.036396004991531894 0.24276318925614163 0.14841103837517858
0.027802584455049198 0.3219644359218122 -0.15365131359714182 -0.05893757047361543 0.02957772882598988 -0.026485352833119057 0.24804497924418675 0.10516073386094689
0.13052138208989955 -0.134175801952194 0.17854879638198248 0.06665678612929776 -0.03533090879570188 -0.04885075045856429 -0.23053417678895213 0.054890727346542996
-0.06731782453669849 0.041634886314903134 -0.10302490148103889 -0.01287207003995661 0.07481913729369971 0.08405674955296201 -0.17234513938680235 -0.04601573698759861
0.1752361166336053 -0.13479396068140245 -0.225478296707901 -0.021309121747101863 0.28581143668591835 -0.02146040671575246 0.04593118399862134 0.21879908590586078
0.14521839931556718 0.13943336905632148 -0.04932932943498829 0.1330040396562902
00000000: 1233 6ee1 a0a4 b6bf 855e 773d 5c20 ca3f
00000010: bff1 8c0c d5ca a83f d891 4770 fec2 ccbf
00000020: 1ae7 c7e5 3a91 a43f 8ca3 74e4 ac54 91bf
00000030: 6b9d 5091 e541 c23f cba7 cd38 134a adbf
00000040: 7114 b6f9 3a4e a8bf dc1a ce23 ea69 b23f
00000050: 29d5 c63f c353 bdbf fa3f 1087 dc36 94bf
00000060: 3094 224f 0620 c03f 5dda d6cc bf39 32bf
00000070: aac0 786e 1b1d b6bf 56ee 137e b049 bbbf
00000080: 2418 6e72 207d c73f f73a 23a4 df92 9e3f
00000090: 40a4 aa95 f3e4 a63f a8c3 12e3 d0e5 d23f
000000a0: 046a 7a0f 2cb2 9e3f 2e3f 4f8d 5051 adbf
000000b0: 12ad 6544 7686 c1bf dd40 cc85 b019 ce3f
000000c0: f90f 5c3c efff 9b3f 5797 1ecb 55d7 b63f
000000d0: ff08 b5a4 19a5 bb3f c4f6 e20c 51c3 cb3f
000000e0: 77e9 86fe c8f1 c93f 2dba 8487 f084 b43f
000000f0: 8a4b 3a28 5ef0 c1bf 718a 7982 fbb8 c03f
00000100: 8524 4145 dbd5 b63f 94ff f997 e105 943f
00000110: 76d3 894b df41 c8bf 4cc4 a412 629a bb3f
00000120: 8ce5 9894 6fb6 9cbf 251a ac3a eedf abbf
00000130: b7df 5956 caac cf3f f457 b58d 39da b13f
00000140: 4aa7 e2c4 20bd a13f 636f 1e0f 3823 a3bf
00000150: 63d3 c3e6 ac49 cdbf 10d0 e44e 2b2b bb3f
00000160: dc36 613d c848 a03f 8b5a 383d a5cb a8bf
00000170: e26d aac9 3103 c7bf 5df0 8174 807c d23f
00000180: 6b3d 1c67 385b bd3f bfae 8716 bfb4 bcbf
00000190: 89a5 038f db83 bcbf 51b3 ba53 441a c53f
000001a0: 8757 290c ff73 be3f a10b d16b c4be b13f
000001b0: 1244 cf1b 277c a9bf 6104 5727 1bc1 b4bf
000001c0: d370 f2c8 4042 c73f faac 3d19 b5d9 b6bf
000001d0: 51dd d0a6 dcfa c6bf cc11 823f 901a 5abf
000001e0: 7592 6a80 cdec a4bf b890 4946 7fa2 a2bf
000001f0: 858e 433b dd12 cf3f d5e8 1706 22ff c23f
00000200: 1434 eadb 4778 9c3f e597 b0b8 109b d43f
00000210: 998e 71a3 d8aa c3bf 1a37 61b3 102d aebf
00000220: 6786 fdc7 9f49 9e3f c60e f7f0 f91e 9bbf
00000230: 4f38 e518 f0bf cf3f 8591 c158 d0eb ba3f
00000240: 8e9e c0b5 ecb4 c03f b34d a634 ac2c c1bf
00000250: 17b3 99dc afda c63f 4457 7b4c 6b10 b13f
00000260: ff88 a193 e416 a2bf e78c 352f f702 a9bf
00000270: 479c f5d6 2482 cdbf 5136 9d2d a31a ac3f
00000280: 3caf d2ae bd3b b1bf 57bc 30f6 2a51 a53f
00000290: 0de1 8806 d75f babf c2d5 d3fe ab5c 8abf
000002a0: 8097 cad3 5827 b33f 6d89 563e be84 b53f
000002b0: 7a3b a5d0 670f c6bf fb17 edea 5f8f a7bf
000002c0: ed7a 0217 236e c63f 6b97 69b2 ed40 c1bf
000002d0: 69bb 280b 79dc ccbf 1f88 0af4 0ed2 95bf
000002e0: 00e2 580d bc4a d23f 8416 0384 b7f9 95bf
000002f0: 9801 48ca 4a84 a73f 7e20 2ec3 9b01 cc3f
00000300: 023e eb39 8496 c23f 32b4 08e0 f3d8 c13f
00000310: 3653 50a1 b141 a9bf baa2 47c0 4606 c13f
